results/ppo/My Behavior/My Behavior-0.pt (torch, 277299 bytes, 13 tensors)

network_body._body_endoder.seq_layers.0.weight f4 [128, 105]
-0.18130067 0.09991015 -0.056177244 0.21280764 -0.0381405 -0.105599895 0.0014547701 -0.03126004
0.024844756 0.002720368 0.022728082 -0.20904261 0.24291901 -0.015140192 0.03223361 -0.105744
0.035745203 0.029263869 0.032893907 -0.046356898 -0.19535403 -0.040556047 0.044369515 0.061667778
0.050375804 -0.06456952 -0.07672997 0.051522963 0.107315555 0.042121053 -0.005108646 -0.08611023
-0.054761678 0.01171915 0.07387315 0.178693 -0.2212941 -0.05688493 -0.04158634 0.07307314
0.026922839 -0.027376102 0.06639406 -0.08381548 0.011773207 -0.12320681 0.061830144 0.057803318
0.07485113 -0.06326986 -0.114382766 -0.051335532 -0.008212137 -0.12474752 0.15730117 -0.022631668
0.2299648 -0.038442627 0.047914598 -0.14389724 -0.08367719 -0.045502394 -0.13823585 0.11287693
-0.0100673195 -0.029928869 -0.028965289 -0.061710294 0.034833264 -0.059541307 -0.061384033 -0.0013494478
-0.025989894 0.06568546 -0.06850232 -0.16304691 0.036933176 0.039619874 0.022172134 -0.063215055
-0.003973007 0.09780367 -0.09328286 0.01163379 0.021314852 0.054097876 -0.081769586 -0.060236342
0.070093 -0.030084858 0.089267746 0.09231793 -0.2399774 0.023371236 -0.011392065 0.042281725
0.17644325 0.055316065 -0.117638506 -0.009116728 -0.012966127 -0.04420056 -0.060548007 0.08693502
0.061701573 -0.03966181 -0.09274174 -0.061583225 -0.17412464 -0.09721387 0.11868799 0.05777467
-0.05442293 0.14333753 -0.08838776 -0.11073118 0.046169374 0.06774629 -0.044764142 -0.17102581
0.006490984 -0.18305688 0.17196506 -0.13379973 -0.07225564 0.11603147 0.10929573 -0.038785532
-0.10494927 0.012564793 -0.021765923 -0.07754648 0.06362105 0.03163468 0.04710538 -0.013148198
-0.00048063239 -0.13918321 0.04507955 -0.21807396 0.0064407843 -0.066986494 -0.012418146 0.0367751
0.024101948 0.03595475 0.0042008194 0.117175885 0.1198338 0.022885285 0.047913283 -0.034103103
-6.9124595e-05 -0.03412414 0.024908638 0.09852476 0.011223166 0.16195798 -0.0292655 0.1623503
-0.022787187 -0.1488935 0.04855381 -0.04814153 -0.04500818 -0.010675032 -0.06955464 0.1753828
-0.01935314 0.10608446 -0.022190483 -0.13629854 -0.17373702 0.11104596 -0.15120089 -0.095319495
-0.061679866 -0.11406718 -0.04690287 -0.10554814 -0.114680484 -0.028812658 0.095188335 -0.06339612
-0.053628027 -0.0004177927 0.12024986 -0.066378124 0.07817397 0.014086178 -0.047950167 0.10912998
0.13445182 0.08984638 -0.0145584345 0.036707934 -0.11995408 -0.051683374 -0.13314913 0.10281348
0.08639802 0.11218077 -0.14987378 0.012536613 0.0604724 0.047356598 0.19561937 0.061867498
-0.16580069 0.060387164 0.060550764 -0.099636585 -0.013302249 -0.02510108 0.14400588 -0.026343733
-0.16272841 -0.13256232 -0.025610384 -0.029919898 0.09971011 0.011776199 0.13381694 -0.12412159
-0.12406798 0.035245378 0.047208473 -0.056438215 0.015717585 -0.08754203 -0.11553509 0.015132392
-0.03023304 0.21838948 -0.0005893539 0.0078036883 0.061380032 -0.10448195 -0.06916225 0.064414576
-0.09543198 -0.0066903257 -0.13271578 0.027267348 -0.12835261 0.019543467 0.12932621 -0.2084228
-0.04978189 0.08992131 -0.10117933 0.013337956 -0.07330115 -0.0020599654 -0.1002687 0.027073584
00000000: e2a6 39be b19d cc3d 1c1a 66bd 3fea 593e
00000010: 3739 1cbd c244 d8bd fcad be3a 870a 00bd
00000020: 3b87 cb3c 3448 323b 3e30 ba3c 440f 56be
00000030: c3bf 783e 910e 78bc 6407 043d 4f90 d8bd
00000040: 9069 123d c8ba ef3c c3bb 063d bbe0 3dbd
00000050: e30a 48be 191e 26bd cfbc 353d 5a97 7c3d
00000060: dc56 4e3d 063d 84bd 9a24 9dbd be09 533d
00000070: 42c8 db3d 2087 2c3d 6e66 a7bb 8f5a b0bd
00000080: c84d 60bd ad01 403c ce4a 973d 4cfb 363e
00000090: ec9a 62be 2c00 69bd 7056 2abd 5fa7 953d
000000a0: 498d dc3c d943 e0bc 9cf9 873d 73a7 abbd
000000b0: 69e4 403c da53 fcbd 9b41 7d3d 2cc3 6c3d
000000c0: 8d4b 993d a193 81bd 8341 eabd 3545 52bd
000000d0: 338c 06bc a17b ffbd 8f13 213e 0c66 b9bc
000000e0: e47b 6b3e 0476 1dbd 1942 443d cc59 13be
000000f0: f25e abbd b860 3abd b38d 0dbe 052c e73d
00000100: 66f1 24bc 632d f5bc 9d48 edbc efc3 7cbd
00000110: 53ad 0e3d 96e1 73bd d36d 7bbd f4df b0ba
00000120: c2e8 d4bc 1986 863d f24a 8cbd c5f5 26be
00000130: 3e47 173d 7348 223d 56a2 b53c e576 81bd
00000140: 0030 82bb 4a4d c83d 160b bfbd a79b 3e3c
00000150: 7c9c ae3c bc95 5d3d d076 a7bd 62ba 76bd
00000160: eb8c 8f3d 8574 f6bc 02d2 b63d 2f11 bd3d
00000170: a3bc 75be 0975 bf3c c9a5 3abc 9a2f 2d3d
00000180: 8aad 343e 1993 623d 75ec f0bd 545e 15bc
00000190: e16f 54bc a50b 35bd 3001 78bd fd0a b23d
000001a0: caba 7c3d 6c74 22bd 62ef bdbd b13e 7cbd
000001b0: bb4d 32be 1118 c7bd b012 f33d 22a5 6c3d
000001c0: 94ea 5ebd 13c7 123e a404 b5bd 07c7 e2bd
000001d0: 191c 3d3d 91be 8a3d 9b5a 37bd 6421 2fbe
000001e0: 52b2 d43b 4373 3bbe 9c17 303e cc02 09be
000001f0: c4fa 93bd e8a1 ed3d 71d6 df3d 94dd 1ebd
00000200: a5ef d6bd 90dc 4d3c 734e b2bc b0d0 9ebd
00000210: c14b 823d 5e93 013d 92f1 403d 8a6b 57bc
00000220: 63fd fbb9 0b86 0ebe 56a5 383d c84e 5fbe
00000230: 370d d33b 3730 89bd 7b75 4bbc 7da1 163d
00000240: 7371 c53c 4a45 133d 07a7 893b e9f9 ef3d
00000250: 6c6b f53d ec79 bb3c b840 443d b2af 0bbd
00000260: fcf6 90b8 c1c5 0bbd 330d cc3c 59c7 c93d
00000270: 5fe1 373c 50d8 253e 34be efbc 283f 263e
00000280: 32ac babc 8a77 18be 5ce0 463d 0e30 45bd
00000290: 7f5a 38bd 54e6 2ebc aa72 8ebd 8c97 333e
000002a0: 7a8a 9ebc cf42 d93d d1c8 b5bc d891 0bbe
000002b0: 1ee8 31be 106c e33d 68d4 1abe de36 c3bd
000002c0: 07a4 7cbd 0e9c e9bd 391d 40bd a029 d8bd
000002d0: 9add eabd 8608 ecbc 1af2 c23d d3d5 81bd
000002e0: 10a9 5bbd 300b dbb9 8f45 f63d 41f1 87bd
000002f0: ad19 a03d b6c9 663c 6567 44bd 8a7f df3d
00000300: bdad 093e 6101 b83d 8086 6ebc 0f5b 163d
00000310: 7caa f5bd f2b1 53bd 3f58 08be e08f d23d
00000320: 72f1 b03d 08bf e53d 8378 19be 5e66 4d3c
00000330: e8b1 773d fef8 413d 7250 483e c668 7d3d
00000340: a8c7 29be 8858 773d 1404 783d 440e ccbd
00000350: adf1 59bc c8a0 cdbc 4776 133e d0ce d7bc
00000360: 47a2 26be 6bbe 07be decc d1bc 931a f5bc
00000370: d034 cc3d f5f0 403c 4f07 093e 7633 febd
00000380: 5a17 febd 755d 103d ac5d 413d c22b 67bd
00000390: 2ac2 803c 3c49 b3bd a99d ecbd daed 773c
000003a0: 48ab f7bc 7ea1 5f3e df7e 1aba 15b6 ff3b
000003b0: a169 7b3d a2fa d5bd f0a4 8dbd caeb 833d
000003c0: d871 c3bd 853a dbbb a5e6 07be c65f df3c
000003d0: de6e 03be 9f19 a03c 176e 043e c96c 55be
000003e0: 18e8 4bbd aa28 b83d 1c37 cfbd 7187 5a3c
000003f0: ea1e 96bd 7c00 07bb ad59 cdbd 6cc9 dd3c

network_body._body_endoder.seq_layers.0.bias f4 [128]
0.0 0.0 0.0 0.0 0.0 0.0 0.0 0.0
0.0 0.0 0.0 0.0 0.0 0.0 0.0 0.0
0.0 0.0 0.0 0.0 0.0 0.0 0.0 0.0
0.0 0.0 0.0 0.0 0.0 0.0 0.0 0.0
0.0 0.0 0.0 0.0 0.0 0.0 0.0 0.0
0.0 0.0 0.0 0.0 0.0 0.0 0.0 0.0
0.0 0.0 0.0 0.0 0.0 0.0 0.0 0.0
0.0 0.0 0.0 0.0 0.0 0.0 0.0 0.0
0.0 0.0 0.0 0.0 0.0 0.0 0.0 0.0
0.0 0.0 0.0 0.0 0.0 0.0 0.0 0.0
0.0 0.0 0.0 0.0 0.0 0.0 0.0 0.0
0.0 0.0 0.0 0.0 0.0 0.0 0.0 0.0
0.0 0.0 0.0 0.0 0.0 0.0 0.0 0.0
0.0 0.0 0.0 0.0 0.0 0.0 0.0 0.0
0.0 0.0 0.0 0.0 0.0 0.0 0.0 0.0
0.0 0.0 0.0 0.0 0.0 0.0 0.0 0.0
00000000: 0000 0000 0000 0000 0000 0000 0000 0000
00000010: 0000 0000 0000 0000 0000 0000 0000 0000
00000020: 0000 0000 0000 0000 0000 0000 0000 0000
00000030: 0000 0000 0000 0000 0000 0000 0000 0000
00000040: 0000 0000 0000 0000 0000 0000 0000 0000
00000050: 0000 0000 0000 0000 0000 0000 0000 0000
00000060: 0000 0000 0000 0000 0000 0000 0000 0000
00000070: 0000 0000 0000 0000 0000 0000 0000 0000
00000080: 0000 0000 0000 0000 0000 0000 0000 0000
00000090: 0000 0000 0000 0000 0000 0000 0000 0000
000000a0: 0000 0000 0000 0000 0000 0000 0000 0000
000000b0: 0000 0000 0000 0000 0000 0000 0000 0000
000000c0: 0000 0000 0000 0000 0000 0000 0000 0000
000000d0: 0000 0000 0000 0000 0000 0000 0000 0000
000000e0: 0000 0000 0000 0000 0000 0000 0000 0000
000000f0: 0000 0000 0000 0000 0000 0000 0000 0000
00000100: 0000 0000 0000 0000 0000 0000 0000 0000
00000110: 0000 0000 0000 0000 0000 0000 0000 0000
00000120: 0000 0000 0000 0000 0000 0000 0000 0000
00000130: 0000 0000 0000 0000 0000 0000 0000 0000
00000140: 0000 0000 0000 0000 0000 0000 0000 0000
00000150: 0000 0000 0000 0000 0000 0000 0000 0000
00000160: 0000 0000 0000 0000 0000 0000 0000 0000
00000170: 0000 0000 0000 0000 0000 0000 0000 0000
00000180: 0000 0000 0000 0000 0000 0000 0000 0000
00000190: 0000 0000 0000 0000 0000 0000 0000 0000
000001a0: 0000 0000 0000 0000 0000 0000 0000 0000
000001b0: 0000 0000 0000 0000 0000 0000 0000 0000
000001c0: 0000 0000 0000 0000 0000 0000 0000 0000
000001d0: 0000 0000 0000 0000 0000 0000 0000 0000
000001e0: 0000 0000 0000 0000 0000 0000 0000 0000
000001f0: 0000 0000 0000 0000 0000 0000 0000 0000

network_body._body_endoder.seq_layers.2.weight f4 [128, 128]
-0.11933414 0.11613936 -0.10763383 -0.0034793545 0.047478758 0.040572785 0.0124050025 0.028451374
-0.08213863 -0.049887586 0.13918862 0.0442484 0.07725442 0.108292036 -0.024783485 -0.1146103
-0.04623024 -0.010660153 0.02532673 0.09437825 0.07185255 -0.08468545 -0.04256436 0.10519113
-0.05283925 -0.06446654 0.09225532 -0.09255316 -0.10730998 0.05506183 0.19279075 -0.050920557
-0.015840601 -0.08615028 -0.0145798735 -0.0027492582 -0.016562993 0.0014190257 0.031764008 -0.06908606
0.06584704 -0.004457197 0.024501272 0.030813694 -0.003847426 0.12692282 -0.08378562 -0.02293829
0.042268585 -0.01732217 -0.098587304 0.1027989 0.05380146 -0.16490643 0.006990614 -0.060859874
0.0828706 0.037607476 0.095404245 -0.086985126 0.08272705 -0.15213318 0.107946895 0.011496488
-0.05436985 0.018509999 -0.020325374 0.1471924 -0.038787376 0.027569672 -0.042393703 -0.06152372
-0.012022111 -0.12136595 0.13910909 -0.097475976 0.01795841 0.038277943 0.14597325 -0.04864701
-0.06318464 -0.036226895 -0.063261166 -0.008495681 0.08101218 -0.05382046 0.02980747 -0.07921237
0.051238883 -0.044542123 -0.00026817643 0.060767893 -0.019217629 0.04463777 0.056868225 -0.21124695
0.054972954 -0.12406626 0.16900653 -0.0016785329 0.047021125 0.088699706 -0.051055215 0.036044225
0.13489874 0.045292627 0.00026077207 0.09082237 -0.195353 0.17925988 -0.010137593 0.0796124
-0.047933552 0.04190564 -0.05470186 0.02822998 -0.0877661 0.10305012 0.20008698 0.023843277
-0.036250304 -0.042886704 0.0879102 -0.13796808 0.14152306 0.014388427 -0.012494698 -0.08887177
-0.014316001 0.022003293 -0.05105613 0.03493931 -0.093384504 0.1232735 0.14827606 -0.065858394
0.12298092 -0.064327985 -0.11066668 -0.018164417 0.009992416 0.10955782 -0.10063567 -0.10676121
-0.022200588 0.12995635 0.0570142 -0.06659825 0.07535161 0.00867198 0.040505454 0.25192314
-0.08729854 0.05344441 0.110322475 -0.05980481 -0.13034917 0.011723627 0.074164435 -0.0020862373
0.005338901 0.05776817 -0.08276779 -0.13974252 -0.123931654 -0.14093243 0.06302515 0.021752097
-0.03772594 0.11035957 -0.20827585 0.06440272 -0.022195442 0.019762091 -0.011290445 0.056775495
-0.08086972 0.027854979 -0.020550245 0.08429869 0.007105218 -0.011417516 0.08156984 0.15755647
-0.030332504 0.16218106 0.18225417 0.12745707 0.07194161 -0.010607161 0.012420938 -0.13278945
0.10995811 0.041097715 -0.02965001 0.21317631 0.02379596 0.075060256 0.0048591383 -0.059378896
-0.084815435 -0.0074363328 -0.09513198 -0.09337186 0.028056664 0.015398365 -0.08905284 0.026986295
-0.047164705 -0.09304 0.122526 0.1646794 -0.018630186 -0.19644211 -0.008467129 0.03546092
-0.09669359 0.009939018 -0.08972472 0.03948459 -0.10287797 -0.019654652 0.17475198 0.052773703
0.07604724 0.02953393 0.09254146 0.00010394914 -0.12664731 0.047752805 -5.41897e-05 0.010614408
-0.12199953 -0.020061111 0.02606478 0.017555917 0.085385 -0.07739001 0.06853904 0.060162354
-0.010028272 0.07070935 0.046380773 0.006950942 0.09515554 0.075377606 0.1574436 -0.04676495
-0.1349453 0.1047929 0.011176443 0.20960829 -0.13060783 0.015779145 0.015077881 0.03549431
00000000: 7565 f4bd 79da ed3d 206f dcbd e205 64bb
00000010: 1679 423d a62f 263d 5a3e 4b3c db12 e93c
00000020: 4c38 a8bd ed56 4cbd 7687 0e3e cf3d 353d
00000030: 9137 9e3d 37c8 dd3d bc06 cbbc ceb8 eabd
00000040: ec5b 3dbd eca7 2ebc 017a cf3c 6249 c13d
00000050: 6e27 933d 916f adbd f757 2ebd 726e d73d
00000060: f86d 58bd 0907 84bd 5bf0 bc3d 838c bdbd
00000070: 56c5 dbbd 8388 613d f06a 453e 1392 50bd
00000080: 26c4 81bc 8f6f b0bd 6ce0 6ebc e62c 34bb
00000090: 1daf 87bc 9afe b93a fa1a 023d fe7c 8dbd
000000a0: d0da 863d ae0d 92bb e4b6 c83c 006d fc3c
000000b0: 1925 7cbb 0ef8 013e cc97 abbd 15e9 bbbc
000000c0: d321 2d3d 39e7 8dbc 24e8 c9bd 3b88 d23d
000000d0: eb5e 5c3d 3bdd 28be 8511 e53b 3448 79bd
000000e0: 10b8 a93d 4c0a 1a3d 4d63 c33d 4225 b2bd
000000f0: cd6c a93d cdc8 1bbe 4313 dd3d c45b 3c3c
00000100: ebb2 5ebd 48a2 973c 6681 a6bc 9bb9 163e
00000110: 83df 1ebd cbd9 e13c 05a5 2dbd 4c00 7cbd
00000120: 63f8 44bc b68e f8bd 9d72 0e3e 7ca1 c7bd
00000130: 841d 933c 55c9 1c3d 037a 153e 1642 47bd
00000140: f366 81bd a762 14bd 128f 81bd 7831 0bbc
00000150: b7e9 a53d d872 5cbd cc2e f43c 183a a2bd
00000160: dddf 513d cd71 36bd 089a 8cb9 c1e7 783d
00000170: 4a6e 9dbc 18d6 363d a8ee 683d 1f51 58be
00000180: 522b 613d 7416 febd 0c10 2d3e 3802 dcba
00000190: 3999 403d 31a8 b53d 461f 51bd 1ca3 133d
000001a0: e522 0a3e c384 393d 3cb8 8839 1401 ba3d
000001b0: 9e0a 48be e78f 373e 2618 26bc d30b a33d
000001c0: f955 44bd 40a5 2b3d 0f0f 60bd 8f42 e73c
000001d0: b7be b3bd f10b d33d 9ae3 4c3e fa52 c33c
000001e0: 337b 14bd f8a9 2fbd 430a b43d 8147 0dbe
000001f0: 6ceb 103e 70bd 6b3c 90b6 4cbc 6702 b6bd
00000200: a98d 6abc 4040 b43c 3c20 51bd 861c 0f3d
00000210: 6040 bfbd d176 fc3d aed5 173e c4e0 86bd
00000220: 6cdd fb3d 64be 83bd 36a5 e2bd 8bcd 94bc
00000230: 3bb7 233c da5f e03d 131a cebd 9fa5 dabd
00000240: 02de b5bc 4713 053e b987 693d aa64 88bd
00000250: f251 9a3d ec14 0e3c 0ce9 253d 12fc 803e
00000260: 94c9 b2bd 87e8 5a3d c0f0 e13d e3f5 74bd
00000270: 417a 05be 7514 403c 86e3 973d 41b9 08bb
00000280: f3f1 ae3b 519e 6c3d 2982 a9bd aa18 0fbe
00000290: e1cf fdbd 9750 10be 5413 813d 7431 b23c
000002a0: 8486 1abd 3304 e23d 4446 55be 93e5 833d
000002b0: 37d3 b5bc 1ce4 a13c 8ffb 38bc 6c8d 683d
000002c0: 069f a5bd 2030 e43c fd58 a8bc cba4 ac3d
000002d0: e3d2 e83b 8810 3bbc 170e a73d 7c56 213e
000002e0: df7b f8bc cb12 263e d6a0 3a3e 1b84 023e
000002f0: 1f56 933d a8c9 2dbc 3181 4b3c f5f9 07be
00000300: b831 e13d 1456 283d 94e4 f2bc e44a 5a3e
00000310: bfef c23c 31b9 993d 6839 9f3b 4937 73bd
00000320: b7b3 adbd 7bac f3bb 8ed4 c2bd bf39 bfbd
00000330: 17d7 e53c 6d49 7c3c 5661 b6bd 5d12 dd3c
00000340: c72f 41bd c18b bebd e9ee fa3d b7a1 283e
00000350: 559e 98bc 1f28 49be b7b9 0abc 783f 113d
00000360: 4a07 c6bd 43d7 223c 98c1 b7bd 98ba 213d
00000370: afb1 d2bd cb02 a1bc 2ff2 323e 3d29 583d
00000380: a8be 9b3d 24f1 f13c 6186 bd3d 45ff d938
00000390: d5af 01be 7298 433d bf49 63b8 0ee8 2d3c
000003a0: e4da f9bd 3357 a4bc ce85 d53c 6dd1 8f3c
000003b0: 55de ae3d a77e 9ebd 325e 8c3d cd6c 763d
000003c0: 9f4d 24bc 10d0 903d c4f9 3d3d bac4 e33b
000003d0: e8e0 c23d 935f 9a3d e538 213e 9b8c 3fbd
000003e0: 1a2f 0abe a99d d63d 661d 373c 8ea3 563e
000003f0: 0fbe 05be 4443 813c 3709 773c 7b62 113d

network_body._body_endoder.seq_layers.2.bias f4 [128]
0.0 0.0 0.0 0.0 0.0 0.0 0.0 0.0
0.0 0.0 0.0 0.0 0.0 0.0 0.0 0.0
0.0 0.0 0.0 0.0 0.0 0.0 0.0 0.0
0.0 0.0 0.0 0.0 0.0 0.0 0.0 0.0
0.0 0.0 0.0 0.0 0.0 0.0 0.0 0.0
0.0 0.0 0.0 0.0 0.0 0.0 0.0 0.0
0.0 0.0 0.0 0.0 0.0 0.0 0.0 0.0
0.0 0.0 0.0 0.0 0.0 0.0 0.0 0.0
0.0 0.0 0.0 0.0 0.0 0.0 0.0 0.0
0.0 0.0 0.0 0.0 0.0 0.0 0.0 0.0
0.0 0.0 0.0 0.0 0.0 0.0 0.0 0.0
0.0 0.0 0.0 0.0 0.0 0.0 0.0 0.0
0.0 0.0 0.0 0.0 0.0 0.0 0.0 0.0
0.0 0.0 0.0 0.0 0.0 0.0 0.0 0.0
0.0 0.0 0.0 0.0 0.0 0.0 0.0 0.0
0.0 0.0 0.0 0.0 0.0 0.0 0.0 0.0
00000000: 0000 0000 0000 0000 0000 0000 0000 0000
00000010: 0000 0000 0000 0000 0000 0000 0000 0000
00000020: 0000 0000 0000 0000 0000 0000 0000 0000
00000030: 0000 0000 0000 0000 0000 0000 0000 0000
00000040: 0000 0000 0000 0000 0000 0000 0000 0000
00000050: 0000 0000 0000 0000 0000 0000 0000 0000
00000060: 0000 0000 0000 0000 0000 0000 0000 0000
00000070: 0000 0000 0000 0000 0000 0000 0000 0000
00000080: 0000 0000 0000 0000 0000 0000 0000 0000
00000090: 0000 0000 0000 0000 0000 0000 0000 0000
000000a0: 0000 0000 0000 0000 0000 0000 0000 0000
000000b0: 0000 0000 0000 0000 0000 0000 0000 0000
000000c0: 0000 0000 0000 0000 0000 0000 0000 0000
000000d0: 0000 0000 0000 0000 0000 0000 0000 0000
000000e0: 0000 0000 0000 0000 0000 0000 0000 0000
000000f0: 0000 0000 0000 0000 0000 0000 0000 0000
00000100: 0000 0000 0000 0000 0000 0000 0000 0000
00000110: 0000 0000 0000 0000 0000 0000 0000 0000
00000120: 0000 0000 0000 0000 0000 0000 0000 0000
00000130: 0000 0000 0000 0000 0000 0000 0000 0000
00000140: 0000 0000 0000 0000 0000 0000 0000 0000
00000150: 0000 0000 0000 0000 0000 0000 0000 0000
00000160: 0000 0000 0000 0000 0000 0000 0000 0000
00000170: 0000 0000 0000 0000 0000 0000 0000 0000
00000180: 0000 0000 0000 0000 0000 0000 0000 0000
00000190: 0000 0000 0000 0000 0000 0000 0000 0000
000001a0: 0000 0000 0000 0000 0000 0000 0000 0000
000001b0: 0000 0000 0000 0000 0000 0000 0000 0000
000001c0: 0000 0000 0000 0000 0000 0000 0000 0000
000001d0: 0000 0000 0000 0000 0000 0000 0000 0000
000001e0: 0000 0000 0000 0000 0000 0000 0000 0000
000001f0: 0000 0000 0000 0000 0000 0000 0000 0000

action_model._continuous_distribution.log_sigma f4 [1, 51]
0.0 0.0 0.0 0.0 0.0 0.0 0.0 0.0
0.0 0.0 0.0 0.0 0.0 0.0 0.0 0.0
0.0 0.0 0.0 0.0 0.0 0.0 0.0 0.0
0.0 0.0 0.0 0.0 0.0 0.0 0.0 0.0
0.0 0.0 0.0 0.0 0.0 0.0 0.0 0.0
0.0 0.0 0.0 0.0 0.0 0.0 0.0 0.0
0.0 0.0 0.0
00000000: 0000 0000 0000 0000 0000 0000 0000 0000
00000010: 0000 0000 0000 0000 0000 0000 0000 0000
00000020: 0000 0000 0000 0000 0000 0000 0000 0000
00000030: 0000 0000 0000 0000 0000 0000 0000 0000
00000040: 0000 0000 0000 0000 0000 0000 0000 0000
00000050: 0000 0000 0000 0000 0000 0000 0000 0000
00000060: 0000 0000 0000 0000 0000 0000 0000 0000
00000070: 0000 0000 0000 0000 0000 0000 0000 0000
00000080: 0000 0000 0000 0000 0000 0000 0000 0000
00000090: 0000 0000 0000 0000 0000 0000 0000 0000
000000a0: 0000 0000 0000 0000 0000 0000 0000 0000
000000b0: 0000 0000 0000 0000 0000 0000 0000 0000
000000c0: 0000 0000 0000 0000 0000 0000

action_model._continuous_distribution.mu.weight f4 [51, 128]
0.008070539 -0.002419681 0.0071208575 -0.019237265 0.008768807 -0.0010391673 -0.00037788865 0.003423099
0.04093829 0.013056563 0.005360793 0.01697638 0.015416783 -0.019667648 0.018979132 -0.011493738
0.004691384 -0.0022111333 0.041311488 -0.0075902194 -0.010625342 0.01135889 0.011447326 -0.008266665
-0.017364664 0.0021335387 -0.027399197 0.035909783 -0.020666244 -0.018148597 -0.009053803 0.020667158
-0.008117497 -0.03576563 -0.01540375 -0.0022586829 0.0058471994 -0.017600825 -0.022205248 -0.016004829
0.03646165 0.008459417 -0.011182271 0.0016495575 0.00062278664 0.021595238 0.037090298 0.0133659495
0.007105616 -0.0017674876 -0.03458899 0.011041264 0.00589915 -0.021835769 0.015143878 0.014537652
0.00037596497 0.01774703 0.0077110366 -0.006669725 0.020796113 0.035858106 -0.00057891815 -0.028002834
0.010812747 0.013801043 -0.016344864 0.03783431 -0.0059061735 0.004677201 -0.005938697 0.030593632
-0.013631684 0.019588243 -0.026490146 -0.024956549 -0.0023940483 0.012317423 0.014389995 0.008428467
-0.0076787383 -0.022544092 -0.010417 -0.019115468 -0.026287986 -0.035465956 -0.020423053 0.011141638
-0.0019183703 0.04375298 0.005209663 -0.030333644 0.016440963 -0.0009112338 0.0049982523 0.017991966
-0.007510967 -0.010431037 -0.017191619 0.0007070216 0.0043030563 -0.010839387 0.001648594 0.04445307
0.0050726435 0.014969674 -0.0037987616 -0.00031068627 0.02227253 0.036346473 0.0022413507 -0.010731011
-0.028745025 0.016635314 0.017291663 0.003983331 -0.023614964 -0.009922626 -0.0082675135 0.0014746415
-0.02723496 0.0051357904 0.0046361494 -0.00056226517 -0.017115453 0.0044009723 0.008625212 0.008033525
4.343621e-05 -0.021090245 -0.0060821855 -0.034055185 -0.009063851 0.0060135773 -0.03944058 -0.008118271
0.0004865454 -0.015803281 -0.018931359 -0.0041335532 -0.010187667 0.010972267 -0.016297892 0.03162327
0.0033445475 -0.007703787 0.01868999 -0.009375263 -0.0042659976 -0.008087086 -0.017789047 -0.0024886935
-0.017430557 0.022583209 -0.0018628904 -0.00028608588 -0.021040058 0.03816475 -0.02563609 -0.005665279
0.028730184 -0.011489578 0.010752751 -0.011965681 0.0076216236 -0.0037559294 0.024335196 0.0013306073
-0.00519955 0.016824704 0.020728474 -0.038195264 0.0008564379 -0.007281872 0.015837219 -0.012610783
-0.031930815 0.024735158 0.0039640516 -0.0030218626 0.0074824537 -0.023032984 -0.011900224 0.018234566
-0.0076499837 -0.020972958 0.018423947 0.0014752791 -0.014128647 0.011643526 0.03666594 0.025633445
0.023818318 -0.022996578 0.007164863 0.005843062 0.015900023 0.0015542792 0.0070211412 -0.0010466871
0.006795121 0.016327454 0.031079829 -0.053640183 -0.00535818 -0.021207375 -0.028206486 -0.0205992
-0.012196832 -0.00042371228 0.0017384181 0.008752908 0.0051646787 -0.00081993995 0.011835889 -0.0016646549
0.015777145 -0.010452698 -0.00709273 0.021864155 0.018666532 0.0012967476 -0.0033866705 -0.008646032
-0.008353908 -0.023785913 -0.0023479394 -0.013317599 0.009323113 -0.006396264 -0.024394065 0.016476396
0.0016665453 0.024767332 -0.008145056 0.003176396 -0.0063811652 0.0024023121 -0.007425759 -0.014698937
-0.0059214537 -0.018687433 0.007914843 -0.00053520285 0.02306386 0.022273913 0.0035248592 -0.012936127
-0.027328938 -0.009714876 0.004793904 -0.0043756682 0.0013413792 -0.0080089895 0.032066874 0.0183194
00000000: 4b3a 043c 8393 1ebb 1556 e93b 7897 9dbc
00000010: 0bab 0f3c ab34 88ba 5b1f c6b9 1256 603b
00000020: e9ae 273d 32eb 553c 97a9 af3b 0d12 8b3c
00000030: ad96 7c3c 0c1e a1bc 207a 9b3c 3b50 3cbc
00000040: 2eba 993b a9e8 10bb 3c36 293d 60b7 f8bb
00000050: ea15 2ebc a31a 3a3c 918d 3b3c e870 07bc
00000060: 5740 8ebc d7d2 0b3b 4874 e0bc 2316 133d
00000070: 414c a9bc 5eac 94bc 6756 14bc 2c4e a93c
00000080: 40ff 04bc fb7e 12bd 0360 7cbc 6906 14bb
00000090: dd99 bf3b 9b2f 90bc c8e7 b5bc 8f1c 83bc
000000a0: d058 153d 5e99 0a3c d835 37bc f735 d83a
000000b0: 8142 233a 7fe8 b03c ffeb 173d dbfc 5a3c
000000c0: 3ad6 e83b 0bab e7ba 2fad 0dbd 6be6 343c
000000d0: a84d c13b ede0 b2bc 071e 783c 552f 6e3c
000000e0: 2a1d c539 3862 913c ddac fc3b b58d dabb
000000f0: 9c5c aa3c f3df 123d 8ac2 17ba 3366 e5bc
00000100: f327 313c c51d 623c aae5 85bc 26f8 1a3d
00000110: 9388 c1bb 3543 993b 6799 c2bb 7f9f fa3c
00000120: 6d57 5fbc 8677 a03c dd01 d9bc ad71 ccbc
00000130: 77e5 1cbb 04cf 493c 03c4 6b3c 8e17 0a3c
00000140: ed9d fbbb 63ae b8bc 11ac 2abc 0b98 9cbc
00000150: e759 d7bc c044 11bd 3f4e a7bc 6b8b 363c
00000160: d371 fbba 5336 333d d2b5 aa3b 437e f8bc
00000170: 33af 863c dddf 6eba 61c8 a33b e363 933c
00000180: 8f1e f6bb f1e6 2abc 70d5 8cbc 6b57 393a
00000190: a700 8d3b af97 31bc a315 d83a 6c14 363d
000001a0: 6b38 a63b 5d43 753c a5f4 78bb 9be3 a2b9
000001b0: e174 b63c 0ae0 143d a0e3 123b 1fd1 2fbc
000001c0: b07a ebbc c846 883c 3fa7 8d3c 9a86 823b
000001d0: 2b74 c1bc 8392 22bc 7774 07bc c248 c13a
000001e0: da1b dfbc 224a a83b d7ea 973b fa64 13ba
000001f0: b535 8cbc 0836 903b c350 0d3c 0c9f 033c
00000200: 462f 3638 73c5 acbc 124d c7bb 737d 0bbd
00000210: 8c80 14bc 8b0d c53b 728c 21bd 7f02 05bc
00000220: 0517 ff39 e275 81bc f015 9bbc c272 87bb
00000230: 2cea 26bc 06c5 333c 2883 85bc 6787 013d
00000240: 3230 5b3b 0d70 fcbb c01b 993c b49a 19bc
00000250: c8c9 8bbb b27f 04bc 56ba 91bc 5919 23bb
00000260: 87ca 8ebc 6c00 b93c 3b2c f4ba ccfd 95b9
00000270: 335c acbc a452 1c3d c702 d2bc cea3 b9bb
00000280: 905b eb3c c83e 3cbc 4e2c 303c b40b 44bc
00000290: d0be f93b 0a26 76bb 9b5a c73c c667 ae3a
000002a0: fd60 aabb f6d3 893c c3ce a93c a372 1cbd
000002b0: 9382 603a c59c eebb 0ebd 813c 759d 4ebc
000002c0: e3c9 02bd 63a1 ca3c e0e4 813b 710a 46bb
000002d0: 5f2f f53b abaf bcbc 28f9 42bc a860 953c
000002e0: b7ac fabb 7bcf abbc d1ed 963c 275e c13a
000002f0: d77b 67bc 7dc4 3e3c 062f 163d 3bfd d13c
00000300: a21e c33c 5263 bcbc 3ac7 ea3b 2877 bf3b
00000310: c440 823c f5b8 cb3a 9a11 e63b fe30 89ba
00000320: 9ba9 de3b 27c1 853c 209b fe3c cfb5 5bbd
00000330: ac93 afbb 17bb adbc 4a11 e7bc a7bf a8bc
00000340: 39d5 47bc b325 deb9 a2db e33a 5b68 0f3c
00000350: 773c a93b 3df1 56ba 51eb 413c 8d30 daba
00000360: 123f 813c cb41 2bbc 226a e8bb 751c b33c
00000370: 8eea 983c a1f7 a93a e7f2 5dbb 16a8 0dbc
00000380: d4de 08bc adda c2bc e3df 19bb 0f32 5abc
00000390: f8bf 183c c097 d1bb 10d6 c7bc 82f9 863c
000003a0: fb6f da3a dce4 ca3c d772 05bc 152b 503b
000003b0: 1819 d1bb 1c70 1d3b c853 f3bb cfd3 70bc
000003c0: c108 c2bb 6316 99bc 42ad 013c db4c 0cba
000003d0: 6cf0 bc3c c877 b63c 5301 673b 0df2 53bc
000003e0: f0e0 dfbc 252b 1fbc 2e16 9d3b c461 8fbb
000003f0: 38d1 af3a 2338 03bc 8e58 033d 9112 963c

action_model._continuous_distribution.mu.bias f4 [51]
0.0 0.0 0.0 0.0 0.0 0.0 0.0 0.0
0.0 0.0 0.0 0.0 0.0 0.0 0.0 0.0
0.0 0.0 0.0 0.0 0.0 0.0 0.0 0.0
0.0 0.0 0.0 0.0 0.0 0.0 0.0 0.0
0.0 0.0 0.0 0.0 0.0 0.0 0.0 0.0
0.0 0.0 0.0 0.0 0.0 0.0 0.0 0.0
0.0 0.0 0.0
00000000: 0000 0000 0000 0000 0000 0000 0000 0000
00000010: 0000 0000 0000 0000 0000 0000 0000 0000
00000020: 0000 0000 0000 0000 0000 0000 0000 0000
00000030: 0000 0000 0000 0000 0000 0000 0000 0000
00000040: 0000 0000 0000 0000 0000 0000 0000 0000
00000050: 0000 0000 0000 0000 0000 0000 0000 0000
00000060: 0000 0000 0000 0000 0000 0000 0000 0000
00000070: 0000 0000 0000 0000 0000 0000 0000 0000
00000080: 0000 0000 0000 0000 0000 0000 0000 0000
00000090: 0000 0000 0000 0000 0000 0000 0000 0000
000000a0: 0000 0000 0000 0000 0000 0000 0000 0000
000000b0: 0000 0000 0000 0000 0000 0000 0000 0000
000000c0: 0000 0000 0000 0000 0000 0000

action_model._discrete_distribution.branches.0.weight f4 [1, 128]
0.002739365 0.0027066357 0.006847869 0.006046684 0.0035495397 -0.0091332765 0.0033065178 -0.008449877
-0.0012152571 0.0032749206 -0.0026979984 -0.015611884 -0.003437979 -0.0019140149 -0.0020663168 0.00716533
-0.0012333666 -0.015437911 -0.0050425413 -0.014534101 -0.002409458 -0.00477541 0.00048041213 0.0020041913
-0.0150099145 0.008293448 0.0002564347 -0.024883134 -0.0022841697 -0.010982861 -0.016952978 -0.012436211
0.0016392274 0.0037624699 -0.00971505 0.007868621 -0.0082634585 -0.01116351 -0.007341847 0.005811841
-0.017434102 -0.008336696 -0.00807199 0.006239876 0.0021720638 -0.0023346494 0.020789495 0.0060333586
0.013280724 5.3272244e-05 0.005520295 -0.0046392162 -0.0018157205 -0.00024120478 -0.0024611684 -0.016058441
0.0058586304 0.004179088 0.00040012432 0.002783193 -0.013764054 -0.010523404 -0.0003860021 0.002351589
0.008618272 0.004474968 -0.0013171777 -0.0059709596 -0.0031163255 0.0026337218 -0.014694822 0.0071733254
0.0064190375 -0.008161436 -0.0040843887 0.0063735466 0.006954249 -0.005392445 -0.025523527 -0.0012014743
0.01451949 0.00044203523 -0.00071731914 0.008140563 0.0071925954 -0.013148807 0.0011954454 0.01557833
0.0148411095 -0.0018774981 -0.011456728 -0.0036115206 0.0031365838 -0.003065969 -0.0024790426 0.011684644
-0.002464345 -0.020004781 -0.0038786605 -0.0076182717 0.010062946 -0.0043194685 -0.009171293 -0.011037416
0.00017599361 -0.012619155 0.010478441 -0.018572573 0.007556689 -0.007407258 0.0018199742 0.0032726198
-0.0026278694 -0.024666384 0.0052314876 -0.018554186 -0.011084639 -0.0012376127 0.0033632938 -0.01462234
-0.003919735 0.0026430695 0.0031078288 -0.0067038196 -0.00026591338 -0.0029211452 -0.01589959 -0.0016697899
00000000: eb86 333b d061 313b 1764 e03b 4323 c63b
00000010: 659f 683b bda3 15bc 2ab2 583b 5a71 0abc
00000020: 4349 9fba 0da0 563b e7d0 30bb fdc8 7fbc
00000030: b74f 61bb afdf faba 0b6b 07bb 25cb ea3b
00000040: eaa8 a1ba 4bef 7cbc e73b a5bb 7020 6ebc
00000050: ffe7 1dbb 0b7b 9cbb d3df fb39 c058 033b
00000060: 25ec 75bc 3ee1 073c 1572 8639 b7d7 cbbc
00000070: 02b2 15bb 75f1 33bc f9e0 8abc 40c1 4bbc
00000080: 58db d63a c593 763b e02b 1fbc 63eb 003c
00000090: 7563 07bc 28e7 36bc e093 f0bb 4271 be3b
000000a0: f6d1 8ebc a396 08bc 6140 04bc e077 cc3b
000000b0: 2f59 0e3b eb00 19bb bb4e aa3c 7bb3 c53b
000000c0: 6597 593c a370 5f38 97e3 b43b 9104 98bb
000000d0: 78fd edba eaeb 7cb9 8e4b 21bb fe8c 83bc
000000e0: c1f9 bf3b bbf0 883b c7c7 d139 3b66 363b
000000f0: a082 61bc 5b6a 2cbc 5360 cab9 1e1d 1a3b
00000100: a733 0d3c c1a2 923b 26a5 acba 0aa8 c3bb
00000110: 443b 4cbb 859a 2c3b 8dc2 70bc 370e eb3b
00000120: ca56 d23b 8bb7 05bc 56d6 85bb 2fd9 d03b
00000130: 78e0 e33b 1bb3 b0bb b716 d1bc ca7a 9dba
00000140: 28e3 6d3c f7c0 e739 790a 3cba ff5f 053c
00000150: ddaf eb3b 186e 57bc 7eb0 9c3a 403c 7f3c
00000160: 2028 733c 6216 f6ba 00b5 3bbc 43af 6cbb
00000170: 258f 4d3b 6dee 48bb 6f77 22bb f370 3f3c
00000180: d980 21bb 11e1 a3bc 2031 7ebb b2a2 f9bb
00000190: 0edf 243c 548a 8dbb 3143 16bc 47d6 34bc
000001a0: ed8a 3839 93c0 4ebc c4ad 2b3c 8225 98bc
000001b0: 1a9e f73b 95b8 f2bb 338c ee3a 7379 563b
000001c0: 5538 2cbb 2811 cabc e66c ab3b f3fe 97bc
000001d0: 589c 35bc 6437 a2ba b56a 5c3b 8a92 6fbc
000001e0: 1f71 80bb 5937 2d3b b7ac 4b3b b7ab dbbb
000001f0: 4a6a 8bb9 af70 3fbb db3f 82bc dadc daba

network_body._body_endoder.seq_layers.0.weight f4 [128, 105]
0.072419375 0.055994786 0.24510925 0.034672853 0.020585226 0.12713286 -0.105898656 0.17807113
0.08123919 0.12594965 -0.04572087 -0.0004033421 -1.1883337e-05 -0.12027134 0.019593788 0.000849823
-0.025533762 -0.028631557 0.08992089 0.044689666 -0.133333 0.14479473 0.060925685 0.06980394
0.20048049 -0.014844475 -0.16699883 0.04965997 -0.044549245 0.02513734 -0.06467356 -0.04882247
0.10402597 0.21407099 -0.060915064 0.08344515 -0.18250728 0.0505239 0.21327506 0.04603928
0.043675136 -0.1337918 -0.060046423 0.17182076 0.10545013 0.02411553 -0.13285382 0.12991254
0.10150583 -0.020943185 -0.081064366 -0.031291496 -0.014265454 -0.03027546 -0.07012832 0.0841204
-0.0994204 -0.07380673 -0.024205487 -0.060795296 0.0019545304 -0.022536209 -0.06580998 0.103309974
0.1428166 0.14878747 0.15305477 0.17972466 -0.09440093 -0.07274277 -0.103991985 0.17490852
0.018530527 -0.053051863 0.056388557 0.031954672 -0.02879107 -0.0017041513 -0.01742491 0.065383956
0.09839312 -0.0877653 -0.050260317 0.046922203 0.14041822 -0.030053597 0.052087225 -0.017500363
-0.13640295 -0.027247746 -0.051478826 -0.10628467 0.20584857 0.057722904 -0.06311473 0.08501795
0.08769477 0.020431334 0.010251711 -0.07428953 0.09965591 0.15611388 -0.11594124 0.17755991
0.020565553 -0.0017419053 0.0591511 -0.117259905 0.12994057 0.08455831 -0.029948799 -0.07668328
-0.13291097 -0.038909417 -0.03151387 -0.059221316 -0.057359453 0.08689026 -0.045261655 -0.08425276
0.18750298 0.05437495 0.15727007 0.04428857 -0.027733257 0.14943363 0.17187703 0.07432362
0.121340245 -0.11764845 -0.13963091 0.11091819 -0.01174915 0.09397462 -0.013367243 -0.16767026
0.13310884 0.038114727 -0.023407117 0.040586524 0.06244749 -0.09226817 0.088661864 -0.09118627
-0.3360349 0.04849725 -0.014290074 0.014622556 0.013294962 0.015360568 -0.06825358 -0.03821233
0.0030009113 -0.24571459 0.089542605 0.07044351 -0.03071415 -0.044913646 0.028605647 0.044793267
-0.07610225 0.03335465 -0.018642213 -0.02357244 0.036007952 -0.12722681 0.1164178 -0.07313985
0.053462703 -0.08693561 0.020010553 -0.085260734 -0.043792713 0.11597948 0.1570761 0.03112047
-0.01323996 0.27051917 -0.10492586 0.0030755515 -0.020557445 -0.08319533 0.026449362 0.08259809
0.05591988 0.15830415 -0.02679486 -0.07163109 0.17795482 0.034029033 -0.070496 -0.0939448
0.030421762 0.108878866 0.072764866 -0.011756575 -0.067431316 0.021367935 -0.044023313 -0.16477162
-0.028253237 0.056615856 0.12162634 -0.12194991 0.12954323 -0.047945846 0.0002564682 0.12902217
-0.09950879 -0.21208075 0.07364353 -0.021370068 0.046800174 0.11559514 0.13353829 0.017012985
0.0856165 0.062272098 -0.11935433 0.02266604 0.16619684 0.09778542 -0.01073664 -0.19011404
-0.029950606 0.09319238 -0.04146984 0.16330297 -0.025464563 -0.1745441 0.08394841 -0.08877484
-0.051902324 0.034557622 0.04679131 -0.074174404 0.18795396 0.08556305 -0.008631558 -0.19983144
-0.2886698 0.082838915 -0.06212903 0.020109277 -0.11327807 0.040838584 -0.048714574 0.16678979
0.08964126 -0.076451816 0.044233475 -0.048057333 0.011438564 0.07777015 0.055852607 0.039092608
00000000: 9c50 943d ca5a 653d ebfd 7a3e 1f05 0e3d
00000010: 59a2 a83c 1e2f 023e 65e1 d8bd 4758 363e
00000020: bc60 a63d f2f8 003e cf45 3bbd a977 d3b9
00000030: 8b5e 47b7 d250 f6bd 2783 a03c a8c6 5e3a
00000040: 2e2c d1bc ba8c eabc 7228 b83d 830c 373d
00000050: 7288 08be 1245 143e 368d 793d 5ef5 8e3d
00000060: c24a 4d3e 3e36 73bc be01 2bbe 4168 4b3d
00000070: 4579 36bd d3ec cd3c 9273 84bd 12fa 47bd
00000080: 910b d53d 6d35 5b3e 1382 79bd 4ae5 aa3d
00000090: 30e3 3abe 26f2 4e3d c764 5a3e af93 3c3d
000000a0: b3e4 323d b800 09be 3df3 75bd c8f1 2f3e
000000b0: 3df6 d73d ef8d c53c d50a 08be cb07 053e
000000c0: 4ae2 cf3d 0b91 abbc 1305 a6bd 832b 00bd
000000d0: a7b9 69bc 3e04 f8bc 709f 8fbd 5147 ac3d
000000e0: ec9c cbbd fc27 97bd 964a c6bc 7d04 79bd
000000f0: 9417 003b db9d b8bc 62c7 86bd 2e94 d33d
00000100: 843e 123e be5b 183e 64ba 1c3e be09 383e
00000110: 4655 c1bd 29fa 94bd c0f9 d4bd 381b 333e
00000120: 55cd 973c e94c 59bd b0f7 663d e7e2 023d
00000130: 40db ebbc d45d dfba afbe 8ebc 06e8 853d
00000140: 5582 c93d 4bbe b3bd c3dd 4dbd 7f31 403d
00000150: cbc9 0f3e f632 f6bc 6a59 553d ec5c 8fbc
00000160: 37ad 0bbe aa36 dfbc 76db 52bd c7ab d9bd
00000170: f8c9 523e da6e 6c3d 4c42 81bd e41d ae3d
00000180: 5199 b33d 9d5f a73c cbf6 273c 1c25 98bd
00000190: 6618 cc3d 51dc 1f3e 9a72 edbd 44d2 353e
000001a0: 1779 a83c a550 e4ba 6d48 723d f625 f0bd
000001b0: 240f 053e e82c ad3d 2f57 f5bc 200c 9dbd
000001c0: d019 08be 7b5f 1fbd b014 01bd 0d92 72bd
000001d0: bff1 6abd 85f3 b13d 4964 39bd b68c acbd
000001e0: c800 403e 44b8 5e3d 680b 213e ee67 353d
000001f0: db30 e3bc 2105 193e 8800 303e fb36 983d
00000200: 3c81 f83d acf1 f0bd 68fb 0ebe 1329 e33d
00000210: 827f 40bc c475 c03d 4802 5bbc c1b1 2bbe
00000220: af4d 083e 301e 1c3d 48c0 bfbc 0e3e 263d
00000230: f0c8 7f3d 18f7 bcbd 5a94 b53d debf babd
00000240: c40c acbe 0da5 463d ea20 6abc 7293 6f3c
00000250: 1dd3 593c e4aa 7b3c 88c8 8bbd 8884 1cbd
00000260: f0aa 443b 9b9c 7bbe 1d62 b73d b044 903d
00000270: 3e9c fbbc 5ff7 37bd 6456 ea3c 2579 373d
00000280: 7fdb 9bbd e39e 083d 8eb7 98bc fd1a c1bc
00000290: 137d 133d bf47 02be 756c ee3d 58ca 95bd
000002a0: b5fb 5a3d 4c0b b2bd 2ced a33c 2e9d aebd
000002b0: fd5f 33bd a686 ed3d 8fd8 203e 5bf0 fe3c
000002c0: 6bec 58bc 7d81 8a3e 5fe3 d6bd 318f 493b
000002d0: 1668 a8bc 5062 aabd 55ac d83c 3029 a93d
000002e0: 3e0c 653d 7c1a 223e e580 dbbc 52b3 92bd
000002f0: ca39 363e 0762 0b3d 3560 90bd 2266 c0bd
00000300: 0f37 f93c e2fb de3d bf05 953d a69e 40bc
00000310: 6e19 8abd cf0b af3c ca51 34bd e4b9 28be
00000320: 5573 e7bc 07e6 673d 3b17 f93d e0c0 f9bd
00000330: fba6 043e dd62 44bd 9476 8639 631e 043e
00000340: 44cb cbbd b22b 59be 6bd2 963d 4810 afbc
00000350: 8ab1 3f3d 25bd ec3d 43be 083e d15e 8b3c
00000360: b457 af3d 0711 7f3d 0b70 f4bd 22ae b93c
00000370: 812f 2a3e b943 c83d bbe8 2fbc 41ad 42be
00000380: f95a f5bc a6db be3d 47dc 29bd e538 273e
00000390: 0f9b d0bc b0bb 32be 25ed ab3d 95cf b5bd
000003a0: 8897 54bd 4b8c 0d3d 3fa8 3f3d c0e8 97bd
000003b0: 0177 403e ae3b af3d 616b 0dbc 9da0 4cbe
000003c0: 87cc 93be 73a7 a93d 027b 7ebd 36bc a43c
000003d0: 55fe e7bd 5c46 273d ef88 47bd f1ca 2a3e
000003e0: d695 b73d c592 9cbd 292e 353d c4d7 44bd
000003f0: d168 3b3c f545 9f3d b4c5 643d 921f 203d

network_body._body_endoder.seq_layers.0.bias f4 [128]
0.0 0.0 0.0 0.0 0.0 0.0 0.0 0.0
0.0 0.0 0.0 0.0 0.0 0.0 0.0 0.0
0.0 0.0 0.0 0.0 0.0 0.0 0.0 0.0
0.0 0.0 0.0 0.0 0.0 0.0 0.0 0.0
0.0 0.0 0.0 0.0 0.0 0.0 0.0 0.0
0.0 0.0 0.0 0.0 0.0 0.0 0.0 0.0
0.0 0.0 0.0 0.0 0.0 0.0 0.0 0.0
0.0 0.0 0.0 0.0 0.0 0.0 0.0 0.0
0.0 0.0 0.0 0.0 0.0 0.0 0.0 0.0
0.0 0.0 0.0 0.0 0.0 0.0 0.0 0.0
0.0 0.0 0.0 0.0 0.0 0.0 0.0 0.0
0.0 0.0 0.0 0.0 0.0 0.0 0.0 0.0
0.0 0.0 0.0 0.0 0.0 0.0 0.0 0.0
0.0 0.0 0.0 0.0 0.0 0.0 0.0 0.0
0.0 0.0 0.0 0.0 0.0 0.0 0.0 0.0
0.0 0.0 0.0 0.0 0.0 0.0 0.0 0.0
00000000: 0000 0000 0000 0000 0000 0000 0000 0000
00000010: 0000 0000 0000 0000 0000 0000 0000 0000
00000020: 0000 0000 0000 0000 0000 0000 0000 0000
00000030: 0000 0000 0000 0000 0000 0000 0000 0000
00000040: 0000 0000 0000 0000 0000 0000 0000 0000
00000050: 0000 0000 0000 0000 0000 0000 0000 0000
00000060: 0000 0000 0000 0000 0000 0000 0000 0000
00000070: 0000 0000 0000 0000 0000 0000 0000 0000
00000080: 0000 0000 0000 0000 0000 0000 0000 0000
00000090: 0000 0000 0000 0000 0000 0000 0000 0000
000000a0: 0000 0000 0000 0000 0000 0000 0000 0000
000000b0: 0000 0000 0000 0000 0000 0000 0000 0000
000000c0: 0000 0000 0000 0000 0000 0000 0000 0000
000000d0: 0000 0000 0000 0000 0000 0000 0000 0000
000000e0: 0000 0000 0000 0000 0000 0000 0000 0000
000000f0: 0000 0000 0000 0000 0000 0000 0000 0000
00000100: 0000 0000 0000 0000 0000 0000 0000 0000
00000110: 0000 0000 0000 0000 0000 0000 0000 0000
00000120: 0000 0000 0000 0000 0000 0000 0000 0000
00000130: 0000 0000 0000 0000 0000 0000 0000 0000
00000140: 0000 0000 0000 0000 0000 0000 0000 0000
00000150: 0000 0000 0000 0000 0000 0000 0000 0000
00000160: 0000 0000 0000 0000 0000 0000 0000 0000
00000170: 0000 0000 0000 0000 0000 0000 0000 0000
00000180: 0000 0000 0000 0000 0000 0000 0000 0000
00000190: 0000 0000 0000 0000 0000 0000 0000 0000
000001a0: 0000 0000 0000 0000 0000 0000 0000 0000
000001b0: 0000 0000 0000 0000 0000 0000 0000 0000
000001c0: 0000 0000 0000 0000 0000 0000 0000 0000
000001d0: 0000 0000 0000 0000 0000 0000 0000 0000
000001e0: 0000 0000 0000 0000 0000 0000 0000 0000
000001f0: 0000 0000 0000 0000 0000 0000 0000 0000

network_body._body_endoder.seq_layers.2.weight f4 [128, 128]
-0.061653 0.10122758 -0.026195515 -0.014322367 0.06610474 -0.017711246 -0.003634845 0.08561369
0.13183036 -0.008169524 -0.026549842 0.10983743 -0.022360513 0.12160345 0.011837431 -0.06378461
0.101782985 -0.06931519 -0.0011988711 -0.080171436 -0.014631407 0.027792688 -0.018392624 0.063557826
-0.1385199 0.0303606 0.20813508 0.07452591 0.025923554 0.13806172 -0.10738805 -0.018886806
-0.015747251 0.14452516 0.0014862021 -0.0596911 -0.06827122 -0.00694968 0.061729386 -0.04721156
-0.008902855 0.03321078 -0.16008516 0.09958933 0.0038336006 -0.1594155 0.08080499 -0.09498767
0.04138765 -0.012087629 -0.020751579 -0.119296364 0.03634696 -0.0940742 0.14460082 0.11417528
-0.04609976 -0.1135863 0.14631069 -0.08535138 0.040635053 -0.04483582 0.08015405 -0.070936814
-0.035329293 0.055612735 0.024688492 -0.27150834 0.18699709 0.069864415 0.02493717 -0.019584153
0.06272471 0.022573046 -0.03342493 -0.0010824238 -0.17813893 0.09444914 0.07617518 0.11028041
0.0066749016 0.044086058 -0.032345142 0.067631364 -0.0151772015 -0.06558164 -0.09615048 -0.10743224
-0.045281157 -0.092777774 0.053824764 -0.009529469 0.10870906 0.13421468 0.13428597 0.05929814
-0.04114057 0.19327533 0.1435942 -0.011461992 -0.03963468 0.04858769 -0.07344489 -0.19256426
-0.12716165 -0.07312324 0.022788381 -0.10421686 0.08951527 0.08655491 0.010525796 -0.17610292
-0.1968774 -0.052968137 -0.1794228 0.025348017 0.019889424 0.18274914 -0.102964625 -0.05235897
-0.17269126 0.19081828 0.0646582 0.058496162 -0.020141875 0.13268138 -0.17337823 -0.020888407
-0.1467177 0.13849576 0.066646375 0.08415451 -0.09285366 -0.066548795 -0.1288768 -0.012892674
-0.1090512 0.19791867 0.022432296 -0.04901031 -0.12562384 -0.15476798 -0.013109729 0.00086751935
-0.035806466 0.12144128 -0.04147943 0.12888487 0.034055743 -0.17688069 -0.012333727 0.036898825
-0.026349427 0.022261607 -0.043021865 0.006035867 -0.08118498 -0.09191746 0.025813062 0.10856341
0.088516295 0.04240384 0.04123034 -0.09710161 -0.005262622 0.16071618 -0.01029904 0.013409309
-0.057554696 -0.0991914 0.123769626 0.14478947 0.009616937 0.12264069 -0.050628737 -0.01022992
0.0057240543 0.13290884 -0.038053855 -0.08617596 0.085600704 -0.11900604 -0.04314183 -0.032258604
0.0057029775 0.091460556 0.13937965 -0.18063736 0.037968777 0.07418115 -0.063904904 0.009001215
-0.009583503 -0.12533619 -0.014423644 -0.052912284 0.0028051941 -0.013633113 0.20864291 -0.08142476
-0.06645062 0.18322267 0.13602974 0.053264797 0.00471422 -0.11017987 -0.14992556 0.16143815
-0.1281106 -0.108877815 -0.03996372 -0.052393563 -0.10516974 0.087711774 0.048865546 -0.031998713
0.03482097 0.06929476 0.02652947 0.024586787 0.0727001 -0.03140367 -0.040533666 0.25974932
-0.03398305 -0.14762643 0.040367246 -0.17884147 0.024191204 -0.1225085 -0.04798247 0.074012436
-0.109231226 0.086663745 -0.046350516 0.08353516 0.10667848 -0.15337421 -0.08950571 -0.00037796638
-0.011257003 0.028930642 0.015079225 0.069378726 -0.051091306 0.06475651 0.10679156 0.00026759197
0.12571175 -0.17265305 -0.1876008 -0.046325907 0.054333024 0.024387645 0.13648105 -0.022785228
00000000: db87 7cbd 6850 cf3d fa97 d6bc 5ca8 6abc
00000010: ec61 873d 2d17 91bc 9436 6ebb 3b56 af3d
00000020: 8afe 063e 78d9 05bc 0e7f d9bc 72f2 e03d
00000030: 652d b7bc 3b0b f93d c9f1 413c 81a1 82bd
00000040: 9973 d03d 1ff5 8dbd 7023 9dba ec30 a4bd
00000050: 92b8 6fbc 7ead e33c 21ac 96bc 9b2a 823d
00000060: 29d8 0dbe cbb6 f83c 5d21 553e 0aa1 983d
00000070: a25d d43c 0d60 0d3e 44ee dbbd 81b8 9abc
00000080: 6100 81bc 67fe 133e abcc c23a a87e 74bd
00000090: c8d1 8bbd 24ba e3bb f4d7 7c3d e960 41bd
000000a0: 48dd 11bc 0708 083d 5ded 23be 7ef5 cb3d
000000b0: 253d 7b3b d13d 23be 167d a53d e588 c2bd
000000c0: 1986 293d 310b 46bc 37ff a9bc a751 f4bd
000000d0: 8de0 143d f9a9 c0bd 3d12 143e bbd4 e93d
000000e0: 1ad3 3cbd ef9f e8bd 78d2 153e b4cc aebd
000000f0: f170 263d c4a5 37bd ce27 a43d 5247 91bd
00000100: 73b5 10bd 2eca 633d 853f ca3c 2403 8bbe
00000110: 2a7c 3f3e 1315 8f3d 0949 cc3c f26e a0bc
00000120: d075 803d 1ceb b83c 94e8 08bd 1ee0 8dba
00000130: 0d6a 36be 8d6e c13d bc01 9c3d b2da e13d
00000140: 22b9 da3b 9593 343d 577c 04bd 5082 8a3d
00000150: cca9 78bc ab4f 86bd 8bea c4bd 6f05 dcbd
00000160: bc78 39bd 4602 bebd 5b77 5c3d 7d21 1cbc
00000170: dba2 de3d 936f 093e 4382 093e 9be2 723d
00000180: 0483 28bd f8e9 453e 5c0a 133e 14cb 3bbc
00000190: f957 22bd e303 473d 466a 96bd 912f 45be
000001a0: aa36 02be a3c1 95bd b3ae ba3c a66f d5bd
000001b0: c853 b73d b343 b13d 6374 2c3c 5354 34be
000001c0: 3b9a 49be 1ef5 58bd 9cba 37be a5a6 cf3c
000001d0: 25ef a23c 9722 3b3e 1edf d2bd 5c76 56bd
000001e0: fad5 30be de65 433e 856b 843d ac99 6f3d
000001f0: 9300 a5bc a1dd 073e 108a 31be 2a1e abbc
00000200: 2a3d 16be d5d1 0d3e e57d 883d 3359 ac3d
00000210: 0f2a bebd bc4a 88bd 48f8 03be cb3b 53bc
00000220: 3c56 dfbd 31ab 4a3e efc3 b73c 09bf 48bd
00000230: 89a3 00be 7f7b 1ebe 30ca 56bc 3d6a 633a
00000240: cda9 12bd 35b6 f83d 56e6 29bd 65fa 033e
00000250: 097e 0b3d 3620 35be 6713 4abc 3923 173d
00000260: c1da d7bc f95d b63c b237 30bd 86c8 c53b
00000270: 5044 a6bd 393f bcbd ea75 d33c 7e56 de3d
00000280: 0848 b53d a6af 2d3d 25e1 283d 35dd c6bd
00000290: 1372 acbb c892 243e 4ebd 28bc b8b2 5b3c
000002a0: 79be 6bbd dc24 cbbd ee7a fd3d b143 143e
000002b0: 5b90 1d3c 0b2b fb3d 1460 4fbd 659b 27bc
000002c0: d990 bb3b 4119 083e 5cde 1bbd 067d b0bd
000002d0: 6c4f af3d 70b9 f3bd 7db5 30bd 9921 04bd
000002e0: 0be0 ba3b ac4f bb3d 8ab9 0e3e 00f9 38be
000002f0: 2685 1b3d 49ec 973d 93e0 82bd d579 133c
00000300: 2004 1dbc 2158 00be 2651 6cbc 8dba 58bd
00000310: 59d7 373b 6c5d 5fbc 7da6 553e 06c2 a6bd
00000320: 4317 88bd b99e 3b3e 614b 0b3e 302c 5a3d
00000330: be79 9a3b fca5 e1bd 1686 19be 0b50 253e
00000340: 6d2f 03be 55fb debd ffb0 23bd a29a 56bd
00000350: 3c63 d7bd 3ba2 b33d 3d27 483d 1511 03bd
00000360: 6fa0 0e3d 69ea 8d3d 5554 d93c 3b6a c93c
00000370: cae3 943d 22a1 00bd a106 26bd ddfd 843e
00000380: d031 0bbd 622b 17be 2058 253d 3822 37be
00000390: a22c c63c bde5 fabd 4489 44bd d593 973d
000003a0: 9fb4 dfbd c37c b13d 0ada 3dbd 7b14 ab3d
000003b0: 3f7a da3d 210e 1dbe c54e b7bd ca29 c6b9
000003c0: 4b6f 38bc f4ff ec3c db0e 773c 6f16 8e3d
000003d0: 1e45 51bd 109f 843d 89b5 da3d 964b 8c39
000003e0: 95ba 003e f6cb 30be 6d1a 40be 3cc0 3dbd
000003f0: 4e8c 5e3d 99c8 c73c b0c1 0b3e 16a8 babc

network_body._body_endoder.seq_layers.2.bias f4 [128]
0.0 0.0 0.0 0.0 0.0 0.0 0.0 0.0
0.0 0.0 0.0 0.0 0.0 0.0 0.0 0.0
0.0 0.0 0.0 0.0 0.0 0.0 0.0 0.0
0.0 0.0 0.0 0.0 0.0 0.0 0.0 0.0
0.0 0.0 0.0 0.0 0.0 0.0 0.0 0.0
0.0 0.0 0.0 0.0 0.0 0.0 0.0 0.0
0.0 0.0 0.0 0.0 0.0 0.0 0.0 0.0
0.0 0.0 0.0 0.0 0.0 0.0 0.0 0.0
0.0 0.0 0.0 0.0 0.0 0.0 0.0 0.0
0.0 0.0 0.0 0.0 0.0 0.0 0.0 0.0
0.0 0.0 0.0 0.0 0.0 0.0 0.0 0.0
0.0 0.0 0.0 0.0 0.0 0.0 0.0 0.0
0.0 0.0 0.0 0.0 0.0 0.0 0.0 0.0
0.0 0.0 0.0 0.0 0.0 0.0 0.0 0.0
0.0 0.0 0.0 0.0 0.0 0.0 0.0 0.0
0.0 0.0 0.0 0.0 0.0 0.0 0.0 0.0
00000000: 0000 0000 0000 0000 0000 0000 0000 0000
00000010: 0000 0000 0000 0000 0000 0000 0000 0000
00000020: 0000 0000 0000 0000 0000 0000 0000 0000
00000030: 0000 0000 0000 0000 0000 0000 0000 0000
00000040: 0000 0000 0000 0000 0000 0000 0000 0000
00000050: 0000 0000 0000 0000 0000 0000 0000 0000
00000060: 0000 0000 0000 0000 0000 0000 0000 0000
00000070: 0000 0000 0000 0000 0000 0000 0000 0000
00000080: 0000 0000 0000 0000 0000 0000 0000 0000
00000090: 0000 0000 0000 0000 0000 0000 0000 0000
000000a0: 0000 0000 0000 0000 0000 0000 0000 0000
000000b0: 0000 0000 0000 0000 0000 0000 0000 0000
000000c0: 0000 0000 0000 0000 0000 0000 0000 0000
000000d0: 0000 0000 0000 0000 0000 0000 0000 0000
000000e0: 0000 0000 0000 0000 0000 0000 0000 0000
000000f0: 0000 0000 0000 0000 0000 0000 0000 0000
00000100: 0000 0000 0000 0000 0000 0000 0000 0000
00000110: 0000 0000 0000 0000 0000 0000 0000 0000
00000120: 0000 0000 0000 0000 0000 0000 0000 0000
00000130: 0000 0000 0000 0000 0000 0000 0000 0000
00000140: 0000 0000 0000 0000 0000 0000 0000 0000
00000150: 0000 0000 0000 0000 0000 0000 0000 0000
00000160: 0000 0000 0000 0000 0000 0000 0000 0000
00000170: 0000 0000 0000 0000 0000 0000 0000 0000
00000180: 0000 0000 0000 0000 0000 0000 0000 0000
00000190: 0000 0000 0000 0000 0000 0000 0000 0000
000001a0: 0000 0000 0000 0000 0000 0000 0000 0000
000001b0: 0000 0000 0000 0000 0000 0000 0000 0000
000001c0: 0000 0000 0000 0000 0000 0000 0000 0000
000001d0: 0000 0000 0000 0000 0000 0000 0000 0000
000001e0: 0000 0000 0000 0000 0000 0000 0000 0000
000001f0: 0000 0000 0000 0000 0000 0000 0000 0000

value_heads.value_heads.extrinsic.weight f4 [1, 128]
-0.20993918 0.11663699 -0.06500313 -0.053479612 -0.17045525 0.041736364 0.065472335 -0.13920282
0.11943492 -0.093497865 -0.0028216243 -0.15764633 -0.052526638 0.012815431 -0.1602138 0.07166755
-0.05306986 -0.18615681 -0.15023027 0.12503669 -0.15788649 -0.038335085 0.10239434 0.08208135
0.16133359 0.106476575 -0.10309902 0.1671524 0.012792036 -0.12516189 0.07113418 -0.066767246
-0.21349038 0.10237017 -0.051833242 -0.042545527 0.14801809 0.12168059 -0.12730083 -0.0880155
-0.11775771 0.14944205 0.18297872 0.11152637 0.024636596 0.11901119 0.04072815 -0.057626754
0.19814524 0.10967702 0.060556054 0.1126467 -0.044243842 -0.21174048 -0.05405678 0.20865959
-0.15054889 0.054101318 0.100328356 0.070500374 0.17032218 0.13399145 0.21482706 -0.02643846
0.08734205 0.15153772 0.06527722 0.12448165 0.11976439 -0.1457606 -0.16163002 -0.024213985
-0.20861353 0.12678862 -0.16882178 -0.023948759 0.116494805 -0.038412705 0.07195634 -0.046459988
0.06783053 0.110856 0.047859848 -0.011429757 0.09369144 0.105038345 0.18148145 -0.013432339
0.03590986 -0.090118214 0.0050002337 -0.15946144 0.096233815 -0.05641304 0.043964237 -0.08231121
0.03849429 0.03403978 0.17922834 0.08635315 0.034742594 -0.120957725 0.16552407 0.19977388
-0.20957395 -0.09723793 -0.067730784 0.11581203 -0.17646395 -0.16659823 0.16701391 -0.14451626
0.17915037 0.032010853 0.08132696 0.16943228 0.1549674 0.04871142 0.18322322 0.015927121
-0.15265834 0.07707748 0.13893381 0.072663814 0.082891285 0.045418948 0.18932596 0.13263771
00000000: 4cfa 56be 60df ee3d 5c20 85bd 700d 5bbd
00000010: d28b 2ebe c0f3 2a3d 5c16 863d 2f8b 0ebe
00000020: 4c9a f43d cf7b bfbd 00eb 38bb 0a6e 21be
00000030: 2c26 57bd d0f7 513c 160f 24be 70c6 923d
00000040: c85f 59bd e49f 3ebe f7d5 19be 9e09 003e
00000050: ffac 21be 4005 1dbd 20b4 d13d 441a a83d
00000060: a234 253e 6410 da3d 9425 d3bd 002a 2b3e
00000070: b095 513c 702a 00be ccae 913d 44bd 88bd
00000080: 399d 5abe 74a7 d13d 184f 54bd 3844 2ebd
00000090: 0e92 173e ac33 f93d 265b 02be 7841 b4bd
000000a0: f42a f1bd 5607 193e c65e 3b3e f067 e43d
000000b0: b0d2 c93c 24bc f33d 90d2 263d 080a 6cbd
000000c0: 96e6 4a3e 589e e03d a009 783d 50b3 e63d
000000d0: 0839 35bd 7fd2 58be a46a 5dbd dcaa 553e
000000e0: 7d29 1abe 5899 5d3d f478 cd3d 8062 903d
000000f0: f068 2e3e 0e35 093e a0fb 5b3e 7895 d8bc
00000100: 64e0 b23d b42c 1b3e 10b0 853d 3cf0 fe3d
00000110: 0847 f53d 4442 15be 5782 25be 685c c6bc
00000120: c99e 55be e0d4 013e 9edf 2cbe 3030 c4bc
00000130: d494 ee3d a456 1dbd d85d 933d d44c 3ebd
00000140: bcea 8a3d 7808 e33d b008 443d e043 3bbc
00000150: 4ce1 bf3d 581e d73d 46d6 393e 5013 5cbc
00000160: 3816 133d e68f b8bd 00d9 a33b dc49 23be
00000170: 3c16 c53d 5c11 67bd d813 343d c892 a8bd
00000180: 30ac 1d3d 4c6d 0b3d a287 373e ecd9 b03d
00000190: 404e 0e3d afb8 f7bd 247f 293e 8691 4c3e
000001a0: 8e9a 56be ae24 c7bd 70b6 8abd dc2e ed3d
000001b0: f7b2 34be ba98 2abe b205 2b3e 12fc 13be
000001c0: 3273 373e d01d 033d c08e a63d a87f 2d3e
000001d0: c6af 1e3e a085 473d de9e 3b3e 9879 823c
000001e0: 7852 1cbe ccda 9d3d aa44 0e3e c4d0 943d
000001f0: e8c2 a93d 3809 3a3d aade 413e 2ed2 073e
