results/try-28/My Behavior.onnx (onnx, 693209 bytes, 10 tensors)

network_body._body_endoder.seq_layers.0.weight f4 [128, 122]
00000000: 81f7 763d 601e ebbd e0be 843d f214 eebb
00000010: f45a 9f3d ce8a e8bd 65b5 a5bd 08ba 923d
00000020: 4868 e5bd 08dd 38be 2950 c33d 86fa db3d
00000030: 5beb 3fbd 50e6 15bd f246 5f3e 5a95 2f3d
00000040: 1490 f4bc c528 eebd 8e67 54be 78ce f13c
00000050: bd47 09bd c23f f93c 6183 a8bd 3a86 833c
00000060: 10b8 773d 8939 c2bd 7b83 6e3d b99c ea3c
00000070: 3fbe 583d 841c c83d bd9a babd 3703 3ebe
00000080: 0e49 cf3c ddb5 5b3e 83b3 21bd bca8 b7bd
00000090: d6bd 7a3e 6389 d93d 33d0 1abe 65c6 c0bd
000000a0: bd01 b1bd bffd 80bb 4dd0 c2bd 6438 133e
000000b0: 794c 20bd 2400 153e 0770 69bd 189d 403c
000000c0: dd2f bbbd 561a a63d a612 423d 9e97 c03d
000000d0: 5f48 a63d 479a 503d 5615 373e ea10 7a3c
000000e0: 0ef6 003e 729e 243d eb77 e83c 27bf 193e
000000f0: a5d6 183d fa9e 4cbd c33a 363c 630e 36bd
00000100: a7d5 94bd 18ee d9bd 58fc a13d 271f 02be
00000110: efb4 bdbc 3c4f bc3d 4179 aa3d b4b6 c93d
00000120: bd0a 51bd 11c5 813d 9d68 c2bd ecb9 d83c
00000130: 615f 05bc 0492 0a3c d38f 22be 6427 acbc
00000140: c464 d13d e99b 81bd fdff ae3b e30a b4bd
00000150: e32c a63d 94fe 9a3d ad3c dfbb f6c4 c93d
00000160: 04a5 0cba a09f 21be 924e 68bd f72f aebb
00000170: 675d 8e3d 4fbe 9ebd 87e2 dcbb 20ec 8abd
00000180: 4fd9 bfbd 0761 023e 4fcb b83d 0643 243d
00000190: a42d 6b3d 2a1c c4bd 1661 823a 4fdd 943d
000001a0: e7f5 a23c f6cd 1fbe d1ad 23be 047c b5bd
000001b0: 9d54 593d 99b4 033d 9aa8 06be 9176 b5bc
000001c0: feee 86bd 8146 f5bc 0440 18bd 3c73 053e
000001d0: 7246 73bd c73f 193e 5a91 ec3d 53b8 3e3d
000001e0: dd2d 38ba 9310 7ebd be5f 173e 7c97 4ebd
000001f0: c48a 52bc 4fec 793d f888 e03d dc14 f73c
00000200: cf6d bebd 45e7 e0bd f468 4c3e edd2 133e
00000210: f791 143d 91fa 88bd c32b 1dbd 86e7 48bd
00000220: aa4f 933d 8229 f73d b9a6 1f3e 9b32 123d
00000230: f357 de3d e144 bdbd 2c8b ec3d aaba b2bc
00000240: 79bb d93d 2618 dfb9 1f2f 64bb 7c86 613e
00000250: c7ab c5bd cd23 99bd 3173 6c3d be15 1b3e
00000260: 0234 bf3c 553f 223e a285 0e3e 0340 e63d
00000270: 4a42 eebd a9af 7dbe b817 ee3d 73b2 9ebd
00000280: d944 663c 27fa 3fbe d08e fe3c 1c13 66bc
00000290: 8d93 b93c c983 32bd 3e82 8b3b 06c8 ac3b
000002a0: 7dc7 9bbd bd51 82bc b812 cdbd 5722 59be
000002b0: be17 503e 7521 cf3d 5031 9bbd 75a1 5d3d
000002c0: b335 94bd a5e3 aebb d618 65bb c82e e13d
000002d0: 2953 cf3d 9d05 96bd 2a72 c53d 374a 293d
000002e0: d8ba a0bd 86a5 363e 056c 9bbc d75a 1fbd
000002f0: 7644 a23d bb9f 1d3e 4d9b 6abd 6fbc 27be
00000300: 4b6b 5a3d f41d 1ebd 8c66 3cbd 7fd0 bd3d
00000310: 939a 933c b95c d0bd c943 bb3d 2e93 7c3c
00000320: b97f 43bd 2561 ffbd def1 043c 61c2 bd3a
00000330: 1066 9c3d d79a 99bc 0fc8 0fbe 897e 503d
00000340: f696 cabd eed2 133e d576 943d dec0 2bbd
00000350: 85b9 51be 0d86 2ebd b32b 11bc 69eb 5a3d
00000360: 931a 9ebd 0929 91bd 3e87 973d cd0c b93d
00000370: 7c2b d1bd cae1 ee3d 79bf 18bd 341e 3dbc
00000380: 0697 50bd 26db 51bc 0712 643e 80f7 ab3d
00000390: 5980 c53d 9f88 1f3d f8f2 573c 557c 23bc
000003a0: 7407 863d 4e72 29be c736 40bd d8e3 6abc
000003b0: 3ae4 c5bd 446e 0b3e 0ac3 daba 3a3a 713e
000003c0: 1a0c c43d b672 713d 8e9e 9abd bfc8 423b
000003d0: 3038 093c d053 11bd fc94 05be 9100 ae3d
000003e0: 82bd 9dbc 6f0e 7d3c a761 e73c ad36 e2bd
000003f0: e90c e2bd 0bda 59bd d5a2 d93d 3a72 12be
0.060294632 -0.11480403 0.06481719 -0.0072656805 0.0778102 -0.113546 -0.08091239 0.07164389
-0.11201531 -0.18053067 0.09536774 0.10741143 -0.04685531 -0.036596596 0.21804407 0.042867042
-0.029853858 -0.1162887 -0.20742628 0.029517397 -0.03351568 0.03042591 -0.082281835 0.016055215
0.06047827 -0.0948363 0.05823086 0.028639184 0.052915808 0.09771064 -0.09111545 -0.18555914
0.02530339 0.21456094 -0.039477836 -0.089677304 0.24486479 0.106219076 -0.15118484 -0.09412841
-0.0864291 -0.003936499 -0.095123865 0.1437698 -0.03913543 0.14550835 -0.056991603 0.011756204
-0.091399886 0.08110492 0.047381066 0.09403919 0.081192724 0.05092838 0.17879233 0.015262822
0.12593862 0.040190168 0.028377494 0.15014325 0.037314076 -0.0499563 0.011122408 -0.044447314
-0.072673135 -0.10641116 0.07909459 -0.12707196 -0.023157565 0.091948 0.083239086 0.09849301
-0.05103563 0.063364156 -0.0949261 0.026455842 -0.008140416 0.008457664 -0.15875177 -0.021014877
0.10224298 -0.063285656 0.005340575 -0.08791139 0.0811403 0.07568088 -0.006812653 0.098520204
-0.00053651654 -0.15783548 -0.056715555 -0.0053157764 0.06951409 -0.07751142 -0.0067408714 -0.067833185
-0.0936762 0.12732325 0.09023153 0.04010298 0.057416573 -0.09575684 0.0009947147 0.07268774
0.019892646 -0.15605912 -0.15984274 -0.08861545 0.05305921 0.032154653 -0.13150254 -0.022151263
-0.06588553 -0.029940845 -0.037170425 0.1303224 -0.059393354 0.14965735 0.11551161 0.046562504
-0.0007025877 -0.062027525 0.14782616 -0.050437436 -0.012850467 0.061016377 0.10963625 0.030161314
-0.09298288 -0.10981611 0.19961911 0.1443593 0.036272015 -0.06688417 -0.038371813 -0.049048923
0.07192929 0.12068464 0.15590943 0.035692792 0.10856619 -0.09241653 0.115499824 -0.021817524
0.10631461 -0.00042551866 -0.0034818125 0.22023958 -0.096519046 -0.074775316 0.057727043 0.15145013
0.023340229 0.15844472 0.13918164 0.11242678 -0.116337374 -0.2477404 0.11625618 -0.0774888
0.0140545005 -0.1874777 0.031073958 -0.014042642 0.022653366 -0.04358271 0.0042574694 0.005272868
-0.07606409 -0.015908116 -0.10013336 -0.21204506 0.20321557 0.10113803 -0.07577765 0.054109056
-0.07236805 -0.005337196 -0.003495743 0.10995251 0.101232834 -0.073252894 0.09640916 0.041330542
-0.078481376 0.1783658 -0.018972406 -0.03890499 0.07923214 0.15392964 -0.057277013 -0.16380475
0.05332498 -0.038602784 -0.045996234 0.09268283 0.018018043 -0.101739354 0.09143788 0.01541595
-0.047729228 -0.12469701 0.008114306 0.0014477485 0.076366544 -0.018750591 -0.1404116 0.050901923
-0.09892075 0.14435932 0.07249228 -0.04193198 -0.20480926 -0.04260831 -0.008860516 0.05344716
-0.077199124 -0.07087905 0.07398842 0.09035645 -0.10213372 0.116641596 -0.037291978 -0.0115428455
-0.050925277 -0.012808597 0.22272502 0.08396816 0.09643621 0.03894865 0.013180487 -0.009978374
0.0654439 -0.1654751 -0.04692724 -0.014336549 -0.096626714 0.13616282 -0.0016690206 0.23557368
0.09572621 0.058947287 -0.07549773 0.0029721705 0.008375213 -0.03548032 -0.13045114 0.08496202
-0.019255403 0.015445336 0.028244806 -0.11045585 -0.11037619 -0.053186458 0.10626761 -0.14301386

network_body._body_endoder.seq_layers.0.bias f4 [128]
00000000: 0000 0000 0000 0000 0000 0000 0000 0000
00000010: 0000 0000 0000 0000 0000 0000 0000 0000
00000020: 0000 0000 0000 0000 0000 0000 0000 0000
00000030: 0000 0000 0000 0000 0000 0000 0000 0000
00000040: 0000 0000 0000 0000 0000 0000 0000 0000
00000050: 0000 0000 0000 0000 0000 0000 0000 0000
00000060: 0000 0000 0000 0000 0000 0000 0000 0000
00000070: 0000 0000 0000 0000 0000 0000 0000 0000
00000080: 0000 0000 0000 0000 0000 0000 0000 0000
00000090: 0000 0000 0000 0000 0000 0000 0000 0000
000000a0: 0000 0000 0000 0000 0000 0000 0000 0000
000000b0: 0000 0000 0000 0000 0000 0000 0000 0000
000000c0: 0000 0000 0000 0000 0000 0000 0000 0000
000000d0: 0000 0000 0000 0000 0000 0000 0000 0000
000000e0: 0000 0000 0000 0000 0000 0000 0000 0000
000000f0: 0000 0000 0000 0000 0000 0000 0000 0000
00000100: 0000 0000 0000 0000 0000 0000 0000 0000
00000110: 0000 0000 0000 0000 0000 0000 0000 0000
00000120: 0000 0000 0000 0000 0000 0000 0000 0000
00000130: 0000 0000 0000 0000 0000 0000 0000 0000
00000140: 0000 0000 0000 0000 0000 0000 0000 0000
00000150: 0000 0000 0000 0000 0000 0000 0000 0000
00000160: 0000 0000 0000 0000 0000 0000 0000 0000
00000170: 0000 0000 0000 0000 0000 0000 0000 0000
00000180: 0000 0000 0000 0000 0000 0000 0000 0000
00000190: 0000 0000 0000 0000 0000 0000 0000 0000
000001a0: 0000 0000 0000 0000 0000 0000 0000 0000
000001b0: 0000 0000 0000 0000 0000 0000 0000 0000
000001c0: 0000 0000 0000 0000 0000 0000 0000 0000
000001d0: 0000 0000 0000 0000 0000 0000 0000 0000
000001e0: 0000 0000 0000 0000 0000 0000 0000 0000
000001f0: 0000 0000 0000 0000 0000 0000 0000 0000
0.0 0.0 0.0 0.0 0.0 0.0 0.0 0.0
0.0 0.0 0.0 0.0 0.0 0.0 0.0 0.0
0.0 0.0 0.0 0.0 0.0 0.0 0.0 0.0
0.0 0.0 0.0 0.0 0.0 0.0 0.0 0.0
0.0 0.0 0.0 0.0 0.0 0.0 0.0 0.0
0.0 0.0 0.0 0.0 0.0 0.0 0.0 0.0
0.0 0.0 0.0 0.0 0.0 0.0 0.0 0.0
0.0 0.0 0.0 0.0 0.0 0.0 0.0 0.0
0.0 0.0 0.0 0.0 0.0 0.0 0.0 0.0
0.0 0.0 0.0 0.0 0.0 0.0 0.0 0.0
0.0 0.0 0.0 0.0 0.0 0.0 0.0 0.0
0.0 0.0 0.0 0.0 0.0 0.0 0.0 0.0
0.0 0.0 0.0 0.0 0.0 0.0 0.0 0.0
0.0 0.0 0.0 0.0 0.0 0.0 0.0 0.0
0.0 0.0 0.0 0.0 0.0 0.0 0.0 0.0
0.0 0.0 0.0 0.0 0.0 0.0 0.0 0.0

network_body._body_endoder.seq_layers.2.weight f4 [128, 128]
00000000: 3823 863c 003a 733c 8900 8b3c 67a0 31be
00000010: e4dd c1bc 0117 bdbd f3bf 0a3d ada1 533d
00000020: 27d0 35bc ddf9 bbbd 9e00 afbc 6a39 763d
00000030: 8747 a83d 3bb2 d0bd 63fc 4bbb f127 3ebe
00000040: c584 c8bd ea9a 063d 8856 c63c 13ab 263c
00000050: 9294 243d f636 b63b 4dc2 b8bd 586a 9b3d
00000060: 586d d1bd e021 a03d dd1a d8bd 3044 5ebd
00000070: c007 073d 2ecc eabc 76d1 e4bc cd40 be3c
00000080: bc91 eabd 10e6 c3bc 4b8d 853c 9af6 b7bd
00000090: c1a9 993d cf94 c03d aaef 2bbe df2f 02bd
000000a0: 5bf8 ca3d e366 31bd 9c36 63b9 92b7 6f3d
000000b0: 49ed c2bd f500 87bb e838 a43c 9e55 d1bc
000000c0: a9cc 523d b68b 4e3d 76eb b8bd 18ea babc
000000d0: 2749 4ebd 76f8 dfba c8dd 003e 1552 a13d
000000e0: 9af5 c23c c6b0 d7bd d3fc 8bbc 89bb 1dbd
000000f0: 2077 c4bd 884d 943d def1 713c 77eb 113c
00000100: 6d8a 1a3d 548d 2e3e 8b44 6f3c 8cf5 efbd
00000110: 4a82 063e 6e9c 25be a940 00be 866a 4c3d
00000120: 1b3e ad3d a1aa f4bd 8662 a3bd 2e3f 703d
00000130: bb76 3fbe 0f38 a13d 509c 8fbd 7ae6 56bd
00000140: c953 5fbd b0c1 0d3e 7b90 f23b a62f fdbd
00000150: 4565 7c3d 68ee b9bd adb9 863d a8f8 8dbd
00000160: 4eed 42bd e014 063d 61cd 583b 5187 463d
00000170: 7872 ca3d 7028 edbd 7028 8abd e97b 0cbd
00000180: 7a5a 503c eeb3 40be 6f14 03be f5ad e63d
00000190: eb25 083a 8638 883c cd6d 9ebd ddfb 8f3d
000001a0: 7073 65bc 6c2b de3a c049 9dbd 55f3 24bd
000001b0: 1edd 00be ec08 29bd 2061 d8bc f7f0 c43c
000001c0: 7232 17bd 991f dd3d fe91 91bd 097f 46bd
000001d0: 709e bebc 3fd1 3d3e 7dee 9d3d d532 1bbe
000001e0: 0fbf 083d d385 8dbd f214 21bd 7dc7 313d
000001f0: b045 c2bd de58 a3bc 10c0 d2b9 9b5b 26bd
00000200: 7141 e2bd a9ca c0bd 7c35 413d 5bdf c93b
00000210: eb57 6ebd 84ff 86bd fe09 813d 39cf b03d
00000220: a3e2 02bc 9da8 ae3c 2a6f a4bd 9cfd 813d
00000230: 8857 053d 9911 42be 997a 7b3c d1bb cd3c
00000240: ce0c 623e 2c08 553d 2698 72bd a68a aa3d
00000250: 0923 92bd 47c4 393d 6cef 34be 8845 253e
00000260: 970c 1f3d 3079 50bd 56cb 1ebd c378 9d3c
00000270: b07e 83b9 b239 71bd b710 463b 2702 b43d
00000280: e33c 233e a149 423e 81d2 77bd 8f65 5fbc
00000290: 87f5 2a3e f802 67bd 9356 153d da81 1f3e
000002a0: 8638 2e3e 2154 f0b9 bdd9 ae3d 71be c7bd
000002b0: 4357 18be b61a 56bd ef46 67b9 efed 923d
000002c0: a123 0bbd 3243 ab3c 977a 913d 9f10 87be
000002d0: bea7 21be 021e 623c 59da 13bc a470 df3d
000002e0: ef9f e6bd 34de 7cbc 4a6b 66bb 2f3c fcbc
000002f0: 17c3 00be c814 0cbd 2a69 823d 1a55 7b3d
00000300: c35f de3d b243 a6be fe44 c73d f923 cc3d
00000310: 47de 08be 0a91 0dbd fbfa e63d 7994 513d
00000320: d54c 89bc 2d8e 573d b531 143e 83ee 7dbb
00000330: 8bf7 b7bd aff1 8c3b 4030 e53c 6121 513e
00000340: 6965 37bd 9ad7 3a3c abe0 193d 5258 83bd
00000350: ec4d d4bc 6943 47bc 828f 2a3e 46ba 4e3c
00000360: 40db 87bd 7bef 29be 4e9f 7c3c 1989 19be
00000370: 7404 4dbd 91a2 b53d b2fd 31bc 9c62 b6bd
00000380: 3e10 0cbd 4d46 8d3d e078 c33a 17de 86bd
00000390: 370a ad3d d1ce d83d 8bbe b13d 2faa 52ba
000003a0: 97ba 9bbc c52e 123d acf8 54bc 1114 fb3d
000003b0: 71d5 08be 9d9d a93d bdbd 54bd 3d89 91bd
000003c0: fec6 06bd 4cce 22bd 72d8 c63c 3ed8 c8bc
000003d0: b9fd a33d c27e ad3d 1213 3e3e de95 183e
000003e0: 6c36 cfbd 2694 713d 0fb9 4dbd 37fe f33c
000003f0: 88b3 8bbc 3579 e0bc 4e55 01bb 5f49 abbd
0.016374215 0.014845371 0.016968029 -0.17346345 -0.023665376 -0.09232903 0.033874463 0.051667858
-0.011096991 -0.09178517 -0.021362599 0.060113348 0.08216768 -0.10190245 -0.0031125776 -0.18569924
-0.09790949 0.03286258 0.024211183 0.010172623 0.04018075 0.005560751 -0.09021435 0.07588643
-0.10225934 0.07818961 -0.10551999 -0.054264247 0.032966375 -0.028661814 -0.02793191 0.023224259
-0.11453578 -0.023913413 0.016302725 -0.089825824 0.07503081 0.09403383 -0.16790643 -0.031783935
0.09910651 -0.04331101 -0.0002166875 0.058524676 -0.09517915 -0.004119987 0.020046666 -0.02555352
0.05146471 0.050426207 -0.090292856 -0.022816703 -0.050362732 -0.0017087597 0.12584603 0.07876984
0.023798753 -0.10531764 -0.01708833 -0.038508926 -0.09593034 0.072413504 0.014767138 0.008906237
0.03772967 0.170461 0.014603744 -0.11716756 0.13135639 -0.16172954 -0.12524666 0.049906276
0.08459111 -0.119466074 -0.07977776 0.058654003 -0.18697636 0.078720205 -0.07012236 -0.052465893
-0.054523263 0.13843417 0.0074024773 -0.12362604 0.061620016 -0.090786755 0.065783836 -0.06932193
-0.047589593 0.03273475 0.00330814 0.04846889 0.098851144 -0.115799785 -0.06745994 -0.034297857
0.012716884 -0.18818638 -0.12800764 0.112636484 0.00051936385 0.016628515 -0.077357866 0.07030461
-0.014004573 0.0016950197 -0.07680082 -0.040271122 -0.1258435 -0.041268274 -0.0264135 0.024040682
-0.036913343 0.107970424 -0.07107924 -0.048460994 -0.023268908 0.18536852 0.07711504 -0.1515611
0.033385333 -0.069102906 -0.039326616 0.043403137 -0.09485948 -0.019939836 -0.0004019742 -0.040614706
-0.11047638 -0.09413654 0.047170147 0.0061606592 -0.058189314 -0.065917045 0.06300734 0.086332746
-0.007988605 0.021320635 -0.08029015 0.063472 0.03255418 -0.18952025 0.015349054 0.025113972
0.22075197 0.052009746 -0.05922713 0.08327226 -0.07135589 0.0453532 -0.17669457 0.16139805
0.038830366 -0.050896823 -0.038768135 0.019222623 -0.00025080657 -0.058892913 0.0030222365 0.08789473
0.15941195 0.189734 -0.060503487 -0.013635053 0.16695224 -0.056399316 0.036459517 0.15576878
0.1701375 -0.00045839048 0.08537624 -0.09753121 -0.14877038 -0.052271567 -0.00022056302 0.071742885
-0.033969525 0.020906065 0.0710346 -0.26379868 -0.15786645 0.0138011 -0.009024226 0.10910156
-0.11260974 -0.015433837 -0.0035159164 -0.030790417 -0.12574421 -0.034199506 0.06367715 0.061360456
0.10858109 -0.32473522 0.09729956 0.09967799 -0.13366042 -0.03456215 0.112783395 0.051166985
-0.01676027 0.052625824 0.14472087 -0.00387469 -0.08982762 0.004301272 0.027977109 0.2042289
-0.044774447 0.0114039425 0.037567776 -0.0641333 -0.025916062 -0.012162068 0.16656306 0.012617653
-0.066336155 -0.16595261 0.015418841 -0.14993705 -0.050053075 0.08868898 -0.010863708 -0.08905527
-0.034195177 0.068981744 0.0014913343 -0.06585329 0.08449214 0.10586322 0.08678921 -0.00080362236
-0.019009871 0.035689134 -0.012998741 0.12259687 -0.13362671 0.082820155 -0.05193876 -0.07106254
-0.032904617 -0.03974752 0.024273131 -0.024517175 0.08007378 0.08471443 0.18561962 0.1490092
-0.10117802 0.058979176 -0.050225314 0.029784305 -0.01705338 -0.027401546 -0.0019734683 -0.08363604

action_model._continuous_distribution.log_sigma f4 [1, 51]
00000000: 0000 0000 0000 0000 0000 0000 0000 0000
00000010: 0000 0000 0000 0000 0000 0000 0000 0000
00000020: 0000 0000 0000 0000 0000 0000 0000 0000
00000030: 0000 0000 0000 0000 0000 0000 0000 0000
00000040: 0000 0000 0000 0000 0000 0000 0000 0000
00000050: 0000 0000 0000 0000 0000 0000 0000 0000
00000060: 0000 0000 0000 0000 0000 0000 0000 0000
00000070: 0000 0000 0000 0000 0000 0000 0000 0000
00000080: 0000 0000 0000 0000 0000 0000 0000 0000
00000090: 0000 0000 0000 0000 0000 0000 0000 0000
000000a0: 0000 0000 0000 0000 0000 0000 0000 0000
000000b0: 0000 0000 0000 0000 0000 0000 0000 0000
000000c0: 0000 0000 0000 0000 0000 0000
0.0 0.0 0.0 0.0 0.0 0.0 0.0 0.0
0.0 0.0 0.0 0.0 0.0 0.0 0.0 0.0
0.0 0.0 0.0 0.0 0.0 0.0 0.0 0.0
0.0 0.0 0.0 0.0 0.0 0.0 0.0 0.0
0.0 0.0 0.0 0.0 0.0 0.0 0.0 0.0
0.0 0.0 0.0 0.0 0.0 0.0 0.0 0.0
0.0 0.0 0.0

action_model._continuous_distribution.mu.weight f4 [51, 128]
00000000: 69a5 a53c 378e 24bc abb6 cd3a b09a aabb
00000010: 3af2 17bb 8168 18bc 18e6 8dbc 5d68 ff3b
00000020: 0d20 79bb 3b28 9ebc d322 deb9 48a4 763b
00000030: d3e2 31bc f3bc 573d 2d00 ce3c 1b46 333d
00000040: fd10 e13c 80a4 7fbb 2353 113a 4786 d13c
00000050: 538e a2bc 8630 1ebd 11e5 2c3c 83db b9bc
00000060: fb4a f7bc cfc9 c33c feb6 adbc 95d8 363c
00000070: 3b60 9bbc ba95 f1bb 6412 1f3d 9f00 203c
00000080: 9927 8b3c 8179 1abc 5283 383c 4bdc 2b3d
00000090: 57ee 4e3c 3cd9 93bc 771e 4b3a a32b 35bb
000000a0: d2b4 6e3b b684 4b3c 9a62 ce38 67bb 2bbc
000000b0: 75c4 c93c 1df4 77bc 8702 62bc 1787 f2bb
000000c0: 2744 50ba b7ef 063d 2ceb 223c c320 743c
000000d0: 93c2 d6bc 496e 11bc 21d7 bbbc 172a 50bc
000000e0: f652 cc3c f7e8 3f3c f34e 96bb c8f3 d13c
000000f0: 83fa d83b c5a2 21bc 5d28 c8bb 61c7 af3c
00000100: 5d3d fdbb bc48 1e3c 971c 613b b36c 48bb
00000110: 6112 113b 3dd1 1bbc c2d8 6abc c073 7ebc
00000120: 96a1 8fbb a36e 5bbc 1c08 9e3b 90ac df3c
00000130: c37f 09ba abbe a83c 6f0d 663c 2bd0 7bbb
00000140: 9968 92bc 804b 763c 42b6 aa3c 21b7 293c
00000150: a2c7 853c 5e5a 47bc a3c5 adbb 0df0 93bb
00000160: 95af 69bc 1e2d bd3b 652c 553c a435 84bc
00000170: fb9c dabb 2f29 953c e733 6bbb 9eeb 463d
00000180: a054 1bbc aa08 703c 2d51 3cbc b72e a7bc
00000190: 455f f23b 7755 4bbb 5fdf 6ebc 8fdb 8d3a
000001a0: b5fc ba3c ec4c 423c 0a07 873b 0280 83bc
000001b0: e81d 763c 0d16 e63c b52a bcb9 806c 963b
000001c0: 82c0 ef3b cc71 9abb 55a3 2abc f02b debc
000001d0: 93c1 f6bb 4fec 153d b7d8 603b 0141 02bc
000001e0: 60e7 ccba 4f78 af3b fc82 1c3c 8469 423b
000001f0: 7ded b7bc e7d7 1cb7 4f36 90bb c0d9 9fbc
00000200: 3bcc 3f3c dbc8 1b3d ff99 efbc 22de 9c3c
00000210: ad16 c4bc a524 e43c 3ddf a63a 67d0 ff3c
00000220: 808f 3fbc 999e 273c 4bcb c4bc d062 f9ba
00000230: 5ec4 a13b 37ac 0639 57af 673b 3d56 9abc
00000240: badf f43a 07aa 673c 4b96 f33b 56d3 32bd
00000250: 178b f13a 00cd 9dbb 6b3c d2bb 898c b7bc
00000260: 8027 f239 8ba4 093b d3cc 90bc 682d 8f3c
00000270: 7d04 f03b 4bf2 993c 87b9 243d 9a4d bbbc
00000280: db94 4dbc 7456 bfbc 6137 423c 63ae b43a
00000290: f07f e13b 2dea 4ebd cacb ac3b db98 a83b
000002a0: 63b1 8c3c 7715 503c bf6b 8f3c 3584 59b9
000002b0: 723c d03c 258a 943b 1c2b 213b 7190 903b
000002c0: af24 0b3c 875c e2bc 1a5b 7a3c e2ce aebc
000002d0: 3758 f43b efbd 20bc 1742 0fbc 2cc4 3abc
000002e0: 7ece 46bc 68a8 de3b 8b81 8abb e104 1fbb
000002f0: 1cd1 b8bb 15d0 503c b4c6 9ebc f906 4cbc
00000300: f915 4b3c 81d1 13bc 954b ee3b d835 cd3b
00000310: b107 c7ba bb33 a43c db6b 3abb 255b de3b
00000320: fbd8 803c 73da b1bb 33a8 173c 2486 a83c
00000330: 770d 993c 4b60 1d3c 239f 4dbc 020a d33c
00000340: be69 c93c 9f76 033b 9d11 24bc 096e 0c3d
00000350: 1a1e b9bc 5398 cb3b 104e 20bc ba74 2abd
00000360: 1cb9 18bd ea0a eb3b 1e2f 033c 1263 10bd
00000370: c9ef 853b dd0c 2c3c b336 413c 8013 54bc
00000380: 5a1d d33b 5f13 0ebc ee5d c83c 6217 22bc
00000390: 6fbe 06bc 87bc 1ebc 2a6d 53bc 8ad1 5b3c
000003a0: f3e1 b63c 5a05 d13b 7b85 ddbc e795 aa3c
000003b0: e2ec dbbc 436e d3bb 7600 9f3b 1b8f 863b
000003c0: 289f 01bd 12c3 c93c 737f 55bc 176b 7638
000003d0: 48b8 e33c 4ea5 b1bc 2b5d 8dbb 9405 b73c
000003e0: 140d 1c3c d8e0 33bc 384c e23c 0277 aabc
000003f0: cb7a 7cba a951 323c 6b29 51bc 0170 b2bb
0.020220475 -0.010043672 0.0015694698 -0.0052064285 -0.002318515 -0.009302259 -0.017321631 0.0077944235
-0.0038013489 -0.019306293 -0.00042369086 0.003763454 -0.010857302 0.05267043 0.025146568 0.04376803
0.027473921 -0.0039007962 0.00055436994 0.025576724 -0.019843256 -0.038620494 0.010552661 -0.02268768
-0.03018712 0.02389994 -0.021205422 0.011160036 -0.018966785 -0.007372585 0.038835898 0.009765773
0.016986655 -0.009428383 0.011261778 0.041958135 0.012630067 -0.018047921 0.0007748375 -0.0027644418
0.0036423695 0.0124217775 9.8412114e-05 -0.010481692 0.02462981 -0.015133885 -0.013794548 -0.007401358
-0.0007944726 0.032943454 0.009943765 0.014900389 -0.026215827 -0.008876392 -0.02292973 -0.0127053475
0.024941903 0.011713258 -0.004587048 0.02562894 0.00662166 -0.009865467 -0.0061083273 0.021457376
-0.0077282623 0.009660896 0.0034349316 -0.0030582368 0.0022136199 -0.0095103355 -0.014333906 -0.015530527
-0.004383276 -0.013393077 0.004822744 0.027303964 -0.0005245173 0.02059873 0.014041289 -0.0038423638
-0.017872142 0.015032649 0.02083886 0.010358603 0.016330544 -0.012167541 -0.005303101 -0.0045147003
-0.014263053 0.0057732007 0.013011073 -0.01613886 -0.0066715456 0.018208114 -0.003588909 0.048564546
-0.009480625 0.014650503 -0.011493963 -0.020408018 0.007396611 -0.0031026283 -0.014579623 0.001082288
0.022825578 0.01185916 0.004120712 -0.01605225 0.015021779 0.028086687 -0.00035889974 0.004590571
0.00731665 -0.0047132727 -0.010414918 -0.02712056 -0.0075304 0.036602315 0.003430886 -0.007950068
-0.001563292 0.005354918 0.0095527135 0.0029664943 -0.02245211 -9.348593e-06 -0.0044010053 -0.019513011
0.011706407 0.038033348 -0.029248236 0.01914889 -0.023936594 0.027849505 0.0012731325 0.031227304
-0.011691928 0.010230684 -0.024022719 -0.0019026641 0.004936739 0.00012843391 0.0035352313 -0.01883995
0.0018682398 0.014139659 0.007433688 -0.043658577 0.0018428293 -0.0048156977 -0.006415894 -0.02240588
0.00046187267 0.0021002616 -0.017675793 0.017477706 0.007324754 0.018792292 0.040215995 -0.022864152
-0.012547697 -0.023356654 0.011854024 0.0013784881 0.0068817064 -0.050516296 0.005273317 0.005145175
0.017174428 0.01270043 0.017507432 -0.00020743984 0.025419448 0.0045330697 0.0024592346 0.00441175
0.008492633 -0.027632011 0.015280509 -0.021338884 0.007456805 -0.009810909 -0.008743784 -0.01139931
-0.0121341925 0.006794978 -0.0042268685 -0.0024264383 -0.005640162 0.012744923 -0.019381858 -0.012452834
0.012395375 -0.009022118 0.0072721937 0.006262522 -0.0015184787 0.020044198 -0.0028445635 0.0067857676
0.015728464 -0.0054276525 0.00925641 0.020571776 0.018683178 0.009605478 -0.012550148 0.025761608
0.024586555 0.0020059717 -0.010013965 0.034284625 -0.022597361 0.006213227 -0.009784237 -0.041615225
-0.03728591 0.007172932 0.008006839 -0.03525073 0.0040874225 0.010501114 0.0117928265 -0.012944102
0.006442708 -0.008671611 0.024458852 -0.00989327 -0.008224114 -0.009688503 -0.012904445 0.013416657
0.022324538 0.006378812 -0.027041188 0.020823432 -0.026846353 -0.006452353 0.00485235 0.004106415
-0.031645924 0.02462915 -0.013030875 5.8750706e-05 0.027797833 -0.021685269 -0.004314085 0.022341527
0.009524602 -0.0109789 0.027624235 -0.0208087 -0.00096313347 0.010883727 -0.0127662225 -0.005445481

action_model._continuous_distribution.mu.bias f4 [51]
00000000: 0000 0000 0000 0000 0000 0000 0000 0000
00000010: 0000 0000 0000 0000 0000 0000 0000 0000
00000020: 0000 0000 0000 0000 0000 0000 0000 0000
00000030: 0000 0000 0000 0000 0000 0000 0000 0000
00000040: 0000 0000 0000 0000 0000 0000 0000 0000
00000050: 0000 0000 0000 0000 0000 0000 0000 0000
00000060: 0000 0000 0000 0000 0000 0000 0000 0000
00000070: 0000 0000 0000 0000 0000 0000 0000 0000
00000080: 0000 0000 0000 0000 0000 0000 0000 0000
00000090: 0000 0000 0000 0000 0000 0000 0000 0000
000000a0: 0000 0000 0000 0000 0000 0000 0000 0000
000000b0: 0000 0000 0000 0000 0000 0000 0000 0000
000000c0: 0000 0000 0000 0000 0000 0000
0.0 0.0 0.0 0.0 0.0 0.0 0.0 0.0
0.0 0.0 0.0 0.0 0.0 0.0 0.0 0.0
0.0 0.0 0.0 0.0 0.0 0.0 0.0 0.0
0.0 0.0 0.0 0.0 0.0 0.0 0.0 0.0
0.0 0.0 0.0 0.0 0.0 0.0 0.0 0.0
0.0 0.0 0.0 0.0 0.0 0.0 0.0 0.0
0.0 0.0 0.0

action_model._discrete_distribution.branches.0.weight f4 [1, 128]
00000000: 09cf 313c 32e3 d1bb 98f9 f9bb f762 f33b
00000010: a5ca 9fbb 82bf fd3b da1f 6abb bcc6 2e3b
00000020: 285c d83a 191b 07bc 2dfb 46ba 5a27 f03b
00000030: 2d42 dd3b 7aba 013c 8275 d53a fb98 fb3b
00000040: 2fdf 7f3a f31e b9bb e7cd 6bbb f879 5bbc
00000050: e64d 3a3b af8a e13b cf00 13bc 204f efbb
00000060: e5f6 42bb cbd4 d33b 37df 5c3c 67d5 e23b
00000070: caea c9bb e38c 933b 3bec 1ebc 57e0 003b
00000080: 033d 69bc a845 263b 4bf1 053c 3de2 c53c
00000090: 8534 0abc b7fe 1bbc 6310 17bc 0b98 bf3b
000000a0: eba6 b6bb 74d7 b23a 0f5c 24bc ffa8 f1bc
000000b0: b028 3cbb 1901 10bc c8f2 fc3b aa0a ed3a
000000c0: 9260 d7bb 2e35 b5bb 8775 bbba 73b6 593c
000000d0: 2d79 4a3b 68da fd3b b8f1 d43a 30e2 493c
000000e0: 1177 9b3b 0741 a2ba 3b8d 03bc 5734 8cbb
000000f0: 6402 1b3c eae7 26bc d3f1 823c 187d bcba
00000100: 1309 b63a 12fe 70bc 02d6 533b 9b63 a13b
00000110: 63a8 333a c7c9 91b9 53c1 0a3c b9eb 94bc
00000120: ff16 35bc 42e0 a3ba 49bf 2d3c 528d 9fbb
00000130: efb0 e03b b363 f53b e312 02b9 d948 c6bb
00000140: ec09 99bb f6b5 a03c 7229 3839 abd0 0ebc
00000150: bea1 203c dfec 13bc 1bcc 62bc 6806 35bb
00000160: 13c1 71bc 1c32 1e3c 3cb3 8f3b b51d b5bb
00000170: e36f 503b 25cc 69bc 3677 0e3c 9370 e3ba
00000180: 3378 203a ca69 f23b 1375 71ba ef43 833c
00000190: ab41 813a 541c b9bb 12a0 e8ba e59f 89bb
000001a0: e01a 153b a2df 663b e03c 6fbb 27f5 f4ba
000001b0: 7ecc b138 cdf1 9abb 872e 283b a901 413c
000001c0: 524f 96bb 232d 903b eb14 24bb 4d71 363c
000001d0: 181f 223c 8fdd 9eba 9a0a 0e3b 1bb3 dbbb
000001e0: af8f e4bb 82d3 98bc 22c9 8bbc a3d5 6c37
000001f0: 60fc 8ebb 8b35 743b 95eb 15bc f016 bdbb
0.010852584 -0.0064052576 -0.007628631 0.007427569 -0.004876452 0.007743777 -0.0035724551 0.0026668748
0.0016506957 -0.008246207 -0.00075905287 0.00732891 0.0067522735 0.007917995 0.001628563 0.007678149
0.0009760735 -0.0056494414 -0.0035980882 -0.013395779 0.0028427779 0.0068829875 -0.008972361 -0.0073031336
-0.0029749211 0.006464576 0.013480953 0.006922412 -0.0061620222 0.004502879 -0.009699876 0.0019664967
-0.014235738 0.0025371108 0.0081752045 0.02415573 -0.008435373 -0.009521178 -0.0092202155 0.0058469824
-0.0055740974 0.0013644532 -0.010031714 -0.029499529 -0.0028710775 -0.008789324 0.0077193715 0.0018084843
-0.0065727914 -0.005530021 -0.0014301994 0.013288128 0.003089498 0.0077469833 0.0016246354 0.012321994
0.0047444184 -0.0012378999 -0.008029277 -0.0042787003 0.009461019 -0.010187129 0.015984451 -0.0014380543
0.0013888202 -0.014709013 0.0032323604 0.004925204 0.00068533997 -0.0002780689 0.008468944 -0.018178808
-0.011052846 -0.0012502747 0.010604688 -0.0048691416 0.0068570296 0.0074886917 -0.00012404802 -0.0060511646
-0.004670372 0.019618016 0.00017563047 -0.0087167425 0.009804187 -0.009028642 -0.013842608 -0.0027622227
-0.014755505 0.009655502 0.00438538 -0.005527223 0.003180497 -0.014269863 0.008695414 -0.0017352275
0.00061214267 0.007397865 -0.0009210866 0.016023604 0.000986149 -0.005649129 -0.00177479 -0.004199969
0.0022751614 0.003522851 -0.003650479 -0.0018688784 8.478107e-05 -0.004728532 0.0025662498 0.011780181
-0.0045870924 0.004399912 -0.0025036882 0.011135411 0.009895109 -0.0012120473 0.00216738 -0.0067047006
-0.006975136 -0.018655542 -0.017063681 1.4116437e-05 -0.0043635815 0.003726336 -0.009150405 -0.0057705566

onnx::LSTM_116 f4 [1, 512, 128]
00000000: c061 c0bc d26e 963d e019 873c 9f4d 01be
00000010: f8fa d0bc c846 8c3c a75f 1c3e aede 88bd
00000020: 446c 73bd b8c5 ac3c 0486 2f3d 3dfe 92bd
00000030: e1c4 18be 807b debb 4024 f5bb 569f ad3d
00000040: d26c 903d e078 9d3d 0535 c9bd 5230 b33d
00000050: 9a3b 983d 7e9c d73d f02f 6d3c 367e b6bd
00000060: 0a41 51bd 3d2a 9bbd 2c95 50bd c269 ecbd
00000070: 3f62 083e de3b 943d 269b 09bd 60d4 92bb
00000080: 22d2 ed3d 95a5 0dbe d683 823d a0cb f43c
00000090: 22e8 f73d f296 7fbd 5329 033e 84f8 2ebd
000000a0: 8374 eebd 94cc 0dbe f4f1 453d f2af ae3d
000000b0: 604d dabb d329 163e 92db 4dbd c208 f73d
000000c0: 3fc8 abbd dc5b 703d 0d33 b7bd 362e de3d
000000d0: 1c3f 7dbd c2d7 9b3d 5e1e 04bd e03b 6a3d
000000e0: 6204 16be c4fd 9d3d d061 e1bc c07d b4bd
000000f0: 282e 063d b62c b63d 40bd b6bc 6086 643c
00000100: e2dc 05bd a00d a4bb 7901 173e 6ab1 dd3d
00000110: 6ec0 ce3d 6816 c1bc f8f1 203d b6ae e93d
00000120: b0cd 073c d6d6 9d3d c392 063e 3bf4 013e
00000130: e099 dd3b 541c 913d 63d5 9cbd b6bf ae3d
00000140: 40a0 493b dc5f f0bc 802b 823c 5c52 1f3d
00000150: 5cc7 893d 260e db3d e453 bfbd 8eb6 02bd
00000160: bb11 193e 505e 2fbc 6da7 a7bd f445 2ebd
00000170: 2a1e ecbd 0090 0a3a 004e 103c 26e3 08be
00000180: 8011 5cbc 14ed 1fbd 787b 9bbc b09b 983d
00000190: 586f e73c 8068 fe3a 94d3 863d b070 e33c
000001a0: f2b6 ae3d dadc e43d d513 a2bd 0044 0dba
000001b0: 5441 d2bd 407a 0abe 0069 50bc 00a9 4f3a
000001c0: 8123 0c3e 6665 95bd 5363 04be 28b8 39bd
000001d0: fc51 e1bd 2529 c7bd e748 1abe 28de babd
000001e0: 1ab8 2abd 1fea 19be f68b 0abe 8476 f8bd
000001f0: 4ae2 e03d 64f8 213d 52f0 f93d a0d5 e1bd
00000200: 9ce0 ab3d a8b8 ebbd 6a85 e43d ae24 07be
00000210: cf27 a2bd 80cb c43a 1097 83bc 1667 e73d
00000220: a014 7fbc 54f3 003d 0aec a4bd 217a 07be
00000230: 6682 f4bd f363 0a3e 50c8 20bc 4065 5b3d
00000240: 90d8 7b3c 9449 273d cf8a 003e eacc 8bbd
00000250: 539f 03be bf74 0f3e 208f 58bc 9ac3 ecbd
00000260: 3837 d1bc f607 c0bd d572 073e 8086 2fbc
00000270: 6021 a03c 1c9f a2bd f1b7 163e 90c7 5d3d
00000280: e541 d4bd 42d1 4fbd e73c dbbd 5b66 0bbe
00000290: 8981 073e 32dc c7bd b2c5 68bd 3843 113d
000002a0: 4810 e3bd e079 ddbb d671 e7bd ef8a 15be
000002b0: 2c48 aabd fb16 0d3e 681e 17be ba19 fd3d
000002c0: 1ec1 30bd 5899 4a3d c2e5 52bd ac8a 953d
000002d0: 6006 733d 52a6 d1bd b2f1 d13d b40c 59bd
000002e0: 8c9b 5fbd 32ee e53d 0826 a13d 80d3 96bb
000002f0: 07b0 01be 6ede a53d 803d 9dbc a72c 1bbe
00000300: 38c8 943d 408e 8c3d 3810 b93c c1d3 1bbe
00000310: ac92 13bd 2fba b5bd 39e4 d7bd 3658 cb3d
00000320: d604 babd 354d 0b3e c02d bcbd 2d76 0bbe
00000330: 8ee6 e63d b6f7 e63d d83a 4fbd 188d cd3c
00000340: 0018 ad3a bc3e 09be 00d1 453c f17f 9dbd
00000350: 8d44 11be fe5c fe3d 2bea 113e 4efa e33d
00000360: 28b7 e43c 9e59 d7bd 727b 9fbd f817 0d3d
00000370: 7cc1 11bd 2af8 bfbd 7da7 1bbe 4030 2bbb
00000380: e4f5 09be 5f5f 86bd b0de 13be a011 553d
00000390: 50f2 50bd da94 bfbd d387 82bd 566c 18be
000003a0: 60ad 1e3c e0b5 2d3d b41b 223d 46b1 9c3d
000003b0: 90e1 0a3c 4977 103e 532a 98bd 0e4d 7fbd
000003c0: 8057 51bb cccb 06bd 401d 2cbd 88de 023d
000003d0: c826 db3c 08d3 1bbe 0059 9bbb 3526 1a3e
000003e0: 980a dabd 6abc e23d 8172 a6bd b852 17bd
000003f0: fc80 c5bd 8c4d 5f3d a683 00be c027 833b
-0.02348411 0.07345356 0.01649183 -0.12627266 -0.025510296 0.017123595 0.15270863 -0.06683098
-0.059429422 0.021090373 0.042852417 -0.07177398 -0.14918853 -0.0067896247 -0.007481128 0.084776565
0.07052006 0.07689071 -0.09824566 0.08749451 0.07433243 0.105278954 0.014476761 -0.089107916
-0.051087417 -0.07576416 -0.05092351 -0.11543609 0.13318728 0.07237981 -0.033595227 -0.0044808835
0.11612345 -0.13832696 0.06372802 0.029882252 0.12104823 -0.062399812 0.12808733 -0.04271747
-0.116433166 -0.13847572 0.048326448 0.08529653 -0.006662056 0.14664392 -0.050258227 0.12062217
-0.08387803 0.058681354 -0.08945284 0.10848658 -0.061827764 0.07609512 -0.032255523 0.057186007
-0.1465011 0.077144176 -0.027512461 -0.088130474 0.03275886 0.08895247 -0.022307038 0.013948053
-0.032681353 -0.005006507 0.14746656 0.10824855 0.10095297 -0.023570254 0.03929326 0.114102766
0.008288786 0.07706992 0.13141923 0.12690823 0.006762728 0.07085481 -0.07657888 0.0853266
0.0030765682 -0.029342584 0.015889883 0.038896903 0.06727478 0.10696058 -0.09342173 -0.03191238
0.1494817 -0.010703638 -0.08186231 -0.04254718 -0.11529191 0.000528574 0.008807659 -0.133679
-0.013431907 -0.039044455 -0.018979773 0.0745157 0.028251335 0.0019409806 0.06583324 0.027763695
0.08530988 0.111749366 -0.07913939 -0.0005388856 -0.102663666 -0.13523197 -0.012720346 0.00079216063
0.13685419 -0.07294731 -0.12928514 -0.04534164 -0.110019654 -0.097246446 -0.15066873 -0.09124404
-0.04167948 -0.15030716 -0.13529953 -0.1213198 0.10980661 0.039543524 0.122040406 -0.11027074
0.0839245 -0.1150983 0.11158259 -0.13197586 -0.07917749 0.0015014261 -0.016063243 0.11298959
-0.015568882 0.031482056 -0.080528334 -0.13230182 -0.11938934 0.1351469 -0.009813383 0.053563356
0.015371457 0.040841654 0.12552951 -0.06826194 -0.12853746 0.14009379 -0.013217717 -0.115607455
-0.025539026 -0.093765184 0.13227399 -0.01071322 0.019547164 -0.07940504 0.14718606 0.054145396
-0.10364131 -0.050736673 -0.107049756 -0.13613264 0.13233007 -0.09758796 -0.056829162 0.035464495
-0.1108709 -0.0067589134 -0.11301009 -0.1460378 -0.08314547 0.13778298 -0.14757693 0.123584226
-0.04315292 0.049462646 -0.051488645 0.0730184 0.05933225 -0.10236801 0.10251178 -0.05299063
-0.0545917 0.11227073 0.07868582 -0.0046028495 -0.12664805 0.08099066 -0.019194365 -0.15153752
0.07264751 0.068630695 0.022590742 -0.15217496 -0.03602855 -0.08873402 -0.10541577 0.09928934
-0.09082954 0.13603671 -0.091884136 -0.13619299 0.112744436 0.11277716 -0.050593227 0.025091693
0.0013206005 -0.13402838 0.012073755 -0.076904185 -0.14186306 0.124200806 0.14249484 0.11131726
0.027919367 -0.1051514 -0.07787217 0.034446687 -0.03558491 -0.093735054 -0.1520061 -0.0026121289
-0.13472706 -0.06561159 -0.14440417 0.05201876 -0.051012337 -0.09354563 -0.06373563 -0.14885077
0.0096848905 0.042409778 0.0395772 0.07651 0.00847663 0.14108004 -0.07429948 -0.062329344
-0.0031943023 -0.0329092 -0.042020082 0.031950504 0.02675189 -0.15217221 -0.0047408342 0.15053637
-0.10646552 0.110710934 -0.08127309 -0.03694412 -0.096437424 0.054517314 -0.1255022 0.0040025413

onnx::LSTM_117 f4 [1, 512, 128]
00000000: 86d9 d93d 801c 78bc 4e21 a23d 0c42 043d
00000010: a1e4 fbbd 0a08 14bd e4fe adbd 27dd 0fbe
00000020: d2e1 cf3d 142f 933d df32 15be 2015 3ebc
00000030: 0e68 01be 40d8 18be f4fd 753d 3c58 1abe
00000040: 780e e4bc 8060 903b 30f5 4f3d 803b b3bc
00000050: 803d 483c 1e09 d13d 4aba 0abd 7261 d13d
00000060: 9e22 f03d 5ca3 7a3d 0c10 1d3d f0ff 05bc
00000070: 4292 c83d bcc9 b53d 368e d33d 4075 ee3b
00000080: 4c60 b43d 47ba 0c3e 2232 f43d 9673 16bd
00000090: 088f 3f3d e031 e93b 028c f23d f2d6 e8bd
000000a0: 095b 103e 4682 ec3d 5ef1 bcbd 9048 fe3c
000000b0: c0b6 93bb 043f bd3d 7e48 c63d 1eed e83d
000000c0: daf4 dbbd b0ef 403d 7a04 7abd cd4e 16be
000000d0: 264b c4bd 3082 c13c dfcf 07be 4b91 d7bd
000000e0: 8c98 523d 681f 46bd dc79 b8bd 6009 edbb
000000f0: 54ba 1dbd 4b50 0c3e 40e0 9f3c e214 b83d
00000100: b0a1 0c3d de53 c3bd c035 1c3c 9ed2 a13d
00000110: 0ba3 093e 1a27 efbd f66b f5bd c0c6 c0bb
00000120: fe9d c8bd 002e 4f3a d6c0 de3d de51 983d
00000130: 88b8 be3d 4e96 e4bd 16a8 d83d 00cf 0dbb
00000140: a8ff 9abc c897 15bd 604a ae3c fd5c cbbd
00000150: 40b8 20bd ccb1 183d 5072 103c 20bf fd3c
00000160: 6d7e 0dbe 882d e2bc 4e76 b53d 322c e93d
00000170: 7b89 1c3e a476 5a3d 5043 6c3c 7823 7f3d
00000180: 26c2 11bd babd d83d a36d 103e 69d6 013e
00000190: f865 12be 80bf 9bba e685 963d 94ec 1b3d
000001a0: 6002 713d 3613 e83d 3aee ee3d 9415 343d
000001b0: 096e 1a3e 76ba 1fbd 27d4 82bd ba22 cbbd
000001c0: ac97 803d 37aa e7bd 11b9 073e 8c77 3c3d
000001d0: c006 97bc 847d 40bd c4ad ffbd 529c dd3d
000001e0: 1634 d73d 004a c9b9 32f6 37bd 9e9e 05be
000001f0: f082 01bd 60d5 3a3c 90d7 2abc 302a e1bc
00000200: b813 7e3d d22e f3bd 30bc 473d dc19 433d
00000210: 0704 193e a476 edbc 24c8 06be 781e 853d
00000220: e16e debd 40ca 423d 8692 943d e0b6 e2bc
00000230: 3c21 8b3d 5a8a f33d a0cc 803c 80c1 03bc
00000240: 24d2 6b3d 0aaf b93d 483a 203d bc22 61bd
00000250: 426c 80bd d068 cd3c c608 07bd f0bb 57bc
00000260: 2e67 db3d e26e 58bd 5b11 8bbd fa96 28bd
00000270: 345a 1b3d 36d1 e53d 8ce3 5d3d a62e eb3d
00000280: 90ea 8f3d ec4f 3b3d a026 c83b 013f babd
00000290: 7c49 1a3d 7c6f f9bc e8be aebc 80e7 a03c
000002a0: 60a7 a53b 00cf debd 215d adbd a84a 95bc
000002b0: 983b bf3d 785b b83d 5663 853d e6e1 abbd
000002c0: de4e 11be 7aef e33d a27d c8bd 199d e6bd
000002d0: f415 5b3d 78d5 96bd e258 e33d e0f9 ea3c
000002e0: 28b2 d2bd 3271 f33d 76ab 6cbd b0c7 f43c
000002f0: 2c95 933d ae95 05be 92d5 8c3d 95a6 033e
00000300: b127 fabd 005f 30bc c7da 063e 8747 9abd
00000310: 72e8 cf3d 1ffc 8abd 487b ec3c b7a7 95bd
00000320: 546f 24bd 4446 e6bd 6cd2 2a3d f381 053e
00000330: 06c0 edbd d22f 1fbd f855 e13c 2393 b3bd
00000340: 46b8 e63d 5c85 05be c0f8 81bb 3811 173d
00000350: 785a 183d 8e90 51bd e00b 5abd deb0 07bd
00000360: 0a72 9cbd 704e ba3d f100 013e a94a a7bd
00000370: 9805 b03c 0278 cd3d b453 0a3d 4a32 8f3d
00000380: 669c bb3d 98d2 85bd 421d e03d c029 433d
00000390: caf8 7fbd 740a e6bd 607e a6bc f079 18bd
000003a0: 0de4 07be d083 cd3c 949a 773d 0862 2d3d
000003b0: 6034 44bc ba4a f63d c997 0d3e 3ccb 503d
000003c0: 13d4 123e 43de 92bd 62b2 b03d 3b6f 0dbe
000003d0: 3070 0e3c b441 a7bd b231 1bbd 0475 963d
000003e0: 8416 6e3d b96a 89bd b006 143c 4078 c9bb
000003f0: 8711 a9bd 547f 96bd 44bb 01be 7ede 00bd
0.106371924 -0.015143514 0.079165086 0.03228955 -0.12299467 -0.03614048 -0.08495882 -0.14049207
0.10150494 0.07186714 -0.14570187 -0.011601716 -0.1263735 -0.14926243 0.06005664 -0.15072721
-0.02783893 0.004406035 0.05077094 -0.021878958 0.012221694 0.10206817 -0.033869065 0.10223664
0.11725353 0.061190948 0.03834538 -0.008178696 0.097935215 0.088763684 0.10329859 0.007277161
0.0880743 0.13742934 0.119236246 -0.036731325 0.046767265 0.0071165413 0.118431106 -0.113691226
0.14097227 0.11548285 -0.09225725 0.03104046 -0.0045078695 0.09240535 0.096817955 0.113733515
-0.10740061 0.047103584 -0.061039425 -0.14678498 -0.09584646 0.023621649 -0.1326289 -0.10525759
0.05141501 -0.048369795 -0.09007618 -0.0072337836 -0.038507774 0.13702504 0.01951611 0.08988358
0.034333885 -0.09537481 0.009534299 0.079015 0.13441102 -0.1167738 -0.119834825 -0.005883068
-0.097957596 0.0007903278 0.10876624 0.0743749 0.0931254 -0.11161481 0.10578935 -0.0021638274
-0.018920735 -0.036521703 0.0212757 -0.099298455 -0.039238214 0.037278935 0.008816317 0.030974925
-0.13817759 -0.027609602 0.088604555 0.11385383 0.1528682 0.0533358 0.014420345 0.062289685
-0.035585545 0.105830625 0.14104323 0.12679447 -0.1429671 -0.0011882633 0.07349758 0.038067415
0.058840156 0.11331789 0.11666532 0.04396589 0.15081038 -0.038996182 -0.06388121 -0.09918733
0.06278929 -0.11311763 0.13254191 0.046012446 -0.018435836 -0.0469947 -0.12484315 0.10820831
0.105079815 -0.00038392842 -0.044912525 -0.13048789 -0.031619012 0.011403412 -0.010427371 -0.027485937
0.062030524 -0.11874165 0.048763454 0.047632083 0.14942943 -0.028987236 -0.13162285 0.06499952
-0.10860992 0.047556162 0.0725451 -0.027675092 0.06793448 0.11891623 0.015722573 -0.008041739
0.057573453 0.09066589 0.03911808 -0.054964766 -0.062706485 0.025074393 -0.03296735 -0.013167366
0.10713039 -0.05284012 -0.0679042 -0.041159607 0.03792782 0.112215444 0.054172084 0.11483507
0.07027161 0.045730516 0.00610812 -0.09094048 0.037667736 -0.030448668 -0.021331266 0.019641638
0.005055353 -0.10879326 -0.084650286 -0.018224075 0.093375385 0.09001821 0.065130875 -0.08392696
-0.14190242 0.11129661 -0.097895876 -0.11260433 0.053487733 -0.07364935 0.111009374 0.028683603
-0.10287887 0.11886825 -0.057780705 0.029880375 0.07206187 -0.1304538 0.06876673 0.12856515
-0.12214602 -0.010764837 0.13169394 -0.07533174 0.10151757 -0.067863695 0.028867379 -0.0730738
-0.040145233 -0.11243871 0.04170458 0.13037853 -0.11608891 -0.038863964 0.027506813 -0.087682985
0.11265616 -0.13039154 -0.003966421 0.036881655 0.037195653 -0.05116325 -0.05323398 -0.033127658
-0.07638939 0.09096992 0.12598015 -0.08168537 0.021487042 0.10032655 0.03377123 0.06992014
0.0916069 -0.06534308 0.109430805 0.047647238 -0.062493123 -0.112324625 -0.020323932 -0.037225664
-0.13270588 0.025087267 0.06045015 0.042329818 -0.011975378 0.12025972 0.13827433 0.05097507
0.14338712 -0.07171299 0.08627774 -0.13811962 0.00869374 -0.08166829 -0.03788919 0.07346538
0.05812694 -0.06709809 0.009034798 -0.006148368 -0.08255296 -0.07348505 -0.12669092 -0.031462185

onnx::LSTM_118 f4 [1, 1024]
00000000: 0000 0000 0000 0000 0000 0000 0000 0000
00000010: 0000 0000 0000 0000 0000 0000 0000 0000
00000020: 0000 0000 0000 0000 0000 0000 0000 0000
00000030: 0000 0000 0000 0000 0000 0000 0000 0000
00000040: 0000 0000 0000 0000 0000 0000 0000 0000
00000050: 0000 0000 0000 0000 0000 0000 0000 0000
00000060: 0000 0000 0000 0000 0000 0000 0000 0000
00000070: 0000 0000 0000 0000 0000 0000 0000 0000
00000080: 0000 0000 0000 0000 0000 0000 0000 0000
00000090: 0000 0000 0000 0000 0000 0000 0000 0000
000000a0: 0000 0000 0000 0000 0000 0000 0000 0000
000000b0: 0000 0000 0000 0000 0000 0000 0000 0000
000000c0: 0000 0000 0000 0000 0000 0000 0000 0000
000000d0: 0000 0000 0000 0000 0000 0000 0000 0000
000000e0: 0000 0000 0000 0000 0000 0000 0000 0000
000000f0: 0000 0000 0000 0000 0000 0000 0000 0000
00000100: 0000 0000 0000 0000 0000 0000 0000 0000
00000110: 0000 0000 0000 0000 0000 0000 0000 0000
00000120: 0000 0000 0000 0000 0000 0000 0000 0000
00000130: 0000 0000 0000 0000 0000 0000 0000 0000
00000140: 0000 0000 0000 0000 0000 0000 0000 0000
00000150: 0000 0000 0000 0000 0000 0000 0000 0000
00000160: 0000 0000 0000 0000 0000 0000 0000 0000
00000170: 0000 0000 0000 0000 0000 0000 0000 0000
00000180: 0000 0000 0000 0000 0000 0000 0000 0000
00000190: 0000 0000 0000 0000 0000 0000 0000 0000
000001a0: 0000 0000 0000 0000 0000 0000 0000 0000
000001b0: 0000 0000 0000 0000 0000 0000 0000 0000
000001c0: 0000 0000 0000 0000 0000 0000 0000 0000
000001d0: 0000 0000 0000 0000 0000 0000 0000 0000
000001e0: 0000 0000 0000 0000 0000 0000 0000 0000
000001f0: 0000 0000 0000 0000 0000 0000 0000 0000
00000200: 0000 0000 0000 0000 0000 0000 0000 0000
00000210: 0000 0000 0000 0000 0000 0000 0000 0000
00000220: 0000 0000 0000 0000 0000 0000 0000 0000
00000230: 0000 0000 0000 0000 0000 0000 0000 0000
00000240: 0000 0000 0000 0000 0000 0000 0000 0000
00000250: 0000 0000 0000 0000 0000 0000 0000 0000
00000260: 0000 0000 0000 0000 0000 0000 0000 0000
00000270: 0000 0000 0000 0000 0000 0000 0000 0000
00000280: 0000 0000 0000 0000 0000 0000 0000 0000
00000290: 0000 0000 0000 0000 0000 0000 0000 0000
000002a0: 0000 0000 0000 0000 0000 0000 0000 0000
000002b0: 0000 0000 0000 0000 0000 0000 0000 0000
000002c0: 0000 0000 0000 0000 0000 0000 0000 0000
000002d0: 0000 0000 0000 0000 0000 0000 0000 0000
000002e0: 0000 0000 0000 0000 0000 0000 0000 0000
000002f0: 0000 0000 0000 0000 0000 0000 0000 0000
00000300: 0000 0000 0000 0000 0000 0000 0000 0000
00000310: 0000 0000 0000 0000 0000 0000 0000 0000
00000320: 0000 0000 0000 0000 0000 0000 0000 0000
00000330: 0000 0000 0000 0000 0000 0000 0000 0000
00000340: 0000 0000 0000 0000 0000 0000 0000 0000
00000350: 0000 0000 0000 0000 0000 0000 0000 0000
00000360: 0000 0000 0000 0000 0000 0000 0000 0000
00000370: 0000 0000 0000 0000 0000 0000 0000 0000
00000380: 0000 0000 0000 0000 0000 0000 0000 0000
00000390: 0000 0000 0000 0000 0000 0000 0000 0000
000003a0: 0000 0000 0000 0000 0000 0000 0000 0000
000003b0: 0000 0000 0000 0000 0000 0000 0000 0000
000003c0: 0000 0000 0000 0000 0000 0000 0000 0000
000003d0: 0000 0000 0000 0000 0000 0000 0000 0000
000003e0: 0000 0000 0000 0000 0000 0000 0000 0000
000003f0: 0000 0000 0000 0000 0000 0000 0000 0000
0.0 0.0 0.0 0.0 0.0 0.0 0.0 0.0
0.0 0.0 0.0 0.0 0.0 0.0 0.0 0.0
0.0 0.0 0.0 0.0 0.0 0.0 0.0 0.0
0.0 0.0 0.0 0.0 0.0 0.0 0.0 0.0
0.0 0.0 0.0 0.0 0.0 0.0 0.0 0.0
0.0 0.0 0.0 0.0 0.0 0.0 0.0 0.0
0.0 0.0 0.0 0.0 0.0 0.0 0.0 0.0
0.0 0.0 0.0 0.0 0.0 0.0 0.0 0.0
0.0 0.0 0.0 0.0 0.0 0.0 0.0 0.0
0.0 0.0 0.0 0.0 0.0 0.0 0.0 0.0
0.0 0.0 0.0 0.0 0.0 0.0 0.0 0.0
0.0 0.0 0.0 0.0 0.0 0.0 0.0 0.0
0.0 0.0 0.0 0.0 0.0 0.0 0.0 0.0
0.0 0.0 0.0 0.0 0.0 0.0 0.0 0.0
0.0 0.0 0.0 0.0 0.0 0.0 0.0 0.0
0.0 0.0 0.0 0.0 0.0 0.0 0.0 0.0
0.0 0.0 0.0 0.0 0.0 0.0 0.0 0.0
0.0 0.0 0.0 0.0 0.0 0.0 0.0 0.0
0.0 0.0 0.0 0.0 0.0 0.0 0.0 0.0
0.0 0.0 0.0 0.0 0.0 0.0 0.0 0.0
0.0 0.0 0.0 0.0 0.0 0.0 0.0 0.0
0.0 0.0 0.0 0.0 0.0 0.0 0.0 0.0
0.0 0.0 0.0 0.0 0.0 0.0 0.0 0.0
0.0 0.0 0.0 0.0 0.0 0.0 0.0 0.0
0.0 0.0 0.0 0.0 0.0 0.0 0.0 0.0
0.0 0.0 0.0 0.0 0.0 0.0 0.0 0.0
0.0 0.0 0.0 0.0 0.0 0.0 0.0 0.0
0.0 0.0 0.0 0.0 0.0 0.0 0.0 0.0
0.0 0.0 0.0 0.0 0.0 0.0 0.0 0.0
0.0 0.0 0.0 0.0 0.0 0.0 0.0 0.0
0.0 0.0 0.0 0.0 0.0 0.0 0.0 0.0
0.0 0.0 0.0 0.0 0.0 0.0 0.0 0.0
