results/try-27/My Behavior.onnx (onnx, 693209 bytes, 10 tensors)

network_body._body_endoder.seq_layers.0.weight f4 [128, 122]
0.013313229 -0.068584755 0.038268562 -0.047501616 -0.0756436 0.042229887 0.06737266 -0.0029378948
0.09380366 -0.09046095 0.032679934 -0.02167912 -0.07354321 0.13243909 0.029717311 0.010824531
0.0051996005 -0.12748455 -0.028930355 0.10872816 0.07891534 -0.047330078 -0.06666353 -0.031496666
0.08304038 -0.054637168 0.10496357 -0.007424689 0.10619434 0.084782876 0.056288138 -0.0027166384
-0.111182176 0.03919056 0.009536362 0.10127692 -0.036458198 0.057507165 0.021143349 0.07137645
-0.119187415 0.014738611 -0.03938499 -0.018585231 0.1569875 0.030221958 0.112562254 0.00033716037
0.118193336 -0.022739103 0.05031541 -0.14074692 -0.03974092 0.044974048 -0.10320471 0.014097899
0.12003278 -0.016755255 -0.09478592 0.12917152 0.01882926 -0.046980616 0.07311059 0.07426937
-0.03040925 0.13666257 0.031536225 0.08071529 -0.07811584 0.027063584 -0.050090406 0.03341623
-0.118403584 -0.021366335 -0.13150251 0.010030936 -0.08466048 -0.116028085 -0.043027516 -0.01501908
-0.100967444 -0.10115546 -0.11762031 0.011796537 -0.003554405 0.15058754 0.11382328 0.06457792
-0.1251734 -0.061471283 -0.018869067 0.09394031 -0.067626275 -0.026587563 0.25369734 0.012809425
0.14913961 0.026154634 -0.018344129 -0.055561014 0.04849956 -0.029458571 0.1101643 0.051942106
0.04768979 0.09004621 -0.13066436 -0.050145283 0.05927653 0.059916213 0.018090878 0.1940042
-0.012668378 -0.02476164 0.09933451 -0.023503134 -0.03680913 -0.041595638 -0.0066785906 -0.012667894
0.07999185 -0.029326217 0.06943989 0.019977033 -0.050344005 -0.01899743 -0.09105346 -0.06055673
0.02678627 0.07110804 0.016999427 -0.08485574 0.016539304 -0.10730941 -0.035327338 0.061375845
0.24145074 -0.0006794698 -0.0018887812 0.06972592 0.075164124 -0.052671805 -0.04469314 -0.032428414
-0.017588839 -0.15932442 -0.17920068 0.13297562 0.010756945 0.1509565 -0.10545833 -0.05394236
-0.12446146 0.14369164 -0.054407287 0.113335475 -0.0995395 0.086569205 -0.075402305 0.13225517
-0.07746159 -0.06629099 -0.13275914 0.1419414 0.037429787 -0.113787964 -0.054084554 -0.050495222
0.085267484 -0.048401766 0.1319488 -0.048710167 -0.09934243 0.18040197 0.028685242 -0.09177193
-0.04948083 0.03326458 -0.09595955 -0.026611997 -0.027512772 0.07089387 0.0686908 -0.024586057
0.0210811 -0.11767808 -0.07406285 -0.1100054 0.060088824 -0.09621422 0.027340118 -0.21619266
0.08095521 -0.03974641 0.19298343 0.040440604 0.038954627 0.01729583 0.033908114 0.065769434
-0.12921935 -0.05463961 -0.13825572 -0.007962273 -0.02290095 -0.03997624 -0.037543043 -0.023822382
0.074291416 0.07692747 -0.00022736947 0.07971206 0.032511648 0.0722136 -0.004497758 0.016171822
-0.08222118 -0.041307125 -0.11832027 0.09341206 -0.16153638 -0.11155636 -0.055869285 -0.03659809
0.034018222 0.0053871158 0.03774165 0.05125227 0.12059713 0.057400763 -0.0020912108 0.016636284
-0.0032774408 0.07910985 -0.10809544 -0.016413512 -0.08828749 0.027213914 0.024308028 0.1309817
0.07038839 -0.090136774 -0.14887305 -0.20049891 -0.11780418 -0.1639666 -0.22271411 -0.0091978535
0.14972588 0.06535684 0.015445254 0.13620783 -0.013185704 -0.07326737 0.025264105 -0.068677336
00000000: bb1f 5a3c 2a76 8cbd 7fbf 1c3d 0e91 42bd
00000010: 08eb 9abd 3ff9 2c3d adfa 893d b289 40bb
00000020: 221c c03d 9743 b9bd 65db 053d 6998 b1bc
00000030: d39d 96bd 1d9e 073e b871 f33c 6059 313c
00000040: 6961 aa3b 4f8b 02be 5aff ecbc dfac de3d
00000050: 5e9e a13d 2fdd 41bd e486 88bd a602 01bd
00000060: 1311 aa3d 39cb 5fbd 24f7 d63d ce4a f3bb
00000070: 6b7c d93d a5a2 ad3d 648e 663d a109 32bb
00000080: 7bb3 e3bd 4886 203d 673e 1c3c 466a cf3d
00000090: 3155 15bd a28c 6b3d d134 ad3c d12d 923d
000000a0: 8818 f4bd 377a 713c 2852 21bd 0e40 98bc
000000b0: 55c1 203e 0a94 f73c 0a87 e63d e6c4 b039
000000c0: 590f f23d 5b47 babc 8817 4e3d f61f 10be
000000d0: 60c7 22bd b536 383d fe5c d3bd e0fa 663c
000000e0: bfd3 f53d 5142 89bc 1f1f c2bd 8a45 043e
000000f0: d23f 9a3c bf6e 40bd 01bb 953d 8a1a 983d
00000100: d21c f9bc 46f1 0b3e 212c 013d 0f4e a53d
00000110: 33fb 9fbd 73b4 dd3c 992b 4dbd 75df 083d
00000120: 947d f2bd 7408 afbc 98a8 06be cc58 243c
00000130: 7962 adbd 22a0 edbd 9f3d 30bd 9612 76bc
00000140: 05c8 cebd 982a cfbd ebe2 f0bd 4346 413c
00000150: 05f1 68bb 9f33 1a3e 2e1c e93d 6e41 843d
00000160: 752d 00be 50c9 7bbd 4d93 9abc c763 c03d
00000170: a57f 8abd 29ce d9bc 9ee4 813e 9fde 513c
00000180: 0eb8 183e 3e42 d63c 6d46 96bc f293 63bd
00000190: 7aa7 463d 1a53 f1bc d29d e13d 3fc1 543d
000001a0: 5f56 433d 266a b83d e1cc 05be 2465 4dbd
000001b0: f2cb 723d b46a 753d 5233 943c 09a9 463e
000001c0: 078f 4fbc ecd8 cabc e46f cb3d a589 c0bc
000001d0: 2cc5 16bd 3060 2abd 14d8 dabb 008d 4fbc
000001e0: c4d2 a33d 893d f0bc 8036 8e3d e0a6 a33c
000001f0: 8435 4ebd 80a0 9bbc 3d7a babd 550a 78bd
00000200: e16e db3c 18a1 913d 6242 8b3c d9c8 adbd
00000210: 6f7d 873c 09c5 dbbd 66b3 10bd 3d65 7b3d
00000220: dd3e 773e 721e 32ba fb90 f7ba 77cc 8e3d
00000230: a6ef 993d 64be 57bd 2710 37bd a8d3 04bd
00000240: 7816 90bc f125 23be 6280 37be c32a 083e
00000250: e63d 303c 5794 1a3e 89fa d7bd aaf2 5cbd
00000260: a6e5 febd e723 133e 2dda 5ebd 6e1c e83d
00000270: 5edb cbbd 324b b13d 866c 9abd e66d 073e
00000280: 2fa4 9ebd 92c3 87bd 03f2 07be 1659 113e
00000290: fa4f 193d aa09 e9bd c487 5dbd 14d4 4ebd
000002a0: b8a0 ae3d ee40 46bd 961d 073e 5084 47bd
000002b0: 0b74 cbbd 4bbb 383e 50fd ea3c ecf2 bbbd
000002c0: 69ac 4abd 7140 083d 7186 c4bd 6701 dabc
000002d0: 7762 e1bc ce30 913d c3ad 8c3d b368 c9bc
000002e0: 45b2 ac3c 3501 f1bd 43ae 97bd 834a e1bd
000002f0: b31f 763d f60b c5bd 62f8 df3c 9c61 5dbe
00000300: d8cb a53d 22cd 22bd 739d 453e 0ca5 253d
00000310: e38e 1f3d fcaf 8d3c 3ce3 0a3d 20b2 863d
00000320: 1452 04be c9cd 5fbd e892 0dbe 3274 02bc
00000330: c69a bbbc 20be 23bd bcc6 19bd 2827 c3bc
00000340: 1926 983d 268c 9d3d 076a 6eb9 1440 a33d
00000350: ef2a 053d b9e4 933d ee61 93bb c57a 843c
00000360: 9463 a8bd a931 29bd e651 f2bd d24e bf3d
00000370: cb69 25be a977 e4bd 31d7 64bd e1e7 15bd
00000380: b156 0b3d 6786 b03b fd96 1a3d e6ed 513d
00000390: a1fb f63d 101d 6b3d b20c 09bb d148 883c
000003a0: 55ca 56bb 5804 a23d 2461 ddbd a175 86bc
000003b0: 12d0 b4bd b7ef de3c a121 c73c 1120 063e
000003c0: ca27 903d a199 b8bd 2d72 18be 964f 4dbe
000003d0: 5143 f1bd dce6 27be 2b0f 64be 98b2 16bc
000003e0: be51 193e cfd9 853d 170e 7d3c 117a 0b3e
000003f0: da08 58bc 340d 96bd abf6 ce3c b4a6 8cbd

network_body._body_endoder.seq_layers.0.bias f4 [128]
0.0 0.0 0.0 0.0 0.0 0.0 0.0 0.0
0.0 0.0 0.0 0.0 0.0 0.0 0.0 0.0
0.0 0.0 0.0 0.0 0.0 0.0 0.0 0.0
0.0 0.0 0.0 0.0 0.0 0.0 0.0 0.0
0.0 0.0 0.0 0.0 0.0 0.0 0.0 0.0
0.0 0.0 0.0 0.0 0.0 0.0 0.0 0.0
0.0 0.0 0.0 0.0 0.0 0.0 0.0 0.0
0.0 0.0 0.0 0.0 0.0 0.0 0.0 0.0
0.0 0.0 0.0 0.0 0.0 0.0 0.0 0.0
0.0 0.0 0.0 0.0 0.0 0.0 0.0 0.0
0.0 0.0 0.0 0.0 0.0 0.0 0.0 0.0
0.0 0.0 0.0 0.0 0.0 0.0 0.0 0.0
0.0 0.0 0.0 0.0 0.0 0.0 0.0 0.0
0.0 0.0 0.0 0.0 0.0 0.0 0.0 0.0
0.0 0.0 0.0 0.0 0.0 0.0 0.0 0.0
0.0 0.0 0.0 0.0 0.0 0.0 0.0 0.0
00000000: 0000 0000 0000 0000 0000 0000 0000 0000
00000010: 0000 0000 0000 0000 0000 0000 0000 0000
00000020: 0000 0000 0000 0000 0000 0000 0000 0000
00000030: 0000 0000 0000 0000 0000 0000 0000 0000
00000040: 0000 0000 0000 0000 0000 0000 0000 0000
00000050: 0000 0000 0000 0000 0000 0000 0000 0000
00000060: 0000 0000 0000 0000 0000 0000 0000 0000
00000070: 0000 0000 0000 0000 0000 0000 0000 0000
00000080: 0000 0000 0000 0000 0000 0000 0000 0000
00000090: 0000 0000 0000 0000 0000 0000 0000 0000
000000a0: 0000 0000 0000 0000 0000 0000 0000 0000
000000b0: 0000 0000 0000 0000 0000 0000 0000 0000
000000c0: 0000 0000 0000 0000 0000 0000 0000 0000
000000d0: 0000 0000 0000 0000 0000 0000 0000 0000
000000e0: 0000 0000 0000 0000 0000 0000 0000 0000
000000f0: 0000 0000 0000 0000 0000 0000 0000 0000
00000100: 0000 0000 0000 0000 0000 0000 0000 0000
00000110: 0000 0000 0000 0000 0000 0000 0000 0000
00000120: 0000 0000 0000 0000 0000 0000 0000 0000
00000130: 0000 0000 0000 0000 0000 0000 0000 0000
00000140: 0000 0000 0000 0000 0000 0000 0000 0000
00000150: 0000 0000 0000 0000 0000 0000 0000 0000
00000160: 0000 0000 0000 0000 0000 0000 0000 0000
00000170: 0000 0000 0000 0000 0000 0000 0000 0000
00000180: 0000 0000 0000 0000 0000 0000 0000 0000
00000190: 0000 0000 0000 0000 0000 0000 0000 0000
000001a0: 0000 0000 0000 0000 0000 0000 0000 0000
000001b0: 0000 0000 0000 0000 0000 0000 0000 0000
000001c0: 0000 0000 0000 0000 0000 0000 0000 0000
000001d0: 0000 0000 0000 0000 0000 0000 0000 0000
000001e0: 0000 0000 0000 0000 0000 0000 0000 0000
000001f0: 0000 0000 0000 0000 0000 0000 0000 0000

network_body._body_endoder.seq_layers.2.weight f4 [128, 128]
-0.0703603 -0.01005267 -0.09307706 0.14353512 -0.06738297 0.13463148 -0.05717005 -0.029926866
-0.082686834 -0.22318469 -0.09756249 0.18622313 0.038743157 0.169616 0.0759858 0.030722823
-0.048350036 -0.10801076 0.034649685 -0.0364253 -0.0046130535 0.011306433 0.07721005 0.18458003
0.007873165 -0.060698103 0.10833373 -0.15671691 -0.0744502 0.091674946 -0.007772223 -0.049733296
0.06486644 0.03595508 0.024728864 0.0027037757 -0.13265331 -0.025170395 -0.084362894 0.06269371
0.08092684 0.049874593 -0.10510246 -0.012160528 0.0712018 0.10160975 -0.0747884 0.07292917
-0.11857553 0.020626303 -0.09066695 -0.066957876 0.024501348 -0.030900128 -0.099094175 -0.003959234
0.10839704 0.14146097 0.14916167 0.07088338 -0.0638557 -0.027462075 -0.1326334 0.0052228635
-0.053313673 -0.023728685 0.22656816 0.145972 -0.01714427 -0.03963958 -0.08970514 -0.01730448
0.16568673 -0.067241 0.07289416 -0.12828301 -0.093800426 0.19102944 0.3309943 0.1423822
0.21340255 0.086470984 0.033900153 0.027139263 -0.017615583 -0.11221649 0.035088252 -0.04645372
0.02969232 0.07783157 -0.09011558 0.08019309 0.09120867 0.0114373 0.034116127 -0.058129817
-0.018361785 0.007532452 0.0231512 -0.06392139 -0.012652004 0.07190416 -0.08453911 -0.09367556
-0.00056151 0.18115766 -0.27322918 -0.005835042 0.12848453 0.042634744 -0.110410176 0.08082136
-0.0965801 -0.01697013 -0.03660821 -0.10210203 -0.047428206 -0.06326541 -0.18252322 0.12630297
-0.07631237 -0.010185042 0.09536059 -0.051119205 -0.05808622 0.032511484 0.16911721 0.08562678
-0.034339868 -0.050961573 -0.15229443 0.010889644 -0.22961535 0.14393307 -0.068893105 0.13375649
0.16428642 -0.027401583 0.05764917 0.041512385 -0.08174637 0.072491705 -0.048460007 0.08166642
0.03467603 -0.06802573 -0.09756895 0.0491547 -0.15912355 -0.015746104 -0.16820127 0.04436163
-0.01732911 -0.046160698 -0.24077223 0.053286064 0.037693255 -0.07062716 0.12709264 0.0090968
0.033407927 0.005997144 -0.06562045 -0.08114696 0.027457526 -0.02538733 0.04508969 -0.13085335
-0.1666522 0.0302888 -0.025680628 -0.013731011 0.018029608 0.071599714 0.015982399 -0.046856627
0.20937325 0.07428727 -0.12541458 0.10457181 -0.06063162 -0.12532978 -0.034504928 -0.020136936
0.10225983 0.06302391 0.025708936 0.16456996 -0.035536636 -0.062975004 0.059517067 -0.06309186
0.0453242 0.068765424 0.008086248 0.07960423 0.05325043 0.12236417 -0.028234527 -0.041148253
-0.012308581 -0.02142842 0.0447067 0.067120455 -0.10266607 0.044964015 0.124430895 0.053022612
0.07054536 0.10314542 -0.10391308 -0.050531145 0.19299376 0.02696721 -0.0954617 0.04107038
0.08335649 0.04740629 -0.14155431 -0.115982644 0.082891196 0.16940412 -0.03383092 0.11427633
0.01336793 0.08784712 0.011425851 -0.025326703 0.28130522 0.032131925 0.12700333 0.11232235
-0.10094453 -0.056461845 -0.06418784 0.12364231 0.08785561 -0.098530754 -0.021595355 0.008071499
-0.10175919 0.06595654 -0.07628594 0.09436012 0.011580094 -0.06048866 -0.016719954 -0.036162525
-0.018257909 0.037550975 -0.18622442 0.06505637 -0.01644148 0.06911758 0.068288766 0.011401417
00000000: 1019 90bd f4b3 24bc 309f bebd dffa 123e
00000010: 1500 8abd d6dc 093e 242b 6abd 3029 f5bc
00000020: b757 a9bd 878a 64be d8ce c7bd 47b1 3e3e
00000030: 25b1 1e3d d1af 2d3e 719e 9b3d 6eae fb3c
00000040: b00a 46bd bf34 ddbd d4ec 0d3d b232 15bd
00000050: 1929 97bb 9e3e 393c 4d20 9e3d 8c02 3d3e
00000060: 73fe 003c 939e 78bd 13de dd3d 667a 20be
00000070: 5979 98bd 13c0 bb3d 22ae febb 24b5 4bbd
00000080: b2d8 843d a245 133d 3094 ca3c d431 313b
00000090: 45d6 07be 2532 cebc 74c6 acbd 8f65 803d
000000a0: f9bc a53d 4d49 4c3d f53f d7bd f43c 47bc
000000b0: 40d2 913d c618 d03d a92a 99bd e45b 953d
000000c0: bad7 f2bd 7ef8 a83c 98af b9bd 3621 89bd
000000d0: 0db7 c83c 4422 fdbc e3f1 cabd 76bc 81bb
000000e0: 44ff dd3d 25db 103e d6bd 183e 4e2b 913d
000000f0: c7c6 82bd 25f8 e0bc 0dd1 07be 8e24 ab3b
00000100: 705f 5abd a962 c2bc 7c01 683e af79 153e
00000110: 2472 8cbc 1d5d 22bd 54b7 b7bd 20c2 8dbc
00000120: c8a9 293e a6b5 89bd 8949 953d 9f5c 03be
00000130: 701a c0bd 399d 433e 1678 a93e a4cc 113e
00000140: 3386 5a3e b317 b13d e3da 0a3d 2953 de3c
00000150: 8e4e 90bc c2d1 e5bd b3b8 0f3d 4246 3ebd
00000160: 4f3d f33c 2866 9f3d 848e b8bd 463c a43d
00000170: 9ccb ba3d 8363 3b3c 5abd 0b3d 8819 6ebd
00000180: 746b 96bc c9d2 f63b 96a7 bd3c 38e9 82bd
00000190: 5a4a 4fbc 7d42 933d d722 adbd f9d8 bfbd
000001a0: 4c32 13ba 6581 393e b2e4 8bbe e133 bfbb
000001b0: 7391 033e c5a1 2e3d bb1e e2bd ab85 a53d
000001c0: cacb c5bd f104 8bbc 7ef2 15bd de1a d1bd
000001d0: 1444 42bd 4c91 81bd 5ee7 3abe 9155 013e
000001e0: a949 9cbd 2adf 26bc 6a4c c33d 5f62 51bd
000001f0: d1eb 6dbd c32a 053d 102d 2d3e 185d af3d
00000200: f6a7 0cbd 15bd 50bd 12f3 1bbe 7a6a 323c
00000210: 4920 6bbe 3163 133e d417 8dbd 76f7 083e
00000220: b33a 283e 4979 e0bc 8921 6c3d e408 2a3d
00000230: a46a a7bd 8876 943d 007e 46bd b940 a73d
00000240: 7408 0e3d 1351 8bbd 3bd2 c7bd 7056 493d
00000250: 49f1 22be f9fd 80bc f43c 2cbe 8ab4 353d
00000260: c7f5 8dbc 0013 3dbd ff8c 76be 7d42 5a3d
00000270: 3e64 1a3d f9a4 90bd 9324 023e bf0a 153c
00000280: c0d6 083d b183 c43b 0464 86bd 6130 a6bd
00000290: 9bee e03c 17f9 cfbc f7af 383d 6cfe 05be
000002a0: e0a6 2abe 3820 f83c 2e60 d2bc 09f8 60bc
000002b0: d4b2 933c dfa2 923d 85ed 823c bcec 3fbd
000002c0: f165 563e ed23 983d ae6c 00be bf29 d63d
000002d0: dd58 78bd 7356 00be 0a55 0dbd 37f6 a4bc
000002e0: 9a6d d13d ae12 813d 8c9b d23c 0785 283e
000002f0: dd8e 11bd 0af9 80bd 2bc8 733d 4e36 81bd
00000300: dea5 393d e3d4 8c3d 2f7c 043c 8b07 a33d
00000310: 1f1d 5a3d 119a fa3d 184c e7bc 128b 28bd
00000320: eea9 49bc a78a afbc 5f1e 373d 7376 893d
00000330: 9742 d2bd 302c 383d a0d5 fe3d 3d2e 593d
00000340: 167a 903d e83d d33d 62d0 d4bd bff9 4ebd
00000350: 28a0 453e 57ea dc3c 6c81 c3bd 6a39 283d
00000360: cfb6 aa3d 192d 423d 9df3 10be 4f88 edbd
00000370: dcc2 a93d 4678 2d3e 4a92 0abd b509 ea3d
00000380: 2a05 5b3c 31e9 b33d 7e33 3b3c f279 cfbc
00000390: 3d07 903e c49c 033d 290d 023e 4309 e63d
000003a0: 01bc cebd 8944 67bd ea74 83bd 2e38 fd3d
000003b0: a4ed b33d 7eca c9bd bee8 b0bc 523e 043c
000003c0: 1f67 d0bd 3914 873d ce3b 9cbd e13f c13d
000003d0: 6fba 3d3c f5c2 77bd 49f8 88bc 281f 14bd
000003e0: 9c91 95bc 0dcf 193d 9db1 3ebe 463c 853d
000003f0: 48b0 86bc 858d 8d3d fbda 8b3d 02cd 3a3c

action_model._continuous_distribution.log_sigma f4 [1, 51]
0.0 0.0 0.0 0.0 0.0 0.0 0.0 0.0
0.0 0.0 0.0 0.0 0.0 0.0 0.0 0.0
0.0 0.0 0.0 0.0 0.0 0.0 0.0 0.0
0.0 0.0 0.0 0.0 0.0 0.0 0.0 0.0
0.0 0.0 0.0 0.0 0.0 0.0 0.0 0.0
0.0 0.0 0.0 0.0 0.0 0.0 0.0 0.0
0.0 0.0 0.0
00000000: 0000 0000 0000 0000 0000 0000 0000 0000
00000010: 0000 0000 0000 0000 0000 0000 0000 0000
00000020: 0000 0000 0000 0000 0000 0000 0000 0000
00000030: 0000 0000 0000 0000 0000 0000 0000 0000
00000040: 0000 0000 0000 0000 0000 0000 0000 0000
00000050: 0000 0000 0000 0000 0000 0000 0000 0000
00000060: 0000 0000 0000 0000 0000 0000 0000 0000
00000070: 0000 0000 0000 0000 0000 0000 0000 0000
00000080: 0000 0000 0000 0000 0000 0000 0000 0000
00000090: 0000 0000 0000 0000 0000 0000 0000 0000
000000a0: 0000 0000 0000 0000 0000 0000 0000 0000
000000b0: 0000 0000 0000 0000 0000 0000 0000 0000
000000c0: 0000 0000 0000 0000 0000 0000

action_model._continuous_distribution.mu.weight f4 [51, 128]
0.017370125 -0.0077084475 -0.015908 -0.0011783867 -0.0006420124 -0.013819781 -0.0010789984 -0.04907159
-0.022248788 0.014871036 0.00321347 0.01729149 -0.007890139 -0.022423122 -0.01746309 0.02199957
-0.04043677 0.008891306 -0.015896104 0.0033552472 -0.011037456 -0.011730408 0.0018313794 -0.009639709
-0.02679503 0.0010296254 0.020956105 -0.013566404 0.021625472 -0.031274177 -0.01316012 -0.03884982
0.01328854 -0.026330238 0.016734986 -0.0071432777 -0.0024166713 0.021484371 0.00027712403 -0.0038811718
0.008567665 0.004958809 -0.027753476 -0.0036711681 0.020476198 -0.026275903 0.006044095 0.01714315
0.034634117 0.019494422 0.013102432 0.019499104 0.008995725 -0.026703626 -0.01967229 -0.012057733
0.011084582 -0.006944243 -0.017232249 0.004764726 -0.0070125945 0.004382605 -0.009206862 0.028659
-0.0062426454 -0.016689187 -0.022588018 -0.00048482543 -0.016965164 -0.019203229 -0.019439993 0.0004902025
0.0017937085 0.028854191 0.00013005156 -0.0072680265 0.019368023 0.01667925 0.0064191627 0.03171609
-0.019559778 -0.0024538373 -0.015828492 -0.031778894 0.026504293 -0.0053777923 0.031055126 0.0059121004
-0.018997177 -0.015833868 -0.009365153 0.015410475 0.0064927614 -0.009635374 0.022584386 -0.011178109
0.02168837 0.02293392 0.005186289 0.02999374 0.022660503 0.013344288 -0.009496078 -0.010774447
0.0036494557 -0.014099034 -0.004058638 -0.021906354 -0.021187587 -0.0010369578 -0.019584464 -0.0021060403
0.034914028 -0.01872919 -0.0005496978 0.019590987 0.011764376 0.016940532 0.0025977618 -0.006612237
0.030395452 0.02858507 0.036775526 0.008270246 -0.017087309 -0.009426518 0.017080767 0.019050581
-0.044547673 -0.02846866 -0.029318634 -0.008275694 -0.025046647 0.0019564235 -0.0037932084 -0.0037479163
-0.011541238 0.010266344 -0.019532708 0.0058736983 -0.03318455 0.0019724828 0.0058853435 0.022330437
0.0035146398 -0.018727176 -0.0025218127 -0.010927836 -0.016959561 -0.0032993366 0.023362633 0.0044027655
0.03198317 -0.009840845 0.012246589 0.00029593008 -0.0065714354 -0.034058116 -0.025203818 -0.015067644
0.029150814 -0.018220497 0.006666793 -0.026465166 -0.002125751 -0.0067734867 -0.004981849 -0.00548561
0.007210437 0.020997286 0.0044153216 -0.00026170295 0.0080847 0.02224567 -0.03874592 -0.011030269
-0.031507593 0.033397116 -0.025331888 0.029303212 -0.015073212 0.006588479 -0.011708028 -0.014978561
-0.020125901 -0.031506833 -0.0016066477 -0.017026268 0.0052734464 0.010252985 -0.01052813 7.879722e-05
-0.03057493 0.004993689 0.010952237 -0.0034426008 0.030541807 -0.015117856 -0.00041198847 0.007895489
0.011127798 0.009648774 0.0037857022 -0.026295206 -0.0005969398 0.0018384667 -0.007894458 0.006688423
-0.008162237 -0.0035000648 0.011961582 -0.029189978 -0.024567613 -0.0025641301 0.030375669 -6.535627e-05
-0.01254365 0.0053224014 0.03512543 -0.02119777 -0.014835569 0.02669031 -0.029406575 -0.0030591614
-0.042159554 0.029684668 0.03865042 0.0052292137 -0.012206784 0.007947507 0.018905735 0.006429893
0.02712192 -0.0037084606 0.014848234 0.006649725 -0.00865082 0.0021922658 -0.000716623 -0.0038200547
0.0036221247 0.034807447 0.036482166 0.008415846 -0.0034357973 0.0039356216 0.018562222 -0.030485872
-0.018737722 -0.0057085464 -0.005336801 0.0107335625 0.015999801 0.0018078443 -0.0096601015 0.00841445
00000000: cb4b 8e3c 2597 fcbb 7e51 82bc 1974 9aba
00000010: b94c 28ba 5d6c 62bc 2e6d 8dba 4bff 48bd
00000020: 1743 b6bc a5a5 733c 1599 523b e2a6 8d3c
00000030: a445 01bc b2b0 b7bc c10e 8fbc 7138 b43c
00000040: 07a1 25bd d7ac 113c 8c38 82bc b5e3 5b3b
00000050: 72d6 34bc e630 40bc e50a f03a dfef 1dbc
00000060: 4081 dbbc 7ff4 863a 23ac ab3c 9f45 5ebc
00000070: e727 b13c 5a19 00bd 8b9d 57bc fd20 1fbd
00000080: 2db8 593c 83b2 d7bc cf17 893c 2812 eabb
00000090: 0461 1ebb feff af3c f54a 9139 425b 7ebb
000000a0: 645f 0c3c 817d a23b 425b e3bc fb97 70bb
000000b0: b3bd a73c 9040 d7bc 8b0d c63b cb6f 8c3c
000000c0: 81dc 0d3d c4b2 9f3c 95ab 563c 96bc 9f3c
000000d0: ce62 133c 90c1 dabc c827 a1bc cc8d 45bc
000000e0: 1b9c 353c 888c e3bb a52a 8dbc 6b21 9c3b
000000f0: e8c9 e5bb f59b 8f3b 61d8 16bc 47c6 ea3c
00000100: 1b8f ccbb c3b7 88bc 820a b9bc 2b30 feb9
00000110: 87fa 8abc 1750 9dbc 9f40 9fbc ef80 003a
00000120: df1a eb3a a05f ec3c 735e 0839 a028 eebb
00000130: b0a9 9e3c eca2 883c d757 d23b bbe8 013d
00000140: d43b a0bc 8fd0 20bb c1aa 81bc 962a 02bd
00000150: 881f d93c 3138 b0bb 5267 fe3c 4bba c13b
00000160: f89f 9bbc 07b6 81bc 4c70 19bc 387c 7c3c
00000170: 3bc1 d43b b0dd 1dbc e402 b93c 6324 37bc
00000180: cfab b13c ebdf bb3c bff1 a93b 6fb5 f53c
00000190: 85a2 b93c 00a2 5a3c 7095 1bbc 4e87 30bc
000001a0: b52b 6f3b a2ff 66bc 53fe 84bb f474 b3bc
000001b0: 9791 adbc 88ea 87ba 996f a0bc 7e05 0abb
000001c0: 0302 0f3d f56d 99bc 9819 10ba 477d a03c
000001d0: 5fbf 403c dfc6 8a3c 363f 2a3b 77ab d8bb
000001e0: e2ff f83c 3d2b ea3c efa1 163d ed7f 073c
000001f0: affa 8bbc af71 1abc f7ec 8b3c f70f 9c3c
00000200: 9f77 36bd 1b37 e9bc a22d f0bc c796 07bc
00000210: a02e cdbc 5737 003b 7a97 78bb 9a9f 75bb
00000220: 7617 3dbc 2b34 283c 0f03 a0bc 2778 c03b
00000230: 86ec 07bd c544 013b d7d9 c03b 52ee b63c
00000240: df55 663b bc69 99bc ff44 25bb ab0a 33bc
00000250: c7ee 8abc af39 58bb fe62 bf3c 1345 903b
00000260: c900 033d 7f3b 21bc eba5 483c 1027 9b39
00000270: 3255 d7bb 8680 0bbd 3d78 cebc 48de 76bc
00000280: b0cd ee3c 2743 95bc 1d75 da3b 7acd d8bc
00000290: 2f50 0bbb 20f4 ddbb c73e a3bb a2c0 b3bb
000002a0: 8845 ec3b 8002 ac3c 67ae 903b 2d35 89b9
000002b0: b175 043c 8d3c b63c 0bb4 1ebd 4db8 34bc
000002c0: 1b0e 01bd 6acb 083d d284 cfbc 4a0d f03c
000002d0: a2f5 76bc 2be4 d73b 07d3 3fbc a368 75bc
000002e0: 13df a4bc 4f0d 01bd 2796 d2ba ac7a 8bbc
000002f0: e0cc ac3b 23fc 273c 2e7e 2cbc ef3f a538
00000300: 4778 fabc 19a2 a33b 0371 333c 429d 61bb
00000310: d032 fa3c e2b0 77bc 2800 d8b9 155c 013c
00000320: 5e51 363c e415 1e3c 8b19 783b 0b69 d7bc
00000330: f47b 1cba b5f8 f03a c257 01bc 8f2a db3b
00000340: e7ba 05bc 5861 65bb 83fa 433c d21f efbc
00000350: 0542 c9bc f70a 28bb 65d6 f83c e10f 89b8
00000360: e283 4dbc 8a67 ae3b afdf 0f3d f2a6 adbc
00000370: e310 73bc a3a5 da3c 0fe6 f0bc 367c 48bb
00000380: 7faf 2cbd 432d f33c e74f 1e3d d359 ab3b
00000390: f7fe 47bc 4336 023c 33e0 9a3c dab1 d23b
000003a0: ca2e de3c a509 73bb 0246 733c f0e5 d93b
000003b0: 2bbc 0dbc 1eac 0f3b c1db 3bba e259 7abb
000003c0: 2b61 6d3b 4192 0e3d 536e 153d 9ee2 093c
000003d0: 1d2b 61bb 63f6 803b cd0f 983c 82bd f9bc
000003e0: da7f 99bc c20e bbbb 55e0 aebb d3db 2f3c
000003f0: 0412 833c 30f5 ec3a 6745 1ebc c3dc 093c

action_model._continuous_distribution.mu.bias f4 [51]
0.0 0.0 0.0 0.0 0.0 0.0 0.0 0.0
0.0 0.0 0.0 0.0 0.0 0.0 0.0 0.0
0.0 0.0 0.0 0.0 0.0 0.0 0.0 0.0
0.0 0.0 0.0 0.0 0.0 0.0 0.0 0.0
0.0 0.0 0.0 0.0 0.0 0.0 0.0 0.0
0.0 0.0 0.0 0.0 0.0 0.0 0.0 0.0
0.0 0.0 0.0
00000000: 0000 0000 0000 0000 0000 0000 0000 0000
00000010: 0000 0000 0000 0000 0000 0000 0000 0000
00000020: 0000 0000 0000 0000 0000 0000 0000 0000
00000030: 0000 0000 0000 0000 0000 0000 0000 0000
00000040: 0000 0000 0000 0000 0000 0000 0000 0000
00000050: 0000 0000 0000 0000 0000 0000 0000 0000
00000060: 0000 0000 0000 0000 0000 0000 0000 0000
00000070: 0000 0000 0000 0000 0000 0000 0000 0000
00000080: 0000 0000 0000 0000 0000 0000 0000 0000
00000090: 0000 0000 0000 0000 0000 0000 0000 0000
000000a0: 0000 0000 0000 0000 0000 0000 0000 0000
000000b0: 0000 0000 0000 0000 0000 0000 0000 0000
000000c0: 0000 0000 0000 0000 0000 0000

action_model._discrete_distribution.branches.0.weight f4 [1, 128]
0.011051517 -0.02113427 -0.002459616 -0.0003218967 -0.0036332966 -0.007248254 0.001562028 -0.005385382
-0.00035634768 -0.00019968546 -0.01424965 -0.002617526 0.010481089 -0.002043152 0.00668457 -0.0005702859
0.027513731 7.6145257e-06 -0.005995663 0.006158611 -0.0010911814 0.0022311478 0.00029340133 -0.0018872839
-0.003777526 0.017274635 0.0022858584 -0.013029026 -0.0034179192 -0.016246991 0.00070776447 0.00456326
0.0018338889 -0.006834609 -0.009214498 -0.00025205332 0.002950042 0.020799574 -0.0031768035 -0.013440435
0.01564775 0.013201812 -0.001388098 -0.0036373262 0.013881862 -0.0006066546 0.0045129475 -0.007001857
0.0012741158 0.0028122205 0.0074932943 -0.0045447513 -0.0006007151 -0.010517511 -0.014652446 0.014808706
-0.014214653 -0.0059318063 0.008865728 -0.000307344 -0.0046211155 0.0032080952 -0.0036645238 -0.033343878
-0.0051061674 -0.01767434 0.0065798904 -0.0013974373 0.017781282 0.0037908591 -0.0021508762 0.0034509604
-0.0051763533 0.0077954973 0.012960103 -0.0051241103 0.0030206149 0.008645045 -0.0076778764 0.0015420045
-0.014218359 0.00026521416 -0.0071708546 0.0045375125 -0.01398066 -0.010756198 -0.00035719931 0.0054748375
0.009228001 0.014088514 -0.006065458 0.013994478 -0.0009113224 -0.016533991 0.00036649744 0.0046309116
-0.018248307 0.0015560711 -0.0007046852 0.0035839025 0.0041141645 -0.0030014885 0.010874239 -0.001399156
-0.0017959375 -0.003886473 -0.011563375 -0.0054351366 -0.0017094566 0.016964309 -0.0075524165 -0.00128284
0.006890364 0.017641308 -0.0027657563 0.017111575 0.014995813 -0.0049892566 -0.0062812045 0.020771224
-0.0135255335 0.010575975 -0.021162426 0.008143725 -0.0033340063 -0.0015513356 -0.006494493 0.009020882
00000000: 6c11 353c c721 adbc 8231 21bb 3ec4 a8b9
00000010: 9a1c 6ebb c382 edbb f6bc cc3a dc77 b0bb
00000020: 2dd4 bab9 a862 51b9 5d77 69bc cd8a 2bbb
00000030: e0b8 2b3c 67e6 05bb 3d0a db3b 3d7f 15ba
00000040: 7a64 e13c 4780 ff36 4477 c4bb 2cce c93b
00000050: f905 8fba 7338 123b a9d3 9939 bd5e f7ba
00000060: 5f90 77bb 8983 8d3c 57ce 153b b277 55bc
00000070: 2bff 5fbb 6918 85bc 4589 393a 6687 953b
00000080: 1a5f f03a dbf4 dfbb 68f8 16bc 0626 84b9
00000090: 7e55 413b de63 aa3c eb31 50bb 4535 5cbc
000000a0: b62f 803c 6a4c 583c d7f0 b5ba 3560 6ebb
000000b0: c070 633c e707 1fba 59e1 933b d56f e5bb
000000c0: 3b00 a73a 3b4d 383b 4f8a f53b 23ec 94bb
000000d0: 4f79 1dba a351 2cbc d010 70bc 37a0 723c
000000e0: 93e4 68bc 995f c2bb 8f41 113c 0323 a1b9
000000f0: ba6c 97bb e83e 523b 8228 70bb 9793 08bd
00000100: a351 a7bb c7c9 90bc 1f9c d73b 372a b7ba
00000110: 0daa 913c 1070 783b b7f5 0cbb 8229 623b
00000120: 669e a9bb 5f71 ff3b 9d56 543c 27e8 a7bb
00000130: 82f5 453b f2a3 0d3c b296 fbbb 161d ca3a
00000140: 1ff4 68bc 710c 8b39 7df9 eabb 6aaf 943b
00000150: 230f 65bc c43a 30bc 7b46 bbb9 4466 b33b
00000160: 0b31 173c 83d3 663c c0c0 c6bb 1849 653c
00000170: d0e5 6eba 4b72 87bc 7426 c039 e7be 973b
00000180: 797d 95bc 15f5 cb3a a0ba 38ba e8df 6a3b
00000190: 1dd0 863b 9fb4 44bb dd29 323c e363 b7ba
000001a0: aa65 ebba 32b4 7ebb 4f74 3dbc 3b19 b2bb
000001b0: d80f e0ba bcf8 8a3c 437a f7bb f824 a8ba
000001c0: 90c8 e13b 8184 903c b141 35bb 932d 8c3c
000001d0: 00b1 753c eb7c a3bb 90d2 cdbb 6a28 aa3c
000001e0: 339a 5dbc db46 2d3c d35c adbc 426d 053c
000001f0: 587f 5abb 2f56 cbba c2cf d4bb 52cc 133c

onnx::LSTM_116 f4 [1, 512, 128]
0.06418018 0.15030114 0.13854332 -0.1367029 0.018798724 0.03432326 0.0038239062 -0.044941254
-0.0058489293 0.09419687 -0.04008933 0.07242778 0.057534188 -0.14227498 0.058940962 -0.094131574
-0.083566025 -0.041189045 -0.069853395 0.13052143 -0.040704653 -0.015153736 0.11656247 -0.12942287
-0.1433104 -0.003129691 -0.041285098 0.032542393 0.08591224 0.14566766 0.12696673 -0.03515494
-0.0065000057 0.011168078 -0.03130611 -0.027132168 -0.03635928 0.06748903 0.06166652 -0.11338081
-0.14053482 0.108618185 -0.0038609356 0.094245076 0.033274174 0.12179117 0.04592681 0.08526462
0.13409604 -0.14625469 0.09832133 -0.003586918 0.12503172 -0.030986294 -0.10551673 -0.00062680244
0.11214121 -0.031826988 0.1402192 -0.13920556 0.080878705 -0.039355733 0.05996193 0.07475971
0.04680401 -0.05894112 -0.11741783 0.053271472 0.13631584 0.0667022 -0.04220985 0.14325534
-0.004593715 -0.07090963 0.037529454 -0.05756729 0.092122555 -0.020023808 -0.15152481 -0.06241113
-0.12665556 0.1226102 -0.064890735 0.12006687 -0.11549323 -0.12969676 0.0055378675 -0.1097617
0.08710998 -0.052822515 -0.042531632 -0.018829107 -0.06108985 0.118562415 0.020968884 0.0725822
0.08665721 -0.06808122 -0.12582578 -0.1439996 -0.039575793 -0.08039881 -0.07666807 0.13839231
-0.08433073 0.08873068 -0.06463689 0.014553651 -0.026482835 -0.11085567 0.123306796 0.019909129
-0.06615773 -0.0371876 0.08581877 0.12669228 -0.050612845 -0.051162794 0.15172343 0.051917672
0.120251104 0.0898806 0.03181699 -0.121612325 -0.07506385 0.016668856 -0.09819421 0.033909515
0.034392178 -0.1053741 0.1507432 0.11033027 0.04302667 0.049418256 0.11255734 -0.146913
-0.038205095 -0.12071484 -0.14671807 -0.0112733245 -0.09016726 0.116531596 0.05689025 -0.011511415
0.040095657 0.14918356 0.14104758 0.11844315 0.065413356 0.08654791 -0.14409575 -0.07263366
0.06064631 -0.061833546 -0.0996156 0.07153633 0.008778125 0.14046614 0.12391381 -0.099381745
-0.034239233 0.03555876 -0.14714941 -0.1122085 0.1375222 -0.011926815 0.024887875 0.14695771
-0.0034002662 -0.035166673 -0.058828175 -0.010427445 0.045526683 -0.014006078 -0.046592616 0.06198342
0.12619363 -0.128259 0.029227793 0.07129261 -0.09724788 0.06660959 -0.049720317 -0.107110165
0.10026486 0.043768063 0.07182452 -0.1374205 -0.11867346 -0.05711879 -0.10299872 -0.13661176
-0.033886097 -0.05264403 -0.005786851 -0.031634174 0.10686691 -0.075348146 0.15275104 -0.028262943
-0.010185972 -0.08068486 0.12834738 0.06287189 -0.12952726 -0.13642097 -0.09697029 -0.10834615
0.09052922 0.06005594 0.04866329 0.0049885064 0.13848697 -0.028123237 -0.14257863 0.050264254
-0.145434 -0.13394518 -0.02785553 -0.11342211 -0.082528725 0.04351604 -0.06308428 -0.033070184
-0.14148414 0.017526746 0.08435732 0.11022197 -0.03190612 0.09730579 -0.05619344 0.112325
-0.08169911 0.020991221 0.1277865 -0.09751201 0.009990707 -0.12375676 -0.011996418 0.114616856
-0.062843926 0.0068122298 0.052555352 0.14146464 0.07053235 -0.074549265 0.12358485 0.02402468
-0.08020835 -0.14047778 -0.0947508 0.03352067 0.11516051 0.03575352 -0.104428485 0.019271076
00000000: e670 833d 8be8 193e 4dde 0d3e d8fb 0bbe
00000010: c8ff 993c 8c96 0c3d 809a 7a3b 5214 38bd
00000020: 60a8 bfbb 4aea c03d b634 24bd 0455 943d
00000030: f8a8 6b3d 88b0 11be 146c 713d 0ec8 c0bd
00000040: aa24 abbd d8b5 28bd 4c0f 8fbd 69a7 053e
00000050: ecb9 26bd 6047 78bc 4eb8 ee3d 6e87 04be
00000060: f6bf 12be 801b 4dbb 901a 29bd 2c4b 053d
00000070: c2f2 af3d e729 153e 9103 023e a0fe 0fbd
00000080: 00fe d4bb 50fa 363c d63a 00bd 4844 debc
00000090: 78ed 14bd b037 8a3d 0896 7c3d 3334 e8bd
000000a0: 5ce8 0fbe 3673 de3d c007 7dbb 9003 c13d
000000b0: 804a 083d a66d f93d c01d 3c3d 389f ae3d
000000c0: 7950 093e cac3 15be b25c c93d 8012 6bbb
000000d0: 5108 003e f8d6 fdbc 2819 d8bd 0050 24ba
000000e0: 4aaa e53d 045d 02bd 9f95 0f3e e78b 0ebe
000000f0: bca3 a53d 7a33 21bd a49a 753d 9e1b 993d
00000100: 90b5 3f3d 3e6c 71bd c278 f0bd 3033 5a3d
00000110: 6196 0b3e 2a9b 883d 3ce4 2cbd 87b1 123e
00000120: e086 96bb 1139 91bd 7cb8 193d aecb 6bbd
00000130: c0aa bc3d f808 a4bc 5229 1bbe d0a2 7fbd
00000140: ffb1 01be 0e1b fb3d 6fe5 84bd 9ee5 f53d
00000150: b787 ecbd 3acf 04be 0077 b53b beca e0bd
00000160: b866 b23d 6c5c 58bd a635 2ebd 803f 9abc
00000170: 5a39 7abd dad0 f23d f0c6 ab3c faa5 943d
00000180: 5679 b13d 2b6e 8bbd 79d8 00be a274 13be
00000190: 3a1a 22bd 22a8 a4bd 2604 9dbd b7b6 0d3e
000001a0: 97b5 acbd 6eb8 b53d 5960 84bd 7072 6e3c
000001b0: 88f2 d8bc 4c08 e3bd 4688 fc3d 7818 a33c
000001c0: b47d 87bd 0652 18bd c0c1 af3d 9fbb 013e
000001d0: 6a4f 4fbd 1490 51bd 635d 1b3e a0a7 543d
000001e0: 3646 f63d 5213 b83d 8852 023d e20f f9bd
000001f0: 13bb 99bd 208d 883c 0c1a c9bd b4e4 0a3d
00000200: d0de 0c3d 60ce d7bd 6d5c 1a3e d6f4 e13d
00000210: bc3c 303d cc6a 4a3d 7684 e63d 5d70 16be
00000220: f27c 1cbd 5839 f7bd 433d 16be c0b3 38bc
00000230: 9da9 b8bd 1ea8 ee3d c005 693d 609a 3cbc
00000240: 583b 243d 93c3 183e c76e 103e 5292 f23d
00000250: 70f7 853d 0840 b13d d68d 13be f5c0 94bd
00000260: 4468 783d 2c45 7dbd 4403 ccbd a481 923d
00000270: 20d2 0f3c 5bd6 0f3e 86c6 fd3d a888 cbbd
00000280: 703e 0cbd 10a6 113d 56ae 16be 92cd e5bd
00000290: 9fd2 0c3e b068 43bc a8e1 cb3c 157c 163e
000002a0: 00d7 5ebb ee0a 10bd d0f5 70bd e0d7 2abc
000002b0: 307a 3a3d c079 65bc e6d7 3ebd 54e2 7d3d
000002c0: e738 013e 5456 03be 206f ef3c dc01 923d
000002d0: e629 c7bd 9c6a 883d 88a7 4bbd 935c dbbd
000002e0: aa57 cd3d 2446 333d bc18 933d f6b7 0cbe
000002f0: 120b f3bd 64f5 69bd fef0 d2bd f4e3 0bbe
00000300: 26cc 0abd 44a1 57bd a09f bdbb d692 01bd
00000310: 0add da3d 2150 9abd c56a 1c3e b087 e7bc
00000320: 10e3 26bc 1b3e a5bd 7f6d 033e fac2 803d
00000330: cba2 04be f0b1 0bbe 5c98 c6bd 96e4 ddbd
00000340: 6267 b93d 38fd 753d 2853 473d a076 a33b
00000350: 87cf 0d3e b462 e6bc 2200 12be e4e1 4d3d
00000360: a7ec 14be ed28 09be 4831 e4bc da49 e8bd
00000370: d204 a9bd e03d 323d 5532 81bd 9a74 07bd
00000380: 38e1 10be 4094 8f3c 88c3 ac3d 0ebc e13d
00000390: feaf 02bd 4248 c73d 182b 66bd a60a e63d
000003a0: dd51 a7bd c8f5 ab3c 77da 023e 60b4 c7bd
000003b0: 10b0 233c 2f74 fdbd a08c 44bc 3ebc ea3d
000003c0: 51b4 80bd 2039 df3b 4844 573d 1bdc 103e
000003d0: 4473 903d 49ad 98bd 0e1a fd3d 68cf c43c
000003e0: 4744 a4bd 68d9 0fbe b50c c2bd f84c 093d
000003f0: 46d9 eb3d 4872 123d 9ade d5bd 60de 9d3c

onnx::LSTM_117 f4 [1, 512, 128]
-0.14308572 0.10358466 -0.010621369 -0.0023434013 -0.035068065 -0.13770609 -0.12085789 -0.113472104
0.10003959 -0.13092366 0.055592388 0.08372186 0.115589395 0.1508566 -0.14658107 -0.045249917
0.02126041 0.12359013 0.07091725 0.11622982 0.04184094 -0.07311088 0.06944336 0.072449416
-0.134006 0.121369466 -0.12195406 -0.104705326 0.023916572 -0.15225013 -0.11507415 0.11780302
-0.016983107 -0.0391969 0.016353771 0.0635788 0.11059083 0.13213114 -0.13539438 0.027590424
-0.03196595 0.1292908 0.07342261 -0.0061628222 -0.11456793 0.006225258 0.07910524 0.08038938
-0.08709732 0.139827 -0.00782235 -0.122478515 -0.050460838 0.08435817 -0.08781117 0.097470954
0.09592068 -0.086430766 -0.11396159 0.11963813 -0.12988053 -0.04762256 -0.008112878 0.0074590743
0.15229641 0.11532475 0.08722548 0.12828358 -0.020165473 0.010095596 -0.12384404 -0.06448691
0.080292374 0.056869224 0.021467894 -0.07655134 0.12406312 0.02899906 -0.043508418 0.11418362
0.09181613 -0.031263754 0.09229359 -0.14276813 0.14565752 -0.09760466 -0.13277888 -0.07667978
-0.10948154 -0.13180181 -0.13025062 0.069499925 -0.14958416 -0.09218328 0.0714962 0.07052873
-0.15224971 0.085165575 -0.034179486 -0.01429306 -0.14070845 0.12661923 0.029697314 -0.06871353
-0.07005046 0.108583495 0.14141484 0.072412774 -0.07090437 -0.10117473 -0.07143572 0.05267629
0.009555876 -0.05362515 0.0066207796 0.014654204 -0.15060137 -0.022103757 0.12716545 0.14865066
-0.11802208 0.04460363 -0.14319092 -0.0036571622 -0.14204934 -0.043071784 0.006967947 -0.011942551
-0.11283937 0.058896214 0.08720234 -0.11543414 0.017304897 -0.006526172 -0.023807555 0.0073230416
0.01713644 0.10867266 0.09804125 -0.13475068 0.11853175 0.10329576 0.12587206 -0.09329732
-0.15271692 0.011847243 0.1507472 -0.00023274124 0.11084847 -0.063390955 0.04865326 0.04528734
0.086457 -0.117276415 -0.10115993 -0.014763385 0.08900273 -0.08911605 -0.024427935 -0.0034121573
0.049347907 -0.123806946 0.14659818 -0.11808354 0.07602711 -0.095144965 -0.11587192 -0.12058835
-0.0007850528 -0.100455076 0.006020218 0.113501266 -0.089313135 0.08397241 0.028631613 -0.07396378
0.00228481 -0.13075668 0.054601997 -0.013849869 0.12959729 -0.06425346 -0.054181546 -0.019905865
-0.013099879 0.15230013 0.07133739 0.09507494 0.055700496 -0.14710334 0.04976201 -0.12876968
-0.06792914 -0.0434592 -0.056749992 0.12359874 0.08326557 -0.0428589 0.14647056 -0.002789244
0.05717902 0.072655246 -0.049424045 -0.039517447 0.09590842 -0.035382204 0.030524462 0.12652536
-0.073823325 0.08740172 -0.03791804 0.011822462 -0.054654352 0.034127533 0.14311112 0.0056820363
-0.09809309 -0.078337006 -0.13430507 -0.14997222 0.13031907 0.13123442 0.14613079 -0.08691799
0.043623835 0.1034617 -0.15124056 -0.1384813 -0.10067491 0.0016917884 -0.06539183 0.07557602
-0.09604302 -0.07484705 0.12183662 0.00077845156 -0.13025206 -0.049717106 0.12732552 -0.050966457
-0.104604036 0.041337386 0.050407276 0.111361936 -0.05198452 -0.0037562996 0.12086396 0.07971972
0.024676397 0.028795868 0.108821616 -0.018297166 -0.059385054 -0.051001914 0.030983329 0.022441536
00000000: 1085 12be 3224 d43d 4005 2ebc c093 19bb
00000010: 88a3 0fbd d302 0dbe 5784 f7bd 1064 e8bd
00000020: 8ee1 cc3d da10 06be d8b4 633d 5e76 ab3d
00000030: 22ba ec3d 277a 1a3e 5919 16be fa57 39bd
00000040: 502a ae3c d21c fd3d 103d 913d e609 ee3d
00000050: 6861 2b3d 28bb 95bd 5238 8e3d 5c60 943d
00000060: de38 09be 8e90 f83d 0dc3 f9bd bf6f d6bd
00000070: b0ec c33c 75e7 1bbe ffab ebbd b642 f13d
00000080: 2820 8bbc ee8c 20bd 58f8 853c 9a35 823d
00000090: 727d e23d 634d 073e d3a4 0abe 5005 e23c
000000a0: baee 02bd cf64 043e 985e 963d 80f1 c9bb
000000b0: 97a2 eabd 40fd cb3b ee01 a23d 30a3 a43d
000000c0: 1460 b2bd cf2e 0f3e 5029 00bc 04d6 fabd
000000d0: 06b0 4ebd fac3 ac3d 58d6 b3bd da9e c73d
000000e0: 1072 c43d 9d02 b1bd b264 e9bd d604 f53d
000000f0: 67ff 04be e00f 43bd e0eb 04bc 406b f43b
00000100: 97f3 1b3e 622f ec3d 46a3 b23d c55c 033e
00000110: 1032 a5bc 0068 253c f2a1 fdbd b711 84bd
00000120: 5470 a43d b4ef 683d 70dd af3c f3c6 9cbd
00000130: ce14 fe3d 708f ed3c e235 32bd 1ad9 e93d
00000140: 180a bc3d 6c0e 00bd 6c04 bd3d cf31 12be
00000150: 3f27 153e f4e4 c7bd 30f7 07be 4a0a 9dbd
00000160: dc37 e0bd 0ef7 06be 6b60 05be fa55 8e3d
00000170: 972c 19be 96ca bcbd 9a6c 923d 5e71 903d
00000180: 59e7 1bbe 4a6b ae3d caff 0bbd 702d 6abc
00000190: e015 10be 79a8 013e c847 f33c aeb9 8cbd
000001a0: 9e76 8fbd 0661 de3d 0dcf 103e 264d 943d
000001b0: 4f36 91bd b234 cfbd e44c 92bd 18c3 573d
000001c0: 4090 1c3c 0ca6 5bbd 20f3 d83b 3018 703c
000001d0: 3f37 1abe f012 b5bc a937 023e e137 183e
000001e0: 8fb5 f1bd 4cb2 363d a4a0 12be 00ad 6fbb
000001f0: 6275 11be 0a6c 30bd 6053 e43b b0aa 43bc
00000200: 5418 e7bd 283d 713d 2497 b23d bc68 ecbd
00000210: 00c3 8d3c 80d9 d5bb 1008 c3bc 20f6 ef3b
00000220: b861 8c3c c68f de3d dac9 c83d 15fc 09be
00000230: c6c0 f23d ba8c d33d 9be4 003e aa12 bfbd
00000240: d361 1cbe f01a 423c 795d 1a3e 000c 74b9
00000250: 8604 e33d 1ed3 81bd a448 473d 387f 393d
00000260: 5e10 b13d 9e2e f0bd f02c cfbd 20e2 71bc
00000270: 1047 b63d 7a82 b6bd 181d c8bc 809e 5fbb
00000280: 0821 4a3d 7f8e fdbd d51d 163e c8d5 f1bd
00000290: 1ab4 9b3d 5ddb c2bd 424e edbd 06f7 f6bd
000002a0: 00cc 4dba 64bb cdbd 4045 c53b 5a73 e83d
000002b0: cee9 b6bd baf9 ab3d d88c ea3c 537a 97bd
000002c0: c0bc 153b 14e5 05be 58a6 5f3d 90ea 62bc
000002d0: 27b5 043e 5197 83bd 78ed 5dbd a011 a3bc
000002e0: e0a0 56bc 91f4 1b3e 5619 923d a6b6 c23d
000002f0: 3426 643d 42a2 16be 40d3 4b3d 33dc 03be
00000300: 6f1e 8bbd 4602 32bd ae72 68bd 5621 fd3d
00000310: 2487 aa3d d08c 2fbd 61fc 153e c0cb 36bb
00000320: 8c34 6a3d 46cc 943d de70 4abd 0cdd 21bd
00000330: a26b c43d eeec 10bd 700e fa3c dd8f 013e
00000340: af30 97bd acff b23d f24f 1bbd 00b3 413c
00000350: 3edd 5fbd 50c9 0b3d b98b 123e 6030 ba3b
00000360: 08e5 c8bd 276f a0bd 4587 09be 5192 19be
00000370: 5d72 053e 5162 063e 4fa3 153e 0f02 b2bd
00000380: e8ae 323d bae3 d33d cede 1abe 0bce 0dbe
00000390: a62e cebd 00bf dd3a 27ec 85bd 9ac7 9a3d
000003a0: 34b2 c4bd 6949 99bd 7a85 f93d 0011 4c3a
000003b0: cc60 05be 2aa4 4bbd 9f61 023e 34c2 50bd
000003c0: a43a d6bd 6451 293d dc77 4e3d ba11 e43d
000003d0: b8ed 54bd 402c 76bb 8687 f73d 1844 a33d
000003e0: 2826 ca3c 50e5 eb3c dedd de3d f0e3 95bc
000003f0: be3d 73bd 62e7 50bd c0d0 fd3c 50d7 b73c

onnx::LSTM_118 f4 [1, 1024]
0.0 0.0 0.0 0.0 0.0 0.0 0.0 0.0
0.0 0.0 0.0 0.0 0.0 0.0 0.0 0.0
0.0 0.0 0.0 0.0 0.0 0.0 0.0 0.0
0.0 0.0 0.0 0.0 0.0 0.0 0.0 0.0
0.0 0.0 0.0 0.0 0.0 0.0 0.0 0.0
0.0 0.0 0.0 0.0 0.0 0.0 0.0 0.0
0.0 0.0 0.0 0.0 0.0 0.0 0.0 0.0
0.0 0.0 0.0 0.0 0.0 0.0 0.0 0.0
0.0 0.0 0.0 0.0 0.0 0.0 0.0 0.0
0.0 0.0 0.0 0.0 0.0 0.0 0.0 0.0
0.0 0.0 0.0 0.0 0.0 0.0 0.0 0.0
0.0 0.0 0.0 0.0 0.0 0.0 0.0 0.0
0.0 0.0 0.0 0.0 0.0 0.0 0.0 0.0
0.0 0.0 0.0 0.0 0.0 0.0 0.0 0.0
0.0 0.0 0.0 0.0 0.0 0.0 0.0 0.0
0.0 0.0 0.0 0.0 0.0 0.0 0.0 0.0
0.0 0.0 0.0 0.0 0.0 0.0 0.0 0.0
0.0 0.0 0.0 0.0 0.0 0.0 0.0 0.0
0.0 0.0 0.0 0.0 0.0 0.0 0.0 0.0
0.0 0.0 0.0 0.0 0.0 0.0 0.0 0.0
0.0 0.0 0.0 0.0 0.0 0.0 0.0 0.0
0.0 0.0 0.0 0.0 0.0 0.0 0.0 0.0
0.0 0.0 0.0 0.0 0.0 0.0 0.0 0.0
0.0 0.0 0.0 0.0 0.0 0.0 0.0 0.0
0.0 0.0 0.0 0.0 0.0 0.0 0.0 0.0
0.0 0.0 0.0 0.0 0.0 0.0 0.0 0.0
0.0 0.0 0.0 0.0 0.0 0.0 0.0 0.0
0.0 0.0 0.0 0.0 0.0 0.0 0.0 0.0
0.0 0.0 0.0 0.0 0.0 0.0 0.0 0.0
0.0 0.0 0.0 0.0 0.0 0.0 0.0 0.0
0.0 0.0 0.0 0.0 0.0 0.0 0.0 0.0
0.0 0.0 0.0 0.0 0.0 0.0 0.0 0.0
00000000: 0000 0000 0000 0000 0000 0000 0000 0000
00000010: 0000 0000 0000 0000 0000 0000 0000 0000
00000020: 0000 0000 0000 0000 0000 0000 0000 0000
00000030: 0000 0000 0000 0000 0000 0000 0000 0000
00000040: 0000 0000 0000 0000 0000 0000 0000 0000
00000050: 0000 0000 0000 0000 0000 0000 0000 0000
00000060: 0000 0000 0000 0000 0000 0000 0000 0000
00000070: 0000 0000 0000 0000 0000 0000 0000 0000
00000080: 0000 0000 0000 0000 0000 0000 0000 0000
00000090: 0000 0000 0000 0000 0000 0000 0000 0000
000000a0: 0000 0000 0000 0000 0000 0000 0000 0000
000000b0: 0000 0000 0000 0000 0000 0000 0000 0000
000000c0: 0000 0000 0000 0000 0000 0000 0000 0000
000000d0: 0000 0000 0000 0000 0000 0000 0000 0000
000000e0: 0000 0000 0000 0000 0000 0000 0000 0000
000000f0: 0000 0000 0000 0000 0000 0000 0000 0000
00000100: 0000 0000 0000 0000 0000 0000 0000 0000
00000110: 0000 0000 0000 0000 0000 0000 0000 0000
00000120: 0000 0000 0000 0000 0000 0000 0000 0000
00000130: 0000 0000 0000 0000 0000 0000 0000 0000
00000140: 0000 0000 0000 0000 0000 0000 0000 0000
00000150: 0000 0000 0000 0000 0000 0000 0000 0000
00000160: 0000 0000 0000 0000 0000 0000 0000 0000
00000170: 0000 0000 0000 0000 0000 0000 0000 0000
00000180: 0000 0000 0000 0000 0000 0000 0000 0000
00000190: 0000 0000 0000 0000 0000 0000 0000 0000
000001a0: 0000 0000 0000 0000 0000 0000 0000 0000
000001b0: 0000 0000 0000 0000 0000 0000 0000 0000
000001c0: 0000 0000 0000 0000 0000 0000 0000 0000
000001d0: 0000 0000 0000 0000 0000 0000 0000 0000
000001e0: 0000 0000 0000 0000 0000 0000 0000 0000
000001f0: 0000 0000 0000 0000 0000 0000 0000 0000
00000200: 0000 0000 0000 0000 0000 0000 0000 0000
00000210: 0000 0000 0000 0000 0000 0000 0000 0000
00000220: 0000 0000 0000 0000 0000 0000 0000 0000
00000230: 0000 0000 0000 0000 0000 0000 0000 0000
00000240: 0000 0000 0000 0000 0000 0000 0000 0000
00000250: 0000 0000 0000 0000 0000 0000 0000 0000
00000260: 0000 0000 0000 0000 0000 0000 0000 0000
00000270: 0000 0000 0000 0000 0000 0000 0000 0000
00000280: 0000 0000 0000 0000 0000 0000 0000 0000
00000290: 0000 0000 0000 0000 0000 0000 0000 0000
000002a0: 0000 0000 0000 0000 0000 0000 0000 0000
000002b0: 0000 0000 0000 0000 0000 0000 0000 0000
000002c0: 0000 0000 0000 0000 0000 0000 0000 0000
000002d0: 0000 0000 0000 0000 0000 0000 0000 0000
000002e0: 0000 0000 0000 0000 0000 0000 0000 0000
000002f0: 0000 0000 0000 0000 0000 0000 0000 0000
00000300: 0000 0000 0000 0000 0000 0000 0000 0000
00000310: 0000 0000 0000 0000 0000 0000 0000 0000
00000320: 0000 0000 0000 0000 0000 0000 0000 0000
00000330: 0000 0000 0000 0000 0000 0000 0000 0000
00000340: 0000 0000 0000 0000 0000 0000 0000 0000
00000350: 0000 0000 0000 0000 0000 0000 0000 0000
00000360: 0000 0000 0000 0000 0000 0000 0000 0000
00000370: 0000 0000 0000 0000 0000 0000 0000 0000
00000380: 0000 0000 0000 0000 0000 0000 0000 0000
00000390: 0000 0000 0000 0000 0000 0000 0000 0000
000003a0: 0000 0000 0000 0000 0000 0000 0000 0000
000003b0: 0000 0000 0000 0000 0000 0000 0000 0000
000003c0: 0000 0000 0000 0000 0000 0000 0000 0000
000003d0: 0000 0000 0000 0000 0000 0000 0000 0000
000003e0: 0000 0000 0000 0000 0000 0000 0000 0000
000003f0: 0000 0000 0000 0000 0000 0000 0000 0000
