results/try-26/My Behavior/My Behavior-2704.onnx (onnx, 693209 bytes, 10 tensors)

network_body._body_endoder.seq_layers.0.weight f4 [128, 122]
000000 1a e1 53 3e fc 18 3b 3e a0 7a 4d bd 5f b5 aa 3c
       0.20691338 0.1827125 -0.050165772 0.020838438
000010 63 d2 10 3d 12 3e 0d bd 0e 95 59 3c 64 1f 9a bc
       0.03535689 -0.034483023 0.013280166 -0.018813796
000020 25 39 a5 bd cd 9a 93 bc ef 83 47 3c 2d 1d e6 bd
       -0.0806754 -0.01801815 0.0121774515 -0.112360336
000030 26 23 64 be f9 3f 8c 3d e4 bc 90 3d 53 16 3b be
       -0.22279033 0.06848139 0.07067278 -0.18270235
000040 7d e3 db 3c c0 dd b1 bd cf e7 e3 3d c1 a4 93 3c
       0.026841873 -0.086848736 0.11128198 0.018022897
000050 7a 8e 5e 3d 0d 16 20 3e 0e 65 41 3e d0 18 f9 bc
       0.054335095 0.15633412 0.18886206 -0.03040734
000060 6e e9 82 bd b7 28 d3 bd 89 c2 eb bc 18 bc cd 3a
       -0.063921794 -0.103105 -0.028779285 0.0015696315
000070 7b 67 a5 bd ad fb 26 3c 6f ab 89 3e 4e 6e 22 bc
       -0.08076378 0.01019184 0.26888606 -0.009913994
000080 91 58 1e 3d 8e b3 42 3e ee c2 b9 3d be 0d ed 3d
       0.038658682 0.19013807 0.09070383 0.11574887
000090 74 dd 50 be 30 95 18 be 04 e0 23 bd c7 d5 1f bd
       -0.20396978 -0.1490066 -0.04000856 -0.039022233
0000a0 2e c1 4b bc bf 81 d0 bd 9f 8e ae 3d 68 32 38 bd
       -0.012436194 -0.10180997 0.085232966 -0.044969946
0000b0 7e 43 03 be c2 35 c8 bd 7c 73 ba 3d 2a f0 0e 3e
       -0.12818715 -0.097758785 0.09104058 0.13958803
0000c0 ef d0 9d 3c ba 5b a8 bc 19 15 da bd 5e ea f8 3d
       0.019264666 -0.020551551 -0.10648555 0.12154077
0000d0 54 ce 82 bd 76 69 44 bd 77 b8 27 3d 3a b9 96 3d
       -0.0638701 -0.047952138 0.040947404 0.07359548
0000e0 ad d7 f8 bd 6e 88 5e 3d 5a d7 c7 bd ad 08 9c bd
       -0.12150512 0.05432933 -0.09757872 -0.07618842
0000f0 50 ae 46 3d 58 9e 53 3c fb 32 02 bb 31 7b d5 3d
       0.04850608 0.01291617 -0.0019866813 0.104238875
000100 42 a8 5e bd da da 8f 3d 34 e5 a4 bd da 7b 03 3d
       -0.054359682 0.070241645 -0.080515295 0.032100536
000110 30 17 4f be 03 68 df 39 db c0 0d bb 86 7b cf 3d
       -0.20223689 0.0004261137 -0.0021629843 0.10130982
000120 47 73 23 3e b2 c9 00 3d 92 de 43 3e 48 43 f5 bd
       0.15961944 0.03144235 0.19127873 -0.119757235
000130 57 03 ec bd 6a b0 18 be 8d b9 ce 3d 57 53 0b 3e
       -0.115240745 -0.14911047 0.10093985 0.1360601
000140 74 48 d4 3d 67 ba 57 bd 94 d0 14 3d 83 58 3b bd
       0.10365382 -0.052668 0.036331728 -0.04573871
000150 1a b0 bc 3d de 7f 03 bd dc ea de 3d e4 77 5e bd
       0.09213276 -0.032104366 0.108846396 -0.054313555
000160 72 bc 71 bd 36 8f ec 3d 8d 33 75 bc a3 08 e2 bd
       -0.059017606 0.11550753 -0.014965904 -0.110368036
000170 eb 60 28 be 03 3a e6 bd 7c f3 b6 ba ba 2c 87 bd
       -0.16443221 -0.112415336 -0.0013958062 -0.06600328
000180 de 06 ab bd c8 c7 b8 bd c6 ff 38 3d 8b e8 25 3d
       -0.08350919 -0.0902248 0.0451658 0.040504973
000190 89 f1 3f 3e ac 34 be 3d 42 e5 6f 3d 98 35 91 3d
       0.18744482 0.0928739 0.058568247 0.070903
0001a0 4c f3 d9 3d 8a 50 32 be c1 2a e2 bc 37 1e 1f bd
       0.10642108 -0.17413536 -0.027608277 -0.038847174
0001b0 80 b8 ef 3d 9a 0d 07 be c5 d9 40 3d e7 05 dc bd
       0.117051125 -0.13188782 0.04708268 -0.10743313
0001c0 cb b5 1e bd 9d 15 fc bd b3 0f c9 3d 00 f9 b7 3d
       -0.03874759 -0.1230881 0.098174475 0.0898304
0001d0 55 df 35 3d 24 ad 9d 3d e3 c8 ed bd be 1e 43 bb
       0.04440244 0.076990396 -0.11610582 -0.0029772962
0001e0 a8 4d a4 bd 37 ad 90 3d 06 6c 38 bd 42 47 80 3d
       -0.08022624 0.07064288 -0.045024894 0.06263591
0001f0 a0 39 bd bb d7 af e9 bd 6f d8 de 3d 4f 77 70 3e
       -0.0057746917 -0.11410492 0.10881125 0.23483013
000200 fd 69 cb bd 6e 83 82 bb 60 a0 e1 bd 04 df 98 bc
       -0.09932325 -0.003982953 -0.11016917 -0.01866103
000210 fa ea 29 3e a9 d4 b4 3d 4f c2 e8 bd 16 3a c0 bd
       0.16593543 0.08829624 -0.113651864 -0.09386079
000220 e0 ac a5 3d 24 fb e6 3d 81 5c 39 bc 89 0a 89 3d
       0.08089614 0.1127837 -0.011313559 0.066914625
000230 ce ba 2c 3c 05 91 ca 3c 49 b5 f8 3d d8 33 58 bc
       0.010542585 0.024727354 0.121439524 -0.013195954
000240 11 98 9b 3d 46 5f a0 3b fc ac a5 3d 9b 92 9f 3d
       0.07597364 0.00489417 0.08089635 0.07791635
000250 58 56 fb 3d 03 2d 45 3d d0 52 d1 bd ec 8f e8 bc
       0.12272328 0.04813863 -0.10220873 -0.02838894
000260 eb 75 95 3d 58 75 9f 3d 9b ae 2b be 26 71 f5 bd
       0.07297882 0.077860534 -0.16765825 -0.11984472
000270 85 e6 1d 3e 9f 4b c3 bd 86 3a 3c 3d da c0 10 bd
       0.15419967 -0.09535908 0.04595425 -0.035340168
000280 0a 49 cc bd 37 ca 63 bd aa 66 4a 3d 39 22 83 bd
       -0.099748686 -0.05561277 0.049414314 -0.06403012
000290 73 e2 96 bd 01 17 2a 3d 81 66 04 bd 7c b7 a3 bd
       -0.073674105 0.041525844 -0.032324318 -0.07993981
0002a0 fb 41 06 be 6c 4e c8 3b 03 7d c2 3c 4a 9d 37 3e
       -0.13111107 0.0061128642 0.02374125 0.17931095
0002b0 db 8f 20 bd 88 07 a5 3d c5 e6 6e be a1 d1 8e bd
       -0.03919969 0.08058077 -0.23330219 -0.06973577
0002c0 7d 41 02 3d ec d3 c3 ba fc 92 95 bd 62 30 7c 3e
       0.031800736 -0.0014940477 -0.07303426 0.24627832
0002d0 09 fc b9 bd a5 58 de 3d 9d 9d 2c 3d 17 46 11 3e
       -0.09081275 0.10856751 0.0421425 0.14186893
0002e0 2b b1 2e 3d 06 61 88 bd f2 71 a1 3d a3 02 42 3e
       0.04264943 -0.06659131 0.078830615 0.18946318
0002f0 ad b9 a9 3a 57 61 a9 3d ac f4 8d bd 65 67 7c 3d
       0.0012949012 0.08270519 -0.06931433 0.061622042
000300 54 63 c8 3c 3a cb 15 3b f1 87 dc bd ae 5c 4a bc
       0.024461426 0.0022856728 -0.10768116 -0.012351198
000310 38 9b e6 bc 23 7d 2e 3d 23 45 5c bd c3 aa 26 3d
       -0.028150186 0.04259981 -0.05377687 0.040690195
000320 b5 55 e5 bd 6b 61 0e be 37 4a 74 3d 2c f9 e1 3d
       -0.11197988 -0.1390435 0.05964109 0.11033854
000330 e0 ed 3f be 82 e3 88 3d de 1c ca 3d c1 7a b6 bd
       -0.18743086 0.06684019 0.09868787 -0.08910132
000340 89 ad 7a bb f0 22 14 be 6e d8 de 3d 32 69 df bc
       -0.0038250408 -0.14466453 0.108811244 -0.02727184
000350 ac a4 8e bc 81 3f f9 3d 59 57 83 bc ac 3f 9a bd
       -0.017412506 0.121703155 -0.016032862 -0.07531676
000360 cb 16 24 be f5 74 a0 3d ff e6 b6 3c 2b a7 70 bd
       -0.1602432 0.07834808 0.022326944 -0.058753174
000370 3e 19 80 bd ca 50 08 bd 0a 0e 6f bd 6b 5e 9f bc
       -0.062548146 -0.03328017 -0.058362998 -0.019454202
000380 c3 e9 13 bd 22 4b 84 3c 28 51 a8 bd f1 bc a5 3d
       -0.036111604 0.016149107 -0.08218604 0.08092678
000390 66 a1 d8 3d af 67 11 3d 4a a8 13 bd 67 f5 4b 3e
       0.10577659 0.03549927 -0.036049165 0.19917832
0003a0 dd 2f da 3c 48 09 8e bd 56 62 d0 3c ea 9f 83 3d
       0.026634151 -0.06935364 0.025437515 0.064269856
0003b0 aa bc 9b bd b4 4d 62 3d 58 57 af 3d f5 4f da bd
       -0.07604344 0.055249885 0.085615814 -0.10659782
0003c0 60 09 04 bd b4 78 08 3d df 3b 5b 3d fe 79 81 3d
       -0.032235503 0.033318236 0.053523894 0.06322096
0003d0 e4 e8 9c bd 5e 03 c8 bd 4f 65 c1 3d cc 64 59 bd
       -0.07661608 -0.09766267 0.09443151 -0.053074643
0003e0 da 70 4b bd ed ad 86 bd 8b c7 37 bd 27 75 11 3c
       -0.04966817 -0.065761425 -0.044868033 0.008878029
0003f0 75 91 73 bd 05 09 50 3e e5 8e 52 bc 11 3d 83 3d
       -0.05946489 0.2031594 -0.0128514515 0.06408132

network_body._body_endoder.seq_layers.0.bias f4 [128]
000000 00 00 00 00 00 00 00 00 00 00 00 00 00 00 00 00
       0.0 0.0 0.0 0.0
000010 00 00 00 00 00 00 00 00 00 00 00 00 00 00 00 00
       0.0 0.0 0.0 0.0
000020 00 00 00 00 00 00 00 00 00 00 00 00 00 00 00 00
       0.0 0.0 0.0 0.0
000030 00 00 00 00 00 00 00 00 00 00 00 00 00 00 00 00
       0.0 0.0 0.0 0.0
000040 00 00 00 00 00 00 00 00 00 00 00 00 00 00 00 00
       0.0 0.0 0.0 0.0
000050 00 00 00 00 00 00 00 00 00 00 00 00 00 00 00 00
       0.0 0.0 0.0 0.0
000060 00 00 00 00 00 00 00 00 00 00 00 00 00 00 00 00
       0.0 0.0 0.0 0.0
000070 00 00 00 00 00 00 00 00 00 00 00 00 00 00 00 00
       0.0 0.0 0.0 0.0
000080 00 00 00 00 00 00 00 00 00 00 00 00 00 00 00 00
       0.0 0.0 0.0 0.0
000090 00 00 00 00 00 00 00 00 00 00 00 00 00 00 00 00
       0.0 0.0 0.0 0.0
0000a0 00 00 00 00 00 00 00 00 00 00 00 00 00 00 00 00
       0.0 0.0 0.0 0.0
0000b0 00 00 00 00 00 00 00 00 00 00 00 00 00 00 00 00
       0.0 0.0 0.0 0.0
0000c0 00 00 00 00 00 00 00 00 00 00 00 00 00 00 00 00
       0.0 0.0 0.0 0.0
0000d0 00 00 00 00 00 00 00 00 00 00 00 00 00 00 00 00
       0.0 0.0 0.0 0.0
0000e0 00 00 00 00 00 00 00 00 00 00 00 00 00 00 00 00
       0.0 0.0 0.0 0.0
0000f0 00 00 00 00 00 00 00 00 00 00 00 00 00 00 00 00
       0.0 0.0 0.0 0.0
000100 00 00 00 00 00 00 00 00 00 00 00 00 00 00 00 00
       0.0 0.0 0.0 0.0
000110 00 00 00 00 00 00 00 00 00 00 00 00 00 00 00 00
       0.0 0.0 0.0 0.0
000120 00 00 00 00 00 00 00 00 00 00 00 00 00 00 00 00
       0.0 0.0 0.0 0.0
000130 00 00 00 00 00 00 00 00 00 00 00 00 00 00 00 00
       0.0 0.0 0.0 0.0
000140 00 00 00 00 00 00 00 00 00 00 00 00 00 00 00 00
       0.0 0.0 0.0 0.0
000150 00 00 00 00 00 00 00 00 00 00 00 00 00 00 00 00
       0.0 0.0 0.0 0.0
000160 00 00 00 00 00 00 00 00 00 00 00 00 00 00 00 00
       0.0 0.0 0.0 0.0
000170 00 00 00 00 00 00 00 00 00 00 00 00 00 00 00 00
       0.0 0.0 0.0 0.0
000180 00 00 00 00 00 00 00 00 00 00 00 00 00 00 00 00
       0.0 0.0 0.0 0.0
000190 00 00 00 00 00 00 00 00 00 00 00 00 00 00 00 00
       0.0 0.0 0.0 0.0
0001a0 00 00 00 00 00 00 00 00 00 00 00 00 00 00 00 00
       0.0 0.0 0.0 0.0
0001b0 00 00 00 00 00 00 00 00 00 00 00 00 00 00 00 00
       0.0 0.0 0.0 0.0
0001c0 00 00 00 00 00 00 00 00 00 00 00 00 00 00 00 00
       0.0 0.0 0.0 0.0
0001d0 00 00 00 00 00 00 00 00 00 00 00 00 00 00 00 00
       0.0 0.0 0.0 0.0
0001e0 00 00 00 00 00 00 00 00 00 00 00 00 00 00 00 00
       0.0 0.0 0.0 0.0
0001f0 00 00 00 00 00 00 00 00 00 00 00 00 00 00 00 00
       0.0 0.0 0.0 0.0

network_body._body_endoder.seq_layers.2.weight f4 [128, 128]
000000 9f 36 d8 3d 97 14 e0 bc bb 45 dc bd 13 f2 a9 bd
       0.10557293 -0.027353568 -0.107554875 -0.08298125
000010 11 cf 49 3c 2e a0 72 3d be 06 54 bd 15 bd a6 3d
       0.012317435 0.05923479 -0.051764242 0.08141533
000020 b5 15 b4 3d de 14 4d bd c8 03 3d bb 9b 1a 89 bc
       0.08793203 -0.05006873 -0.0028841365 -0.01673632
000030 a4 b4 52 3d 82 0c 01 3e 3f 4c 0c be eb 3c 80 bd
       0.051441804 0.12602428 -0.1370096 -0.06261619
000040 a8 20 67 bd 24 52 ef bc e4 4b 9b 3b 62 fa 17 bd
       -0.056427628 -0.029213972 0.0047392715 -0.037104018
000050 08 55 21 3e aa 5a 12 be b0 82 cd bc 7b b0 8f bd
       0.15755093 -0.14292398 -0.02508673 -0.07016083
000060 b9 7f f6 3c 56 f3 a7 3d 62 2b 16 3e bc b3 53 bc
       0.0300902 0.082007095 0.14664987 -0.01292127
000070 04 c0 0b 3c 82 da a8 3d 2f 58 85 3c b0 9b c6 bc
       0.008529667 0.08244802 0.0162774 -0.02424416
000080 86 1b 81 bd a6 60 05 3e 94 99 21 3d ef 7d 39 3d
       -0.06304078 0.1302515 0.039453104 0.045286115
000090 8d 1e 41 3e 3f 4f 1e bc 35 1b 49 3e 15 50 25 3e
       0.1885931 -0.009662448 0.19639285 0.1614383
0000a0 e9 f1 ac bc 66 d5 83 bd 16 2b 0c be 4f 8b 55 3b
       -0.021111446 -0.06437187 -0.13688311 0.0032584255
0000b0 e2 c2 a7 bb e0 d7 14 bd 21 9b 2d bd 18 3f 88 bc
       -0.0051196674 -0.036338687 -0.04238427 -0.016631648
0000c0 67 e1 61 3e e2 2a 0d 3d 23 ed 7c 3e b9 71 bb ba
       0.2205864 0.034464724 0.24699835 -0.001430086
0000d0 59 7d 53 bd 25 3e 92 bd b0 e9 08 bd d9 a5 0a 3e
       -0.051633213 -0.071407594 -0.033425987 0.13539828
0000e0 4e 5c f9 3c d7 db 2a 3d 08 a2 20 be f7 e5 54 bd
       0.030439522 0.041713562 -0.1568681 -0.051977124
0000f0 89 9a c5 bd 8b a0 79 bd 70 d7 d8 3a ea 4d 21 3e
       -0.09648616 -0.06094412 0.0016543698 0.15752378
000100 b8 0e da 3d b0 fa 7c 3e 9a 37 17 be 46 d7 3f be
       0.10647339 0.24705005 -0.14767304 -0.18734464
000110 99 62 3c be 1f 66 a4 bc 63 de 11 bd 5b 29 3a bd
       -0.18396987 -0.020068226 -0.035612475 -0.045449596
000120 3b fd c2 bd 8d bf bd 3d 41 d7 fc bd 96 2f 09 be
       -0.09520956 0.09265051 -0.12345744 -0.13397059
000130 c9 67 cf bd 82 9b 07 3d 31 fb 1f 3c 48 2f c5 3d
       -0.10127217 0.03310729 0.009764479 0.09628159
000140 39 e3 c8 bd 30 76 b0 bd 3d 59 aa bc 02 88 c6 bc
       -0.09808964 -0.086162925 -0.020794505 -0.024234775
000150 6c b9 96 3d 8d 85 56 3c 26 fc ff bd 86 52 f9 bc
       0.07359585 0.013093364 -0.124992654 -0.030434858
000160 69 7f 9f bc ba 11 35 be 7f a7 5a 3d a8 e8 34 bd
       -0.019469934 -0.17682543 0.053382393 -0.04416719
000170 7e a7 65 3d b7 eb 36 3c be f9 b8 3c 64 ba c4 bd
       0.056067936 0.011164597 0.022580024 -0.09605864
000180 5e 97 e7 bd f4 19 00 3e ca 28 d6 bd 49 10 a9 3d
       -0.11308168 0.125099 -0.10456999 0.08255059
000190 4f 23 db 3d 46 31 94 bd 26 22 34 3d ce 28 1f be
       0.10700094 -0.07235961 0.04397788 -0.1554291
0001a0 56 e1 75 3d a2 d2 c3 3d f0 80 51 be 13 2f 22 bd
       0.06002935 0.095616594 -0.20459342 -0.039595675
0001b0 be 38 f8 bd 99 ed 91 bd 92 6f bb bc 91 88 bd bd
       -0.12120198 -0.07125396 -0.02288035 -0.092545636
0001c0 70 b6 38 bc 6b 9d 26 3d 61 36 70 3c 6a 3b 4d 3b
       -0.011273965 0.04067747 0.014661402 0.003131593
0001d0 73 2f be 3d a5 fc a8 bd cf 3c 88 3d 02 7b b5 3c
       0.09286394 -0.08251313 0.06652223 0.022153381
0001e0 45 59 e3 3d 17 28 29 3c 28 97 b0 bd fe 02 88 bd
       0.11101011 0.0103245 -0.08622581 -0.06641196
0001f0 eb 92 87 3d 0b 4a 69 be 6d e8 c1 3c bf f2 03 3d
       0.06619819 -0.22782151 0.0236704 0.032213923
000200 b4 63 a3 3d 77 ae 8e bc e6 fd d8 3c a0 c7 0c be
       0.07978001 -0.017417176 0.026488256 -0.13748026
000210 85 36 3d 3b 9c 1b df 3d 60 92 42 3d 53 42 13 bc
       0.0028871608 0.10893938 0.047502875 -0.008987981
000220 d4 29 07 3c 8d eb d2 3d 6e 7f 8f bd 1d 65 e6 bd
       0.008249719 0.10298834 -0.07006727 -0.112497546
000230 cc 99 ce bd 3c d2 fc bd 18 b5 8a bd bb 5c a0 3d
       -0.10087928 -0.123447865 -0.06772822 0.07830187
000240 6e f6 92 bc 78 b6 56 3d 12 ef ad 3d 7a bf 63 be
       -0.017939772 0.05242011 0.08492865 -0.22241011
000250 ba 00 00 be fc 27 cc bd 82 02 f7 3b 51 80 8e 3c
       -0.12500277 -0.09968564 0.0075381408 0.01739517
000260 be 88 c5 bd 58 37 e5 bd 89 a2 79 bd 64 07 97 3d
       -0.09645222 -0.111921966 -0.06094602 0.073744565
000270 1d 20 d1 3d 11 92 5b be 49 ee 3c 3d 3d 06 b9 39
       0.10211203 -0.21442439 0.046125684 0.00035290598
000280 57 36 2d bd 84 dc dd 3d 47 d6 9e bd e5 b3 85 bd
       -0.04228815 0.10833076 -0.07755714 -0.06528453
000290 d8 7b d2 bd 27 78 82 bc e8 16 11 3e f0 d7 11 be
       -0.102775276 -0.015926434 0.14168894 -0.1424253
0002a0 68 8e 2e bd 9d 0f 1e 3d d6 21 85 3c d0 2b 07 3e
       -0.042616278 0.03858911 0.016251486 0.13200307
0002b0 57 bc 8d bd ac f8 a7 3b b2 70 46 bc fa 29 7a bb
       -0.069206886 0.0051260795 -0.01211183 -0.0038171993
0002c0 ce 9b 6b 3d bb 4a 0a 3e d4 b5 05 3d 2a a1 f0 bc
       0.057521634 0.1350507 0.032644108 -0.029373724
0002d0 02 36 52 be 50 be 9e 3b 7b 07 be 3c a6 19 f0 3d
       -0.20528415 0.0048444644 0.023196926 0.11723642
0002e0 0b 5f 95 bd c3 bb a6 bd f6 c1 b6 3d 75 1c e0 bb
       -0.07293519 -0.081412815 0.08923714 -0.00683933
0002f0 e8 d0 8b bd dc 84 36 be e3 52 5d bc 0e 9e e0 3c
       -0.06826955 -0.1782412 -0.013508531 0.027419116
000300 65 62 54 3c a8 db de 3b c3 4e 2b bc a8 a2 2f be
       0.012962912 0.0068010874 -0.01045579 -0.17151892
000310 e4 d7 e7 3d 34 b1 06 3e b4 c7 50 bd 31 c1 c5 3d
       0.11320475 0.13153535 -0.0509717 0.09655989
000320 51 50 c8 bd e5 d7 17 bc 84 c6 bf bd fb 97 84 bd
       -0.09780944 -0.009267782 -0.09364036 -0.064743005
000330 11 db ae bd c0 6d ef bd cf 03 12 be 29 9e 0b be
       -0.08537877 -0.11690855 -0.14259265 -0.13634552
000340 86 e5 16 3e 42 ac 7a bd 50 45 cf 3c dc 1a a4 bd
       0.14735994 -0.061199434 0.025301605 -0.080129355
000350 4b a3 fb bb 08 5e 29 3d 1b 3c fc bc 89 86 88 bd
       -0.007679378 0.04134944 -0.03079038 -0.066662855
000360 a5 aa 89 3d 8e 22 53 3d a8 61 5c 3d 68 7b 09 bd
       0.06722001 0.051546626 0.05380407 -0.033564955
000370 23 f0 8b bd 56 33 85 bd 7e 13 fb bb 85 f9 04 3e
       -0.06832912 -0.06503932 -0.0076622358 0.12985809
000380 9e 31 97 bd e9 40 0a be 45 36 d7 bc 7e 4a 51 be
       -0.073825106 -0.13501324 -0.026270995 -0.20438573
000390 aa 85 8b 3d d5 be 86 3d ec 26 20 bd 3b 62 c4 3d
       0.06812604 0.06579367 -0.03909962 0.095890485
0003a0 95 54 a8 3d 44 1b f1 bd b6 c5 59 bd 2b a1 63 3d
       0.08219258 -0.11772779 -0.053167067 0.055573624
0003b0 a6 22 93 bd a4 b5 89 bd 17 5f a4 3b cb f4 7a 3c
       -0.07184343 -0.06724098 0.0050162184 0.015317152
0003c0 10 6f a4 3d 20 96 11 3e f3 24 fd 3d a8 d8 50 bd
       0.08028996 0.14217424 0.12360563 -0.05098787
0003d0 d2 da 1e 3e 27 e2 12 3e fb 7c 5d 3d e6 cc 35 bd
       0.15513161 0.14344083 0.05407427 -0.04438486
0003e0 8a fb 2a 3c 99 21 9c 3d 3f 18 28 3d b0 bf 21 3d
       0.010435948 0.07623596 0.041038748 0.039489448
0003f0 67 8c d4 3d 3e 42 be bd ac fa ef bd 97 66 f2 bb
       0.10378342 -0.092899784 -0.11717734 -0.0073974836

action_model._continuous_distribution.log_sigma f4 [1, 51]
000000 00 00 00 00 00 00 00 00 00 00 00 00 00 00 00 00
       0.0 0.0 0.0 0.0
000010 00 00 00 00 00 00 00 00 00 00 00 00 00 00 00 00
       0.0 0.0 0.0 0.0
000020 00 00 00 00 00 00 00 00 00 00 00 00 00 00 00 00
       0.0 0.0 0.0 0.0
000030 00 00 00 00 00 00 00 00 00 00 00 00 00 00 00 00
       0.0 0.0 0.0 0.0
000040 00 00 00 00 00 00 00 00 00 00 00 00 00 00 00 00
       0.0 0.0 0.0 0.0
000050 00 00 00 00 00 00 00 00 00 00 00 00 00 00 00 00
       0.0 0.0 0.0 0.0
000060 00 00 00 00 00 00 00 00 00 00 00 00 00 00 00 00
       0.0 0.0 0.0 0.0
000070 00 00 00 00 00 00 00 00 00 00 00 00 00 00 00 00
       0.0 0.0 0.0 0.0
000080 00 00 00 00 00 00 00 00 00 00 00 00 00 00 00 00
       0.0 0.0 0.0 0.0
000090 00 00 00 00 00 00 00 00 00 00 00 00 00 00 00 00
       0.0 0.0 0.0 0.0
0000a0 00 00 00 00 00 00 00 00 00 00 00 00 00 00 00 00
       0.0 0.0 0.0 0.0
0000b0 00 00 00 00 00 00 00 00 00 00 00 00 00 00 00 00
       0.0 0.0 0.0 0.0
0000c0 00 00 00 00 00 00 00 00 00 00 00 00
       0.0 0.0 0.0

action_model._continuous_distribution.mu.weight f4 [51, 128]
000000 a3 cf 3d 3d cb cb 2c 3c 48 a4 90 bc d7 b6 2d bc
       0.046340596 0.010546635 -0.01765646 -0.010602674
000010 52 44 46 bc 05 23 6d bc 9b 34 80 3c 5f 8a a3 bc
       -0.01210125 -0.014473681 0.015650084 -0.019963441
000020 bb 66 82 bb ab 66 cf 3c de cc 88 bc 10 4c aa bc
       -0.0039795316 0.02531751 -0.01669925 -0.020788223
000030 7e 75 08 bd 47 9f c0 bb e2 d3 39 bc f8 35 f1 bc
       -0.033315174 -0.0058783623 -0.011342021 -0.02944468
000040 7e f3 03 bc 68 05 cd 3b 37 34 d7 bc 03 c1 24 3c
       -0.0080536585 0.006256748 -0.026270015 0.010055783
000050 90 26 50 3a 80 8e 54 bb 3f bf 22 3c ee 50 02 3c
       0.00079403166 -0.003243357 0.009933292 0.007953865
000060 8f 2d a7 3b 4f c8 ca 3b 8b f3 3a 3c 53 46 f8 ba
       0.0051018666 0.0061884294 0.011410604 -0.0018941857
000070 54 42 87 3c b2 b4 cd bc 9a 26 5f bc 98 bf 4e 3d
       0.01651112 -0.025110576 -0.013620043 0.050475687
000080 82 b6 ef bc fb 17 59 b6 3d 1a ba 3a 73 d1 98 bc
       -0.029261831 -3.2349478e-06 0.0014198493 -0.01865456
000090 c5 e8 56 3c a8 5a 90 bc 6f 38 e2 bc 33 57 d3 3c
       0.01311702 -0.017621353 -0.0276148 0.025798416
0000a0 ba 44 e4 3b cf ec 75 bc 93 ab af 3c 8f 6c 9a ba
       0.0069662007 -0.015010073 0.021444118 -0.001178162
0000b0 78 5d 40 3b c5 8a af 3c 60 0c 70 3c d3 b8 d9 3b
       0.0029352587 0.021428475 0.014651388 0.006644347
0000c0 d7 5c 09 bd 6c 2c c7 bc 26 51 ae 3c 72 83 b4 3c
       -0.033535805 -0.024313174 0.021278929 0.022035334
0000d0 8c 9d 01 3d b3 9c 50 bb 23 a4 23 3c cd 57 ba bb
       0.03164439 -0.0031831681 0.009987864 -0.005686736
0000e0 6f e0 a1 3a c5 d2 82 bc 50 5b fe 3b 00 ee 1f 3c
       0.0012350212 -0.015969643 0.00776235 0.009761333
0000f0 e3 24 50 bb 63 91 84 3a af 6a c3 bc 33 a2 c5 bc
       -0.0031760267 0.0010114129 -0.023854582 -0.024125194
000100 13 dc 50 bc 13 f6 75 bb d8 fe 32 bd 53 df 45 3c
       -0.012747782 -0.0037530705 -0.04370007 0.01207717
000110 60 96 d6 3b 13 e8 ee bb 23 63 ad 3c 0c ae 9e 3b
       0.006548688 -0.007290849 0.021165436 0.0048425253
000120 77 76 51 bc 23 49 ee bb 5c b6 12 3d dd 7e 68 3a
       -0.012784592 -0.007271902 0.035818443 0.0008869002
000130 75 95 69 bb b0 86 ea 3c c2 8b e6 3c 5f 56 2a bb
       -0.0035642062 0.028628677 0.028142814 -0.0025991423
000140 18 0d 3c 3b 56 7a 8a 3c f7 67 80 bb bd 1e 50 3c
       0.0028694328 0.016904037 -0.0039186436 0.012702641
000150 67 b3 63 3d 5d 6b 26 b9 ef 66 c2 3c 6a 47 9a 3c
       0.055591013 -0.0001587099 0.023730723 0.018832881
000160 d6 43 b0 ba ca ed 94 3c 7a 2d 66 bc 23 c6 f1 bc
       -0.0013447951 0.018179793 -0.014048928 -0.029513424
000170 c7 e2 27 3c d7 28 e0 3c 17 d1 26 3c bf 8e 4e 3d
       0.010246939 0.027363224 0.010181687 0.050429102
000180 28 10 a6 3c 24 20 0c bc 2f 0d 55 ba 57 1b b1 3b
       0.020271376 -0.008552585 -0.00081272697 0.0054048705
000190 a8 33 d9 3c a6 db b3 bc 8b 24 be bc 66 1d 11 3c
       0.02651389 -0.021955322 -0.023210784 0.008857107
0001a0 b8 98 1e 3d cb 9a 0e 3c 7d 8b cd 3b a3 84 ea 3c
       0.038719863 0.008703898 0.006272732 0.0286277
0001b0 ab eb a9 3c 5b 12 88 bb 4f 25 c2 bc c1 cc 24 bd
       0.020742258 -0.004152579 -0.02369943 -0.04023433
0001c0 17 a2 b6 3a b0 2e ae bb f5 c9 5b bc fa 67 67 bc
       0.0013933805 -0.005315624 -0.0134148495 -0.014123911
0001d0 f0 8c 37 3c 2f fd 66 bb 5a b4 7d 3c 90 5d a0 bc
       0.011203036 -0.0035246124 0.015484894 -0.019575864
0001e0 79 07 1d bc 7a 16 6d 3d ad 7a 2a bb 52 ac 05 3d
       -0.009584301 0.057882763 -0.0026013062 0.03263504
0001f0 fa 1f 43 bc de 3b b0 3c 9a 59 95 bb db d8 52 bc
       -0.011909479 0.021512922 -0.0045578005 -0.012869085
000200 2e c4 19 ba 3b ad 6d 3c 8b b9 81 bc 3d bb b3 ba
       -0.000586572 0.014506633 -0.015835544 -0.0013712418
000210 e0 b2 44 bc 24 f1 3f bc b7 33 d6 bc ad d5 00 bc
       -0.012005538 -0.011715207 -0.026147706 -0.007863444
000220 ea 2d 52 bc b5 74 97 bc 4b 99 c2 bc 67 8e 35 3c
       -0.01282833 -0.018488267 -0.023754736 0.011081315
000230 00 9b 73 ba 7c 7f 46 bb f9 04 28 bc 8f 70 b7 3c
       -0.0009292811 -0.003028839 -0.010255092 0.02239254
000240 38 fd ed 3c 4b b1 0d bc 4b c8 28 bb 51 da c4 3b
       0.029051408 -0.008648227 -0.002575415 0.0060074707
000250 12 3e b3 3c d1 4b 83 bb 25 12 5e bc df 9a 12 bc
       0.021880183 -0.0040068408 -0.013554131 -0.008948057
000260 47 8e ca 3c fd 11 28 ba 7b ad 03 3c df b7 82 bc
       0.024726046 -0.0006411372 0.008036966 -0.015956817
000270 73 d1 ed bb e9 2c 14 3c ac bc 3d bc ef ca 82 3b
       -0.0072576343 0.009043911 -0.011580627 0.0039914767
000280 42 82 3b 3a 04 4a 47 bc ab 8b 91 bc 4b ef ce 3c
       0.0007152894 -0.012163643 -0.017766794 0.025260588
000290 ba 5a d2 ba 5d 94 17 bc 78 36 50 3b 01 0b 30 3c
       -0.0016048767 -0.009251681 0.0031770747 0.010744811
0002a0 f7 97 34 3c 6b 5f b2 bc 78 b3 42 3b b8 51 37 bb
       0.011022559 -0.021774014 0.0029709022 -0.0027972292
0002b0 e0 3d a6 3c af 57 8a bc 1d e9 ae bc 07 0c 38 bc
       0.020293176 -0.016887514 -0.021351391 -0.011233336
0002c0 aa cc 5e ba 34 ee 44 3a 7a 46 f2 3b 4b f0 59 bc
       -0.0008499125 0.00075123017 0.0073936554 -0.013301919
0002d0 4a d5 28 bb 15 7d 1a 3c 12 25 66 3c 7e d2 0c bc
       -0.0025761896 0.009429236 0.014046924 -0.008595107
0002e0 f0 c2 44 3c eb 93 71 3a 20 03 38 3a 82 4c bc 3c
       0.012009367 0.0009215462 0.00070195086 0.0229857
0002f0 43 79 04 3c 4b 0a d1 3c c7 20 77 bc c3 db 92 3c
       0.008085552 0.025517603 -0.015083498 0.017927056
000300 cf b1 10 3c 3b 27 5c 3c 57 b2 fa 3b 45 82 fd 3c
       0.008831455 0.013437088 0.0076506543 0.030945906
000310 2f a7 dd 3b b5 ae b3 3c 4a 85 2e bc a7 38 ae bb
       0.0067643146 0.021933893 -0.010651896 -0.005316812
000320 38 f0 d5 bb 2a 2e 28 3c 35 d6 91 bb 9f a4 e0 bc
       -0.0065288804 0.010264913 -0.0044505843 -0.027422247
000330 92 c8 ce bc 0a 06 f5 3b 62 3e 44 3c 53 c1 b2 3b
       -0.025242124 0.0074775266 0.011977764 0.005455175
000340 4f d2 a1 bc 48 2b 8d bb 9b 3f dd 3b 50 6b 98 bc
       -0.019753603 -0.004308138 0.006751967 -0.018605858
000350 37 00 9a bc 2b 59 d3 3c 24 55 2d 3c 77 fa be 3b
       -0.01879893 0.025799355 0.010579381 0.0058281976
000360 85 05 f0 3b 21 28 85 3c 57 7d d3 bb 13 1c 6b bb
       0.0073248767 0.016254487 -0.0064541507 -0.0035874888
000370 23 81 9a 3b 31 a9 bb bc a7 59 fb bc 15 0f 79 bc
       0.0047151013 -0.022907825 -0.030682398 -0.01520135
000380 ec 06 2e 3b 14 18 02 3c e3 82 e9 bb c7 44 0a 3d
       0.0026554419 0.007940311 -0.0071261986 0.033756997
000390 d2 4e 10 3d d5 bf ac 3c 5d 6e ee 3b 67 fd 62 3c
       0.03523142 0.021087566 0.00727634 0.013854361
0003a0 92 09 72 3c 78 04 a5 3c 3c b7 0c 3d f3 ca 84 bc
       0.01477279 0.020143732 0.034354433 -0.016210055
0003b0 a7 f6 a6 bc f0 c6 19 3c 6a 68 ef 3b 73 55 00 3d
       -0.020381285 0.009385809 0.0073061483 0.03133149
0003c0 93 63 57 3c ea ef d8 bb de bb 23 bc 8b df 84 bb
       0.013146299 -0.006620397 -0.0099935215 -0.0040549687
0003d0 9f ec b4 bb ea ed 5e bc cc f0 42 3c c2 2d 1c 3c
       -0.0055213715 -0.013606528 0.011898231 0.009532394
0003e0 5f b8 82 bc 07 fb 83 3c b7 76 7a 3a e3 0b 40 bc
       -0.015957056 0.01611091 0.0009554433 -0.011721584
0003f0 d3 ca 11 bb 5e 50 aa bc d8 95 6f 3c ef 7a 22 3d
       -0.0022246137 -0.020790275 0.014623128 0.03966802

action_model._continuous_distribution.mu.bias f4 [51]
000000 00 00 00 00 00 00 00 00 00 00 00 00 00 00 00 00
       0.0 0.0 0.0 0.0
000010 00 00 00 00 00 00 00 00 00 00 00 00 00 00 00 00
       0.0 0.0 0.0 0.0
000020 00 00 00 00 00 00 00 00 00 00 00 00 00 00 00 00
       0.0 0.0 0.0 0.0
000030 00 00 00 00 00 00 00 00 00 00 00 00 00 00 00 00
       0.0 0.0 0.0 0.0
000040 00 00 00 00 00 00 00 00 00 00 00 00 00 00 00 00
       0.0 0.0 0.0 0.0
000050 00 00 00 00 00 00 00 00 00 00 00 00 00 00 00 00
       0.0 0.0 0.0 0.0
000060 00 00 00 00 00 00 00 00 00 00 00 00 00 00 00 00
       0.0 0.0 0.0 0.0
000070 00 00 00 00 00 00 00 00 00 00 00 00 00 00 00 00
       0.0 0.0 0.0 0.0
000080 00 00 00 00 00 00 00 00 00 00 00 00 00 00 00 00
       0.0 0.0 0.0 0.0
000090 00 00 00 00 00 00 00 00 00 00 00 00 00 00 00 00
       0.0 0.0 0.0 0.0
0000a0 00 00 00 00 00 00 00 00 00 00 00 00 00 00 00 00
       0.0 0.0 0.0 0.0
0000b0 00 00 00 00 00 00 00 00 00 00 00 00 00 00 00 00
       0.0 0.0 0.0 0.0
0000c0 00 00 00 00 00 00 00 00 00 00 00 00
       0.0 0.0 0.0

action_model._discrete_distribution.branches.0.weight f4 [1, 128]
000000 24 39 bc 3a c0 76 af ba a3 1d 5d ba 37 31 0b bb
       0.0014360291 -0.0013386831 -0.0008434897 -0.002123905
000010 4f a2 40 3c db ac 8f bc da 09 8a 3b 13 ec 2f bc
       0.011757447 -0.017538479 0.0042126 -0.010737437
000020 57 2e 09 3b 34 ff 29 3c 8b fa 14 3c 8f 86 8c 3c
       0.0020932162 0.010375787 0.009092937 0.017154006
000030 d1 8e b1 3b 06 85 33 bb 3c fd 1c bc 47 5a 8d 3c
       0.0054186364 -0.002739252 -0.00958186 0.017254962
000040 7a 69 84 ba 72 59 ea ba 2a 51 d2 3a 9b e3 31 3c
       -0.0010102235 -0.001787944 0.0016045917 0.010857488
000050 c6 c2 2a bc 68 0f b5 3c 33 fb 62 3c a3 bb 00 bc
       -0.010422414 0.022102073 0.013853836 -0.007857236
000060 c6 60 4b 3c 13 f0 d9 39 be f0 36 bc 4c 2b 8b 3b
       0.012413209 0.00041568335 -0.011165796 0.0042471047
000070 89 08 40 bc 37 b9 10 3c 6a 5f fb ba 63 04 8e 3c
       -0.011720785 0.008833221 -0.0019178216 0.017336076
000080 c8 15 6e 3b 9b 58 04 3c f2 5e 8c 3c 19 b3 0c 3b
       0.00363289 0.008077766 0.017135117 0.0021469055
000090 fa 5c d4 3a 1a c3 e2 bb c1 b4 07 3c 55 dc 3f bb
       0.0016202026 -0.0069202306 0.008282841 -0.0029275615
0000a0 55 c5 2b 3c 00 20 8b bc d3 e2 16 3a a2 d9 b8 ba
       0.010484059 -0.016983032 0.00057558453 -0.0014102946
0000b0 33 c6 bc 3b fa 1d 6e bb 03 d3 3e 3b 60 9e d6 ba
       0.005760932 -0.0036333785 0.0029117472 -0.0016374104
0000c0 7d c1 1e bc 56 2e 3e bb 3e a9 a0 b9 1f 8d 1b bc
       -0.009689686 -0.0029019318 -0.00030643673 -0.009494095
0000d0 0b 65 9c 3a 33 90 4b 3c 8f 8a c1 3a 64 98 1b bc
       0.0011931969 0.0124245165 0.0014766025 -0.009496782
0000e0 4d 02 ed 38 72 1c 2a bc df 44 16 bb 7b d8 54 bc
       0.00011301469 -0.010382758 -0.0022929234 -0.012991066
0000f0 1b 30 aa 3b dc a9 31 3c ac ee 17 3c af c8 9a 3a
       0.005193723 0.01084372 0.009273212 0.0011809076
000100 6f 2e 30 bc a7 a3 ce 3b 24 92 3f bc 4c 87 0b 3c
       -0.010753258 0.00630613 -0.0116925575 0.008516144
000110 c3 1d 48 3c 15 37 39 bc 02 73 88 bb ba 71 e4 ba
       0.012214127 -0.0113046365 -0.0041641006 -0.0017428913
000120 a3 3e 22 3c 0a 50 a9 3b b5 a1 54 3c d8 3b 32 39
       0.009902629 0.005167012 0.012978007 0.00016997696
000130 2b 56 ba 3b 8f d9 54 3c 63 40 48 3b d7 cc 81 bc
       0.0056865416 0.012991323 0.0030555956 -0.015844746
000140 b8 72 f5 3a 74 21 b5 bb 0a aa 55 3b 17 6b 90 bc
       0.0018726205 -0.0055276696 0.0032602572 -0.01762919
000150 69 88 19 3c a1 77 1b bb f0 d2 dd ba 0e 12 48 3c
       0.009370902 -0.0023722427 -0.0016923826 0.012211336
000160 3b 7b 8c bb 51 f7 c0 3b d9 11 12 3b e5 d2 90 3a
       -0.004287151 0.0058888574 0.002228847 0.001104918
000170 bb 1b f0 bb 6b 71 11 ba eb 91 5c 3c 83 9a 28 3b
       -0.0073275245 -0.00055482116 0.013462524 0.0025726862
000180 47 d8 ce 3b 3f 01 10 bc 5e c4 b1 bb d8 db 5d 3c
       0.0063124034 -0.00878936 -0.00542502 0.013541184
000190 e2 44 c5 bb 0f f9 0e 3b 3b 57 53 3c b1 5d 9c bb
       -0.0060201744 0.002181593 0.012899215 -0.004771911
0001a0 85 23 58 3b 10 ac d4 3b 2b c8 07 bb f2 2e 39 3c
       0.0032980156 0.006490238 -0.0020718675 0.011302697
0001b0 ff bf 9f 3b 2a 38 90 3c af 11 4a bc e7 e3 28 3c
       0.0048751826 0.017604906 -0.012333318 0.010308242
0001c0 57 3a 06 3b 42 e2 dd bb 2b da 9a 3b ca 51 c9 3b
       0.002048155 -0.006771357 0.0047257147 0.006143783
0001d0 87 f9 7d bb b3 b8 04 bc 2a 65 97 bb 96 6e 49 ba
       -0.0038753466 -0.008100676 -0.004620214 -0.000768402
0001e0 57 3c 03 bc e6 ae 00 3c 33 a4 3e 3c b5 40 ac 3b
       -0.008009992 0.007854199 0.011635828 0.005256737
0001f0 75 61 5d bb 5d 90 9b 3b 2a e0 84 ba e5 89 87 bc
       -0.0033780013 0.004747434 -0.0010137607 -0.016545245

onnx::LSTM_116 f4 [1, 512, 128]
000000 b0 b1 9e bd 00 bb 28 3b 0e a0 29 bd 3c e6 b3 3d
       -0.07748735 0.0025746226 -0.041412406 0.08784148
000010 04 d9 1a 3d 10 52 02 3c 50 6a 67 3c 94 2a f4 bd
       0.03780462 0.007954136 0.014124468 -0.11922184
000020 40 3e bb bc 52 cf de 3d 53 67 0b 3e 80 a7 6f 3c
       -0.022856832 0.10879387 0.13613634 0.014627337
000030 93 96 03 3e be 86 94 bd 16 b3 da 3d 50 06 53 3d
       0.12850408 -0.072522625 0.10678689 0.051519692
000040 49 c3 b5 bd d6 45 a7 bd 81 ef 18 3e 90 b0 eb 3c
       -0.08875138 -0.08167617 0.14935113 0.028770715
000050 eb 86 ff bd 00 a7 ac bb 10 db 39 bd 98 7b d7 bd
       -0.124769054 -0.0052689314 -0.04537493 -0.105216205
000060 f6 3e 2d bd 50 b5 f0 bc ae 26 03 be 57 eb 17 3e
       -0.042296372 -0.029383332 -0.12807724 0.14835869
000070 e4 05 4e 3d 3c 13 7e bd 68 19 58 bd 85 0c 17 3e
       0.050298586 -0.062030062 -0.052758604 0.1475087
000080 ba 09 b4 bd 00 f9 02 bd fe 59 98 bd 70 5b 0e bc
       -0.08790918 -0.031975746 -0.0743904 -0.008688793
000090 62 24 9d bd 20 5b b3 bc 78 26 e0 3c c0 1a 46 bb
       -0.07672955 -0.021894038 0.027362093 -0.0030228347
0000a0 78 06 fa bd a0 35 5b 3d 99 7f 17 3e 66 0d d4 3d
       -0.12208265 0.053517938 0.14794768 0.10354118
0000b0 ac 6f 01 3d 8c bb 9f 3d 93 57 1b 3e 80 fd 4b bb
       0.03160064 0.077994436 0.15170126 -0.003112644
0000c0 dd a5 11 3e 0e b8 a9 3d d8 d7 67 3d a6 e1 c7 3d
       0.14223428 0.08287059 0.05660233 0.09759836
0000d0 93 d2 88 bd d8 09 bc 3d 4c ea eb bd 22 08 07 be
       -0.06680789 0.09181565 -0.11519298 -0.13186696
0000e0 08 5e 04 bd 6a 6e bc 3d 90 05 e8 3c 34 8c 39 3d
       -0.032316238 0.09200747 0.028322965 0.045299724
0000f0 aa ee b3 3d ce 2c cc bd da 54 8c 3d 00 73 16 be
       0.08785756 -0.09969483 0.06852122 -0.14692307
000100 e3 45 09 3e 10 01 20 3c 04 7a 15 be 40 9c f2 bd
       0.13405566 0.009765878 -0.14597327 -0.118462086
000110 64 84 98 bd ec 79 f1 bc 2c f2 12 bd 50 c0 86 3d
       -0.074471265 -0.029477082 -0.035875484 0.065796494
000120 70 dc d7 3c 00 5c bd 3b 00 66 be 3c 18 c5 92 3c
       0.02635023 0.0057787895 0.023241997 0.017916247
000130 3f 95 f3 bd 7f 7b a1 bd 62 6f a3 3d 8c 4c d8 bd
       -0.11893701 -0.07884883 0.07980229 -0.10561475
000140 c0 9f 8a bd 3f f2 9b bd eb 9c 0f 3e 86 1f 9f 3d
       -0.06768751 -0.07614564 0.14024703 0.077696845
000150 98 97 e6 3c c4 17 79 3d 0c 88 c8 bd 7a 90 f7 3d
       0.028148457 0.06081368 -0.09791574 0.120881036
000160 b0 4a 94 3d f8 15 a8 3d 8e 96 b8 bd f0 50 da 3c
       0.07240808 0.08207315 -0.09013091 0.026649922
000170 78 27 c1 bc d0 7f a7 bc ff b1 a2 bd 50 94 ec 3c
       -0.02357839 -0.020446688 -0.07944106 0.028879315
000180 1c eb 13 be 92 11 ce 3d 6c 98 44 bd 58 b2 92 3c
       -0.14445156 0.10061945 -0.047996923 0.017907307
000190 52 e4 70 bd b0 f3 53 3d 0c 7a 53 bd b0 f2 2f 3d
       -0.058811493 0.05174607 -0.051630065 0.042956054
0001a0 b2 33 24 bd e2 90 7c bd 50 73 85 bd fa 86 19 be
       -0.040088363 -0.06166161 -0.06516135 -0.14992896
0001b0 76 81 db 3d 11 08 aa bd 38 1b 1c bd 20 aa b4 bc
       0.10718052 -0.0830232 -0.038111895 -0.022053778
0001c0 50 8f ff 3c b3 00 0f 3e e0 0a 28 3d 10 01 20 3d
       0.031196266 0.1396511 0.041025996 0.039063513
0001d0 78 f5 b5 3d 44 1a 12 be f9 cf a2 bd 54 52 39 3d
       0.0888471 -0.14267832 -0.07949824 0.04524453
0001e0 23 89 06 be bc 77 58 3d fb 48 1c 3e 20 e1 fa bd
       -0.13138251 0.052848563 0.15262215 -0.122499704
0001f0 ea cb a4 3d 48 dc 00 be 51 08 12 3e fe be 75 bd
       0.08046706 -0.1258403 0.14260985 -0.059996597
000200 dc 35 03 3d c8 13 94 bc 62 91 4e bd 17 7c 13 3e
       0.032033786 -0.018075839 -0.050431617 0.14402805
000210 54 ea 7c bd 10 66 44 3d 72 38 5a bd 66 47 c1 bd
       -0.06174691 0.047948897 -0.053276487 -0.09437446
000220 68 ed 6c bd fc c7 d2 bd 63 a4 82 bd 9c d4 31 3d
       -0.057843596 -0.1029205 -0.063790105 0.04341565
000230 a8 9d 77 bd 80 39 b4 3a 8c 43 61 3d e1 48 0e 3e
       -0.060453087 0.0013750046 0.05499606 0.13894989
000240 e0 bc 9d bc e8 d4 bb bc 32 32 90 3d f2 b2 f6 3d
       -0.019255102 -0.02292867 0.07040824 0.1204585
000250 40 42 2f bc ba 94 f7 3d d2 06 43 bd e8 4c a0 bc
       -0.010696948 0.12088914 -0.047613926 -0.019567922
000260 bc 70 bc 3d 7c 82 f6 bd 07 ec 05 be 25 84 10 3e
       0.0920119 -0.12036607 -0.13078319 0.14112909
000270 66 a0 ca 3d 9e 54 ee 3d 32 a5 d7 3d ce 7f c1 3d
       0.09893875 0.11637233 0.105295554 0.09448205
000280 14 d1 15 be b0 f7 01 be eb d8 b5 bd 0a b8 c8 3d
       -0.14630538 -0.12692142 -0.088792644 0.09800728
000290 00 d5 aa ba 01 c7 13 3e 4a 1f c0 bd b0 70 06 bc
       -0.001303345 0.14431383 -0.09380968 -0.008205578
0002a0 28 0b 81 3d 76 36 1d bd 14 d6 1f 3d b0 62 bb bc
       0.06300956 -0.038382016 0.03902252 -0.022874206
0002b0 8c 6b 02 be 34 65 8c bd 46 6b 86 bd 57 2e c2 bd
       -0.12736338 -0.068552405 -0.065634295 -0.09481495
0002c0 c0 85 5f 3d 00 00 89 36 4c ed c7 bd e9 f2 19 3e
       0.054570913 4.082918e-06 -0.09762058 0.15034069
0002d0 78 0c ed 3c a0 d3 53 3d 60 ef 85 bc 40 a6 e2 3b
       0.02893661 0.051715493 -0.016349494 0.006916791
0002e0 e6 bc 90 bd 82 39 10 be 98 8f e5 bd e7 0a 01 be
       -0.070672795 -0.14084437 -0.11209029 -0.12601815
0002f0 74 21 c7 bd c0 84 08 3d 50 e8 9d 3d 17 bb 02 3e
       -0.097231776 0.033329725 0.07710326 0.12766682
000300 76 74 38 bd 4e 76 18 bd 6c 70 3e bd 06 5d be 3d
       -0.04503294 -0.0372222 -0.046493933 0.092950866
000310 80 01 68 bb c7 d3 83 bd 16 7c 8c 3d 78 57 4d bd
       -0.0035401285 -0.06436878 0.06859605 -0.050132245
000320 49 32 07 3e 88 c9 8d bc b0 c3 13 be 80 19 77 3b
       0.13202776 -0.017308012 -0.14430118 0.0037704408
000330 a2 62 c5 3d 94 2c c4 3d 10 23 15 3d 3e e4 d5 3d
       0.09637953 0.09578815 0.03641039 0.10443924
000340 11 4a 8c bd d0 b1 08 3c 67 d4 08 3e 40 a6 8d 3c
       -0.068500645 0.008343175 0.13362275 0.017291188
000350 6e 6f c3 3d 9a 19 cd 3d b4 46 ad 3d 43 63 92 bd
       0.09542738 0.10014649 0.08460751 -0.07147839
000360 96 ff 53 bd 7a 7c 8f 3d 00 2d 7c 3d 0a 6d 9e 3d
       -0.051757418 0.07006164 0.061566353 0.07735641
000370 ec aa c4 3d 2c 13 0f be 7e 74 f7 3d 26 1c c0 bd
       0.09602913 -0.13972157 0.12082766 -0.09380369
000380 cb 21 10 3e 49 33 01 3e 6f af 0c 3e f2 be c0 3d
       0.14075391 0.1261722 0.13738798 0.0941142
000390 ac 2a e6 bc 7c e4 5a bd b9 b7 15 3e 60 14 9b bc
       -0.02809652 -0.053440556 0.14620866 -0.018930614
0003a0 3c b3 aa bd 82 c4 de bd 6c b6 0a be 19 2e b8 bd
       -0.083349675 -0.10877325 -0.13546151 -0.089931674
0003b0 a0 db 98 bc 40 04 47 3c fa 85 5f bd b0 1f 7b bc
       -0.018659413 0.012147009 -0.05457113 -0.015327379
0003c0 00 7d 84 3a 5d f6 a5 bd 1e f9 1f bd 80 51 ed bb
       0.0010108054 -0.08103631 -0.039055936 -0.0072423816
0003d0 18 10 0c 3d e6 d7 06 be 36 e9 f7 bd 43 79 16 3e
       0.034195036 -0.13168296 -0.12105028 0.14694695
0003e0 2e 92 ea bd e8 07 92 3d 42 ad db 3d 58 c0 92 3d
       -0.11453663 0.07130414 0.10726406 0.07165593
0003f0 4b 32 15 3e ac ef 2f bd 28 3f d5 3c ae b6 2b bd
       0.14569966 -0.04295318 0.026031092 -0.041922264

onnx::LSTM_117 f4 [1, 512, 128]
000000 cc 94 97 3d 5a 57 17 be 66 a3 ed 3d a5 40 f5 bd
       0.074014276 -0.14779416 0.116034314 -0.119752206
000010 48 66 12 be 80 2e da bc a0 68 b4 3c 2e 86 7b bd
       -0.1429683 -0.026633501 0.022022545 -0.06140726
000020 77 a7 ab bd 89 c9 10 be 2b ae 14 3e ce 3d b0 3d
       -0.08381551 -0.1413938 0.14519565 0.08605538
000030 84 34 71 3d 58 27 a2 3d 6a c1 84 3d da 3d 01 be
       0.058887973 0.079176605 0.06482203 -0.12621251
000040 19 03 8b bd 54 69 1c bd 17 c6 0e 3e 30 a4 64 bc
       -0.067877 -0.038186386 0.13942753 -0.013955161
000050 30 33 02 bd 20 12 98 bc d5 3d 10 3e fc 4f 0b be
       -0.031787097 -0.01856333 0.14086087 -0.1360473
000060 60 27 38 3d c8 96 c3 3d 2a 20 4d bd 02 ba da bd
       0.044959426 0.095502436 -0.050079502 -0.106800094
000070 e3 6e 17 3e ce f5 84 3d 78 25 21 3d e0 de f7 bc
       0.14788394 0.06492196 0.039342374 -0.030257642
000080 a0 8f db 3b 78 0b fd bd aa a1 f7 3d 50 6d de bc
       0.006700471 -0.12355703 0.12091382 -0.027151734
000090 58 4a 9f 3c d9 e8 0e 3e 7b 0d 0f 3e 5c ae ef bd
       0.01944463 0.13956012 0.13969986 -0.11703178
0000a0 02 27 dc bd fb 46 16 3e de de d3 3d 4e 23 ce bd
       -0.10749628 0.14675514 0.10345243 -0.100653276
0000b0 38 09 6c 3d de 10 f7 3d 8e d1 ab 3d a5 b4 b8 bd
       0.05762598 0.12063764 0.08389579 -0.0901883
0000c0 0c 9d b5 3d 0f d5 18 3e 20 b4 ed 3c 9f 4d 16 3e
       0.08867845 0.14925025 0.029016554 0.14678048
0000d0 3e 3a d3 3d 07 97 14 be b6 49 f8 3d 80 3a b4 3a
       0.10313843 -0.14510737 0.12123434 0.0013750345
0000e0 54 94 0b 3d e2 0c 24 bd cc a2 97 3d fa 0d 8e bd
       0.034077004 -0.04005135 0.07404098 -0.069362596
0000f0 dc 0d 9a 3d 30 66 14 bc 77 2b 01 3e f0 45 84 bc
       0.07522175 -0.0090575665 0.12614237 -0.01614663
000100 8f 4f 8f bd 96 10 d1 bd 91 da 05 3e 7e 8d d2 bd
       -0.069975965 -0.10208242 0.13071658 -0.10280894
000110 9c d8 6d 3d 34 2a 82 3d ca 13 a0 3d a0 36 13 be
       0.058067903 0.06355706 0.078162745 -0.14376307
000120 bf ba 02 3e 8a 3a 94 bd d0 54 77 bc 92 f0 b2 3d
       0.1276655 -0.07237728 -0.0150959045 0.087372914
000130 d0 84 ad 3c 9a f8 a3 bd 56 3d f6 3d bc 3d 95 3d
       0.021181494 -0.08006401 0.12023418 0.072871655
000140 3c 1e 78 3d 42 e3 d6 3d 7e 97 aa 3d 50 fa 41 bd
       0.06057571 0.10492565 0.08329676 -0.047357857
000150 bd b5 10 3e b6 95 8c 3d b6 f3 05 be 56 06 b4 3d
       0.14131828 0.068644926 -0.1308125 0.08790271
000160 96 af e4 3d ff a2 91 bd 05 d5 c3 bd 88 be 2e 3d
       0.11166303 -0.07111167 -0.095621146 0.042662174
000170 52 9f f4 3d 85 08 fd bd f3 8c 14 3e d2 29 f7 3d
       0.119444504 -0.123551406 0.14506893 0.120685235
000180 9c 7a 0a be c0 04 fd 3c c0 79 95 bc 10 1d 5a 3c
       -0.13523334 0.030886054 -0.018246531 0.013312593
000190 d7 d8 b0 bd 10 97 f3 bd 94 5d 3e 3d 9a 8a a1 bd
       -0.08635109 -0.11894047 0.04647596 -0.07887764
0001a0 23 4f 07 3e f0 10 53 bc 34 51 12 3d 70 c2 cc 3c
       0.13213782 -0.012882456 0.035721973 0.024995059
0001b0 d6 be a4 3d 4a 8d a2 3d 84 22 a9 3d 90 71 af bc
       0.080442116 0.07937105 0.082585365 -0.021416456
0001c0 14 03 64 3d 10 21 8d 3d da 22 fc 3d 30 96 76 3d
       0.055666998 0.06891072 0.12311335 0.060201824
0001d0 85 a5 0b 3e 8d 8d 89 bd c6 64 5b bd 8b 13 01 be
       0.1363736 -0.06716452 -0.053562902 -0.12605111
0001e0 7a 5a c2 3d 11 c1 0d 3e 14 bf 5b 3d ae 46 e4 3d
       0.09489913 0.1384318 0.053649023 0.111462936
0001f0 b0 b4 39 3c ca ec e4 3d 00 64 4d b9 f6 81 14 bd
       0.011334583 0.111779764 -0.00019587576 -0.036256753
000200 28 9e 72 3d a4 8f 03 3d c4 82 43 3d 44 5c 58 bd
       0.05923286 0.03211941 0.04773213 -0.052822366
000210 5a fd d9 3d 72 4e ec bd 80 a9 9e bb b4 bd f2 bd
       0.10644026 -0.115384 -0.0048419833 -0.11852589
000220 a0 39 20 bc b4 2f ae 3d bf a5 99 bd 38 d0 44 3d
       -0.009779364 0.085051924 -0.07502317 0.048050135
000230 00 20 75 ba 96 b8 68 bd e6 db 09 be b6 06 85 3d
       -0.00093507767 -0.05681666 -0.13462791 0.06495421
000240 78 05 6e bd 00 28 71 3a f5 99 9b bd 08 26 69 bd
       -0.058110684 0.0009199381 -0.07597724 -0.056921035
000250 2e 13 89 3d 81 b9 cb bd 8d 37 18 3e 7c 03 10 3d
       0.06693111 -0.099474914 0.14864941 0.035159573
000260 88 9e eb 3c fe 6e ea 3d 03 04 16 3e be 98 a3 3d
       0.028762117 0.11446951 0.14649968 0.07988118
000270 90 5b bf 3c 9f 4f 02 3e 19 e1 0f 3e ec 99 79 3d
       0.02335909 0.12725686 0.14050712 0.060937807
000280 c0 00 fa bd a0 85 3c 3c 58 c2 a2 3c 3b 63 05 3e
       -0.12207174 0.011506468 0.019868061 0.13026135
000290 4d 5c 0a be 09 10 10 3e 84 e6 ce bd 24 16 15 be
       -0.13511772 0.14068617 -0.10102561 -0.14559227
0002a0 08 07 52 3d 00 76 bb 3d f0 62 09 be 00 91 04 3c
       0.051276237 0.09153366 -0.13416648 0.008091211
0002b0 50 f6 6c 3c a8 86 ad 3c e8 37 7a 3d 09 9a 18 3e
       0.014463022 0.021182373 0.061088473 0.1490251
0002c0 b8 7a 98 3d e8 f6 3e 3d b8 6c bd 3d c6 95 c4 3d
       0.07445282 0.046622187 0.09249252 0.095988795
0002d0 56 75 08 be 88 1d e9 bd 03 ea f0 bd e2 d4 c5 3d
       -0.1332601 -0.11382586 -0.11763384 0.09659745
0002e0 e0 29 d4 3c 4a d7 ae bd 22 a8 6a bd 40 23 29 bd
       0.025898874 -0.08537157 -0.05728925 -0.041293383
0002f0 60 b5 37 bc bf 44 12 3e 48 f1 2a 3d 2a 19 f7 bd
       -0.011212677 0.14284037 0.04173401 -0.120653465
000300 8a f2 f5 bd 98 44 af bc 62 d2 fc bd c0 9d 16 3b
       -0.12009151 -0.021395013 -0.12344815 0.002298221
000310 68 fb a0 bc 1c 32 a5 3d c0 6b 3c 3d e3 44 0d 3e
       -0.01965113 0.08066198 0.046001196 0.1379581
000320 c4 19 84 3d 70 1c 9a 3d 19 df 81 bd 0c 75 61 3d
       0.06450227 0.07524955 -0.063413806 0.055043265
000330 84 dc 1b be 49 dd 05 be 18 b0 2c 3d 8d 0b 1c 3e
       -0.15220839 -0.13072695 0.042160124 0.15238781
000340 f2 e8 b4 3d 68 e8 56 3d df 01 85 bd dd 54 10 3e
       0.08833493 0.052467734 -0.064944975 0.14094873
000350 6c 6c fb bd 14 52 55 3d 36 9d 18 bd cd 21 1c 3e
       -0.12276539 0.05208023 -0.037259303 0.15247269
000360 98 52 8b 3c 00 e8 9b ba c7 d8 19 be a0 b3 d5 bc
       0.017007157 -0.0011894703 -0.150241 -0.026086628
000370 fc a7 75 3d 74 60 97 3d b0 3a 4b 3d 80 ec e3 3b
       0.059974656 0.07391444 0.049616516 0.006955683
000380 8c 83 4c bd 80 bb 5d 3c 83 b3 f3 bd b6 29 c1 3d
       -0.04993014 0.013533473 -0.118994735 0.09431784
000390 7e 89 11 be b2 99 89 3d 12 eb 68 bd f0 6b 15 3d
       -0.14212605 0.06718768 -0.056864806 0.03647989
0003a0 fb 8f 00 3e 1e 3b d6 3d e8 d4 58 3d ca bf d7 3d
       0.12554924 0.104604945 0.05293742 0.10534628
0003b0 80 ed cf bb f4 fa 59 bd 16 df 96 3d f7 4c 1a 3e
       -0.006345451 -0.053217843 0.07366769 0.15068422
0003c0 b8 a6 a0 bc 7c aa 02 3d db 75 1a 3e b4 d3 b7 bd
       -0.019610748 0.031900868 0.15084021 -0.08975926
0003d0 c1 2c 18 be 9a 20 f5 bd cc 8b b6 bd 58 10 99 3d
       -0.14860822 -0.11969109 -0.08913383 0.074738204
0003e0 a0 66 f1 bb d0 e9 08 be aa e2 ef 3d 57 a9 a7 bd
       -0.00736697 -0.13370442 0.117131546 -0.08186596
0003f0 0c e1 1a be e6 d7 a5 bd 0c f6 3b bd ea d4 ec 3d
       -0.15124911 -0.0809782 -0.045888945 0.11564048

onnx::LSTM_118 f4 [1, 1024]
000000 00 00 00 00 00 00 00 00 00 00 00 00 00 00 00 00
       0.0 0.0 0.0 0.0
000010 00 00 00 00 00 00 00 00 00 00 00 00 00 00 00 00
       0.0 0.0 0.0 0.0
000020 00 00 00 00 00 00 00 00 00 00 00 00 00 00 00 00
       0.0 0.0 0.0 0.0
000030 00 00 00 00 00 00 00 00 00 00 00 00 00 00 00 00
       0.0 0.0 0.0 0.0
000040 00 00 00 00 00 00 00 00 00 00 00 00 00 00 00 00
       0.0 0.0 0.0 0.0
000050 00 00 00 00 00 00 00 00 00 00 00 00 00 00 00 00
       0.0 0.0 0.0 0.0
000060 00 00 00 00 00 00 00 00 00 00 00 00 00 00 00 00
       0.0 0.0 0.0 0.0
000070 00 00 00 00 00 00 00 00 00 00 00 00 00 00 00 00
       0.0 0.0 0.0 0.0
000080 00 00 00 00 00 00 00 00 00 00 00 00 00 00 00 00
       0.0 0.0 0.0 0.0
000090 00 00 00 00 00 00 00 00 00 00 00 00 00 00 00 00
       0.0 0.0 0.0 0.0
0000a0 00 00 00 00 00 00 00 00 00 00 00 00 00 00 00 00
       0.0 0.0 0.0 0.0
0000b0 00 00 00 00 00 00 00 00 00 00 00 00 00 00 00 00
       0.0 0.0 0.0 0.0
0000c0 00 00 00 00 00 00 00 00 00 00 00 00 00 00 00 00
       0.0 0.0 0.0 0.0
0000d0 00 00 00 00 00 00 00 00 00 00 00 00 00 00 00 00
       0.0 0.0 0.0 0.0
0000e0 00 00 00 00 00 00 00 00 00 00 00 00 00 00 00 00
       0.0 0.0 0.0 0.0
0000f0 00 00 00 00 00 00 00 00 00 00 00 00 00 00 00 00
       0.0 0.0 0.0 0.0
000100 00 00 00 00 00 00 00 00 00 00 00 00 00 00 00 00
       0.0 0.0 0.0 0.0
000110 00 00 00 00 00 00 00 00 00 00 00 00 00 00 00 00
       0.0 0.0 0.0 0.0
000120 00 00 00 00 00 00 00 00 00 00 00 00 00 00 00 00
       0.0 0.0 0.0 0.0
000130 00 00 00 00 00 00 00 00 00 00 00 00 00 00 00 00
       0.0 0.0 0.0 0.0
000140 00 00 00 00 00 00 00 00 00 00 00 00 00 00 00 00
       0.0 0.0 0.0 0.0
000150 00 00 00 00 00 00 00 00 00 00 00 00 00 00 00 00
       0.0 0.0 0.0 0.0
000160 00 00 00 00 00 00 00 00 00 00 00 00 00 00 00 00
       0.0 0.0 0.0 0.0
000170 00 00 00 00 00 00 00 00 00 00 00 00 00 00 00 00
       0.0 0.0 0.0 0.0
000180 00 00 00 00 00 00 00 00 00 00 00 00 00 00 00 00
       0.0 0.0 0.0 0.0
000190 00 00 00 00 00 00 00 00 00 00 00 00 00 00 00 00
       0.0 0.0 0.0 0.0
0001a0 00 00 00 00 00 00 00 00 00 00 00 00 00 00 00 00
       0.0 0.0 0.0 0.0
0001b0 00 00 00 00 00 00 00 00 00 00 00 00 00 00 00 00
       0.0 0.0 0.0 0.0
0001c0 00 00 00 00 00 00 00 00 00 00 00 00 00 00 00 00
       0.0 0.0 0.0 0.0
0001d0 00 00 00 00 00 00 00 00 00 00 00 00 00 00 00 00
       0.0 0.0 0.0 0.0
0001e0 00 00 00 00 00 00 00 00 00 00 00 00 00 00 00 00
       0.0 0.0 0.0 0.0
0001f0 00 00 00 00 00 00 00 00 00 00 00 00 00 00 00 00
       0.0 0.0 0.0 0.0
000200 00 00 00 00 00 00 00 00 00 00 00 00 00 00 00 00
       0.0 0.0 0.0 0.0
000210 00 00 00 00 00 00 00 00 00 00 00 00 00 00 00 00
       0.0 0.0 0.0 0.0
000220 00 00 00 00 00 00 00 00 00 00 00 00 00 00 00 00
       0.0 0.0 0.0 0.0
000230 00 00 00 00 00 00 00 00 00 00 00 00 00 00 00 00
       0.0 0.0 0.0 0.0
000240 00 00 00 00 00 00 00 00 00 00 00 00 00 00 00 00
       0.0 0.0 0.0 0.0
000250 00 00 00 00 00 00 00 00 00 00 00 00 00 00 00 00
       0.0 0.0 0.0 0.0
000260 00 00 00 00 00 00 00 00 00 00 00 00 00 00 00 00
       0.0 0.0 0.0 0.0
000270 00 00 00 00 00 00 00 00 00 00 00 00 00 00 00 00
       0.0 0.0 0.0 0.0
000280 00 00 00 00 00 00 00 00 00 00 00 00 00 00 00 00
       0.0 0.0 0.0 0.0
000290 00 00 00 00 00 00 00 00 00 00 00 00 00 00 00 00
       0.0 0.0 0.0 0.0
0002a0 00 00 00 00 00 00 00 00 00 00 00 00 00 00 00 00
       0.0 0.0 0.0 0.0
0002b0 00 00 00 00 00 00 00 00 00 00 00 00 00 00 00 00
       0.0 0.0 0.0 0.0
0002c0 00 00 00 00 00 00 00 00 00 00 00 00 00 00 00 00
       0.0 0.0 0.0 0.0
0002d0 00 00 00 00 00 00 00 00 00 00 00 00 00 00 00 00
       0.0 0.0 0.0 0.0
0002e0 00 00 00 00 00 00 00 00 00 00 00 00 00 00 00 00
       0.0 0.0 0.0 0.0
0002f0 00 00 00 00 00 00 00 00 00 00 00 00 00 00 00 00
       0.0 0.0 0.0 0.0
000300 00 00 00 00 00 00 00 00 00 00 00 00 00 00 00 00
       0.0 0.0 0.0 0.0
000310 00 00 00 00 00 00 00 00 00 00 00 00 00 00 00 00
       0.0 0.0 0.0 0.0
000320 00 00 00 00 00 00 00 00 00 00 00 00 00 00 00 00
       0.0 0.0 0.0 0.0
000330 00 00 00 00 00 00 00 00 00 00 00 00 00 00 00 00
       0.0 0.0 0.0 0.0
000340 00 00 00 00 00 00 00 00 00 00 00 00 00 00 00 00
       0.0 0.0 0.0 0.0
000350 00 00 00 00 00 00 00 00 00 00 00 00 00 00 00 00
       0.0 0.0 0.0 0.0
000360 00 00 00 00 00 00 00 00 00 00 00 00 00 00 00 00
       0.0 0.0 0.0 0.0
000370 00 00 00 00 00 00 00 00 00 00 00 00 00 00 00 00
       0.0 0.0 0.0 0.0
000380 00 00 00 00 00 00 00 00 00 00 00 00 00 00 00 00
       0.0 0.0 0.0 0.0
000390 00 00 00 00 00 00 00 00 00 00 00 00 00 00 00 00
       0.0 0.0 0.0 0.0
0003a0 00 00 00 00 00 00 00 00 00 00 00 00 00 00 00 00
       0.0 0.0 0.0 0.0
0003b0 00 00 00 00 00 00 00 00 00 00 00 00 00 00 00 00
       0.0 0.0 0.0 0.0
0003c0 00 00 00 00 00 00 00 00 00 00 00 00 00 00 00 00
       0.0 0.0 0.0 0.0
0003d0 00 00 00 00 00 00 00 00 00 00 00 00 00 00 00 00
       0.0 0.0 0.0 0.0
0003e0 00 00 00 00 00 00 00 00 00 00 00 00 00 00 00 00
       0.0 0.0 0.0 0.0
0003f0 00 00 00 00 00 00 00 00 00 00 00 00 00 00 00 00
       0.0 0.0 0.0 0.0
