results/try-13/My Behavior/My Behavior-576.onnx (onnx, 693209 bytes, 10 tensors)

network_body._body_endoder.seq_layers.0.weight f4 [128, 122]
0	0xbb4396ab	-0.0029844444
1	0xbc3fb042	-0.011699738
2	0x3dd21a5d	0.10258935
3	0x3d184a2d	0.037180115
4	0x3c09bf74	0.008407462
5	0xbd578f4a	-0.052626885
6	0x3d0f2628	0.034948498
7	0x3c4943a3	0.012284192
8	0xbcd81d4d	-0.02638116
9	0x3ddf3c88	0.10900217
10	0xbbe7f225	-0.0070784264
11	0x3d66cfe2	0.056350596
12	0xbcaec1a1	-0.021332564
13	0xbd9578b8	-0.07298416
14	0xbd9055f6	-0.07047646
15	0x3c3b36d3	0.011426645
16	0x3d30a34c	0.043124482
17	0xbd8da7ae	-0.06916748
18	0x3ca3e9a0	0.020008862
19	0xbd0f5b4e	-0.034999184
20	0xbcb3868d	-0.021914745
21	0x3e6b3351	0.22968794
22	0xbddfd3ec	-0.10929093
23	0x3b9e295e	0.0048267087
24	0xbd8e4b14	-0.06947914
25	0x3db5104f	0.08841001
26	0xbd36af45	-0.044600744
27	0x3db0c4df	0.086313
28	0x3d5467ff	0.05185699
29	0x3da6af35	0.08138887
30	0xbded0a30	-0.11574209
31	0xbc790ef9	-0.015201324
32	0xbd24d32a	-0.040240444
33	0xbcbffbf4	-0.02343557
34	0x3da747e2	0.081680074
35	0xbdd17799	-0.102278896
36	0x3dac26a5	0.08405808
37	0x3d7c308b	0.06156973
38	0x3ae9f6b7	0.0017850016
39	0x3e18d6bc	0.14925665
40	0x3daa89cd	0.08327065
41	0x3dc3b396	0.09555738
42	0xbd2f8a80	-0.042856693
43	0x3dc1c611	0.09461606
44	0x3cdf3723	0.02724797
45	0xbc770b70	-0.0150784105
46	0xbe2eaf6a	-0.17059103
47	0x3dc17952	0.09446968
48	0x3d6dfefb	0.058104496
49	0x3da3f1e1	0.08005119
50	0xbd45e24b	-0.048311513
51	0xbe07fe15	-0.13280518
52	0xbb9a754c	-0.00471369
53	0x3ced0ea0	0.028937638
54	0x3bea5f19	0.00715245
55	0x3db441b9	0.08801598
56	0xbcc0fda8	-0.023558453
57	0xbe1ad0f3	-0.1511877
58	0xbce2c9e1	-0.027684154
59	0xbe029c83	-0.12755017
60	0xbd6ad9b7	-0.057336535
61	0x3dfe070e	0.12403689
62	0x3c848bb2	0.016179893
63	0x3d756937	0.059914794
64	0x3d9aa7cd	0.07551537
65	0xbd380eea	-0.0449361
66	0xbd8dc094	-0.06921497
67	0x3d27fcf1	0.041012708
68	0xbe2af463	-0.16694789
69	0xbdaceb11	-0.08443273
70	0xbaa20e0e	-0.0012363808
71	0xbd27d758	-0.040976852
72	0x3d87638e	0.066107854
73	0xbe2b3206	-0.16718301
74	0xbd63d89c	-0.055626497
75	0xbd7fa898	-0.062416643
76	0x3d5a81ec	0.05334656
77	0xbd901010	-0.07034314
78	0xbd86bcc0	-0.0657897
79	0xbc496b00	-0.012293577
80	0xbd660c82	-0.056164272
81	0xbdf7911c	-0.12088224
82	0x3ce345db	0.02774327
83	0x3d0689be	0.032846205
84	0xbcfae7c7	-0.030628098
85	0xbd49fc5a	-0.049312927
86	0x3cc21766	0.023692798
87	0xbcc5e6f3	-0.024157977
88	0x3d875eea	0.066099
89	0x3c8384f3	0.016054606
90	0x3dd55ca4	0.104180604
91	0xbb0d25c6	-0.0021537407
92	0x3d325058	0.043533653
93	0x3d017b5e	0.031611793
94	0x3dce7dc6	0.10082583
95	0xbda40411	-0.08008588
96	0x3cae08f1	0.021244498
97	0x3d6851e7	0.056718733
98	0x3da348ea	0.07972892
99	0x3d76683d	0.060158003
100	0x3db02d7a	0.08602424
101	0x3d43db2a	0.047816433
102	0x3c14e11c	0.009086873
103	0x3d68db8d	0.056850005
104	0xbbf4e8d6	-0.0074740453
105	0x3b34801f	0.0027542186
106	0xbe2cea98	-0.16886365
107	0xbdde6f4a	-0.108610705
108	0x3d2c21d4	0.04202445
109	0xbd7cc499	-0.061710928
110	0xbd886820	-0.06660485
111	0x3dd8b77d	0.105818726
112	0x3dfbcd65	0.12295035
113	0x3ce373d7	0.027765198
114	0x3e766fdd	0.2406611
115	0x3dc2d6cd	0.09513626
116	0x3dae87bd	0.08521984
117	0x3ddb7567	0.10715752
118	0xbb62f866	-0.003463292
119	0xbe134d76	-0.14385018
120	0x3cdd0ea0	0.026984513
121	0xbd4be4ef	-0.049778875
122	0xbdbe4a79	-0.09291548
123	0xbc0bfd60	-0.008544296
124	0xbc8ac204	-0.016938217
125	0xbd2b7b09	-0.041865382
126	0x3da02d5a	0.0782115
127	0xbce9020e	-0.028443363
128	0x3cc2bb94	0.023771085
129	0xbc04a159	-0.008095109
130	0xbd946b78	-0.072470605
131	0x3dbe1290	0.09280884
132	0xbd0648fe	-0.032784455
133	0xbd816f5d	-0.06320069
134	0xbc8a04ab	-0.016847929
135	0x3e03fac7	0.12888633
136	0xbbccb8ee	-0.0062476313
137	0x3d9cd08e	0.07656966
138	0x3e232a80	0.15934181
139	0x3caac936	0.020847898
140	0x3e2f28f6	0.17105469
141	0x3d6d8872	0.057991453
142	0xbdfd2063	-0.12359693
143	0x3da4804d	0.08032284
144	0x3bfbaf2c	0.007680794
145	0x3d9f8b85	0.07790283
146	0xbdfe18fb	-0.124071084
147	0xbe442843	-0.19155984
148	0xbd36e7e5	-0.044654746
149	0xbe1f0f60	-0.15533209
150	0x3c0c231f	0.008553295
151	0xbc1ef2a7	-0.0097014075
152	0xbc8adce3	-0.01695103
153	0x3dadc1b6	0.08484213
154	0x3d748734	0.059699252
155	0x3e392888	0.18081868
156	0x3d5d962f	0.054098304
157	0xbdd6f31f	-0.104955904
158	0xbdacf80c	-0.08445749
159	0x3d81ee40	0.06344271
160	0x3d075060	0.033035636
161	0xbdc33ce4	-0.09533098
162	0x3c2ff0ac	0.010738533
163	0x3dfd7b9a	0.12377091
164	0x3d50639c	0.050876245
165	0xbcdb31c4	-0.026757129
166	0xbd1f269c	-0.03885518
167	0x3d432f3d	0.04765247
168	0xbddd0201	-0.10791398
169	0xbcfcb54a	-0.030848164
170	0xbcb5f98d	-0.022213722
171	0xbc2f1c07	-0.010687835
172	0xbdad8e8c	-0.08474454
173	0xbb1f9c37	-0.0024354586
174	0x3e08324b	0.13300435
175	0x3d0d9571	0.034566347
176	0xbd4d9f01	-0.050200466
177	0xbd26b031	-0.040695373
178	0xbd2c0114	-0.041993216
179	0x3dbc006f	0.0917977
180	0xbe49a66c	-0.19692391
181	0xbc0b7fe8	-0.008514382
182	0x3d861bb1	0.065482505
183	0x3d13eb81	0.036113266
184	0xbdd0f73b	-0.102034055
185	0xbc651951	-0.013983087
186	0xbd8f524c	-0.06998119
187	0x3db6ea49	0.08931405
188	0x3c21f6f8	0.009885542
189	0xbddb7124	-0.10714939
190	0x3d795a5f	0.0608772
191	0x3e1c650f	0.15272926
192	0xbd056aad	-0.032572437
193	0xbe03036d	-0.12794276
194	0x3c8a443b	0.016878238
195	0x3c64d7c9	0.013967463
196	0xbb5396aa	-0.0032285848
197	0xbb90d58c	-0.004419988
198	0x3e1e4cfd	0.15459056
199	0xbc8b7d3e	-0.017027494
200	0xbaf0b67b	-0.001836493
201	0xbdcc5a73	-0.09978189
202	0xbbb7e477	-0.005611952
203	0x3b42293c	0.0029626628
204	0xbe085c11	-0.1331637
205	0x3d096c1a	0.03355036
206	0xbdfe2766	-0.124098584
207	0x3c4526de	0.012033192
208	0x3dfd5500	0.12369728
209	0xbe05a4cb	-0.13051145
210	0x3da773c8	0.081763804
211	0x3d213823	0.039360177
212	0xbdf185f0	-0.11793125
213	0x3e8f9575	0.28043714
214	0x3d067654	0.03282769
215	0xbd45715b	-0.048203807
216	0xbb38cdad	-0.0028198764
217	0x3d8ad526	0.06778936
218	0xbc8a21b0	-0.016861767
219	0x3ca4e9d5	0.020131031
220	0xbd209153	-0.039201092
221	0x3e861a3e	0.26191896
222	0xbbe604da	-0.0070196213
223	0xbdc46a65	-0.09590606
224	0xbda0bab7	-0.07848113
225	0xbc4d4f2e	-0.012531085
226	0xbdcbdc81	-0.09954167
227	0xbb384a57	-0.0028120482
228	0xbcd2f6a9	-0.025752382
229	0x3dc73c0f	0.09728252
230	0xbd955cd3	-0.072930954
231	0x3d556f34	0.052108005
232	0xbc2c3bd9	-0.010512316
233	0xbc0656a5	-0.008199369
234	0x3d9f0001	0.077636726
235	0xbbbb462a	-0.0057151513
236	0x3d1499d6	0.036279522
237	0x3ba56d7f	0.0050484533
238	0x3d256347	0.04037788
239	0xbc8d5f0a	-0.017257232
240	0x3cae21a6	0.02125628
241	0xbd67a79d	-0.056556333
242	0xbe514530	-0.20436549
243	0xbd8de0ba	-0.06927629
244	0x3c87acc1	0.016561868
245	0x3e201f31	0.15636899
246	0x3d7d0abc	0.061777815
247	0x3d042d46	0.03226974
248	0x3c18afb4	0.009319235
249	0xbbf2ee10	-0.007413633
250	0x3d97d3e2	0.0741346
251	0xbc5ef1c2	-0.013607444
252	0x3ddb1dd8	0.106990516
253	0x3e0cc63d	0.13747497
254	0xbd4f344d	-0.050586987
255	0x3da9eb28	0.082968056

network_body._body_endoder.seq_layers.0.bias f4 [128]
0	0x00000000	0.0
1	0x00000000	0.0
2	0x00000000	0.0
3	0x00000000	0.0
4	0x00000000	0.0
5	0x00000000	0.0
6	0x00000000	0.0
7	0x00000000	0.0
8	0x00000000	0.0
9	0x00000000	0.0
10	0x00000000	0.0
11	0x00000000	0.0
12	0x00000000	0.0
13	0x00000000	0.0
14	0x00000000	0.0
15	0x00000000	0.0
16	0x00000000	0.0
17	0x00000000	0.0
18	0x00000000	0.0
19	0x00000000	0.0
20	0x00000000	0.0
21	0x00000000	0.0
22	0x00000000	0.0
23	0x00000000	0.0
24	0x00000000	0.0
25	0x00000000	0.0
26	0x00000000	0.0
27	0x00000000	0.0
28	0x00000000	0.0
29	0x00000000	0.0
30	0x00000000	0.0
31	0x00000000	0.0
32	0x00000000	0.0
33	0x00000000	0.0
34	0x00000000	0.0
35	0x00000000	0.0
36	0x00000000	0.0
37	0x00000000	0.0
38	0x00000000	0.0
39	0x00000000	0.0
40	0x00000000	0.0
41	0x00000000	0.0
42	0x00000000	0.0
43	0x00000000	0.0
44	0x00000000	0.0
45	0x00000000	0.0
46	0x00000000	0.0
47	0x00000000	0.0
48	0x00000000	0.0
49	0x00000000	0.0
50	0x00000000	0.0
51	0x00000000	0.0
52	0x00000000	0.0
53	0x00000000	0.0
54	0x00000000	0.0
55	0x00000000	0.0
56	0x00000000	0.0
57	0x00000000	0.0
58	0x00000000	0.0
59	0x00000000	0.0
60	0x00000000	0.0
61	0x00000000	0.0
62	0x00000000	0.0
63	0x00000000	0.0
64	0x00000000	0.0
65	0x00000000	0.0
66	0x00000000	0.0
67	0x00000000	0.0
68	0x00000000	0.0
69	0x00000000	0.0
70	0x00000000	0.0
71	0x00000000	0.0
72	0x00000000	0.0
73	0x00000000	0.0
74	0x00000000	0.0
75	0x00000000	0.0
76	0x00000000	0.0
77	0x00000000	0.0
78	0x00000000	0.0
79	0x00000000	0.0
80	0x00000000	0.0
81	0x00000000	0.0
82	0x00000000	0.0
83	0x00000000	0.0
84	0x00000000	0.0
85	0x00000000	0.0
86	0x00000000	0.0
87	0x00000000	0.0
88	0x00000000	0.0
89	0x00000000	0.0
90	0x00000000	0.0
91	0x00000000	0.0
92	0x00000000	0.0
93	0x00000000	0.0
94	0x00000000	0.0
95	0x00000000	0.0
96	0x00000000	0.0
97	0x00000000	0.0
98	0x00000000	0.0
99	0x00000000	0.0
100	0x00000000	0.0
101	0x00000000	0.0
102	0x00000000	0.0
103	0x00000000	0.0
104	0x00000000	0.0
105	0x00000000	0.0
106	0x00000000	0.0
107	0x00000000	0.0
108	0x00000000	0.0
109	0x00000000	0.0
110	0x00000000	0.0
111	0x00000000	0.0
112	0x00000000	0.0
113	0x00000000	0.0
114	0x00000000	0.0
115	0x00000000	0.0
116	0x00000000	0.0
117	0x00000000	0.0
118	0x00000000	0.0
119	0x00000000	0.0
120	0x00000000	0.0
121	0x00000000	0.0
122	0x00000000	0.0
123	0x00000000	0.0
124	0x00000000	0.0
125	0x00000000	0.0
126	0x00000000	0.0
127	0x00000000	0.0

network_body._body_endoder.seq_layers.2.weight f4 [128, 128]
0	0xbce40a63	-0.027836984
1	0x3dbba59d	0.091624476
2	0x3b33dec7	0.0027446018
3	0xbd66286e	-0.0561909
4	0x3e283077	0.16424738
5	0xbd52e711	-0.051489893
6	0xbd33f42d	-0.043934036
7	0xbd1c1a07	-0.03811076
8	0xbd818678	-0.06324476
9	0xbdac109f	-0.08401608
10	0xbe3694a0	-0.17830133
11	0xbd99b39e	-0.075049624
12	0xbdc78b77	-0.09743398
13	0x3cbb2aa0	0.022847474
14	0xbcc7667f	-0.024340866
15	0xbc17f4ad	-0.009274644
16	0x3ca3642e	0.01994523
17	0x3d83574f	0.06413137
18	0x3dbfaf30	0.09359586
19	0x3dd53406	0.10410313
20	0xbb552163	-0.003252112
21	0x3d8fa2a7	0.07013445
22	0x3d3cef61	0.046126727
23	0x3ddb7108	0.107149184
24	0xbdf49e8b	-0.11944302
25	0xbdba5012	-0.090973035
26	0x3e160c13	0.14653043
27	0xbe045b1e	-0.12925383
28	0xbbb5a905	-0.0055438303
29	0xbd21f32e	-0.039538555
30	0xbca1b57e	-0.019739863
31	0x3da63d21	0.08117128
32	0xbd36e7fc	-0.04465483
33	0x3dc08fef	0.09402453
34	0x3de5f505	0.112283744
35	0x3cfb0b6a	0.030645091
36	0x3cfe6977	0.031056149
37	0x3cdbbfec	0.026824914
38	0x3d14edad	0.036359478
39	0xbdf55ecd	-0.119809724
40	0xbd75d239	-0.060014937
41	0x3a6adbaa	0.0008959124
42	0xbcd7781d	-0.026302392
43	0xbe2850c1	-0.16437055
44	0xbd1d1b00	-0.038355827
45	0x3db32923	0.087480806
46	0xbe5452a5	-0.20734651
47	0x3d8e0252	0.06934036
48	0x3c482e1c	0.012218025
49	0xbddc9390	-0.10770333
50	0xbba35a3d	-0.0049851225
51	0xbd68fcea	-0.056881823
52	0xbe1eceb5	-0.1550854
53	0xbd9b8763	-0.07594182
54	0x3d83a6bb	0.06428286
55	0xbd816625	-0.06318311
56	0x3d225e48	0.039640695
57	0x3d6e578c	0.05818896
58	0xbe3985ac	-0.18117398
59	0x3d8e3e00	0.06945419
60	0x3cdde9a2	0.027088944
61	0x3e382977	0.17984568
62	0xbda79c9c	-0.08184168
63	0xbda61453	-0.08109345
64	0x3d7fae60	0.062422156
65	0xbdd50ce5	-0.1040285
66	0xbe13625c	-0.1439299
67	0x3d80b33a	0.06284185
68	0xbdc5b960	-0.09654498
69	0x3bcefc5e	0.0063167056
70	0xbe48b7b1	-0.19601323
71	0x3e034630	0.12819743
72	0xbe061a40	-0.13095951
73	0xbdffe707	-0.12495237
74	0x3d98aa40	0.074543476
75	0x3e3e5882	0.1858845
76	0xba0992fb	-0.0005248037
77	0xbc7930f1	-0.015209422
78	0xbdf31fcc	-0.11871299
79	0x3ddafc5c	0.10692665
80	0xbc9b78f9	-0.018978583
81	0xbca88c39	-0.020574676
82	0x3d8e9d70	0.069636226
83	0x3c28d823	0.010305437
84	0x3d643498	0.05571422
85	0xbd5d252c	-0.053990528
86	0x3d4002f9	0.046877835
87	0x3e0478c0	0.12936687
88	0x3d9104ad	0.0708097
89	0x3d9c12f9	0.07620806
90	0xbd36e13f	-0.044648405
91	0x3d7c4bb6	0.06159564
92	0xbc8c8f86	-0.017158281
93	0xbdadbb79	-0.08483023
94	0x3cdb242d	0.026750648
95	0x3ddfcd88	0.10927874
96	0x3dabcc64	0.08388594
97	0x3aea6c8a	0.001788513
98	0x3e03987f	0.12851141
99	0xbde8bad1	-0.113637574
100	0xbe32ab60	-0.17448187
101	0x3d7f63b0	0.06235093
102	0x3d963c82	0.0733576
103	0xbda22a24	-0.07918194
104	0x3e08f31a	0.13373986
105	0xbdafb2d6	-0.08579032
106	0xbbeba543	-0.0071913316
107	0x3db6c66e	0.08924566
108	0x3e3d1178	0.18463695
109	0xbc9e7c3d	-0.01934635
110	0xbde32765	-0.11091498
111	0xbd0a6741	-0.033789877
112	0xbbbd4060	-0.0057754964
113	0x3d86efce	0.06588708
114	0xbcc7ce31	-0.024390312
115	0xbcbb21e3	-0.022843307
116	0x3ca7adcd	0.020468617
117	0xbdc96451	-0.09833587
118	0xbaa1c839	-0.0012342996
119	0x3dc78a71	0.097432025
120	0xbdb9be79	-0.09069533
121	0x3d469aab	0.048487347
122	0xbc95735a	-0.01824348
123	0x3d10bebb	0.035338145
124	0x3db9a2c3	0.090642475
125	0xbbbfc027	-0.0058517638
126	0xbd02a588	-0.031896144
127	0x3d6710c5	0.056412477
128	0x3e462d5a	0.19353238
129	0xbd7e4c34	-0.06208439
130	0x3d839a2a	0.06425889
131	0x3d0c8936	0.034310542
132	0x3d594642	0.05304552
133	0x3d19085b	0.037361484
134	0xbc35a60f	-0.011086955
135	0xbe2dca4a	-0.16971698
136	0xbd2c888a	-0.0421224
137	0x3e102ea2	0.14080289
138	0xbd023a87	-0.031794097
139	0x3dda51ea	0.10660155
140	0xbdb2e6b8	-0.08735412
141	0x3d8fe465	0.07025985
142	0xbdeba858	-0.115067184
143	0x3d636e8d	0.05552535
144	0xbb9b304f	-0.0047359834
145	0x3d03e710	0.03220278
146	0xbdf66f55	-0.12032954
147	0x3d4be84d	0.049782086
148	0xbdeecc42	-0.11660053
149	0x3d31e0a5	0.04342713
150	0xbcf875ac	-0.030329548
151	0xbe029a6d	-0.12754221
152	0xbd782a25	-0.060587067
153	0xbe074652	-0.13210419
154	0xbc9d5e6c	-0.019210063
155	0xbd82856e	-0.06373106
156	0xbdf75510	-0.12076771
157	0x3d0b4961	0.034005526
158	0x3e08afe8	0.13348353
159	0x3dc16686	0.09443383
160	0x3dce9dd0	0.10088694
161	0x3e0f0ab4	0.13968927
162	0x3cc3341a	0.023828555
163	0xbd3f06c8	-0.046637326
164	0xbd0da2a5	-0.034578938
165	0xbbc9f6a0	-0.006163433
166	0x3d8a3599	0.06748504
167	0x3d08a3d0	0.03335935
168	0x3cd16c3c	0.025564305
169	0x3d47bb0d	0.04876237
170	0x3e0b7039	0.13617028
171	0xbcfde7e8	-0.03099437
172	0x3e2864c4	0.16444689
173	0x3e09f29e	0.13471457
174	0x3e12b201	0.14325716
175	0xbe328cce	-0.17436525
176	0x3c6b1bdd	0.014349905
177	0x3e9aaa07	0.30207846
178	0x3cd08dee	0.025458302
179	0xbc8adf81	-0.016952278
180	0xbd9373b1	-0.07199801
181	0xbd97b5aa	-0.074076965
182	0x3e2ac9d7	0.16678558
183	0x3d9618a9	0.07328922
184	0xbbba981d	-0.005694403
185	0xbcdf0959	-0.027226137
186	0xbc777153	-0.015102702
187	0x3e1a95fa	0.15096274
188	0x3d32ac8d	0.04362159
189	0x3d9d1e3b	0.07671782
190	0xbd0c4cf3	-0.034253072
191	0xbd7e8129	-0.062134895
192	0xbe5436fc	-0.207241
193	0x3d083be5	0.033260245
194	0x3cf17bb7	0.029477937
195	0xbe26ed4d	-0.1630146
196	0x3d36be87	0.044615295
197	0x3a886f16	0.0010409083
198	0x3bfd61b7	0.007732596
199	0x3a3f8a60	0.0007306691
200	0xbb94e99d	-0.0045444504
201	0x3e05265c	0.13002914
202	0x3daa30f0	0.08310115
203	0x3e3ce09b	0.18445055
204	0x3d3f42a3	0.04669441
205	0xbd7757af	-0.060386356
206	0x3df28e92	0.118435994
207	0x3e107f62	0.14111093
208	0xbc992d90	-0.018698484
209	0x3dcadffa	0.099060014
210	0xbe6570fc	-0.22406381
211	0x3db79a5f	0.08964991
212	0x3e00a36f	0.12562345
213	0xbd756b2a	-0.059916653
214	0x3d1d0740	0.038336992
215	0x3d820cb9	0.06350083
216	0xbdb018c6	-0.08598475
217	0xbdb98eb0	-0.090604186
218	0x3dac610e	0.08416949
219	0xbda3e0ee	-0.08001886
220	0xbd60fa1b	-0.05492602
221	0xbcb397cf	-0.021922974
222	0xbd5622b9	-0.052279208
223	0x3e05137a	0.12995711
224	0x3dd290d1	0.10281528
225	0xbd6b9694	-0.05751665
226	0x3e6a601c	0.22888225
227	0x3dbf4d06	0.09340863
228	0xbd84eec2	-0.06490852
229	0x3e186438	0.1488198
230	0xbcf64680	-0.030062914
231	0x3d84092d	0.06447063
232	0xbe1dc3c8	-0.15406716
233	0x3d578da5	0.052625317
234	0x3c2fadc9	0.010722586
235	0x3d23ecdd	0.040020812
236	0x3d53ce50	0.051710427
237	0x3db4a31d	0.08820174
238	0xbd1b86b2	-0.037970252
239	0xbd16aaf1	-0.036784116
240	0x3d932cb5	0.071862616
241	0x3de2202a	0.11041291
242	0xbdad4f42	-0.08462383
243	0xbdc3f6ed	-0.09568582
244	0x3e053c3f	0.13011263
245	0x3de2ed2b	0.110803925
246	0xbdfec10e	-0.12439166
247	0xbd10f6cd	-0.035391618
248	0xbd0c1f4b	-0.03420953
249	0xbe2fbf09	-0.17162718
250	0xbd3f37dd	-0.046684135
251	0x3dc4447d	0.095833756
252	0x3b9a5aff	0.0047105546
253	0xbd27f13b	-0.04100154
254	0xbd3e32df	-0.046435233
255	0x3cadee58	0.021231815

action_model._continuous_distribution.log_sigma f4 [1, 51]
0	0x00000000	0.0
1	0x00000000	0.0
2	0x00000000	0.0
3	0x00000000	0.0
4	0x00000000	0.0
5	0x00000000	0.0
6	0x00000000	0.0
7	0x00000000	0.0
8	0x00000000	0.0
9	0x00000000	0.0
10	0x00000000	0.0
11	0x00000000	0.0
12	0x00000000	0.0
13	0x00000000	0.0
14	0x00000000	0.0
15	0x00000000	0.0
16	0x00000000	0.0
17	0x00000000	0.0
18	0x00000000	0.0
19	0x00000000	0.0
20	0x00000000	0.0
21	0x00000000	0.0
22	0x00000000	0.0
23	0x00000000	0.0
24	0x00000000	0.0
25	0x00000000	0.0
26	0x00000000	0.0
27	0x00000000	0.0
28	0x00000000	0.0
29	0x00000000	0.0
30	0x00000000	0.0
31	0x00000000	0.0
32	0x00000000	0.0
33	0x00000000	0.0
34	0x00000000	0.0
35	0x00000000	0.0
36	0x00000000	0.0
37	0x00000000	0.0
38	0x00000000	0.0
39	0x00000000	0.0
40	0x00000000	0.0
41	0x00000000	0.0
42	0x00000000	0.0
43	0x00000000	0.0
44	0x00000000	0.0
45	0x00000000	0.0
46	0x00000000	0.0
47	0x00000000	0.0
48	0x00000000	0.0
49	0x00000000	0.0
50	0x00000000	0.0

action_model._continuous_distribution.mu.weight f4 [51, 128]
0	0xbcff2583	-0.031145817
1	0xbcb24997	-0.021763606
2	0xbbf8c8e8	-0.0075923093
3	0x3a11903a	0.00055528025
4	0x3d09e5d3	0.033666443
5	0xbc02c3ae	-0.007981224
6	0x3cdc164d	0.026866103
7	0x3bda5518	0.006662976
8	0xbcaf2f03	-0.021384722
9	0xbb8dcfa7	-0.0043277326
10	0x3c0a526b	0.008442502
11	0xbb3dea25	-0.0028978672
12	0xbc510d22	-0.012759479
13	0xbbbb4b3e	-0.0057157567
14	0x3ccef4fd	0.025263304
15	0xbbbf87cf	-0.005845047
16	0xbc540908	-0.012941606
17	0xbc03f0ad	-0.008052987
18	0x3b1b0803	0.0023655898
19	0xbbef8b62	-0.007310317
20	0xbd177047	-0.03697231
21	0x3c79e638	0.015252642
22	0xbb7644b0	-0.0037577562
23	0xbc6adad7	-0.014334402
24	0xbcea2092	-0.028579984
25	0x3c639e9f	0.013892799
26	0xbb9f0cf6	-0.00485384
27	0xbc9e620b	-0.01933386
28	0xbd0d3947	-0.034478452
29	0xbcfe96a7	-0.031077696
30	0x3d0ca417	0.034336176
31	0x3c34bbf7	0.011031142
32	0xbc5e4acf	-0.01356764
33	0x3ce374e8	0.027765706
34	0xbbcddc1a	-0.0062823417
35	0x3c769e87	0.015052444
36	0xbc4bb5c5	-0.012433474
37	0x3c0c831a	0.008576179
38	0x3bf8a3cb	0.007587885
39	0xbc5b1c67	-0.013373471
40	0xbc3c4549	-0.011491128
41	0x3cbbdae1	0.022931518
42	0xbc4627d2	-0.012094455
43	0x3b78d85f	0.0037970764
44	0xbd0e9a3b	-0.034815054
45	0x3c19d2c1	0.009388627
46	0xbd059d62	-0.032620795
47	0x3c2a7b7f	0.01040542
48	0x3b3f02fb	0.0029146064
49	0xba46b539	-0.0007580105
50	0xbcf21078	-0.029548869
51	0x3cbc5e37	0.022994144
52	0xbcd9658b	-0.026537677
53	0xbba540cf	-0.005043126
54	0x3cbb821f	0.022889195
55	0x3cb440bf	0.02200353
56	0xbc10b483	-0.0088321
57	0x3bf07a40	0.007338792
58	0xbc0d5a73	-0.008627522
59	0x3c84d784	0.016216047
60	0xbcf4dd98	-0.02989082
61	0x3b921609	0.004458193
62	0xbbc58265	-0.006027507
63	0xba1e5d7b	-0.00060411514
64	0xbca9cc0e	-0.020727184
65	0x3b566e5f	0.0032719595
66	0xbc0a4b1a	-0.008440757
67	0xbc3610eb	-0.011112432
68	0xbc0c31ef	-0.008556827
69	0x3b0c51b6	0.0021411008
70	0x3ce5c308	0.0280471
71	0xbbb4cac1	-0.005517334
72	0xbd24f7ed	-0.040275503
73	0x3b2d53ab	0.0026447575
74	0x3c41f47f	0.011838078
75	0xbbc8eaff	-0.0061315293
76	0x3b65292d	0.003496717
77	0xbc85c447	-0.016328944
78	0x3b1acba1	0.0023619907
79	0xbcbd3be8	-0.023099855
80	0xbd0c11e6	-0.034196757
81	0xbcbfe43b	-0.023424258
82	0xbcec1bad	-0.02882179
83	0x3c45c904	0.012071852
84	0x3c957832	0.01824579
85	0x3bfe14d2	0.007753947
86	0xbc97e1bc	-0.018540256
87	0xbd0b0b30	-0.033946216
88	0x3ca8b504	0.020594127
89	0x3c06f676	0.008237472
90	0xbaec2f90	-0.0018019546
91	0xbcadefbf	-0.021232484
92	0x3c8d4191	0.017243179
93	0x3af8f7a7	0.0018994705
94	0x3c38da8c	0.011282574
95	0xbc8b8b74	-0.01703427
96	0x3cb346e2	0.021884385
97	0xbcdf951b	-0.027292779
98	0x3d22c016	0.03973397
99	0x3b47e989	0.0030504188
100	0xbbc5288f	-0.006016798
101	0xbc129953	-0.008947688
102	0x3ca24993	0.019810474
103	0x3cd6870d	0.026187444
104	0xbaca5248	-0.0015435899
105	0x3b80f338	0.003935244
106	0x3d35b3cf	0.044360932
107	0xbc4f2872	-0.01264392
108	0x3c56c0b8	0.013107471
109	0x3cb6d737	0.02231942
110	0x3c62b537	0.01383715
111	0xbc991244	-0.018685468
112	0xbd3cbd08	-0.04607871
113	0x3c99e491	0.018785747
114	0xbce83133	-0.028343773
115	0xbc1cccfc	-0.009570356
116	0xbbc2ebeb	-0.005948534
117	0x3a1d7ad3	0.0006007377
118	0xbcb73f6f	-0.022369115
119	0xbcb0cc47	-0.021581782
120	0x3c4570a0	0.012050778
121	0xbc77770d	-0.0151040675
122	0x3d69c210	0.057069838
123	0x3d00f19d	0.03148042
124	0xbbd6ae77	-0.0065515595
125	0xbc52e280	-0.012871385
126	0x3b452c6e	0.0030086297
127	0x3d244f16	0.040114485
128	0xbcd6dd18	-0.026228473
129	0x3bba947b	0.00569397
130	0x3b8d93af	0.004320584
131	0xbba807bf	-0.0051278765
132	0x3d09717e	0.0335555
133	0xbc617e68	-0.013763048
134	0x3c64c668	0.013963319
135	0x3b330093	0.0027313575
136	0x3d105ddc	0.03524576
137	0x3c842583	0.016131168
138	0xbc9dda1c	-0.019269042
139	0x3c89df8e	0.016830232
140	0x3caa36c3	0.020778066
141	0xbbc353b7	-0.0059609073
142	0x3c8e3298	0.01735811
143	0x3c774457	0.015091977
144	0xbd1485da	-0.036260463
145	0x3c6a96ad	0.0143181505
146	0x3ab707f2	0.001396416
147	0xbd1aabab	-0.03776137
148	0x3c9eab10	0.019368678
149	0xbc2e28c7	-0.010629839
150	0x3bc707e5	0.006073939
151	0xbad20262	-0.0016022439
152	0xbcab81a3	-0.020935839
153	0xbcb427cc	-0.021991633
154	0xbbc9616a	-0.006145646
155	0x3cde4742	0.027133588
156	0x3ce7783a	0.02825557
157	0xbc81d101	-0.015846731
158	0x3beab205	0.007162335
159	0x3c9fa7b9	0.019489156
160	0xbbce96ea	-0.0063046115
161	0xbb4d53c5	-0.0031330448
162	0xbc0a5a84	-0.008444432
163	0x3cd65a48	0.026166096
164	0x3b865791	0.004099794
165	0x3c06e85e	0.008234112
166	0x3af639b5	0.0018785509
167	0x3ae93d0b	0.0017794681
168	0x3d10851d	0.035283197
169	0x3c37bb7b	0.011214132
170	0xbc138fa1	-0.009006412
171	0xbc039db3	-0.008033204
172	0xbd03e0b6	-0.032196723
173	0xbc939617	-0.018015904
174	0x3c4a300c	0.012340557
175	0xbc9151ec	-0.017739259
176	0x3c976fbd	0.018485898
177	0xbb98e21b	-0.0046656257
178	0x3baf5d40	0.0053516924
179	0x3aa63797	0.0012681362
180	0xbbebcd17	-0.0071960795
181	0xbb313c21	-0.0027043896
182	0x3c0de393	0.008660215
183	0x3c02c8ee	0.007982476
184	0x3af615c7	0.0018774801
185	0x3c4a335b	0.012341346
186	0xbc9818ef	-0.018566577
187	0x3c4074ad	0.011746568
188	0xbc0947b1	-0.008378909
189	0xbca7da47	-0.020489825
190	0xbb774330	-0.0037729256
191	0xbad8dc98	-0.0016545234
192	0x3c46eb3a	0.012141043
193	0x3a86075b	0.0010225581
194	0x3ccc2e83	0.024924522
195	0x3ae3018a	0.0017319184
196	0x3a9ff8f3	0.001220493
197	0xbcd89cd3	-0.026441967
198	0xbc0f669c	-0.008752491
199	0x3b7a27bd	0.0038170659
200	0x3c665d60	0.014060348
201	0xbce2ac2f	-0.027669994
202	0x3a1adb9d	0.0005907359
203	0xbca3c85b	-0.019992998
204	0x3c296e7d	0.010341284
205	0x3c474cd1	0.012164311
206	0xbc12abc0	-0.008952081
207	0xba329198	-0.00068118563
208	0xbcf06562	-0.029345218
209	0x3c66ec42	0.014094414
210	0x3bda5ee2	0.006664143
211	0xbc667780	-0.014066577
212	0xbb9b9a3a	-0.00474861
213	0xbc6ef883	-0.014585617
214	0x3cb637e1	0.022243442
215	0xbc90b19c	-0.017662816
216	0xbc00b41b	-0.0078554405
217	0xba279086	-0.000639208
218	0xbc5b2b1a	-0.013376975
219	0x3c3b999d	0.0114501985
220	0xbab6afaa	-0.001393785
221	0x3b94832f	0.00453224
222	0xbc41249f	-0.011788516
223	0xbc44de0d	-0.012015832
224	0xbd034c88	-0.032055408
225	0x3c1152cc	0.008869838
226	0xba00cc3b	-0.0004913245
227	0x3c008171	0.007843361
228	0x3ccc052c	0.02490481
229	0xbc2db225	-0.010601555
230	0xbc446ff1	-0.01198958
231	0xb98bede1	-0.0002668938
232	0xbcc5ee8f	-0.024161605
233	0xbab3b0e0	-0.0013709329
234	0xba6aaf25	-0.000895249
235	0x3ce2b53b	0.027674308
236	0xbc4a53fe	-0.012349127
237	0xbc060840	-0.008180678
238	0xbbf474bd	-0.0074602054
239	0x3c2b3257	0.010449014
240	0xba835cf3	-0.0010022208
241	0xbc21ffe7	-0.009887672
242	0xb879b5ff	-5.9535723e-05
243	0x3b874153	0.0041276603
244	0xbc0e6075	-0.008689989
245	0xbb70f6f3	-0.0036768287
246	0x3bbf36af	0.005835376
247	0x3c6b4b07	0.01436115
248	0xbc5d3fc2	-0.013503971
249	0x3ba563fc	0.0050473195
250	0x3b2ce2bb	0.002638026
251	0x3a64b310	0.0008724192
252	0xba92797a	-0.0011175119
253	0x3cc3ed18	0.023916766
254	0xbc811be9	-0.015760379
255	0x3c045403	0.008076671

action_model._continuous_distribution.mu.bias f4 [51]
0	0x00000000	0.0
1	0x00000000	0.0
2	0x00000000	0.0
3	0x00000000	0.0
4	0x00000000	0.0
5	0x00000000	0.0
6	0x00000000	0.0
7	0x00000000	0.0
8	0x00000000	0.0
9	0x00000000	0.0
10	0x00000000	0.0
11	0x00000000	0.0
12	0x00000000	0.0
13	0x00000000	0.0
14	0x00000000	0.0
15	0x00000000	0.0
16	0x00000000	0.0
17	0x00000000	0.0
18	0x00000000	0.0
19	0x00000000	0.0
20	0x00000000	0.0
21	0x00000000	0.0
22	0x00000000	0.0
23	0x00000000	0.0
24	0x00000000	0.0
25	0x00000000	0.0
26	0x00000000	0.0
27	0x00000000	0.0
28	0x00000000	0.0
29	0x00000000	0.0
30	0x00000000	0.0
31	0x00000000	0.0
32	0x00000000	0.0
33	0x00000000	0.0
34	0x00000000	0.0
35	0x00000000	0.0
36	0x00000000	0.0
37	0x00000000	0.0
38	0x00000000	0.0
39	0x00000000	0.0
40	0x00000000	0.0
41	0x00000000	0.0
42	0x00000000	0.0
43	0x00000000	0.0
44	0x00000000	0.0
45	0x00000000	0.0
46	0x00000000	0.0
47	0x00000000	0.0
48	0x00000000	0.0
49	0x00000000	0.0
50	0x00000000	0.0

action_model._discrete_distribution.branches.0.weight f4 [1, 128]
0	0x3b9d3289	0.004797284
1	0xbc1240bc	-0.008926567
2	0x3ba63a4d	0.005072868
3	0xbb3d68b8	-0.0028901529
4	0xbc248899	-0.010042333
5	0x3c8e53c0	0.01737392
6	0x3c03d84f	0.008047177
7	0xbb9c49d4	-0.004769543
8	0x3c559985	0.01303709
9	0x3c1b5e2e	0.009482903
10	0x3a932a3d	0.0011227798
11	0xbc85279c	-0.016254239
12	0x3bbc0bb1	0.0057386984
13	0xbc776e17	-0.015101931
14	0xbb607e4a	-0.0034254962
15	0xbc3c7324	-0.011502061
16	0xbc4c007b	-0.012451286
17	0x3ba431ff	0.005010843
18	0x3bc4d3d7	0.0060066986
19	0x3bba6389	0.005688135
20	0x3ab4889f	0.0013773626
21	0xbba042f1	-0.0048907925
22	0x3b8bab8f	0.0042623947
23	0x3c2d8e8b	0.010593067
24	0x3bf3de9f	0.00744231
25	0x3b59a74b	0.0033211287
26	0xbb477a08	-0.0030437727
27	0xbca4adec	-0.020102464
28	0xbadf3875	-0.0017030375
29	0x3bcea7e8	0.006306637
30	0xbaa267af	-0.0012390519
31	0xbc677bb7	-0.014128617
32	0x3a3275c6	0.0006807711
33	0xbaaf21b1	-0.0013361481
34	0xba5065ba	-0.0007949729
35	0xbc690055	-0.014221271
36	0x3bf4cbd3	0.007470587
37	0x3b87b1f1	0.0041410853
38	0x3c605235	0.013691475
39	0x3bb65670	0.0055645034
40	0xbcb2199b	-0.021740725
41	0x3b9815bb	0.0046412623
42	0x3c286ea4	0.010280285
43	0x3c0823c3	0.0083093075
44	0x3c23932e	0.009983821
45	0x3b4508cd	0.003006506
46	0xb9f91da5	-0.00047515068
47	0xbac00cc7	-0.0014652245
48	0xbbf4e91d	-0.0074740783
49	0xbc90ddfb	-0.017683974
50	0xbac0c098	-0.0014705835
51	0xbc7fef22	-0.015620979
52	0xbc264c94	-0.010150094
53	0xbc22f053	-0.009944993
54	0xbc9856ae	-0.01859602
55	0x3bbe62da	0.005810124
56	0xbafcb8b3	-0.0019281119
57	0x3b70f142	0.0036764895
58	0x3a4981e8	0.0007686899
59	0x3ba4654c	0.0050169583
60	0xbaa9097a	-0.0012896501
61	0xbbb1705f	-0.005415007
62	0x3c45f4e3	0.012082311
63	0x3c011d3e	0.007880507
64	0xbb55c590	-0.0032618977
65	0xbc31424b	-0.010819028
66	0xbc2e5c91	-0.010642187
67	0xbc40ef5f	-0.0117758205
68	0x3b112f17	0.0022153312
69	0xbb71ce6f	-0.0036896726
70	0x3b88b9ae	0.0041725254
71	0xbc09936d	-0.008396965
72	0xbba3fff7	-0.0050048786
73	0x3b12ffe7	0.0022430362
74	0xbb7873da	-0.003791085
75	0xbb209173	-0.0024500757
76	0x3b424530	0.002964329
77	0x3bc79920	0.006091252
78	0xbc105522	-0.00880936
79	0xbb9677aa	-0.004591902
80	0xba221efb	-0.0006184426
81	0x39b2ef9f	0.00034129337
82	0xbbff5d0f	-0.007793076
83	0xbbab0a47	-0.005219731
84	0xbb83a7a3	-0.0040177866
85	0xbc29bdf3	-0.010360229
86	0x3bb5ae1d	0.0055444376
87	0xbc0398ad	-0.008032006
88	0xb831e54d	-4.241364e-05
89	0x3c1097b1	0.008825229
90	0xbb3ad995	-0.0028511037
91	0xbc84442e	-0.016145792
92	0x390cf6cb	0.00013443378
93	0xbba9dc3d	-0.005183725
94	0x3c62536a	0.013813833
95	0x3bf01420	0.007326618
96	0x3bff2b5a	0.0077871503
97	0xbb10670b	-0.0022034075
98	0x3c2f7cdb	0.01071092
99	0xbc0ed7c7	-0.0087184375
100	0x3c9e06b0	0.019290298
101	0x3c32a0fa	0.010902638
102	0x3c327aa5	0.010893499
103	0xbc98605f	-0.01860064
104	0x3bc439c6	0.0059883324
105	0x3c32f4bb	0.010922606
106	0x3adb60cd	0.0016737223
107	0x3bd9df25	0.0066489154
108	0xba5d974d	-0.00084530265
109	0xbc3e6e06	-0.011622911
110	0xbaae867f	-0.001331523
111	0xbc0e1654	-0.008672316
112	0xbc25073d	-0.0100725265
113	0xbb7826f0	-0.0037865005
114	0xbafe8d97	-0.0019420859
115	0x3c1cf5ed	0.009580118
116	0x3bf79d62	0.0075566033
117	0xbb1559ff	-0.0022789238
118	0x394a7710	0.00019308575
119	0xbbe62a2d	-0.0070240707
120	0x3c4724e4	0.0121547915
121	0xbbfe7f0d	-0.0077666105
122	0xbc239740	-0.009984791
123	0x3bf8ed07	0.0075966152
124	0x3c7d4f0a	0.015460739
125	0x3b8de547	0.0043303105
126	0xbc36cd5f	-0.011157363
127	0x3b1ab9d5	0.00236093

onnx::LSTM_116 f4 [1, 512, 128]
0	0x3dcca40e	0.099922284
1	0x3e0e37b5	0.13888438
2	0xbcc4c490	-0.02401951
3	0x3d624f08	0.05525115
4	0xbde31067	-0.11087113
5	0xbde034b4	-0.10947552
6	0xbda0a374	-0.07843676
7	0x3cb617f0	0.022228211
8	0x3d7626f0	0.060095727
9	0x3e108c81	0.14116098
10	0x3dc7393e	0.09727715
11	0xbbea9440	-0.007158786
12	0xbd17eb1a	-0.037089445
13	0x3e072421	0.13197376
14	0xbe11fb38	-0.14255989
15	0xbd08ac66	-0.033367537
16	0xbd0e4d54	-0.034741715
17	0xbd2ada7a	-0.04171226
18	0x3e1935ab	0.14961879
19	0xbdcfb9e8	-0.10142881
20	0xbe1861fe	-0.14881131
21	0x3dc889ee	0.09791933
22	0xbe116539	-0.1419877
23	0xbda975bd	-0.0827441
24	0x3bb987c0	0.0056619346
25	0x3daa68c4	0.08320764
26	0xbda39a69	-0.07988436
27	0xbc8b5830	-0.017009825
28	0x3dd45332	0.10367431
29	0x3dd9063e	0.10596894
30	0x3ddd31fa	0.10800548
31	0xbd4a7986	-0.0494323
32	0xbdc92082	-0.098206535
33	0xbd9543cb	-0.07288321
34	0xbd64f894	-0.055901125
35	0xbe15d546	-0.14632139
36	0xbd4b0640	-0.049566507
37	0xbe0a8ca9	-0.1353022
38	0xbe0d9924	-0.1382795
39	0xbcf4a9f4	-0.029866196
40	0x3cb0c868	0.021579936
41	0xbdd767b8	-0.1051783
42	0xbd0a9b14	-0.0338393
43	0x3d423594	0.047414377
44	0x3d43fdf8	0.047849625
45	0xbde92ae9	-0.113851376
46	0x3d10142c	0.035175487
47	0x3bb63e00	0.00556159
48	0x3e105f55	0.14098866
49	0xbd6ae1b2	-0.057344146
50	0x3dcb80a2	0.09936644
51	0xbdb2b4a7	-0.08725863
52	0x3db0279e	0.086013064
53	0x3d966000	0.07342529
54	0x3da48e74	0.08034983
55	0x3e0b42a3	0.13599639
56	0xbd8675f2	-0.06565465
57	0x3dd2ae4a	0.10287149
58	0xbe0849b8	-0.13309371
59	0xbd845f5f	-0.06463503
60	0xbd8ebecf	-0.069699876
61	0xbd33a1c4	-0.043855444
62	0x3da64e72	0.08120431
63	0xbe11a832	-0.14224318
64	0xbdd67fc4	-0.10473588
65	0xbe1ad1f1	-0.15119149
66	0x3dff62c6	0.124700114
67	0x3d851ee8	0.065000355
68	0xbd543c3a	-0.05181525
69	0x3dca6d6a	0.0988415
70	0x3de4f382	0.11179258
71	0xbe1ad1a3	-0.15119033
72	0x3d6e699c	0.058206186
73	0x3e0e7097	0.13910137
74	0xbd9aec30	-0.075645804
75	0x3d3b0fb8	0.045669287
76	0xba80bf80	-0.0009822696
77	0x3df4f13a	0.11960073
78	0xbe05ce37	-0.13066946
79	0xbdc084d1	-0.09400333
80	0xbd2bde5a	-0.041960098
81	0xbdbc085e	-0.091812834
82	0xbcc6a388	-0.0242479
83	0x3c8525e0	0.016253412
84	0xbcf4e9ac	-0.02989658
85	0xbdb1a814	-0.086746365
86	0xbdb3d4a1	-0.0878079
87	0x3e164d31	0.14677884
88	0x3d8a832c	0.067633
89	0xbdf2013a	-0.1181664
90	0x3d35da8c	0.044397876
91	0xbd07cde0	-0.033155322
92	0xbdf104ed	-0.11768518
93	0x3de490fa	0.111604646
94	0x3be7cea0	0.007074192
95	0x3d1661b0	0.036714256
96	0xbd5ef39e	-0.05443155
97	0x3e06e15b	0.13171904
98	0x3d916576	0.0709943
99	0x3d96ef6c	0.07369885
100	0xbe06c7b0	-0.13162112
101	0x3d4ccf24	0.050002232
102	0xbda58282	-0.08081533
103	0x3e0d86af	0.13820909
104	0xbd7b235c	-0.06131302
105	0xbd596692	-0.053076334
106	0x3d43ba54	0.04778512
107	0x3de07c72	0.10961236
108	0x3e0ee5ef	0.139549
109	0x3c235850	0.009969786
110	0xbd495414	-0.04915245
111	0x3d9a50ae	0.0753492
112	0xbdefba10	-0.117054105
113	0xbdf2332c	-0.118261665
114	0xbe0cf8f8	-0.13766849
115	0xbd988e6d	-0.074490406
116	0x3e129c05	0.14317329
117	0xbbb29e40	-0.005450994
118	0xbd679cb6	-0.056545936
119	0xbd94e408	-0.07270056
120	0x3d97524c	0.07388744
121	0xbde90d31	-0.11379469
122	0xbd130a76	-0.03589865
123	0x3d79572c	0.06087415
124	0x3d5c50e8	0.053788096
125	0x3e106689	0.14101614
126	0xbce23028	-0.027610853
127	0x3e0ed257	0.13947426
128	0x3dce15fe	0.100627884
129	0x3ce6e1c8	0.028183833
130	0x3cc01068	0.023445323
131	0x3e162459	0.14662303
132	0xbd18564e	-0.03719168
133	0xbd8aa17e	-0.067690834
134	0x3d8474ac	0.06467566
135	0xbabc3600	-0.0014359355
136	0xbd337e0a	-0.043821372
137	0x3e11fd75	0.14256842
138	0x3dddb196	0.108248875
139	0xbdccccee	-0.10000025
140	0x3dced30e	0.10098849
141	0xbdf00cbe	-0.117211804
142	0x3e02e931	0.12784268
143	0xbdabc9c0	-0.0838809
144	0xbcf3fa0c	-0.029782318
145	0x3d289128	0.041154057
146	0x3dea45c2	0.114390865
147	0x3c0b0960	0.008486122
148	0xbe02b7dc	-0.1276545
149	0xbddc24aa	-0.107491806
150	0xbde74ea0	-0.112942934
151	0xbd8de1d2	-0.069278374
152	0xbdab5878	-0.083664834
153	0x3e043527	0.12910901
154	0xbdd44064	-0.10363844
155	0x3e16604f	0.14685176
156	0xbc4f5d80	-0.0126565695
157	0xbe0488f4	-0.12942868
158	0x3dff9302	0.124792114
159	0xbce02c80	-0.02736497
160	0x3da93764	0.08262518
161	0xbcecead4	-0.028920569
162	0x3c5fd160	0.013660759
163	0xbda329dc	-0.079669684
164	0xbbddab00	-0.0067647696
165	0x3db5750c	0.088602155
166	0x3d5cf518	0.053944677
167	0x3d855bde	0.06511663
168	0x3de48cfa	0.11159702
169	0x3d9445f4	0.07239905
170	0xbe0cd06b	-0.1375138
171	0xbd9fe19b	-0.07806703
172	0xbe030d19	-0.12797965
173	0xbc9c7948	-0.0191008
174	0x3e018ad9	0.12650622
175	0x3d7e2ec0	0.062056303
176	0x3d460bf0	0.04835123
177	0xbc9657c0	-0.01835239
178	0x3df5c27e	0.11999987
179	0x3d15d274	0.036577657
180	0xbdbf8149	-0.09350831
181	0x3d612fe8	0.054977328
182	0xbd34af7a	-0.04411266
183	0x3d37faf8	0.044917077
184	0x3d66aabc	0.05631517
185	0x3d7a5cc8	0.06112364
186	0x3df6381e	0.12022422
187	0x3e1a2189	0.15051855
188	0x3bc3b4a0	0.00597246
189	0x3de0d01e	0.10977195
190	0xbdf0f4e2	-0.11765458
191	0xbdfc3e94	-0.12316623
192	0xbdf501fb	-0.11963268
193	0x3deaf92e	0.114733085
194	0x3d0ff134	0.03514214
195	0x3ca8b9e8	0.02059646
196	0xbe0ed57f	-0.1394863
197	0x3e158ee1	0.14605285
198	0xbe09b6a5	-0.1344858
199	0xbdd1b20b	-0.10239037
200	0x3d829536	0.06376116
201	0xbe08f913	-0.13376264
202	0xbd9bf778	-0.0761556
203	0x3d1a5048	0.03767422
204	0x3dad9b9c	0.08476946
205	0x3dc0b324	0.09409168
206	0xbde54196	-0.1119415
207	0x3db99e40	0.09063387
208	0xbd509240	-0.050920725
209	0x3e04187f	0.1289997
210	0x3dcdadea	0.10042937
211	0xbde7fda0	-0.11327672
212	0xbd4ffa26	-0.05077567
213	0x3d5bcf04	0.053664222
214	0x3dda972e	0.106733665
215	0x3de5dfce	0.11224328
216	0xbdea1e14	-0.11431518
217	0x3db2a590	0.08722985
218	0x3df98b8a	0.12184818
219	0x3d6dd100	0.058060646
220	0x3bebb8c0	0.007193655
221	0x3e08aa91	0.13346316
222	0x3bf617a0	0.0075101405
223	0x3e19a1a1	0.15003063
224	0xbd854f8e	-0.065093145
225	0xba450d00	-0.0007516891
226	0x3bd60ea0	0.006532505
227	0x3dff1a2a	0.12456162
228	0xbd456212	-0.04818923
229	0xbd9fe91e	-0.078081354
230	0xbe004906	-0.12527856
231	0x3d9bc0b0	0.076051116
232	0x3d9907b0	0.074721694
233	0x3e050e4d	0.12993737
234	0xbe01f6df	-0.1269183
235	0x3d7c4b74	0.061595395
236	0x3c1e2790	0.009652987
237	0xbae3d300	-0.0017381608
238	0x3d9db2a0	0.07700086
239	0x3e193d13	0.14964704
240	0x3cc163b8	0.02360712
241	0xbdb11d9b	-0.08648225
242	0x3ccb67e8	0.02482982
243	0xbdd8351f	-0.10557007
244	0x3d0f6564	0.035008803
245	0x3d10f688	0.03539136
246	0x3d09b034	0.033615306
247	0x3dccc562	0.09998585
248	0xbe18ce6a	-0.1492249
249	0x3d93e054	0.072205216
250	0x3d309108	0.043107063
251	0xbd0c5932	-0.03426475
252	0xbd91a09b	-0.07110711
253	0xbd2873c0	-0.041126013
254	0x3dd1c61e	0.10242866
255	0xbd7358a6	-0.059410714

onnx::LSTM_117 f4 [1, 512, 128]
0	0xbe051502	-0.12996295
1	0x3de10fce	0.10989343
2	0x3e0fd165	0.14044721
3	0x3c623410	0.013806358
4	0x3d8e8206	0.06958394
5	0xbb647780	-0.0034861267
6	0xbd5c688e	-0.05381065
7	0x3da0f100	0.07858467
8	0x3da5f3b0	0.0810312
9	0x3ddb0272	0.10693826
10	0x3dc824d6	0.09772651
11	0x3e010027	0.12597714
12	0xbd9f2166	-0.07770042
13	0xbcd3ec18	-0.025869414
14	0xbdb885b2	-0.09009875
15	0xbd9c8a0c	-0.07643518
16	0xbdf2e5d7	-0.11860245
17	0x3dfc0512	0.123056546
18	0x3e033ea3	0.12816863
19	0xbdec6ce8	-0.1154421
20	0xbcfafc30	-0.03063783
21	0xbc887070	-0.016655177
22	0xbdf0491a	-0.11732693
23	0xbdb55b27	-0.088552766
24	0x3d9357ac	0.071944565
25	0x3d5ec9dc	0.054391727
26	0x3bfedda0	0.0077778846
27	0xbae9f800	-0.0017850399
28	0x3e14807f	0.14502142
29	0x3cd76578	0.026293501
30	0x3d893fb4	0.067016035
31	0xbe00da6a	-0.12583318
32	0xbdc17b34	-0.09447327
33	0xbdb36da3	-0.08761146
34	0xbd9bccc4	-0.07607415
35	0xbdf7415d	-0.12073014
36	0xbc5ceb30	-0.013483807
37	0xbc6c48c0	-0.014421642
38	0xbb8e6420	-0.004345432
39	0xbd9cb733	-0.0765213
40	0x3dacc23c	0.08435485
41	0xbde5f5a2	-0.11228491
42	0x3b2a7e00	0.0026015043
43	0xbd17fac8	-0.037104398
44	0x3dc2e9c0	0.095172405
45	0x3d47ef04	0.048811927
46	0xbe0c9256	-0.13727698
47	0xbdf18672	-0.117932215
48	0x3e15e32b	0.14637439
49	0x3d1c67b8	0.03818485
50	0x3df81daa	0.12115033
51	0x3d104c74	0.03522916
52	0xbd289232	-0.041155048
53	0x3dd4528e	0.103673086
54	0x3dc8b046	0.097992465
55	0x3e1726f1	0.14760949
56	0xbc847e00	-0.016173363
57	0xbcdde400	-0.027086258
58	0xbc6837b0	-0.014173433
59	0x3e09f965	0.13474043
60	0x3e1608e3	0.14651828
61	0x3e02b3e9	0.12763943
62	0xbe1c98be	-0.15292642
63	0x3de89b3e	0.11357735
64	0xbdee8e8e	-0.11648284
65	0x3d60f828	0.05492416
66	0x3d6e479c	0.05817376
67	0xbd0915a6	-0.03346791
68	0x3dd8fcba	0.10595079
69	0x3cd36558	0.02580516
70	0x3e11ef7d	0.14251514
71	0xbe041dcc	-0.12901992
72	0xbdde1ede	-0.10845731
73	0x3bf8f7e0	0.0075979084
74	0x3cdfcfe8	0.027320817
75	0xbcb777d8	-0.022396013
76	0x3d986f2e	0.07443081
77	0x3e049701	0.12948228
78	0xbda4a763	-0.08039739
79	0xbd1e0226	-0.038576268
80	0xbe163924	-0.14670235
81	0x3daa68c6	0.08320765
82	0x3e0e5275	0.13898642
83	0x3adbd280	0.0016771108
84	0x3e0a9bad	0.13535948
85	0xbd492226	-0.049104832
86	0x3d92fa7a	0.07176681
87	0xbc194100	-0.009353876
88	0xbd9c5c8a	-0.07634838
89	0xbd9f6c2f	-0.07784306
90	0xbdd84287	-0.10559564
91	0x3dc4d55a	0.09611006
92	0xbd411e12	-0.047147818
93	0xbe1aa719	-0.15102805
94	0xbe1bce3b	-0.1521539
95	0xbdb023f1	-0.08600605
96	0x3e0ab53f	0.13545702
97	0xbd2d7d22	-0.042355664
98	0xbd1c7a28	-0.038202435
99	0x3e11c457	0.14235054
100	0x3d20c768	0.03925267
101	0xbd19d19e	-0.037553422
102	0xbdd619f8	-0.10454172
103	0x3e169491	0.14705111
104	0x3dd2ce7a	0.102932885
105	0x3d616f04	0.055037513
106	0x3dcb9b5a	0.0994174
107	0x3e0e8b85	0.1392041
108	0x3de0d3ee	0.109779224
109	0x3dd69912	0.104784146
110	0x3d9940c6	0.07483058
111	0x3d9fac72	0.07796563
112	0x3d5e8918	0.05432996
113	0x3da857ac	0.08219847
114	0xbde858a8	-0.11345035
115	0x3ddb9562	0.10721852
116	0xbdbc01d3	-0.091800354
117	0xbd7cc192	-0.06170804
118	0xbc3a3a90	-0.011366501
119	0xbce119c0	-0.027478099
120	0xbd3a6d6c	-0.04551451
121	0x3de56f5a	0.11202879
122	0x3c362850	0.01111801
123	0xbd4ba624	-0.04971899
124	0x3d00f4ac	0.031483337
125	0xbdd33fd4	-0.103149086
126	0xbda571a9	-0.080783196
127	0xbd95eb58	-0.07320279
128	0x3dfdd702	0.12394525
129	0x3d5f00d0	0.054444134
130	0xbd8aa3c5	-0.06769518
131	0x3c4e1590	0.012578383
132	0x3e1a5611	0.15071894
133	0xbd19d636	-0.037557803
134	0x3db7ac90	0.089684606
135	0xbde09e43	-0.10967686
136	0xbd7a1d26	-0.061062954
137	0xbdea94e1	-0.11454178
138	0x3cb472d0	0.022027403
139	0x3e0911b3	0.13385658
140	0xbb575480	-0.0032856762
141	0xbe1055fc	-0.140953
142	0x3c8d6958	0.017262146
143	0xbd017f56	-0.031615578
144	0x3c8e5098	0.017372414
145	0xbd5a017c	-0.05322407
146	0xbda1eedf	-0.07906889
147	0x3d3a276c	0.045447752
148	0x3dc1a9e0	0.09456229
149	0xbd867c8c	-0.06566724
150	0x3d941298	0.07230109
151	0xbdbde63b	-0.092724286
152	0xbd9619a5	-0.0732911
153	0x3df7ddce	0.12102853
154	0xbd50248a	-0.050816096
155	0x3e1b8c7b	0.15190308
156	0x3e13cab9	0.14432801
157	0x3dffbb16	0.12486856
158	0x3e0a68bf	0.1351652
159	0xbdb38f8a	-0.08767612
160	0xbdfba19f	-0.12286686
161	0x3dc89c42	0.09795429
162	0xbd46ec60	-0.04856527
163	0x3d480abc	0.048838362
164	0xbe1c4d58	-0.1526388
165	0x3cc3efb0	0.023918003
166	0xbe041394	-0.12898093
167	0xbe149f69	-0.14513935
168	0xbda26028	-0.079284966
169	0xbd468416	-0.04846581
170	0x3dcfb49e	0.10141872
171	0xbd794218	-0.060854048
172	0x3d908f8e	0.07058631
173	0xbcb15398	-0.021646306
174	0x3e173161	0.1476493
175	0xbd52dc14	-0.051479414
176	0x3d75353c	0.05986522
177	0x3de6fa52	0.112782136
178	0xbd52dbd8	-0.05147919
179	0xbd07bc3c	-0.0331385
180	0xbce0aa68	-0.027425006
181	0xbdbb2048	-0.091370165
182	0x3e02e585	0.12782867
183	0x3e0fcf6f	0.14043973
184	0xbe17a789	-0.14810003
185	0x395eec00	0.00021259487
186	0x3df92906	0.12166028
187	0x3c818d90	0.015814573
188	0x3c5d2130	0.013496682
189	0x39a57000	0.000315547
190	0xbd19ff9e	-0.03759729
191	0x3ccea3c8	0.025224581
192	0x3ddd1592	0.1079513
193	0x3df87216	0.12131135
194	0xbd1b2cca	-0.03788451
195	0x3d777cf4	0.0604219
196	0xbcdf9d68	-0.027296737
197	0x3df687d2	0.120376244
198	0x3df20ec2	0.11819221
199	0x3d8f982c	0.07011446
200	0xbdd30531	-0.103037246
201	0xbca6b110	-0.020348102
202	0x3c9a2ba0	0.01881963
203	0xbcaff3c8	-0.021478549
204	0x3dc22896	0.094803974
205	0xbe126444	-0.14296061
206	0xbdad7255	-0.08469073
207	0xbe127feb	-0.1430661
208	0x3ce3f890	0.027828485
209	0xbc941fe8	-0.01808162
210	0xbd2f200e	-0.04275518
211	0x3cd720a8	0.026260689
212	0xbd8984e2	-0.067147985
213	0xbc9b9af0	-0.018994778
214	0xbd9bf5ae	-0.07615219
215	0x3e179459	0.14802684
216	0x3d7738bc	0.06035684
217	0xbdb72f54	-0.08944574
218	0xbda8eeff	-0.0824871
219	0x3e1134ff	0.14180373
220	0xbdd55559	-0.104166694
221	0xbe106e16	-0.14104494
222	0xbd163e24	-0.036680356
223	0x3d854eee	0.06509195
224	0x3d95b304	0.07309535
225	0x3bbf1900	0.0058318377
226	0xbdaf39c6	-0.08555941
227	0xbd0ec00e	-0.034851126
228	0xbd52d664	-0.05147399
229	0xbcc6b578	-0.024256453
230	0x3b70d480	0.0036747754
231	0x3da0ef94	0.07858196
232	0x3cf60368	0.030030921
233	0xb89fc800	-7.618964e-05
234	0xbdf2df11	-0.11858953
235	0xbdce1e60	-0.10064387
236	0x3d27777c	0.040885434
237	0xbd47dc32	-0.04879398
238	0x3d821cc4	0.06353143
239	0xbe05ae6d	-0.1305482
240	0x3db3ac36	0.08773081
241	0x3d9329ac	0.07185683
242	0xbddc5282	-0.107579246
243	0x3d268d48	0.04066208
244	0xbe19bb04	-0.15012747
245	0x3e00dbc1	0.1258383
246	0xbde3f584	-0.11130813
247	0x3e00415d	0.12524934
248	0xbd6229de	-0.05521571
249	0x3cda6f10	0.026664287
250	0x3da1d902	0.07902719
251	0x3d8ccf20	0.068754435
252	0x3e01485f	0.12625264
253	0xbda77187	-0.081759505
254	0xbd105d80	-0.03524542
255	0x3cf10f00	0.029426098

onnx::LSTM_118 f4 [1, 1024]
0	0x00000000	0.0
1	0x00000000	0.0
2	0x00000000	0.0
3	0x00000000	0.0
4	0x00000000	0.0
5	0x00000000	0.0
6	0x00000000	0.0
7	0x00000000	0.0
8	0x00000000	0.0
9	0x00000000	0.0
10	0x00000000	0.0
11	0x00000000	0.0
12	0x00000000	0.0
13	0x00000000	0.0
14	0x00000000	0.0
15	0x00000000	0.0
16	0x00000000	0.0
17	0x00000000	0.0
18	0x00000000	0.0
19	0x00000000	0.0
20	0x00000000	0.0
21	0x00000000	0.0
22	0x00000000	0.0
23	0x00000000	0.0
24	0x00000000	0.0
25	0x00000000	0.0
26	0x00000000	0.0
27	0x00000000	0.0
28	0x00000000	0.0
29	0x00000000	0.0
30	0x00000000	0.0
31	0x00000000	0.0
32	0x00000000	0.0
33	0x00000000	0.0
34	0x00000000	0.0
35	0x00000000	0.0
36	0x00000000	0.0
37	0x00000000	0.0
38	0x00000000	0.0
39	0x00000000	0.0
40	0x00000000	0.0
41	0x00000000	0.0
42	0x00000000	0.0
43	0x00000000	0.0
44	0x00000000	0.0
45	0x00000000	0.0
46	0x00000000	0.0
47	0x00000000	0.0
48	0x00000000	0.0
49	0x00000000	0.0
50	0x00000000	0.0
51	0x00000000	0.0
52	0x00000000	0.0
53	0x00000000	0.0
54	0x00000000	0.0
55	0x00000000	0.0
56	0x00000000	0.0
57	0x00000000	0.0
58	0x00000000	0.0
59	0x00000000	0.0
60	0x00000000	0.0
61	0x00000000	0.0
62	0x00000000	0.0
63	0x00000000	0.0
64	0x00000000	0.0
65	0x00000000	0.0
66	0x00000000	0.0
67	0x00000000	0.0
68	0x00000000	0.0
69	0x00000000	0.0
70	0x00000000	0.0
71	0x00000000	0.0
72	0x00000000	0.0
73	0x00000000	0.0
74	0x00000000	0.0
75	0x00000000	0.0
76	0x00000000	0.0
77	0x00000000	0.0
78	0x00000000	0.0
79	0x00000000	0.0
80	0x00000000	0.0
81	0x00000000	0.0
82	0x00000000	0.0
83	0x00000000	0.0
84	0x00000000	0.0
85	0x00000000	0.0
86	0x00000000	0.0
87	0x00000000	0.0
88	0x00000000	0.0
89	0x00000000	0.0
90	0x00000000	0.0
91	0x00000000	0.0
92	0x00000000	0.0
93	0x00000000	0.0
94	0x00000000	0.0
95	0x00000000	0.0
96	0x00000000	0.0
97	0x00000000	0.0
98	0x00000000	0.0
99	0x00000000	0.0
100	0x00000000	0.0
101	0x00000000	0.0
102	0x00000000	0.0
103	0x00000000	0.0
104	0x00000000	0.0
105	0x00000000	0.0
106	0x00000000	0.0
107	0x00000000	0.0
108	0x00000000	0.0
109	0x00000000	0.0
110	0x00000000	0.0
111	0x00000000	0.0
112	0x00000000	0.0
113	0x00000000	0.0
114	0x00000000	0.0
115	0x00000000	0.0
116	0x00000000	0.0
117	0x00000000	0.0
118	0x00000000	0.0
119	0x00000000	0.0
120	0x00000000	0.0
121	0x00000000	0.0
122	0x00000000	0.0
123	0x00000000	0.0
124	0x00000000	0.0
125	0x00000000	0.0
126	0x00000000	0.0
127	0x00000000	0.0
128	0x00000000	0.0
129	0x00000000	0.0
130	0x00000000	0.0
131	0x00000000	0.0
132	0x00000000	0.0
133	0x00000000	0.0
134	0x00000000	0.0
135	0x00000000	0.0
136	0x00000000	0.0
137	0x00000000	0.0
138	0x00000000	0.0
139	0x00000000	0.0
140	0x00000000	0.0
141	0x00000000	0.0
142	0x00000000	0.0
143	0x00000000	0.0
144	0x00000000	0.0
145	0x00000000	0.0
146	0x00000000	0.0
147	0x00000000	0.0
148	0x00000000	0.0
149	0x00000000	0.0
150	0x00000000	0.0
151	0x00000000	0.0
152	0x00000000	0.0
153	0x00000000	0.0
154	0x00000000	0.0
155	0x00000000	0.0
156	0x00000000	0.0
157	0x00000000	0.0
158	0x00000000	0.0
159	0x00000000	0.0
160	0x00000000	0.0
161	0x00000000	0.0
162	0x00000000	0.0
163	0x00000000	0.0
164	0x00000000	0.0
165	0x00000000	0.0
166	0x00000000	0.0
167	0x00000000	0.0
168	0x00000000	0.0
169	0x00000000	0.0
170	0x00000000	0.0
171	0x00000000	0.0
172	0x00000000	0.0
173	0x00000000	0.0
174	0x00000000	0.0
175	0x00000000	0.0
176	0x00000000	0.0
177	0x00000000	0.0
178	0x00000000	0.0
179	0x00000000	0.0
180	0x00000000	0.0
181	0x00000000	0.0
182	0x00000000	0.0
183	0x00000000	0.0
184	0x00000000	0.0
185	0x00000000	0.0
186	0x00000000	0.0
187	0x00000000	0.0
188	0x00000000	0.0
189	0x00000000	0.0
190	0x00000000	0.0
191	0x00000000	0.0
192	0x00000000	0.0
193	0x00000000	0.0
194	0x00000000	0.0
195	0x00000000	0.0
196	0x00000000	0.0
197	0x00000000	0.0
198	0x00000000	0.0
199	0x00000000	0.0
200	0x00000000	0.0
201	0x00000000	0.0
202	0x00000000	0.0
203	0x00000000	0.0
204	0x00000000	0.0
205	0x00000000	0.0
206	0x00000000	0.0
207	0x00000000	0.0
208	0x00000000	0.0
209	0x00000000	0.0
210	0x00000000	0.0
211	0x00000000	0.0
212	0x00000000	0.0
213	0x00000000	0.0
214	0x00000000	0.0
215	0x00000000	0.0
216	0x00000000	0.0
217	0x00000000	0.0
218	0x00000000	0.0
219	0x00000000	0.0
220	0x00000000	0.0
221	0x00000000	0.0
222	0x00000000	0.0
223	0x00000000	0.0
224	0x00000000	0.0
225	0x00000000	0.0
226	0x00000000	0.0
227	0x00000000	0.0
228	0x00000000	0.0
229	0x00000000	0.0
230	0x00000000	0.0
231	0x00000000	0.0
232	0x00000000	0.0
233	0x00000000	0.0
234	0x00000000	0.0
235	0x00000000	0.0
236	0x00000000	0.0
237	0x00000000	0.0
238	0x00000000	0.0
239	0x00000000	0.0
240	0x00000000	0.0
241	0x00000000	0.0
242	0x00000000	0.0
243	0x00000000	0.0
244	0x00000000	0.0
245	0x00000000	0.0
246	0x00000000	0.0
247	0x00000000	0.0
248	0x00000000	0.0
249	0x00000000	0.0
250	0x00000000	0.0
251	0x00000000	0.0
252	0x00000000	0.0
253	0x00000000	0.0
254	0x00000000	0.0
255	0x00000000	0.0
