results/try-29/My Behavior/My Behavior-2330.onnx (onnx, 693209 bytes, 10 tensors)

network_body._body_endoder.seq_layers.0.weight f4 [128, 122]
00000000: 687d 11bd beb6 e1bc 302f e8bd 8338 35bd
00000010: c594 a33c a9ec 5cbd 9cc0 b1bd 37c4 8f3c
00000020: 62df b5bd c82c c73c a135 8fbb 7df0 45bd
00000030: 8f18 adbd 1aba 52bd 99e0 d33d d8da 2bbd
00000040: 1727 6a3d f503 cdbc 79ec b1bd b46d c4bd
00000050: 01e5 cd3d 7c80 34be de9d 42bd 33ee 903b
00000060: 0fcd 21be 73bd bbbd e460 923c bd35 993d
00000070: bdc3 28be a779 a43c 85bb 1f3e e5d0 e23d
00000080: 27cd 83bb 940c 90bd 64c7 c93d f795 a63d
00000090: 9c51 ae3d a8c2 bbba 83cc 83bd 3c2d ddbc
000000a0: 5313 cb3d a4bb 25bd b69f 83be 32e7 fbbd
000000b0: cbc9 033e baf4 0c3d 439d a53d 9dfb 8a3d
000000c0: fe79 e5bc d320 e038 7050 b13c 13b2 27bd
000000d0: d288 e0bd ab80 753d 1133 25be d7e2 c03d
000000e0: 7641 8e3d 3f03 5ebd f9b8 30bc 9bec 39bd
000000f0: 2829 c5bd 3168 7b3c 869f 33bc 7c6d 0abd
00000100: 8323 c13d 2ffc 0e3d 84fa 8dbd fcec 6abd
00000110: d818 73be 0e2b de3a 260d bf3b e9cd 293d
00000120: 07f5 953d a3ef df3d 944a 053d 6115 48bd
00000130: 7e76 98bd 2b1c 263e f48d d03c cdde a6bd
00000140: 6ab2 d83d a08b 153d ad3e be3d 1219 cabd
00000150: e6a1 da3c f91b 4dbc aa3f 73bd a784 05bd
00000160: 35fb 02be ff2e d73c ca99 55bd 639a ebbd
00000170: fb10 913c 6059 cbbc 9574 74bc 5c07 c53c
00000180: ad30 5b3e e5f1 a3bd a462 2a3a 024b b83d
00000190: d560 133d 85f0 fabc c10c 353d c995 8d3d
000001a0: 8c58 fabd bcd7 a13d 999f 263e 8008 af3d
000001b0: 6594 023d a59c c3bc 5a0f 933d 99bc 42bd
000001c0: 976e 49bd 0063 11bd e16a 373e 2001 d43d
000001d0: d246 91bd afda 053b dbc3 86bc 00d9 193c
000001e0: aa3d edbb a964 963c 8657 273e 50cd c9bd
000001f0: 74d2 e93d d9b0 073c 1665 1cbd b48f f53d
00000200: 8705 94bc 5f20 dabd 390f afbc 3f8d 743d
00000210: a949 c9bc 56af edbc d722 db3d cd41 b5bd
00000220: 8416 7f3c 64b9 2cbc 2480 1dbd 5809 ddbb
00000230: d48b e83d 538c ed3d 3236 38ba 46dd 14be
00000240: a982 bc3d 027f 01be 6987 d53d 4792 943c
00000250: 395a fd3d ebcb 1e3e 6c55 60bd 4872 213e
00000260: 23ca 47bd 7be3 2bbd 5185 4a3e e9ee 62bd
00000270: 9193 1e3e 29ec 95bd ade7 a63c bc9f a9bd
00000280: c31e d83c de9c b43d 31ce 233d d242 b63b
00000290: 945f 35bd 9d46 abbc 876a 243d ac8f 033d
000002a0: d908 3a3d bd87 0dbd aecd 12bd cb69 bbbd
000002b0: f1ab e8bb 2d66 f13c a794 67bd 8794 0c3d
000002c0: b878 b5bd e7c0 d23d d6d7 88bd 0f1c 49bd
000002d0: 6520 52bc a9c3 ea3d dd60 40be f2a1 0fbb
000002e0: 6fce 8dbd 4e98 9f3d 75ec 9e3d 19da f03d
000002f0: d125 4dbd d188 39bd d6f9 0a3e 82d4 9fbd
00000300: ae71 853d 7bca 723d edf6 8dbd 48d8 e43d
00000310: cb48 76bd b45e 17bd c282 14bd edbb 2abd
00000320: 62cc 4b3d c195 8c3d 9869 483d c2c5 eebd
00000330: d3b4 8b3a 12e3 4e3a 80e5 46bd 379d 4b3e
00000340: 80cc 87bd 295f e83b af4d 713e 5f40 bf3d
00000350: 1f34 a8bd a481 653c a708 e9bd 2c19 f3bc
00000360: be03 1f3e 7afe dabb f452 853e 3669 c8bc
00000370: 6d81 653d 50dd 49be d5fe 48bb a8ff 5b3b
00000380: 18f5 7b3d bda7 42be 83ae a53d 270f bc3d
00000390: ad84 d3bc d232 dbbc 86c5 0fbc ad35 9e3d
000003a0: 4709 c13d 47e4 03bd c468 2abd d961 92bd
000003b0: 4cba 973d 4e83 8a3d 17dc 41be 2655 eb3b
000003c0: f03d 34be 3d3c 87bd 0629 993b 0df4 09be
000003d0: c3c7 27bc 860f c53c a7c6 d0bb 5c90 933d
000003e0: 97b0 b3bd bddb 07be 3b49 b63c 95ba c3bc
000003f0: c978 afbd 169b cebd 08a9 3ebd eeba fcbc
-0.035519987 -0.027552959 -0.11337125 -0.044243347 0.0199684 -0.053936634 -0.086793154 0.017549617
-0.088804975 0.024313346 -0.0043704067 -0.04832505 -0.0845195 -0.05144701 0.10345573 -0.041956753
0.057166185 -0.0250263 -0.08687682 -0.09591237 0.10053445 -0.17627138 -0.047513835 0.004422927
-0.1580088 -0.09166994 0.017868467 0.07480953 -0.16480918 0.02007754 0.15598877 0.11075
-0.004022259 -0.07033649 0.09852484 0.08134072 0.085116595 -0.001432498 -0.06435492 -0.026999108
0.09915795 -0.04046215 -0.25707787 -0.122999564 0.12869947 0.034413077 0.08086636 0.06786273
-0.028012272 0.00010687266 0.0216448 -0.04094131 -0.109635964 0.05993716 -0.16132762 0.09418266
0.069460794 -0.054202314 -0.010786288 -0.04539166 -0.096269906 0.015344665 -0.010963326 -0.03379582
0.094306014 0.03490847 -0.06932548 -0.057354912 -0.23739946 0.0016950087 0.005830425 0.041456137
0.07322126 0.10934379 0.032541826 -0.048848514 -0.074444756 0.16221683 0.025458314 -0.081479646
0.10580905 0.03651011 0.09289298 -0.09868063 0.026688527 -0.012518876 -0.059386887 -0.03259721
-0.1279114 0.026267527 -0.052148618 -0.11504056 0.017708292 -0.02482289 -0.014920373 0.02405136
0.21405287 -0.08005122 0.0006499684 0.089986816 0.035981018 -0.030632267 0.044201616 0.06913335
-0.1222392 0.07902476 0.16271819 0.08546543 0.0318798 -0.023878405 0.071806625 -0.047543142
-0.049177732 -0.035494804 0.17911865 0.10351777 -0.07093586 0.0020424535 -0.016450813 0.009390116
-0.007240017 0.018358545 0.16341981 -0.098536134 0.11417094 0.00828191 -0.03818234 0.119903
-0.018069042 -0.106507055 -0.021369563 0.059705015 -0.024571257 -0.02901427 0.107000045 -0.08850441
0.015569333 -0.010542247 -0.038452283 -0.0067454986 0.11354795 0.1159903 -0.00070271187 -0.14537534
0.09204609 -0.12646106 0.10426218 0.018136157 0.12370724 0.15507476 -0.054768965 0.15766251
-0.048776757 -0.04196499 0.19777419 -0.055403624 0.1548598 -0.073204346 0.020374143 -0.0828242
0.026381856 0.088189825 0.03999156 0.005562165 -0.044280604 -0.020907694 0.040140655 0.032119438
0.045418594 -0.03455328 -0.035840683 -0.09151038 -0.007100575 0.029467667 -0.05653825 0.034321334
-0.08860916 0.102906995 -0.066817924 -0.049099024 -0.012825106 0.114631005 -0.1878695 -0.0021916595
-0.0692414 0.07792722 0.07759944 0.11760349 -0.050084893 -0.045296494 0.13571867 -0.078042045
0.06515823 0.05927513 -0.06931863 0.11174065 -0.060128015 -0.03695555 -0.036257513 -0.041683126
0.04975546 0.06864501 0.048928827 -0.11658813 0.0010658748 0.00078921125 -0.048558712 0.19884191
-0.06630802 0.007091422 0.2356479 0.0933845 -0.08213066 0.0140079595 -0.113786034 -0.029675089
0.15528771 -0.006683168 0.2603985 -0.024464231 0.056031633 -0.1971333 -0.003066947 0.003356913
0.061513036 -0.190093 0.08089926 0.091825776 -0.0258201 -0.026757631 -0.008775121 0.077250816
0.09425598 -0.032200124 -0.04160382 -0.07147569 0.0740858 0.06763326 -0.18931614 0.0071817813
-0.17601752 -0.066032864 0.00467408 -0.13472004 -0.010240498 0.024055254 -0.0063713375 0.07205269
-0.08773916 -0.13267417 0.022251716 -0.02389268 -0.0856796 -0.10088174 -0.04654792 -0.030850854

network_body._body_endoder.seq_layers.0.bias f4 [128]
00000000: 0000 0000 0000 0000 0000 0000 0000 0000
00000010: 0000 0000 0000 0000 0000 0000 0000 0000
00000020: 0000 0000 0000 0000 0000 0000 0000 0000
00000030: 0000 0000 0000 0000 0000 0000 0000 0000
00000040: 0000 0000 0000 0000 0000 0000 0000 0000
00000050: 0000 0000 0000 0000 0000 0000 0000 0000
00000060: 0000 0000 0000 0000 0000 0000 0000 0000
00000070: 0000 0000 0000 0000 0000 0000 0000 0000
00000080: 0000 0000 0000 0000 0000 0000 0000 0000
00000090: 0000 0000 0000 0000 0000 0000 0000 0000
000000a0: 0000 0000 0000 0000 0000 0000 0000 0000
000000b0: 0000 0000 0000 0000 0000 0000 0000 0000
000000c0: 0000 0000 0000 0000 0000 0000 0000 0000
000000d0: 0000 0000 0000 0000 0000 0000 0000 0000
000000e0: 0000 0000 0000 0000 0000 0000 0000 0000
000000f0: 0000 0000 0000 0000 0000 0000 0000 0000
00000100: 0000 0000 0000 0000 0000 0000 0000 0000
00000110: 0000 0000 0000 0000 0000 0000 0000 0000
00000120: 0000 0000 0000 0000 0000 0000 0000 0000
00000130: 0000 0000 0000 0000 0000 0000 0000 0000
00000140: 0000 0000 0000 0000 0000 0000 0000 0000
00000150: 0000 0000 0000 0000 0000 0000 0000 0000
00000160: 0000 0000 0000 0000 0000 0000 0000 0000
00000170: 0000 0000 0000 0000 0000 0000 0000 0000
00000180: 0000 0000 0000 0000 0000 0000 0000 0000
00000190: 0000 0000 0000 0000 0000 0000 0000 0000
000001a0: 0000 0000 0000 0000 0000 0000 0000 0000
000001b0: 0000 0000 0000 0000 0000 0000 0000 0000
000001c0: 0000 0000 0000 0000 0000 0000 0000 0000
000001d0: 0000 0000 0000 0000 0000 0000 0000 0000
000001e0: 0000 0000 0000 0000 0000 0000 0000 0000
000001f0: 0000 0000 0000 0000 0000 0000 0000 0000
0.0 0.0 0.0 0.0 0.0 0.0 0.0 0.0
0.0 0.0 0.0 0.0 0.0 0.0 0.0 0.0
0.0 0.0 0.0 0.0 0.0 0.0 0.0 0.0
0.0 0.0 0.0 0.0 0.0 0.0 0.0 0.0
0.0 0.0 0.0 0.0 0.0 0.0 0.0 0.0
0.0 0.0 0.0 0.0 0.0 0.0 0.0 0.0
0.0 0.0 0.0 0.0 0.0 0.0 0.0 0.0
0.0 0.0 0.0 0.0 0.0 0.0 0.0 0.0
0.0 0.0 0.0 0.0 0.0 0.0 0.0 0.0
0.0 0.0 0.0 0.0 0.0 0.0 0.0 0.0
0.0 0.0 0.0 0.0 0.0 0.0 0.0 0.0
0.0 0.0 0.0 0.0 0.0 0.0 0.0 0.0
0.0 0.0 0.0 0.0 0.0 0.0 0.0 0.0
0.0 0.0 0.0 0.0 0.0 0.0 0.0 0.0
0.0 0.0 0.0 0.0 0.0 0.0 0.0 0.0
0.0 0.0 0.0 0.0 0.0 0.0 0.0 0.0

network_body._body_endoder.seq_layers.2.weight f4 [128, 128]
00000000: 1ec9 883d 4d84 cfbc 3ae0 d73c 3db8 143e
00000010: f68e 71be ee9d 04bd 617a 793c 2e9d fcbd
00000020: a285 fabc eb72 8bbd 1ac8 ea3d 6a07 a0bd
00000030: fa43 173d 922b 1bbd d567 ac3d a506 0e3d
00000040: 736a bdbd 3da5 f8bd c0e9 6bbe 131f 8fbb
00000050: bd56 cb3d 7863 eb3c 0670 123d 24bc 783d
00000060: 8cb7 333d 24e7 39be ac70 11be 1a68 0cbb
00000070: 944d d33d d030 e23d 990c 083d 97ec cbbd
00000080: 5df8 6ebd 03f3 a23c 400d 3b3d 94fa 6b3d
00000090: ed13 063d 36ed 84bb 7c90 83bc 8aa1 8e3d
000000a0: 03e4 33bd 07a3 b53c 1760 f5bd f18f 51bd
000000b0: 64ca bfbd 584c 8f3d 210e 04be 3978 58bd
000000c0: 398a bb3b 4cdd c7bc e89f bdbd 3c78 46bd
000000d0: 20a5 ee3d 0ba4 22be 5d4f 3139 bc0a 153e
000000e0: 8b09 d9bb fa8a 28be 07a4 053d f0bf d73d
000000f0: 7c66 993c 3d1f df3d c31b d6bd cb0c 16bd
00000100: ec2a a23d 8343 6fbd f771 c8bd 437c dd3c
00000110: aa73 3fbd aa6e 0f3e 1851 313d 189f ccbd
00000120: f8d1 8ebd cf10 c1bc 1921 3a3b 25c9 e53d
00000130: 7806 fa3d 1d25 13bd 3036 28bd 7c6d a5bc
00000140: 4640 81bd 5dfc b4bd d51e 81bc aca9 dd3c
00000150: 9567 56bb e269 ba3d 4584 023e 2206 023d
00000160: d705 8c3d da94 9b3d c75a d23d 28e1 a83d
00000170: d7cf 6f3c 2e50 3bbe 7e23 9d3d 8a3a 313e
00000180: cbb4 5d3b 6ff8 ba3b 480b 2c3e 1417 7f3d
00000190: 925e 04be 6250 1abb 9016 86bb 029e bd3d
000001a0: 8cd5 b53d a308 7ebd c974 06bb 8682 543e
000001b0: 4160 b6bc 7795 e53c 46a1 b5bc 6d71 983c
000001c0: d8c0 d6bc 04e8 af3b 19d5 053e 05d3 55bd
000001d0: 1f77 343d b86f d7bd 8da7 ec3d f2c4 a5bc
000001e0: c6e9 1e3e 2400 64bd 0ac6 6cbd b3e5 31bc
000001f0: f660 24bd c9eb a63d a415 8fbd 2820 11be
00000200: ad5c d3bd 0a9f a1bc 348a 28bd 3128 cfbd
00000210: 501b 2ebc 169e 983d a198 573e ee5f 153c
00000220: dc24 303c 6d15 6dbd 27d8 59bd cb6b bf3d
00000230: 4d42 6ebc b097 053d 0452 783b fad7 36bd
00000240: 3925 45bd 6888 3fbd 7482 8cba 1989 c13c
00000250: 9178 10bd 56a0 c73d da19 983d 7622 283c
00000260: 6426 04bd c201 3a3d 3236 6c3d ee0d 5a3e
00000270: db17 d8bc 7e0f 6bbe 1ad1 13be 926c 10be
00000280: 24e5 73be 803e 00be 072c cc3c 5868 fdbc
00000290: 7c08 293e bb04 7cbd a77d ff3c d86e 023e
000002a0: 132d b7bd cdcf b93d 40ea 1fbd 605c dabc
000002b0: 747d c13d a9dc a1bd b073 b73d 823b 163d
000002c0: c69c 173d ad8f 713d e879 58bc ad04 11bc
000002d0: 035f 333d 1fe1 0ebd 8700 593c fe02 2c3c
000002e0: 41a3 bb3c 1a9c a53c c30e 5dbb 94b4 2f3e
000002f0: dc14 ce3c 76a5 21bb 1eac 7ebd 195a f93c
00000300: 61dc 6f3e 0cad 57bd b5a7 fc3c 9067 4cbd
00000310: 383f e0bd 2a51 a2bd b819 5d3e 2bd1 d03d
00000320: dfad 70bd bc45 5fbb 7b78 113e 3a74 65bd
00000330: b9b8 3abd 1199 0c3d 8c6d 0c3c 803f ac3d
00000340: 484f d0bc 0e07 a73b 7944 123e 8230 f73c
00000350: 9347 4cbd c2f5 923d b3cf 713d 859c 3dbd
00000360: 46c9 2dbe d453 3bbe c734 ac3d a190 c7bc
00000370: a700 f5bd c62c 343d 81d0 60be ae11 3bbd
00000380: ba1d 0ebc 81a3 d8bd 31d7 9bbd 25a1 ad3d
00000390: 0488 423c 8273 783d 16ab afbc 0986 893d
000003a0: 03d2 d43d ccae 033e 3626 edbc 5c91 f8bd
000003b0: 8e99 233d 7235 fc3d 2ab9 50bd 3d56 a6bb
000003c0: 0856 1cbe c06b 043d 76d5 04bd 2e0a 0fbe
000003d0: ab28 14be af10 80bd dd51 11bc 8c0e 383d
000003e0: aac2 e0bd 60d1 093e 3903 323d 52f0 9e3c
000003f0: 258e c4bd 73cf 18bd a51e 3fbe 3433 363d
0.06678985 -0.02533164 0.026352037 0.14523406 -0.23589692 -0.032377176 0.015226931 -0.12334667
-0.0305813 -0.06809028 0.114639476 -0.07813914 0.036930062 -0.03788335 0.08418242 0.034674305
-0.09248819 -0.12140892 -0.23038387 -0.004367718 0.099286534 0.028733954 0.035751365 0.0607263
0.043876216 -0.1815458 -0.14203137 -0.0021424354 0.10317531 0.110444665 0.03321514 -0.09957235
-0.058342326 0.019891268 0.045666933 0.057612017 0.032733846 -0.004056598 -0.016060106 0.06964405
-0.04391862 0.022172464 -0.11981218 -0.051162664 -0.09364775 0.06996983 -0.12896015 -0.05284903
0.0057232645 -0.024397515 -0.09259015 -0.04845451 0.11652589 -0.1588289 0.000169096 0.14554876
-0.006623452 -0.16459265 0.03262713 0.10534656 0.018725626 0.1089463 -0.10454514 -0.036633294
0.07918343 -0.058413994 -0.09787362 0.027036792 -0.046741165 0.14007059 0.043290228 -0.09991282
-0.06973642 -0.023567585 0.0028401075 0.11220006 0.12208265 -0.035924066 -0.041067302 -0.020193808
-0.06311087 -0.08837197 -0.015761772 0.027058445 -0.0032715548 0.09102227 0.1274577 0.03174413
0.06837051 0.075967506 0.10271221 0.0824607 0.014636955 -0.18292305 0.07672785 0.17307487
0.0033829685 0.005705885 0.16801178 0.06227787 -0.129267 -0.0023546447 -0.004092045 0.09258653
0.088786215 -0.062019955 -0.0020516387 0.20752916 -0.022262694 0.028025372 -0.022171628 0.018608773
-0.026215002 0.0053682346 0.13069572 -0.052203197 0.044058915 -0.105193555 0.11555395 -0.020235512
0.15518865 -0.055664197 -0.057806052 -0.010857987 -0.04013153 0.08150441 -0.069865495 -0.14172423
-0.10320411 -0.019729156 -0.041147426 -0.10115088 -0.010626629 0.074520275 0.21054317 0.00911711
0.010750975 -0.05788176 -0.053184655 0.09346732 -0.0145421745 0.032615364 0.0037890682 -0.044639565
-0.0481312 -0.046760947 -0.001072003 0.023624944 -0.03527123 0.097473785 0.07426806 0.010262122
-0.032263175 0.045411833 0.057668872 0.21294376 -0.026378563 -0.22955129 -0.14435235 -0.14103916
-0.23817879 -0.12523842 0.024923338 -0.030933544 0.16507143 -0.06152795 0.031187845 0.12737596
-0.08944144 0.09072838 -0.039041758 -0.026655376 0.094477564 -0.07903416 0.089576125 0.036677845
0.037014745 0.05897491 -0.013212658 -0.008851212 0.043791782 -0.03488266 0.013244755 0.01049876
0.022904994 0.020216037 -0.0033730722 0.17158729 0.02515643 -0.0024665273 -0.062175862 0.03043847
0.23423912 -0.052655265 0.030841688 -0.049903452 -0.10949558 -0.07925637 0.21591842 0.101961456
-0.058759566 -0.0034068665 0.14206116 -0.056019045 -0.04558632 0.034325663 0.00857104 0.08410549
-0.02542843 0.0050972765 0.14283933 0.030174498 -0.049872946 0.07175781 0.059035968 -0.046291847
-0.16971311 -0.18293697 0.08408504 -0.024360957 -0.11963015 0.04398801 -0.21954538 -0.045671158
-0.00867408 -0.10578061 -0.07609404 0.084780015 0.011873249 0.06065703 -0.021443885 0.06715018
0.10391619 0.12859648 -0.028948884 -0.121371 0.039941363 0.123148814 -0.050957836 -0.0050761984
-0.15267193 0.03232932 -0.032430135 -0.13968727 -0.14468639 -0.06253182 -0.008869615 0.044935748
-0.10974629 0.13458776 0.043460105 0.019401703 -0.095974244 -0.037307214 -0.18664034 0.044482425

action_model._continuous_distribution.log_sigma f4 [1, 51]
00000000: 0000 0000 0000 0000 0000 0000 0000 0000
00000010: 0000 0000 0000 0000 0000 0000 0000 0000
00000020: 0000 0000 0000 0000 0000 0000 0000 0000
00000030: 0000 0000 0000 0000 0000 0000 0000 0000
00000040: 0000 0000 0000 0000 0000 0000 0000 0000
00000050: 0000 0000 0000 0000 0000 0000 0000 0000
00000060: 0000 0000 0000 0000 0000 0000 0000 0000
00000070: 0000 0000 0000 0000 0000 0000 0000 0000
00000080: 0000 0000 0000 0000 0000 0000 0000 0000
00000090: 0000 0000 0000 0000 0000 0000 0000 0000
000000a0: 0000 0000 0000 0000 0000 0000 0000 0000
000000b0: 0000 0000 0000 0000 0000 0000 0000 0000
000000c0: 0000 0000 0000 0000 0000 0000
0.0 0.0 0.0 0.0 0.0 0.0 0.0 0.0
0.0 0.0 0.0 0.0 0.0 0.0 0.0 0.0
0.0 0.0 0.0 0.0 0.0 0.0 0.0 0.0
0.0 0.0 0.0 0.0 0.0 0.0 0.0 0.0
0.0 0.0 0.0 0.0 0.0 0.0 0.0 0.0
0.0 0.0 0.0 0.0 0.0 0.0 0.0 0.0
0.0 0.0 0.0

action_model._continuous_distribution.mu.weight f4 [51, 128]
00000000: 5bfb 063b e630 853c 6dc1 eb3c 83fa 1bbc
00000010: b8cb e6bb d1de 26bc aeda 97bc 48b5 ac3c
00000020: 88bd 94bc 8236 57ba ebce 54bc e67e 97bb
00000030: a308 e5bc 45cf d9bc cb17 073c bf09 eebb
00000040: 80f5 7f3a 9728 943b d629 3abc c68c 9a3c
00000050: 65dc 8c3c d7ea a93c ea76 bf3c f352 963a
00000060: 72c0 cbbc 0d34 643c 814e 99bb 7ea3 903c
00000070: dd21 d1bc 9eeb 443c 73b5 8dbc 042c 2bbc
00000080: 27ef 273c a055 8b3c 6b7f 223b fd46 ce3b
00000090: 0729 a9bc 979e 95ba c80e d93c 1868 633c
000000a0: 773c d7bc 07fb f4bb 7ad1 f83b 03da b93a
000000b0: 6f91 963c 93c8 e03c 43b5 b23c 9099 753c
000000c0: 7f08 a4bb 6b49 12bb ad5f 883b 7368 74bd
000000d0: 8f3d 8c3c fb1c 1ebd 7e30 ae3c 3935 2b3a
000000e0: 36b1 063d 23ba 883c 4f73 9bbc 2b10 e93c
000000f0: ed4d 9c3b b1ad a2bc 8768 8ebb 6c64 bc3b
00000100: 4375 e53c 3933 8cbb e091 7dbb 6fae 093b
00000110: 28e9 5a3c 3232 6bbc dc09 3bbc 45dc 45bd
00000120: 304e b03b 911c bdbc f0b9 34bc a564 5e3b
00000130: 0af1 ce3b a517 a93c 5f80 283c 8cc1 8fba
00000140: ff06 9bbc 9134 4abc e89a a8bb 344a 3ebc
00000150: 3c9b 923b 70aa ce3c e749 ab3b 777e 9ebb
00000160: f107 b73b 8fb4 3e3c ff58 2fbc bfe1 0b3c
00000170: 4862 a1bb d440 1f3c 46e5 2dbd 9aeb 3a3b
00000180: 27b5 6a3c b476 313c 64c1 0abd f834 12bd
00000190: 1f7e 50bc d147 c4bc e3ff 683c 309d 22bd
000001a0: 34a7 1a3c 31f8 383c 40df 813c ffac 963b
000001b0: 7309 973c 8996 833c 6957 4bbc 6b3a c73c
000001c0: 562b 2d3b fd42 c23c 1fc7 75bb c323 913c
000001d0: 4da4 213c 36e6 37bc 477e 103d 3772 ad37
000001e0: fccf 2d3c be1e 3abc 23f4 0cbd 91f6 9e3a
000001f0: 577f a53b 014b afbc 9f2f 313c 48a4 f239
00000200: df18 6fbc 2c40 3e3c df49 c73c 07bb e7bc
00000210: c3ad 4cbc 601a 6abc 0272 f43c 99ff 073a
00000220: 982f 50bc 5de0 5cbb 0d54 c93b 4279 dcba
00000230: 1adf bb3c 5398 133b 9755 483c 47e2 a8bb
00000240: aff6 09bc f2ba d63b 32db 773c 43a7 063c
00000250: fbd7 233b cb8b 2fbc 30c9 79bc 8a54 a53c
00000260: 9220 a2bb 6b2d 9abc d32a 373c 271d ba3c
00000270: 88ba dc3c ca14 74bc 3891 ac3b ab00 01bd
00000280: 5461 213c a319 b9bc 5b24 74bb 9faa f5bb
00000290: 3a05 de3b 3f27 9c3c 2ae7 abbc f533 5c3c
000002a0: 31b7 c43c 197e 803c 079a abbc cef0 133d
000002b0: da07 12bc 1f89 dcbb b9bb cb3c 4ba9 b03c
000002c0: 3026 3e3b 6e63 83bc db4f efbb bf31 a2bc
000002d0: 00e6 e03b 12a4 9cbb 4759 91bc 2d6f 0b3b
000002e0: a122 a23a d2f5 06bd 0f75 083c 5bf2 dd3c
000002f0: d01e e1bc 1d4b 933b bdaa 55bc c641 8bbc
00000300: 67c6 943b bd12 85b9 e040 31bc 8a40 85bc
00000310: efbe 27bd d297 cbbc a360 0dbc c731 7cbc
00000320: 4a55 ddbc a1ee 063a 17cf 8d3c 0374 24bb
00000330: b83b a43b 5f0f 9dbb 223a abbc a57d 6dbc
00000340: e224 e13b e35a b0bc c7f1 8cbb b0ea 6d3c
00000350: 43e1 c7bb 479d 363c 7857 ea3c 4d3e 89bb
00000360: 2a81 613a 17b8 ba3b b3e0 a2bb 5ba8 c73b
00000370: c279 4ebc 8b8d 053c ac56 b1bb cdb8 8abc
00000380: 4dbe b6bc 9a31 0a3d 8a3c c8bb 20e3 093d
00000390: a473 3c3c a62a abbc 152d 523c 2d64 de3c
000003a0: 80b9 feba 85e8 aab8 e296 ef3b 50f8 b539
000003b0: 11d2 243d 8701 563c 478c 20b8 eead 0c3c
000003c0: a1c1 83bc 83e8 053d 5526 0d3c 81ad 93bc
000003d0: 3415 ccbb ed0e 223d 0758 39ba a2f4 58bc
000003e0: 0aa1 2dbb 12fe fdbb 2fe5 46bc ff82 a63b
000003f0: d506 3b3a 26cc c3bb 29c8 a53c 7bfd 42bb
0.0020596597 0.016258668 0.028778756 -0.009520176 -0.007043328 -0.0101849595 -0.018536892 0.021082535
-0.018156782 -0.00082097214 -0.012988786 -0.004623282 -0.02795822 -0.026588092 0.008245419 -0.0072643454
0.00097640604 0.0045214402 -0.0113625135 0.018865954 0.017194936 0.020741863 0.023372132 0.0011468813
-0.024872039 0.0139284255 -0.004678548 0.017656084 -0.025528843 0.012019066 -0.017298436 -0.010447506
0.010249889 0.017008603 0.0024795185 0.0062950836 -0.020649446 -0.0011415061 0.026496306 0.013879798
-0.02627395 -0.007476214 0.007593331 0.0014179352 0.018379895 0.027439391 0.021814948 0.014990225
-0.0050058956 -0.0022321593 0.004161796 -0.059669923 0.017119197 -0.038601857 0.021263357 0.0006531063
0.032883845 0.01669032 -0.018975882 0.028450092 0.0047700317 -0.019858213 -0.0043459567 0.005749276
0.028010016 -0.004278567 -0.0038691685 0.0021008512 0.013361253 -0.014355229 -0.011415925 -0.04830577
0.0053804144 -0.02308491 -0.011030659 0.00339345 0.006315355 0.020641157 0.010284512 -0.0010967716
-0.018924234 -0.012341634 -0.0051454194 -0.011614371 0.004474072 0.025227755 0.0052273157 -0.004836853
0.0055856635 0.011639728 -0.010702371 0.008537709 -0.004925046 0.009720046 -0.04245498 0.0028521777
0.014325417 0.010831524 -0.033875838 -0.035695046 -0.012725382 -0.023960026 0.014221164 -0.039700687
0.009439278 0.011289642 0.015853524 0.0045982595 0.018437123 0.016062992 -0.012410977 0.024319848
0.0026423535 0.023713583 -0.0037502719 0.017717248 0.0098658325 -0.01122432 0.035276677 2.0676393e-05
0.010608669 -0.011359869 -0.034412514 0.0012127926 0.0050505805 -0.02139807 0.010814576 0.00046280236
-0.014593332 0.011611979 0.024327217 -0.028287424 -0.0124926 -0.014288515 0.02983952 0.00051879283
-0.01270666 -0.0033703067 0.006144053 -0.0016820806 0.022933532 0.0022521212 0.012227437 -0.0051539275
-0.00842063 0.0065530473 0.015127944 0.008218589 0.002500056 -0.010714482 -0.015245721 0.020181913
-0.0049477303 -0.018820485 0.011179644 0.022718979 0.026944414 -0.014897535 0.005266335 -0.031494778
0.009849865 -0.022595232 -0.0037253115 -0.0074971463 0.0067755254 0.019061683 -0.020984251 0.013440122
0.024013134 0.015685128 -0.02094747 0.03611832 -0.008913005 -0.0067302133 0.024869787 0.0215651
0.002901446 -0.016038623 -0.0073032207 -0.019799111 0.0068633556 -0.004780301 -0.017742766 0.0021275983
0.0012369939 -0.032949276 0.00832869 0.027093103 -0.027480513 0.004495038 -0.013041195 -0.016999137
0.004540253 -0.00025381698 -0.01081869 -0.016266126 -0.040953573 -0.024852667 -0.008628997 -0.015392727
-0.027018208 0.0005147253 0.017310662 -0.0025093562 0.005012002 -0.004793092 -0.020901743 -0.014495288
0.006870852 -0.021527713 -0.004301283 0.014521286 -0.0060998513 0.011145896 0.028606161 -0.004188335
0.0008602316 0.0056982148 -0.004970634 0.0060930676 -0.0126022715 0.008151422 -0.0054119434 -0.016933823
-0.02230754 0.03373871 -0.0061107324 0.03366387 0.01150218 -0.02089436 0.012828131 0.027147377
-0.0019433945 -8.149542e-05 0.007311688 0.00034708017 0.040239397 0.013061888 -3.8277616e-05 0.00858639
-0.01608354 0.032692444 0.008615096 -0.018027069 -0.0062281135 0.039565016 -0.0007070307 -0.013241919
-0.0026493692 -0.007751235 -0.012139603 0.005081534 0.0007134502 -0.005975264 0.020237045 -0.0029753137

action_model._continuous_distribution.mu.bias f4 [51]
00000000: 0000 0000 0000 0000 0000 0000 0000 0000
00000010: 0000 0000 0000 0000 0000 0000 0000 0000
00000020: 0000 0000 0000 0000 0000 0000 0000 0000
00000030: 0000 0000 0000 0000 0000 0000 0000 0000
00000040: 0000 0000 0000 0000 0000 0000 0000 0000
00000050: 0000 0000 0000 0000 0000 0000 0000 0000
00000060: 0000 0000 0000 0000 0000 0000 0000 0000
00000070: 0000 0000 0000 0000 0000 0000 0000 0000
00000080: 0000 0000 0000 0000 0000 0000 0000 0000
00000090: 0000 0000 0000 0000 0000 0000 0000 0000
000000a0: 0000 0000 0000 0000 0000 0000 0000 0000
000000b0: 0000 0000 0000 0000 0000 0000 0000 0000
000000c0: 0000 0000 0000 0000 0000 0000
0.0 0.0 0.0 0.0 0.0 0.0 0.0 0.0
0.0 0.0 0.0 0.0 0.0 0.0 0.0 0.0
0.0 0.0 0.0 0.0 0.0 0.0 0.0 0.0
0.0 0.0 0.0 0.0 0.0 0.0 0.0 0.0
0.0 0.0 0.0 0.0 0.0 0.0 0.0 0.0
0.0 0.0 0.0 0.0 0.0 0.0 0.0 0.0
0.0 0.0 0.0

action_model._discrete_distribution.branches.0.weight f4 [1, 128]
00000000: b2a6 a9bb 25c4 7bbc 53c4 7abc 7fec 22bc
00000010: 19b9 1d3c a0b2 643b 8790 d13b bfdb bd3b
00000020: c3d2 e0bc 7a6e 7ebc 86c4 b9bb 9962 453c
00000030: 3b1f 673c 0210 783c 4fc9 32bb 5729 b73b
00000040: ac19 2c3c f77e 7bbb cbba 593b dd94 69bc
00000050: 3afe 973b 8a56 87bc dc2e 8bbb 47ad e73b
00000060: 545f a23c d883 ba3b 23a0 12bb 836a 4d3c
00000070: 8dee 1cbc afb4 8a3c df6b bcba 8fbd 6dbb
00000080: 3762 fbbb 4205 323c 489b 083b b9c3 3c3a
00000090: cb58 10bb cd94 f03b cb10 42ba 18b4 78ba
000000a0: eff3 8f3c 5947 8c3a bab8 583b 83e1 32bc
000000b0: a456 a73a 7d45 5c3c c87c e23b d8df 68bc
000000c0: f364 bcb9 985a ebbb 8b59 81bb a844 5bba
000000d0: 433e 873b e003 66bc 5716 1b3c 1b09 e3bb
000000e0: 53a0 d3bb cfcf c3bc ca1d aa3b 3ce9 35bc
000000f0: 7f23 6e3c ab96 e8bb 143f ab3c 3203 5139
00000100: ef26 a73b 9bf4 d73b eb33 673c 9796 bbba
00000110: 9271 1d3c 120d 9dbb 23a0 6f3c 4f15 4bbb
00000120: 294a 183c 6de8 84bb 8b1f fe3b 62f7 7abb
00000130: 035d 32bc cd22 933b ed04 d5bb 1d32 503c
00000140: e51b a83b 45a2 d1bb 0302 d03b 8f22 56bc
00000150: 5053 773c a1c7 0cbb 9fc7 a03a e62e 933b
00000160: 1f61 b03a 6207 05bc 4b14 983a b984 9dbb
00000170: a744 0dbc 3f92 a9bb 1d04 eabb 7b91 11bc
00000180: 0706 693c 1b00 b83a 1565 243c ee38 003c
00000190: c0f3 07bc edbd 35bb 6079 e0bb 85fd 52bb
000001a0: fe7c 0d3a 22a9 043b 471a a3bc ce95 313c
000001b0: a76a 3fbb f204 50bb 482b f0bb 2e58 c23b
000001c0: 43b0 d4bb df35 5c3b c3af 0d3c 378f 00bc
000001d0: 3a00 fbbb b369 58bb 67a0 a63b b76f 9b3b
000001e0: 2003 c93b bb60 1fbc 5945 acbb 103e 94bc
000001f0: 0210 27bc 1f37 49bb e70f 6e3b d309 983b
-0.0051773423 -0.015366589 -0.015305596 -0.00994408 0.00962665 0.0034896508 0.006395403 0.005794018
-0.027444249 -0.015529269 -0.0056691794 0.012047433 0.014106567 0.015140535 -0.0027280634 0.005589645
0.0105041675 -0.0038375237 0.003322291 -0.014256683 0.0046384605 -0.016520757 -0.0042475294 0.007070217
0.019820847 0.0056919865 -0.002237328 0.012537601 -0.009578359 0.01693186 -0.001437541 -0.0036276316
-0.00767162 0.010865511 0.0020844508 0.0007200796 -0.002202558 0.007341957 -0.0007403015 -0.0009487285
0.017572371 0.0010702416 0.003306909 -0.010918024 0.001276691 0.013444302 0.0069118477 -0.014213525
-0.00035933367 -0.0071824305 -0.003947442 -0.00083644176 0.004127295 -0.01403901 0.009465775 -0.0069285757
-0.006458321 -0.023902802 0.0051915394 -0.011102971 0.01453483 -0.007098039 0.020904101 0.00019932984
0.005101077 0.0065904385 0.014111499 -0.0014311847 0.009609597 -0.004792818 0.014625582 -0.0030988043
0.009295025 -0.0040560276 0.007755225 -0.0038294424 -0.0108864335 0.0044902326 -0.0065008313 0.01270726
0.0051302784 -0.006397518 0.006347896 -0.013069763 0.015095547 -0.0021481293 0.0012266523 0.0044916747
0.0013456679 -0.008119436 0.0011602727 -0.0048070815 -0.008622325 -0.0051749046 -0.0071416036 -0.008884783
0.014222628 0.0014038117 0.010033865 0.007826073 -0.008297861 -0.0027731613 -0.0068504065 -0.0032194566
0.00053973484 0.0020242413 -0.019909991 0.010838939 -0.0029207857 -0.003174123 -0.0073293783 0.005930922
-0.0064907386 0.0033601446 0.008647862 -0.007846645 -0.007659939 -0.0033021986 0.0050850394 0.004743542
0.0061344057 -0.009727652 -0.0052572903 -0.018096 -0.010196688 -0.003070302 0.0036325397 0.004639843

onnx::LSTM_116 f4 [1, 512, 128]
00000000: c0d8 c1bd eac9 c73d 149e 5a3d 03d5 103e
00000010: 1eab cd3d a242 c8bd 4805 f8bd 8093 a7bc
00000020: 5694 903d e0ab a13c d8f4 85bc 3c77 4bbd
00000030: 2008 c13c 6c04 443d 808c 19bb 000c f83b
00000040: d21a aa3d 72d5 fa3d 5047 c43c 4d0e ffbd
00000050: 6b8f 0cbe f8dd 013d 1f94 0b3e 40cf 983d
00000060: 4483 f4bc 57f1 8bbd f61f c63d fc27 c23d
00000070: 9883 9b3c a2f2 2dbd 6590 0b3e 702e 963c
00000080: 366e 9cbd b470 5c3d 5026 95bd 56f7 f23d
00000090: fc96 02be 5e1a 8ebd 0c45 dfbd ecc6 0abe
000000a0: 330c 133e e254 e63d 30d4 cd3c aced 143d
000000b0: f10b 16be 0058 edb9 9878 f9bd 6b01 fabd
000000c0: d3ad edbd f818 06bd 7457 c53d da01 dc3d
000000d0: 00fa c6bd 44d5 d1bd f6ca ecbd d04c 853c
000000e0: b0ac 873c 27f0 113e f1aa 0a3e 10ad bc3c
000000f0: 804f 27bb f4f0 473d 5157 00be 2061 b13b
00000100: f43b 66bd a856 e3bc 8839 583d 666c e43d
00000110: c0b5 2e3c c5e4 96bd cffa fcbd f6d2 b9bd
00000120: a8f7 813d 0260 6ebd 7ca8 54bd 98bb 823d
00000130: 49ec 013e 904d 48bd 504b 103c a8b0 1b3d
00000140: eec2 bb3d 9311 0c3e ff95 fabd 21f6 00be
00000150: 9507 85bd 563a d43d 4897 6fbd e616 06bd
00000160: 44f6 643d ae30 cf3d ce6d 44bd 8c2f 383d
00000170: dcba efbc a46c 093d e072 cc3b faf8 ebbd
00000180: 5c2b 72bd 0a6c 9f3d f4ff 16bd b216 a13d
00000190: b896 91bd bc20 75bd 38ee c13c 0a88 cfbd
000001a0: 1d5e 0d3e 0070 1b3b 408b 9f3c 4aeb fe3d
000001b0: 5039 23bc 9208 ab3d e66f 41bd 4a4c 62bd
000001c0: 6ffb 153e 0bac 0c3e f4ca bf3d 8c74 63bd
000001d0: c03d 74bb fa24 9d3d c8ff 8ebc 8795 193e
000001e0: c882 c13c 6027 82bb 74a7 a83d 531e 95bd
000001f0: 6a81 933d d079 753d 80aa 843d f4f2 cdbd
00000200: 5a23 a33d 2935 1c3e 8e1a dbbd 44ee b93d
00000210: 502d 3a3d 5798 04be fc60 95bd f0b5 d23c
00000220: 4cdf 19bd f09b 7ebc 4a48 05be c850 a0bc
00000230: f8d0 bcbc 46f6 e2bd aab2 7ebd aeb0 853d
00000240: 44b6 303d 783a d8bd a5c2 16be d042 b03c
00000250: 505f 5ebc ba0c dbbd aae9 db3d a81e b4bc
00000260: 6d48 96bd 035a 013e b8c1 84bc 3eb0 f63d
00000270: d88e bd3d 7e9c 83bd eb44 1bbe 1bbb 8cbd
00000280: e06f 573c baa8 d1bd 7918 083e e093 8d3c
00000290: 08e0 1fbd 2084 01bc b849 2d3d 3027 273c
000002a0: 690b 84bd aaa7 d2bd 20be c03c 87dc 0cbe
000002b0: 6922 16be 1aa1 c4bd 98af 92bc 5e97 d93d
000002c0: 61b3 1c3e ac45 0a3d 9675 58bd 26d3 b6bd
000002d0: bcf0 f6bc 0ed1 65bd 801c 94ba 33fe 89bd
000002e0: 30b1 283d e2dc 933d 083b 02bd 2c3b febc
000002f0: 96e7 8b3d e0d3 713c e076 f5bd 64cf 263d
00000300: 48d4 0ebd 75fe bbbd c448 e9bd aa26 13be
00000310: c438 043d 10ea 21bc 52af 7dbd 81a1 1cbe
00000320: dfe9 1b3e 7298 af3d a472 bb3d d03d 7f3c
00000330: 5a62 fa3d af02 87bd a874 273d d24e 00bd
00000340: 64a0 03be f243 5ebd 7c2a d8bd c842 4fbd
00000350: 4ad4 00be 1449 6cbd a897 d4bd 090b 1cbe
00000360: 185d 083d 3b74 0a3e bc04 6fbd 902b 713d
00000370: eeca 1abe cc2e 2f3d a8a2 c8bc cf3c 0b3e
00000380: 6828 acbd d8b7 983c 9831 c2bd 466e ac3d
00000390: 9dca 193e 4271 e43d ceba 41bd e218 febd
000003a0: 2888 8cbc f838 e5bc ee91 fc3d fc66 2c3d
000003b0: a490 1c3d c986 e8bd c7b3 eebd 9bc5 c4bd
000003c0: 0ea1 843d a0bf 963c a028 a9bd 158d 103e
000003d0: 80ea 783d 907f 013c 68f0 ab3d 802e 813b
000003e0: 9ad2 5fbd f4f3 383d 6025 203d 1463 373d
000003f0: 918d 1cbe 50a0 eabd c018 c23d dc73 543d
-0.0946517 0.09755309 0.05337341 0.14143758 0.10042404 -0.09778334 -0.12110382 -0.020456076
0.07059543 0.019735277 -0.016352102 -0.049674258 0.023563445 0.04785578 -0.0023429692 0.00756979
0.08305897 0.12247743 0.023959786 -0.124538995 -0.13726585 0.031705827 0.13630722 0.07461405
-0.029847749 -0.06833141 0.09674065 0.09480283 0.018983647 -0.04246772 0.13629301 0.01833269
-0.076382086 0.05381842 -0.07282698 0.11863582 -0.12752908 -0.06938623 -0.109018415 -0.13552445
0.14360122 0.11246659 0.025125593 0.036359474 -0.14652993 -0.00045269728 -0.121812046 -0.12207302
-0.1160542 -0.032738656 0.09635821 0.10742541 -0.097156525 -0.10245755 -0.11562149 0.016271979
0.016561836 0.14251767 0.13541771 0.023031741 -0.0025529563 0.048813775 -0.12533309 0.0054131895
-0.05620952 -0.027751282 0.05278924 0.11153488 0.01066345 -0.07367853 -0.123525254 -0.09073441
0.06346065 -0.05819703 -0.05191849 0.06383437 0.12687792 -0.048902094 0.008807018 0.03801027
0.09168039 0.13678579 -0.12235641 -0.1259389 -0.06495587 0.10362689 -0.058493882 -0.03273668
0.05589892 0.10116707 -0.04795628 0.04496722 -0.029263906 0.033550873 0.00623928 -0.11522098
-0.059123382 0.07784279 -0.03686519 0.07865657 -0.071088254 -0.05984567 0.023673162 -0.10133369
0.13805433 0.002371788 0.01947558 0.124472216 -0.009962395 0.08351244 -0.047225855 -0.055248536
0.14646696 0.13737504 0.09364882 -0.05553107 -0.0037268251 0.07673068 -0.01745595 0.14998446
0.023621932 -0.003971979 0.08235064 -0.072811745 0.07202418 0.059930623 0.06477833 -0.10056105
0.07965727 0.15254654 -0.10698424 0.09078649 0.04545337 -0.12948738 -0.07293889 0.02572152
-0.037566468 -0.015540108 -0.13015857 -0.01956977 -0.023048863 -0.11082129 -0.062182106 0.065278396
0.043142572 -0.10558027 -0.14722688 0.021516234 -0.013572529 -0.10695787 0.10737927 -0.021987274
-0.07338033 0.12631993 -0.016205654 0.12045334 0.09255761 -0.06426333 -0.15163009 -0.06871625
0.013149232 -0.1023726 0.13290586 0.017282426 -0.039032012 -0.007905036 0.04230663 0.010202214
-0.06447489 -0.10285886 0.023528159 -0.13756 -0.14661564 -0.0960104 -0.017905995 0.10624574
0.15302803 0.03375785 -0.052846514 -0.08926992 -0.030144088 -0.056107573 -0.0011299998 -0.06737938
0.041184604 0.072198644 -0.031794578 -0.031034075 0.06831281 0.014759988 -0.11985564 0.040725127
-0.034870416 -0.09179393 -0.11390832 -0.14370218 0.0322807 -0.009882465 -0.061934777 -0.15295984
0.15225933 0.085739985 0.09152725 0.015578702 0.1222579 -0.06592309 0.040882736 -0.03132517
-0.12854153 -0.054264016 -0.10554978 -0.050600797 -0.12580982 -0.05768688 -0.10380489 -0.15238585
0.033291906 0.13520901 -0.058354124 0.058879435 -0.15116474 0.04276924 -0.024491623 0.13597415
-0.084061444 0.018642351 -0.094821155 0.084194705 0.15018697 0.11154415 -0.04729729 -0.1240709
-0.017154768 -0.027981266 0.123325214 0.0420904 0.038223878 -0.11353833 -0.116553836 -0.09608003
0.06476031 0.01840192 -0.08259702 0.14116319 0.06077051 0.007903948 0.08395463 0.003942311
-0.054644205 0.045154527 0.039098144 0.044772223 -0.15288378 -0.114563584 0.09477377 0.051868305

onnx::LSTM_117 f4 [1, 512, 128]
00000000: 3e4b cd3d daa2 bd3d 3cf8 32bd 601d 743c
00000010: 823c 8dbd 0a19 06be 86a0 d0bd a028 bd3c
00000020: 7790 aebd 3b0e 183e 7ee9 c63d b321 c2bd
00000030: 6e66 5cbd b3c7 133e 77d9 86bd 7c15 36bd
00000040: 9a57 66bd ed7d babd 789c 623d 60ad bf3d
00000050: c0ce 993c 7989 02be 3746 f9bd f7d7 0abe
00000060: d66f a63d b65c 983d c8a3 db3c 50cc e63c
00000070: 68b8 c73c 7959 0d3e 4458 2abd 426f f43d
00000080: 0a76 f73d a09c 5e3c e2be 0ebe 9689 ec3d
00000090: 80ee 31bb e61d e63d fe9c b23d 80d2 0ebe
000000a0: 66e6 f6bd cccf 60bd 10a8 de3c e091 a43b
000000b0: 86e1 1dbd 4ce6 183d d617 1abe 0479 21bd
000000c0: 768d d03d fa98 2fbd c0ec ba3b 861f 1cbe
000000d0: aa82 f33d 3389 d8bd 229f dabd 622f 4ebd
000000e0: 3cdb 333d 8029 883b 1046 03be b945 16be
000000f0: 8b5b 113e 62ce 81bd c4eb 1bbe 2ed9 ae3d
00000100: 3591 163e fe48 b4bd 6e27 9e3d 83bc 0ebe
00000110: 503e 06bc bae8 b13d 204f 743d b0a5 97bd
00000120: b6ab 29bd 8050 aebb 1a47 af3d 5e39 9d3d
00000130: 158e f7bd 2855 80bc 7e8d 06bd 175c a2bd
00000140: d62d a53d 9cf3 bb3d 401d b9bb c049 cabc
00000150: a295 b63d 88d9 913c 77b8 a7bd 1463 b83d
00000160: 3ca7 f2bd f4d1 69bd 87d2 033e 118f 033e
00000170: 4023 bdbc e031 1bbe 40ac 1abd a8ac 22bd
00000180: 8b35 093e 7063 973c 2726 86bd 7097 c43c
00000190: d03a c13d 3ec0 f23d 95e1 1b3e 6005 983c
000001a0: 4de7 173e a06a 6fbc ee0e 82bd 3e13 debd
000001b0: 5841 c13d 8b18 afbd 0010 9c3a fa53 eabd
000001c0: 40b2 c5bb 0428 833d 2e83 0dbe ae4e bf3d
000001d0: 9836 043d 70e1 c23c 6643 5fbd 40ef 4cbc
000001e0: 283e 0fbe 5615 07be 1049 083c 3a80 e23d
000001f0: 3858 d23c 4ad3 ce3d e9f5 e9bd 4085 cbbc
00000200: 5f42 16be b8f7 423d 2467 7fbd 9558 8dbd
00000210: f89b ebbc 61ac 103e fa43 8b3d 7454 dcbd
00000220: bcbe 5d3d a16c 083e 6adc f53d 80a3 923d
00000230: 8209 d5bd 8492 b7bd 96ce f2bd f0ae 06be
00000240: 8a49 c0bd 2469 113d 6602 e43d 5c95 b9bd
00000250: a50e b4bd 856a 1b3e 3410 863d e8bd 9cbc
00000260: cc21 c9bd cb34 143e d8c5 6bbd 0d62 0f3e
00000270: e477 edbc baf9 06be 9fbc 113e 725a efbd
00000280: be6f ff3d c0b7 443d 1e08 d43d 0a63 56bd
00000290: a82e 72bd 2942 09be f01f 653c d21b 9dbd
000002a0: 9a7e 62bd 88d6 c13c 60f6 59bc 50e5 963d
000002b0: 9986 a6bd dae5 d63d 4ae1 c9bd 1485 29bd
000002c0: e4e2 b7bd 900b bbbd 68c2 72bd 8209 27bd
000002d0: e075 19be d605 c2bd 90ef c4bd 9eff 62bd
000002e0: 1a30 da3d 2bd3 193e 2780 163e a340 98bd
000002f0: 421b 9b3d 8d23 b5bd be48 35bd 00ba d8ba
00000300: 1e72 1ebd aa73 16be 72e2 e53d e090 b63d
00000310: c8cc 873c d1f0 0bbe 8f17 adbd 8ee0 a23d
00000320: 76ab aa3d a2f4 ba3d dcbe edbd e0ea 4e3d
00000330: f550 06be ebe9 193e 1004 ebbd 04d9 443d
00000340: 2d93 1b3e aea4 d7bd 5006 9abc 86cf d6bd
00000350: f81e b33d 490a 0f3e c8c0 613d 685f b33d
00000360: 5001 58bc b8f3 b2bd f2dd 92bd 5c3d 41bd
00000370: 4a1f 833d ac25 583d 607a 8f3c 92b6 d83d
00000380: 705c e73c eeef ee3d aad9 c73d 5e69 903d
00000390: a28c f53d ead0 0dbe 8f9d 00be a3c1 ccbd
000003a0: 7d25 023e ac17 313d fe05 873d daba e73d
000003b0: b7bd 153e 5469 dfbd 4569 a6bd 1ec0 4cbd
000003c0: e8c4 523d 15d6 04be 0c0f 7ebd c43f 09be
000003d0: 7f35 0fbe 78c8 aa3d f2cd 08bd 288d 14bd
000003e0: 7e77 11be 08a8 84bc 6809 ad3c a6b3 e4bd
000003f0: b0f6 51bc 20bb 873b 9cd4 703d 184e 6cbd
0.10024117 0.09259577 -0.043693766 0.014899582 -0.068963066 -0.13095489 -0.101868674 0.02309066
-0.08523648 0.14849178 0.09712504 -0.09479084 -0.053808622 0.14431648 -0.06584447 -0.044454083
-0.056235887 -0.0910605 0.055325 0.093592405 0.018775344 -0.12747754 -0.121715955 -0.13558947
0.081268 0.07439558 0.026811495 0.028173596 0.024379924 0.13803662 -0.041588083 0.11935283
0.12083061 0.013587147 -0.13940004 0.1154968 -0.0027150214 0.112361714 0.0872135 -0.13947487
-0.12055664 -0.05488567 0.027179748 0.0050222725 -0.038545154 0.037329003 -0.15048155 -0.03942205
0.101832315 -0.0428705 0.0057044923 -0.152464 0.118901566 -0.10573044 -0.106748834 -0.050338157
0.04391025 0.004155338 -0.12819695 -0.14675035 0.14195077 -0.063381925 -0.15226656 0.085375175
0.1470383 -0.08802985 0.07722364 -0.13939099 -0.008193567 0.08686967 0.059645772 -0.07404649
-0.041423522 -0.005319655 0.085584834 0.076769575 -0.12087647 -0.015665606 -0.03284978 -0.07927721
0.08065383 0.09177324 -0.005649239 -0.02469337 0.08915259 0.017803922 -0.08189481 0.09003273
-0.11848304 -0.057084993 0.12873279 0.12847544 -0.023088098 -0.15155745 -0.037761927 -0.03971544
0.13399331 0.018480033 -0.06550246 0.023997992 0.09435046 0.118530735 0.15222771 0.01855725
0.14834328 -0.014612824 -0.06350504 -0.10843514 0.094362915 -0.08549603 0.0011906624 -0.114417985
-0.006033212 0.06404117 -0.13819572 0.09341179 0.032278627 0.023789138 -0.054507636 -0.0125082135
-0.13988554 -0.13191733 0.008318201 0.110596135 0.025676832 0.10098894 -0.11423857 -0.024843812
-0.14673756 0.047599524 -0.062354222 -0.06901661 -0.028760895 0.14128257 0.06800075 -0.10758296
0.054136977 0.13322689 0.12004931 0.071600914 -0.10402204 -0.089634925 -0.118558094 -0.13152671
-0.093890265 0.03550066 0.1113327 -0.09061691 -0.08791856 0.15177353 0.06546059 -0.019133523
-0.09820899 0.14473264 -0.057561725 0.14002247 -0.028987832 -0.131812 0.1423211 -0.11687173
0.12472485 0.0480268 0.10353111 -0.052340545 -0.059126526 -0.13404144 0.013984665 -0.07671322
-0.055296518 0.023661867 -0.013303369 0.07367957 -0.08131141 0.104930595 -0.098574236 -0.04138668
-0.08978823 -0.09133065 -0.05926743 -0.04078055 -0.14986372 -0.09473769 -0.096160054 -0.055419557
0.10653706 0.1502196 0.14697324 -0.074342035 0.075735584 -0.088446714 -0.044258825 -0.0016534925
-0.03868305 -0.1469256 0.11224832 0.089143515 0.01657714 -0.13666083 -0.08451759 0.07952987
0.08333485 0.09128691 -0.11608669 0.050516963 -0.1311682 0.15030639 -0.11475384 0.048058525
0.15192862 -0.10529457 -0.018801838 -0.10488801 0.08746141 0.13968767 0.05511549 0.08758432
-0.013183907 -0.08737892 -0.07171239 -0.047177657 0.06402452 0.0527703 0.017514408 0.105816975
0.02824232 0.11666857 0.09758313 0.07051347 0.11989714 -0.13849226 -0.12560104 -0.09997871
0.12709613 0.043235466 0.0659294 0.11314936 0.14623152 -0.109087616 -0.08125547 -0.049987905
0.051457316 -0.12972291 -0.06202607 -0.13403231 -0.13985251 0.08339018 -0.03339953 -0.03626743
-0.14205739 -0.016193405 0.02112265 -0.11167078 -0.012815163 0.00414218 0.05879651 -0.057691664

onnx::LSTM_118 f4 [1, 1024]
00000000: 0000 0000 0000 0000 0000 0000 0000 0000
00000010: 0000 0000 0000 0000 0000 0000 0000 0000
00000020: 0000 0000 0000 0000 0000 0000 0000 0000
00000030: 0000 0000 0000 0000 0000 0000 0000 0000
00000040: 0000 0000 0000 0000 0000 0000 0000 0000
00000050: 0000 0000 0000 0000 0000 0000 0000 0000
00000060: 0000 0000 0000 0000 0000 0000 0000 0000
00000070: 0000 0000 0000 0000 0000 0000 0000 0000
00000080: 0000 0000 0000 0000 0000 0000 0000 0000
00000090: 0000 0000 0000 0000 0000 0000 0000 0000
000000a0: 0000 0000 0000 0000 0000 0000 0000 0000
000000b0: 0000 0000 0000 0000 0000 0000 0000 0000
000000c0: 0000 0000 0000 0000 0000 0000 0000 0000
000000d0: 0000 0000 0000 0000 0000 0000 0000 0000
000000e0: 0000 0000 0000 0000 0000 0000 0000 0000
000000f0: 0000 0000 0000 0000 0000 0000 0000 0000
00000100: 0000 0000 0000 0000 0000 0000 0000 0000
00000110: 0000 0000 0000 0000 0000 0000 0000 0000
00000120: 0000 0000 0000 0000 0000 0000 0000 0000
00000130: 0000 0000 0000 0000 0000 0000 0000 0000
00000140: 0000 0000 0000 0000 0000 0000 0000 0000
00000150: 0000 0000 0000 0000 0000 0000 0000 0000
00000160: 0000 0000 0000 0000 0000 0000 0000 0000
00000170: 0000 0000 0000 0000 0000 0000 0000 0000
00000180: 0000 0000 0000 0000 0000 0000 0000 0000
00000190: 0000 0000 0000 0000 0000 0000 0000 0000
000001a0: 0000 0000 0000 0000 0000 0000 0000 0000
000001b0: 0000 0000 0000 0000 0000 0000 0000 0000
000001c0: 0000 0000 0000 0000 0000 0000 0000 0000
000001d0: 0000 0000 0000 0000 0000 0000 0000 0000
000001e0: 0000 0000 0000 0000 0000 0000 0000 0000
000001f0: 0000 0000 0000 0000 0000 0000 0000 0000
00000200: 0000 0000 0000 0000 0000 0000 0000 0000
00000210: 0000 0000 0000 0000 0000 0000 0000 0000
00000220: 0000 0000 0000 0000 0000 0000 0000 0000
00000230: 0000 0000 0000 0000 0000 0000 0000 0000
00000240: 0000 0000 0000 0000 0000 0000 0000 0000
00000250: 0000 0000 0000 0000 0000 0000 0000 0000
00000260: 0000 0000 0000 0000 0000 0000 0000 0000
00000270: 0000 0000 0000 0000 0000 0000 0000 0000
00000280: 0000 0000 0000 0000 0000 0000 0000 0000
00000290: 0000 0000 0000 0000 0000 0000 0000 0000
000002a0: 0000 0000 0000 0000 0000 0000 0000 0000
000002b0: 0000 0000 0000 0000 0000 0000 0000 0000
000002c0: 0000 0000 0000 0000 0000 0000 0000 0000
000002d0: 0000 0000 0000 0000 0000 0000 0000 0000
000002e0: 0000 0000 0000 0000 0000 0000 0000 0000
000002f0: 0000 0000 0000 0000 0000 0000 0000 0000
00000300: 0000 0000 0000 0000 0000 0000 0000 0000
00000310: 0000 0000 0000 0000 0000 0000 0000 0000
00000320: 0000 0000 0000 0000 0000 0000 0000 0000
00000330: 0000 0000 0000 0000 0000 0000 0000 0000
00000340: 0000 0000 0000 0000 0000 0000 0000 0000
00000350: 0000 0000 0000 0000 0000 0000 0000 0000
00000360: 0000 0000 0000 0000 0000 0000 0000 0000
00000370: 0000 0000 0000 0000 0000 0000 0000 0000
00000380: 0000 0000 0000 0000 0000 0000 0000 0000
00000390: 0000 0000 0000 0000 0000 0000 0000 0000
000003a0: 0000 0000 0000 0000 0000 0000 0000 0000
000003b0: 0000 0000 0000 0000 0000 0000 0000 0000
000003c0: 0000 0000 0000 0000 0000 0000 0000 0000
000003d0: 0000 0000 0000 0000 0000 0000 0000 0000
000003e0: 0000 0000 0000 0000 0000 0000 0000 0000
000003f0: 0000 0000 0000 0000 0000 0000 0000 0000
0.0 0.0 0.0 0.0 0.0 0.0 0.0 0.0
0.0 0.0 0.0 0.0 0.0 0.0 0.0 0.0
0.0 0.0 0.0 0.0 0.0 0.0 0.0 0.0
0.0 0.0 0.0 0.0 0.0 0.0 0.0 0.0
0.0 0.0 0.0 0.0 0.0 0.0 0.0 0.0
0.0 0.0 0.0 0.0 0.0 0.0 0.0 0.0
0.0 0.0 0.0 0.0 0.0 0.0 0.0 0.0
0.0 0.0 0.0 0.0 0.0 0.0 0.0 0.0
0.0 0.0 0.0 0.0 0.0 0.0 0.0 0.0
0.0 0.0 0.0 0.0 0.0 0.0 0.0 0.0
0.0 0.0 0.0 0.0 0.0 0.0 0.0 0.0
0.0 0.0 0.0 0.0 0.0 0.0 0.0 0.0
0.0 0.0 0.0 0.0 0.0 0.0 0.0 0.0
0.0 0.0 0.0 0.0 0.0 0.0 0.0 0.0
0.0 0.0 0.0 0.0 0.0 0.0 0.0 0.0
0.0 0.0 0.0 0.0 0.0 0.0 0.0 0.0
0.0 0.0 0.0 0.0 0.0 0.0 0.0 0.0
0.0 0.0 0.0 0.0 0.0 0.0 0.0 0.0
0.0 0.0 0.0 0.0 0.0 0.0 0.0 0.0
0.0 0.0 0.0 0.0 0.0 0.0 0.0 0.0
0.0 0.0 0.0 0.0 0.0 0.0 0.0 0.0
0.0 0.0 0.0 0.0 0.0 0.0 0.0 0.0
0.0 0.0 0.0 0.0 0.0 0.0 0.0 0.0
0.0 0.0 0.0 0.0 0.0 0.0 0.0 0.0
0.0 0.0 0.0 0.0 0.0 0.0 0.0 0.0
0.0 0.0 0.0 0.0 0.0 0.0 0.0 0.0
0.0 0.0 0.0 0.0 0.0 0.0 0.0 0.0
0.0 0.0 0.0 0.0 0.0 0.0 0.0 0.0
0.0 0.0 0.0 0.0 0.0 0.0 0.0 0.0
0.0 0.0 0.0 0.0 0.0 0.0 0.0 0.0
0.0 0.0 0.0 0.0 0.0 0.0 0.0 0.0
0.0 0.0 0.0 0.0 0.0 0.0 0.0 0.0
