results/try-25/My Behavior/My Behavior-3264.onnx (onnx, 693209 bytes, 10 tensors)

network_body._body_endoder.seq_layers.0.weight f4 [128, 122]
0	0xbe14eb5b	-0.14542906
1	0x3e1905a9	0.14943565
2	0x3d679721	0.056540612
3	0xbdb31cdb	-0.08745738
4	0xbc916281	-0.017747166
5	0x3d6659a5	0.056237835
6	0x3d86fead	0.06591544
7	0x3e012df9	0.12615193
8	0x3c96c264	0.01840324
9	0x3d32601f	0.0435487
10	0x3dda5cf9	0.106622644
11	0xbd671bed	-0.056423116
12	0x3db2f839	0.08738751
13	0x3d69df54	0.057097748
14	0xbd1de2d9	-0.038546417
15	0xbce916c8	-0.028453246
16	0x3d16e671	0.03684086
17	0x3c803d56	0.015654247
18	0xbdae856f	-0.08521544
19	0xbda1225e	-0.07867883
20	0xbd0bc70d	-0.034125376
21	0x3db26065	0.08709792
22	0x3ce9c16f	0.02853462
23	0xbd0ddfeb	-0.034637373
24	0xbd90a663	-0.07062986
25	0xbda3c996	-0.07997434
26	0xbd8337c0	-0.06407118
27	0xbdeb764c	-0.11497173
28	0x3dbfa869	0.093582936
29	0x3cd09830	0.025463194
30	0x3d348d8a	0.044080295
31	0xbd91e8ba	-0.07124467
32	0xbe249189	-0.16071142
33	0x3dcc0437	0.099617414
34	0xbd6f6428	-0.058445126
35	0xbd96a7cf	-0.07356226
36	0xbe4f075d	-0.20217653
37	0x3d5daf73	0.0541224
38	0xbe129436	-0.1431435
39	0x3dbc1b76	0.09184925
40	0x3d12890e	0.035775237
41	0xbe3ea8ea	-0.18619123
42	0xbc296929	-0.010340014
43	0xbdbca08d	-0.0921031
44	0x3e3141b7	0.17310224
45	0x3de0c4df	0.1097505
46	0x3e1099dc	0.14121193
47	0x3db59096	0.08865468
48	0xbd1a70f3	-0.037705373
49	0x3caf6c56	0.021413963
50	0xbd7beaf3	-0.061503362
51	0xbe251a3a	-0.16123286
52	0x3d8e42f8	0.06946367
53	0xbe433e6e	-0.19066784
54	0x3d9cab98	0.076499164
55	0xbd0d041b	-0.034427743
56	0xbd737bd4	-0.059444264
57	0xbd1269a2	-0.03574527
58	0xbcac65c0	-0.021044612
59	0xbd16b1e7	-0.036790755
60	0x3e0ca4a2	0.13734677
61	0x3c66263f	0.0140472045
62	0x3cda29ee	0.026631322
63	0x3d645ca1	0.0557524
64	0xbdc73f98	-0.097289264
65	0xbdecba3d	-0.1155896
66	0xbd4b4c62	-0.04963339
67	0x3e0355bd	0.12825675
68	0xbde157be	-0.110030636
69	0x3cdd8674	0.027041651
70	0x3caebbc2	0.021329764
71	0x3d32f19d	0.04368745
72	0xbba4e810	-0.005032547
73	0x3e1c45c1	0.15260984
74	0xbcb1d372	-0.02170727
75	0xbd3b68ec	-0.04575436
76	0xbe068b40	-0.13139057
77	0xbc182ebd	-0.009288487
78	0x3db15dc9	0.08660466
79	0xbe224cd3	-0.15849619
80	0xbdc7006d	-0.09716878
81	0xbe146e09	-0.144951
82	0xbd7c7cd0	-0.061642468
83	0xbdeda41b	-0.11603566
84	0xbcfb6092	-0.030685697
85	0x3e0d3d4d	0.13792916
86	0x3d8ce17e	0.06878947
87	0x3ca812d7	0.020516796
88	0xbbca9bde	-0.0061831316
89	0xbd64880f	-0.055793818
90	0xbcd9c034	-0.026580907
91	0x3de0b744	0.10972455
92	0xbda281ea	-0.079349354
93	0xbc0c02b0	-0.008545563
94	0x3dfe65dc	0.12421772
95	0xbda3d954	-0.080004364
96	0x3d550772	0.052009054
97	0x3d221619	0.039571855
98	0xbe1aa129	-0.1510054
99	0xbdcd7b24	-0.10033253
100	0x3e1fe322	0.15613988
101	0xbda3bb6c	-0.07994732
102	0xbdeacc57	-0.11464756
103	0x3e393597	0.18086849
104	0x3dc59709	0.09647948
105	0xbc8685ac	-0.016421162
106	0xbdd28ee4	-0.102811605
107	0xbd826b24	-0.06368092
108	0x3e34e135	0.17664035
109	0x3de82357	0.113348655
110	0xbc6dd321	-0.014515669
111	0xbe0f1493	-0.13972692
112	0xbda46ca2	-0.080285326
113	0x3c452d5a	0.012034738
114	0xbdac9cfe	-0.084283814
115	0xbd952664	-0.07282713
116	0x3d0785d6	0.03308662
117	0xbe1fe852	-0.15615967
118	0x3e3a0d67	0.18169175
119	0x3be7cf95	0.0070743063
120	0xbd599c97	-0.05312785
121	0x3ced0980	0.028935194
122	0xbe1ad7d5	-0.15121396
123	0xbcb08c4e	-0.021551277
124	0xbd008259	-0.03137431
125	0x3d611475	0.05495115
126	0xbde2f50b	-0.110818945
127	0xbdb3790b	-0.087633215
128	0xbce15f5d	-0.027511293
129	0x3c582996	0.013193509
130	0x3c493b29	0.012282171
131	0x3cf7075b	0.030154875
132	0xbdce1c10	-0.10063946
133	0xbe15f3dc	-0.14643806
134	0xbde78371	-0.11304367
135	0x3e194ccc	0.14970702
136	0x3d3ecbd9	0.046581123
137	0x3e45c809	0.19314589
138	0xbcb9285d	-0.022602255
139	0xbdbbdccb	-0.09172972
140	0xbd954698	-0.07288855
141	0x3e075338	0.13215339
142	0xbd6a690a	-0.05722908
143	0xbc038579	-0.008027428
144	0xbd69e596	-0.057103716
145	0x3d6ca6a8	0.057776123
146	0x3dfef84a	0.12449701
147	0xbd9f0999	-0.077655025
148	0xbd9c5f5e	-0.07635377
149	0xbe0db54b	-0.13838689
150	0x3d386e41	0.04502702
151	0x3db435a1	0.087992914
152	0xbdd35eb4	-0.103207976
153	0x3c58c02d	0.013229412
154	0x3d5c9967	0.053857233
155	0x3d00fabb	0.031489115
156	0x3d9f6350	0.07782614
157	0x3d1f96e4	0.03896226
158	0xbcf1ade3	-0.029501861
159	0xbcd482eb	-0.025941333
160	0x3c9a51c5	0.018837819
161	0xbd30ec6e	-0.043194227
162	0x3caa0110	0.02075246
163	0xbc6184c8	-0.013764568
164	0xbdd68ae6	-0.104757115
165	0xbe11e305	-0.14246757
166	0xbdcb1945	-0.09916929
167	0x3b1c5474	0.002385405
168	0xbb9d26b7	-0.004795875
169	0x39159141	0.00014263859
170	0x3d4dc964	0.05024089
171	0x3d859cd3	0.065240525
172	0xbd99ded1	-0.07513202
173	0xb9d4a862	-0.00040561246
174	0x3d8c10a1	0.06839109
175	0xbe03a269	-0.12854923
176	0x3de3c084	0.11120704
177	0xbdfd0867	-0.12355118
178	0x3dc52a47	0.096272044
179	0x3d05fb8a	0.03271059
180	0x3d954016	0.07287614
181	0xbdb279be	-0.08714627
182	0x3d9ece9e	0.07754253
183	0xbd5c24b4	-0.05374594
184	0xbdbae7f7	-0.09126275
185	0xbca7dd4a	-0.020491261
186	0x3ccd9ed9	0.025100159
187	0xbdfda6ae	-0.12385307
188	0x3cb8f839	0.0225793
189	0x3e0b9921	0.13632633
190	0xbe610e04	-0.21978003
191	0x3d8b1c6f	0.06792533
192	0x3db88978	0.09010595
193	0xbc7c4e5e	-0.015399544
194	0xbd2a3cc1	-0.041561846
195	0xbdcdead1	-0.10054553
196	0xbdcb1b49	-0.099173136
197	0x3c7020f5	0.014656295
198	0x3dc4f5a9	0.096171685
199	0x3db5f178	0.08883947
200	0x3c4c7369	0.012478688
201	0x3db6c4ca	0.08924253
202	0xbb400ba9	-0.0029303825
203	0xbe3914d2	-0.18074349
204	0xbc32fdef	-0.0109248
205	0x3dd92376	0.10602467
206	0x3d409523	0.047017228
207	0xbd2e6314	-0.042574957
208	0xbafb68e9	-0.0019181046
209	0x3d9be125	0.07611302
210	0xbe12afda	-0.14324895
211	0x3e16d1ee	0.1472852
212	0xbc46c74d	-0.012132478
213	0x3d0ed310	0.034869254
214	0xbd72b1fb	-0.059251767
215	0xbddb92e6	-0.10721378
216	0xbc811ac1	-0.015759828
217	0xbd1e5286	-0.03865292
218	0xbcfa9c19	-0.030592011
219	0xbcecf2a5	-0.028924296
220	0x3d4d5ce3	0.05013741
221	0x3db02b86	0.086020514
222	0xbc5bd96a	-0.013418535
223	0xbe1b178a	-0.15145698
224	0x3da5dc86	0.08098702
225	0xb994bcae	-0.00028369337
226	0xbd30c673	-0.043158006
227	0x3e651af5	0.22373565
228	0xbe0ab926	-0.13547191
229	0xbde35893	-0.111008786
230	0x3d2df622	0.04247106
231	0x3bc7cd19	0.0060974476
232	0xbda91996	-0.08256833
233	0xbb147495	-0.0022652496
234	0xbe443d33	-0.1916397
235	0x3c06af6c	0.008220535
236	0xbd53c320	-0.051699758
237	0xbe2418d7	-0.160251
238	0x3c36763e	0.01113659
239	0x3e270fdc	0.16314644
240	0xbd177d2c	-0.036984608
241	0xbc179b04	-0.009253267
242	0x3e8980cd	0.2685608
243	0xbc9af360	-0.018914878
244	0xbd0c41b4	-0.034242347
245	0xbcade5c7	-0.02122773
246	0x3da23df5	0.079219736
247	0xbe1610b8	-0.14654815
248	0x3d44448b	0.04791693
249	0xbe113d71	-0.14183594
250	0x3d451950	0.048119843
251	0x3d52f24c	0.051500604
252	0xbdc6c674	-0.09705821
253	0xbdaf01a1	-0.085452326
254	0xbde4a486	-0.11164193
255	0xbd1cd0bb	-0.038285

network_body._body_endoder.seq_layers.0.bias f4 [128]
0	0x00000000	0.0
1	0x00000000	0.0
2	0x00000000	0.0
3	0x00000000	0.0
4	0x00000000	0.0
5	0x00000000	0.0
6	0x00000000	0.0
7	0x00000000	0.0
8	0x00000000	0.0
9	0x00000000	0.0
10	0x00000000	0.0
11	0x00000000	0.0
12	0x00000000	0.0
13	0x00000000	0.0
14	0x00000000	0.0
15	0x00000000	0.0
16	0x00000000	0.0
17	0x00000000	0.0
18	0x00000000	0.0
19	0x00000000	0.0
20	0x00000000	0.0
21	0x00000000	0.0
22	0x00000000	0.0
23	0x00000000	0.0
24	0x00000000	0.0
25	0x00000000	0.0
26	0x00000000	0.0
27	0x00000000	0.0
28	0x00000000	0.0
29	0x00000000	0.0
30	0x00000000	0.0
31	0x00000000	0.0
32	0x00000000	0.0
33	0x00000000	0.0
34	0x00000000	0.0
35	0x00000000	0.0
36	0x00000000	0.0
37	0x00000000	0.0
38	0x00000000	0.0
39	0x00000000	0.0
40	0x00000000	0.0
41	0x00000000	0.0
42	0x00000000	0.0
43	0x00000000	0.0
44	0x00000000	0.0
45	0x00000000	0.0
46	0x00000000	0.0
47	0x00000000	0.0
48	0x00000000	0.0
49	0x00000000	0.0
50	0x00000000	0.0
51	0x00000000	0.0
52	0x00000000	0.0
53	0x00000000	0.0
54	0x00000000	0.0
55	0x00000000	0.0
56	0x00000000	0.0
57	0x00000000	0.0
58	0x00000000	0.0
59	0x00000000	0.0
60	0x00000000	0.0
61	0x00000000	0.0
62	0x00000000	0.0
63	0x00000000	0.0
64	0x00000000	0.0
65	0x00000000	0.0
66	0x00000000	0.0
67	0x00000000	0.0
68	0x00000000	0.0
69	0x00000000	0.0
70	0x00000000	0.0
71	0x00000000	0.0
72	0x00000000	0.0
73	0x00000000	0.0
74	0x00000000	0.0
75	0x00000000	0.0
76	0x00000000	0.0
77	0x00000000	0.0
78	0x00000000	0.0
79	0x00000000	0.0
80	0x00000000	0.0
81	0x00000000	0.0
82	0x00000000	0.0
83	0x00000000	0.0
84	0x00000000	0.0
85	0x00000000	0.0
86	0x00000000	0.0
87	0x00000000	0.0
88	0x00000000	0.0
89	0x00000000	0.0
90	0x00000000	0.0
91	0x00000000	0.0
92	0x00000000	0.0
93	0x00000000	0.0
94	0x00000000	0.0
95	0x00000000	0.0
96	0x00000000	0.0
97	0x00000000	0.0
98	0x00000000	0.0
99	0x00000000	0.0
100	0x00000000	0.0
101	0x00000000	0.0
102	0x00000000	0.0
103	0x00000000	0.0
104	0x00000000	0.0
105	0x00000000	0.0
106	0x00000000	0.0
107	0x00000000	0.0
108	0x00000000	0.0
109	0x00000000	0.0
110	0x00000000	0.0
111	0x00000000	0.0
112	0x00000000	0.0
113	0x00000000	0.0
114	0x00000000	0.0
115	0x00000000	0.0
116	0x00000000	0.0
117	0x00000000	0.0
118	0x00000000	0.0
119	0x00000000	0.0
120	0x00000000	0.0
121	0x00000000	0.0
122	0x00000000	0.0
123	0x00000000	0.0
124	0x00000000	0.0
125	0x00000000	0.0
126	0x00000000	0.0
127	0x00000000	0.0

network_body._body_endoder.seq_layers.2.weight f4 [128, 128]
0	0xbd929b93	-0.0715858
1	0xbb39aba4	-0.0028331066
2	0x3dbe3ac5	0.09288553
3	0xbdd67c04	-0.10472873
4	0x3c84a5ac	0.01619228
5	0xbd9f1297	-0.077672176
6	0xbcd36722	-0.025806013
7	0xbdf1d9b5	-0.118091024
8	0x3d16da0e	0.036829047
9	0xbdb2d884	-0.08732703
10	0x3d2884a2	0.041142114
11	0x3cf65f51	0.030074747
12	0x3d51237a	0.051059224
13	0x3dc85f2d	0.09783778
14	0x3df1c488	0.118050635
15	0xbdeab690	-0.11460602
16	0xbd7fdc41	-0.06246591
17	0x3d42a040	0.047516108
18	0x3d26b058	0.04069552
19	0xbe029d8a	-0.12755409
20	0x3c871c6d	0.016493047
21	0x3d3201d6	0.043458782
22	0xbd8fe703	-0.07026484
23	0x3d46935d	0.04848038
24	0xbcf4ef79	-0.029899346
25	0x3dc5f3d0	0.09665644
26	0xbc90aac2	-0.017659549
27	0xbcc5e2ef	-0.024156062
28	0xbdb20b45	-0.08693556
29	0x3d731736	0.059348308
30	0x3d6b3dae	0.05743187
31	0x3df4e0a2	0.11956908
32	0x3c9394b6	0.018015247
33	0x3deeed6a	0.11666377
34	0xbe9c1e06	-0.30491656
35	0xbd18cf53	-0.037307095
36	0xbb8fd757	-0.004389684
37	0x3d781ff6	0.060577355
38	0xbda5a847	-0.08088737
39	0x3d5e5172	0.05427689
40	0x3e02fab7	0.12790953
41	0xbe01f384	-0.1269055
42	0x3d30758f	0.043080863
43	0xbc1dff8a	-0.009643445
44	0x3d0675e1	0.03282726
45	0xbd1e5399	-0.038653944
46	0xbddcd319	-0.10782451
47	0xbe7e31a2	-0.24823621
48	0x3d889d94	0.06670681
49	0x3e15d821	0.14633228
50	0xbdc97875	-0.098374285
51	0x3d02a006	0.03189089
52	0x3e0423ea	0.12904325
53	0xbdd189e7	-0.10231381
54	0x3c32b85b	0.010908212
55	0xbd933f6b	-0.071898304
56	0xbcedf830	-0.02904901
57	0xbdefd2a5	-0.11710099
58	0xbe17af28	-0.1481291
59	0xbcccfaef	-0.025021998
60	0xbd998eb6	-0.07497923
61	0xbd0ff95b	-0.035149913
62	0x3e1fad29	0.15593399
63	0xbcc73ea5	-0.024321863
64	0x3e4d1641	0.2002802
65	0x3d2af9ac	0.041742012
66	0x3ca16520	0.01970154
67	0xbd51f986	-0.051263355
68	0xbba78721	-0.005112544
69	0x3d8c139d	0.068396784
70	0x3d5e4f42	0.054274805
71	0x3d6ccbae	0.05781143
72	0x3cb76d81	0.022391083
73	0x3de5379a	0.11192246
74	0xbb8aa942	-0.004231603
75	0x3d2f9798	0.04286918
76	0x3e3af7f1	0.18258645
77	0xbdc16473	-0.09442987
78	0xbc19c784	-0.009385947
79	0xbbdd0389	-0.006744806
80	0xbd9f48dd	-0.077775694
81	0x3ce41ad1	0.027844818
82	0x3db30bcf	0.08742487
83	0x3cd0c220	0.025483191
84	0x3d9ad1b0	0.07559526
85	0xbda98d07	-0.08278852
86	0xbda807c0	-0.08204603
87	0xbbbed407	-0.0058236155
88	0x3e03db81	0.12876703
89	0x3e002c71	0.12516953
90	0x3e12f48b	0.14351098
91	0xbd00ea87	-0.031473663
92	0xbdadea4b	-0.084919535
93	0xbd60f1a0	-0.05491793
94	0xbc8ef761	-0.017451944
95	0x3de24718	0.11048716
96	0x3d80a7e7	0.06282025
97	0xbcb1a55b	-0.021685293
98	0xbe1761cc	-0.147834
99	0xbe0bf7ad	-0.136687
100	0xbde91967	-0.11381798
101	0xbd59ffdc	-0.053222522
102	0x3d32f835	0.04369374
103	0xbdc24e15	-0.09487549
104	0xbcabdf59	-0.020980524
105	0x3c297136	0.010341933
106	0x3d82a273	0.06378641
107	0x3dda5202	0.10660173
108	0xbe2ab514	-0.16670638
109	0xbcf9dae5	-0.030499885
110	0xbb5c362c	-0.0033601625
111	0x3d9c01c6	0.07617526
112	0xbe11b1a2	-0.14227918
113	0x3d7e9764	0.062156096
114	0xbcdb85d2	-0.026797209
115	0x3c256b17	0.010096333
116	0x3cb13b1b	0.021634629
117	0x3c81fe39	0.015868293
118	0x3cd3bee5	0.025847862
119	0x3d95de56	0.07317798
120	0x3d4cb2be	0.04997515
121	0x3d1073a7	0.035266545
122	0x3d2074ad	0.03917377
123	0xbe01832e	-0.12647697
124	0xbcbf6c2f	-0.023367016
125	0x3e038f94	0.1284774
126	0x3d93e22b	0.072208725
127	0x3d40609e	0.04696714
128	0xbc7bd354	-0.015370209
129	0x3dc4efe4	0.09616068
130	0xbd8c67ba	-0.06855722
131	0x3cc1bad8	0.023648664
132	0xbd89b4e3	-0.067239545
133	0xbd12e0a9	-0.035858784
134	0xbe19a8d8	-0.15005815
135	0xbe0490eb	-0.12945907
136	0x3d95f82f	0.07322728
137	0xbd81d2a2	-0.06339003
138	0xbe7c5d7d	-0.24645038
139	0xbcb1ac1e	-0.021688517
140	0xbd691aa4	-0.056910172
141	0x3c6938dc	0.014234748
142	0x3df40926	0.119158074
143	0xbe0155d3	-0.12630396
144	0x3d55fd82	0.052243717
145	0x3d1b3b1a	0.03789816
146	0x3d3ab9d9	0.045587394
147	0x3db0812e	0.08618389
148	0xbc80b650	-0.015711933
149	0x3d3ec7be	0.046577208
150	0x3c42aa71	0.011881457
151	0x3c9ffe40	0.019530416
152	0x3d7c60ff	0.06161594
153	0xbccbd3d1	-0.024881275
154	0x3d27f2c9	0.041003022
155	0xbdbca278	-0.09210676
156	0x3e4fe94c	0.2030384
157	0xbd5b78a6	-0.053581856
158	0xbb0a3c2a	-0.002109299
159	0xbdb89007	-0.09011846
160	0x3ddf2f2f	0.108976714
161	0xbda45f57	-0.08025997
162	0x3db6882f	0.08912694
163	0xbd97cccf	-0.07412111
164	0xbe07a5b4	-0.13246804
165	0xbe0ca49f	-0.13734673
166	0x3b8f4654	0.0043723974
167	0xbc4c3c6e	-0.012465579
168	0x3c378fe5	0.011203741
169	0xbd9208a3	-0.071305536
170	0x3e50d593	0.20393972
171	0xbd167da6	-0.03674092
172	0x3df07e88	0.11742884
173	0xbc5d7938	-0.01351767
174	0xbde7763e	-0.1130185
175	0xbd8021e9	-0.06256468
176	0x3d0ff50f	0.035145815
177	0xbcb0fffd	-0.02160644
178	0x3e089eca	0.13341823
179	0xbd5d927a	-0.05409477
180	0x3cf794a0	0.030222237
181	0xbe1671f0	-0.14691901
182	0x3e0b8f6c	0.1362893
183	0x3d6aa1e0	0.057283282
184	0x3d617d9a	0.055051424
185	0xbd1d7e1b	-0.03845034
186	0xbc174daa	-0.009234825
187	0x3e097097	0.13421856
188	0xbd536743	-0.05161215
189	0x3d90df42	0.07073833
190	0xbc4f0758	-0.012636028
191	0xbd258126	-0.04040637
192	0x3e82c418	0.25540233
193	0xbddc038f	-0.10742866
194	0xbd71ce18	-0.059034437
195	0x3d4e6810	0.05039221
196	0x3d9425db	0.07233783
197	0xbbc70cc0	-0.006074518
198	0xbd03a08c	-0.03213553
199	0xbdd7f9c0	-0.10545683
200	0x3c8d4fc2	0.017249946
201	0x3cdceb30	0.026967615
202	0x3dbaadb8	0.091151655
203	0x3bfa097b	0.0076305247
204	0xbe025e65	-0.12731321
205	0x3e0b3868	0.13595736
206	0xbd061983	-0.032739174
207	0xb8b207cf	-8.489156e-05
208	0xbd905387	-0.070471816
209	0xbd869f8d	-0.06573401
210	0xbcdfa137	-0.027298553
211	0x3d6d2ae3	0.057902228
212	0x3e254fb4	0.16143686
213	0xbc8d80ff	-0.017273424
214	0xbe1013cf	-0.14070056
215	0xbe20958c	-0.15682048
216	0x3e07d94b	0.13266484
217	0xbd57b388	-0.05266145
218	0x3d554a58	0.052072853
219	0x3d533c5e	0.051571243
220	0xbd84af54	-0.06478754
221	0xbcc62644	-0.024188168
222	0xbdd5d6dd	-0.104413725
223	0x3d6287e0	0.05530536
224	0xbcd6d262	-0.026223365
225	0xbbaaa446	-0.005207571
226	0x3da10365	0.078619756
227	0x3d503985	0.050836105
228	0xbe032910	-0.12808633
229	0xbcc3c091	-0.023895534
230	0x3df29d5c	0.1184642
231	0x3e841d5a	0.25803643
232	0xbe1414e3	-0.14461093
233	0xbccbd028	-0.02487953
234	0x3de1941d	0.110145785
235	0xbd918561	-0.07105518
236	0x3c9ad3f7	0.0188999
237	0x3dfcf649	0.12351663
238	0x3dfa49e1	0.122211225
239	0xbe41c8c5	-0.18924244
240	0xbde06f0b	-0.1095868
241	0xbd0fafc9	-0.03507975
242	0x3d192b3c	0.037394747
243	0xbda8a110	-0.08233845
244	0xbda9f1bd	-0.08298061
245	0x39579779	0.00020560426
246	0xbdb5c2f1	-0.08875073
247	0x3e0ba0f7	0.13635622
248	0x3d148186	0.036256336
249	0x3d57ef7f	0.052718636
250	0x3dac2ebe	0.08407353
251	0xbcf4375c	-0.029811554
252	0xbd9599df	-0.07304739
253	0x3d782d02	0.060589798
254	0x3e2e75c9	0.17037119
255	0x3dad0c16	0.08449571

action_model._continuous_distribution.log_sigma f4 [1, 51]
0	0x00000000	0.0
1	0x00000000	0.0
2	0x00000000	0.0
3	0x00000000	0.0
4	0x00000000	0.0
5	0x00000000	0.0
6	0x00000000	0.0
7	0x00000000	0.0
8	0x00000000	0.0
9	0x00000000	0.0
10	0x00000000	0.0
11	0x00000000	0.0
12	0x00000000	0.0
13	0x00000000	0.0
14	0x00000000	0.0
15	0x00000000	0.0
16	0x00000000	0.0
17	0x00000000	0.0
18	0x00000000	0.0
19	0x00000000	0.0
20	0x00000000	0.0
21	0x00000000	0.0
22	0x00000000	0.0
23	0x00000000	0.0
24	0x00000000	0.0
25	0x00000000	0.0
26	0x00000000	0.0
27	0x00000000	0.0
28	0x00000000	0.0
29	0x00000000	0.0
30	0x00000000	0.0
31	0x00000000	0.0
32	0x00000000	0.0
33	0x00000000	0.0
34	0x00000000	0.0
35	0x00000000	0.0
36	0x00000000	0.0
37	0x00000000	0.0
38	0x00000000	0.0
39	0x00000000	0.0
40	0x00000000	0.0
41	0x00000000	0.0
42	0x00000000	0.0
43	0x00000000	0.0
44	0x00000000	0.0
45	0x00000000	0.0
46	0x00000000	0.0
47	0x00000000	0.0
48	0x00000000	0.0
49	0x00000000	0.0
50	0x00000000	0.0

action_model._continuous_distribution.mu.weight f4 [51, 128]
0	0xbc8c4a17	-0.017125173
1	0xbca5c913	-0.020237481
2	0x3ce0ca15	0.02744011
3	0x3c65e9a3	0.014032754
4	0x3c82e0c7	0.015976323
5	0xbca02c60	-0.01955241
6	0x3cbbca6f	0.022923676
7	0xbbfdb9b3	-0.0077430843
8	0xbabf9cd5	-0.0014618883
9	0xbca6249a	-0.020281125
10	0x3a9cafab	0.0011954209
11	0xbbf47933	-0.007460737
12	0xbc8bef17	-0.01708178
13	0xbd0d8ab7	-0.034556117
14	0x3c155889	0.009115347
15	0x3d3bc2a6	0.045839928
16	0x3b830735	0.003998662
17	0x3c1721bc	0.0092243515
18	0x3ce9281a	0.028461505
19	0xbca9e321	-0.020738186
20	0xbccfb112	-0.025352988
21	0x3ca0f0ed	0.019646132
22	0x3c4760bb	0.012169058
23	0xbbcf8597	-0.006333064
24	0x3b79444f	0.00380351
25	0x3b665bb5	0.0035149876
26	0xba15fe44	-0.00057217875
27	0x3bad147b	0.0052819825
28	0x3b9fa56b	0.0048720143
29	0x3be60892	0.0070200646
30	0xbccaca84	-0.02475477
31	0xbc9ab4f3	-0.018885111
32	0x3b93070b	0.0044869236
33	0xbbb32b8a	-0.0054678367
34	0xbcc92f17	-0.024558587
35	0x3c1bcb18	0.009508871
36	0xba1b8ff7	-0.0005934233
37	0xbc4cf127	-0.012508667
38	0x3cb47f2b	0.022033295
39	0x3b289e91	0.0025729279
40	0xbd28ffbe	-0.04125952
41	0x3d0aff0b	0.033934634
42	0xbc205834	-0.009786654
43	0xbad3099d	-0.0016100887
44	0x3c280842	0.010255875
45	0xbbfd8a8d	-0.007737464
46	0xbcf421d5	-0.029801289
47	0xbc136a4b	-0.00899751
48	0x3a3c1671	0.0007174975
49	0x3c6d1ee8	0.014472701
50	0x3ca3a5eb	0.019976577
51	0x3cd6b4cb	0.026209256
52	0xbcbcf9c3	-0.023068314
53	0xbb58f5d5	-0.0033105512
54	0x3d10a944	0.035317674
55	0x3bffcc07	0.0078063044
56	0x3b40d0c2	0.0029421304
57	0x3cb38bb2	0.021917198
58	0x3c70da23	0.014700445
59	0xbd054bd1	-0.032543007
60	0x3c89a6b8	0.01680313
61	0x3bd5bac5	0.006522509
62	0x3c90697d	0.017628426
63	0xbc971c2f	-0.018446056
64	0x3cf128a2	0.02943832
65	0xbc817f51	-0.01580778
66	0x3c94d10e	0.018166091
67	0x3baaf107	0.005216721
68	0xbb4a902f	-0.0030908694
69	0x3c0ebde7	0.008712268
70	0xbbe35d48	-0.00693861
71	0xbc58e4dd	-0.013238159
72	0x3c4566a5	0.012048398
73	0xbd5f7e03	-0.054563534
74	0xbb1a911b	-0.0023585025
75	0xbc298f43	-0.010349098
76	0xbb280d9f	-0.0025642884
77	0x3c722b37	0.014780811
78	0xbc9df04b	-0.01927962
79	0xbc4a54f2	-0.012349354
80	0xbc965833	-0.018352604
81	0x3c96d0fb	0.018410197
82	0x3bb8af9b	0.005636168
83	0xbcb40406	-0.021974575
84	0x3c842c67	0.016134454
85	0xbc9bcf57	-0.019019766
86	0xbc5a74ef	-0.013333543
87	0xbc252db5	-0.010081698
88	0xbb841763	-0.004031108
89	0xbc30a8ba	-0.010782415
90	0x3c4689f1	0.012117849
91	0x3a5db515	0.0008457464
92	0x3ba3b758	0.0049962215
93	0x39efbae2	0.0004572487
94	0x3a7486ba	0.0009327937
95	0x3cbc3e7f	0.02297902
96	0x3c9254df	0.017862735
97	0x3cb0903b	0.02155315
98	0x3cd1d22f	0.025612919
99	0x3c015978	0.007894866
100	0xbcc9a62c	-0.02461537
101	0x3ab99993	0.0014160149
102	0x3a7acc05	0.00095671444
103	0x3cac9551	0.021067293
104	0xbc8ea39c	-0.017412
105	0xbc674530	-0.014115617
106	0xbc8276cb	-0.015925786
107	0x3b9d91a8	0.0048086233
108	0xbb7402f8	-0.0037233215
109	0xbc1476e7	-0.009061552
110	0xbca82d56	-0.02052943
111	0xbcf50797	-0.029910846
112	0x3b7d843d	0.0038683556
113	0x3c3bf465	0.011471842
114	0xbc95324c	-0.01821246
115	0x3b221111	0.002472941
116	0xbbae23df	-0.0053143348
117	0xbcd47a65	-0.025937269
118	0x3bcd0a68	0.006257344
119	0xbca09f07	-0.01960708
120	0x3ca573cd	0.02019682
121	0xbc7280af	-0.014801188
122	0x3a126a64	0.00055853114
123	0x3b0ba0f3	0.002130565
124	0xbc3d00fd	-0.01153588
125	0x3c4925d5	0.012277086
126	0x3b96d048	0.004602466
127	0x3d234dc5	0.03986909
128	0x3bd7d358	0.0065864734
129	0xbc7cb4a8	-0.015423931
130	0xbc05342c	-0.0081301145
131	0x3d1067b1	0.035255138
132	0xbc89cfb4	-0.016822673
133	0xbc1ffbbd	-0.009764609
134	0xbbb7b09b	-0.00560577
135	0xbc8625e3	-0.016375488
136	0x3c9a188b	0.018810531
137	0xbb1fee87	-0.0024403648
138	0xbd093a2f	-0.033502754
139	0xbcf28bff	-0.029607771
140	0xbbc98eed	-0.0061510713
141	0x3ce259f3	0.027630782
142	0x3c635592	0.013875382
143	0x3c2225c7	0.009896702
144	0xbc691e33	-0.014228391
145	0xbcb32ea3	-0.021872824
146	0x3d604a4d	0.05475836
147	0xbb7d223f	-0.0038625149
148	0xba917a29	-0.0011099029
149	0xbc03574b	-0.008016418
150	0x3c6f5237	0.014607004
151	0x3caa82f5	0.020814398
152	0x3bdead33	0.0067955493
153	0x3c8f2b1f	0.017476616
154	0xbb07c00a	-0.002071383
155	0xbb63aff7	-0.0034742334
156	0xbc6f3aa5	-0.014601384
157	0xbc85e0c3	-0.016342526
158	0x3b08416b	0.0020790945
159	0x3b9a6a65	0.0047123902
160	0xbcba684e	-0.022754814
161	0xbc4e6a82	-0.012598636
162	0xbb4a16ca	-0.0030836337
163	0xbc725760	-0.01479134
164	0xbb8311f9	-0.0039999452
165	0xbc90f766	-0.017696094
166	0xbb4678ef	-0.0030284484
167	0x3c82f328	0.015985087
168	0xbd039cf0	-0.03213209
169	0x3c8799d4	0.016552843
170	0x3ccc1ca7	0.024916006
171	0xbb170517	-0.0023043805
172	0x3c72dff2	0.014823901
173	0x3cd76838	0.026294813
174	0x3b9e3e08	0.004829172
175	0xbc9c5b9e	-0.019086655
176	0xbd2c5e38	-0.04208204
177	0x3d4b6f57	0.04966673
178	0x3c61d000	0.013782501
179	0x3c349e27	0.011024035
180	0xbd025328	-0.031817585
181	0x3c0bd8b2	0.008535551
182	0x3c444a56	0.011980614
183	0x3b207fee	0.0024490315
184	0xbbfde418	-0.007748138
185	0xbc468d10	-0.012118593
186	0x3b88dd37	0.0041767615
187	0x3aa728ff	0.0012753307
188	0x3c0d30a5	0.008617555
189	0x3c145467	0.009053326
190	0x3d153b38	0.03643343
191	0xbc85310b	-0.016258737
192	0x3b9150db	0.0044346876
193	0xbb853da4	-0.004066186
194	0x39de1df2	0.0004236545
195	0x3c2e5bc1	0.010641993
196	0x3bfbf177	0.007688697
197	0x3cd0fa83	0.025510078
198	0xbc2c87cc	-0.010530423
199	0xba2498c9	-0.000627887
200	0xbd0ca2a7	-0.034334805
201	0xbcce35e7	-0.025172187
202	0xbc174733	-0.009233284
203	0x3c790b95	0.015200515
204	0x3c9631a8	0.018334225
205	0xbc3584c9	-0.011079022
206	0x3d20843e	0.039188616
207	0x3c617142	0.013759913
208	0xbc15df69	-0.009147503
209	0xbc6ab7d5	-0.0143260555
210	0x3c85b5c7	0.01632203
211	0x3cab7d8d	0.02093389
212	0x3d01084b	0.03150205
213	0x3cb87a3a	0.02251922
214	0x3cf390ea	0.029732186
215	0x3cbfa92f	0.023396103
216	0xbc5221c0	-0.012825429
217	0x3be22648	0.006901536
218	0x3c8b1bf9	0.016981112
219	0xbcdf6af7	-0.027272684
220	0xbcb52075	-0.022110203
221	0x3ac658a3	0.0015132617
222	0x3cf9a84b	0.030475756
223	0x38f4c2ab	0.000116710864
224	0xbb61a8d7	-0.0034432912
225	0xbc01aac3	-0.007914248
226	0x3cd84532	0.026400182
227	0xbc74b53f	-0.014935791
228	0x3a2509f2	0.00062957325
229	0x3c8e837f	0.017396687
230	0xbb562f77	-0.00326821
231	0x3c25ea89	0.010126718
232	0x3b59820f	0.0033189093
233	0xbbaeda86	-0.0053361086
234	0xbc840eab	-0.016120275
235	0xbc5e8c75	-0.013583292
236	0x3ca9a191	0.020706924
237	0xbbec0a23	-0.007203357
238	0x3c658a4a	0.014010021
239	0x3ce70fdb	0.028205803
240	0x3ca32588	0.019915357
241	0xbcc63c00	-0.024198532
242	0xbc267f88	-0.010162242
243	0xbbe893ef	-0.007097713
244	0xbb9ee5e3	-0.004849182
245	0x3c9486a6	0.018130612
246	0xbb80dc01	-0.0039324765
247	0xbd145007	-0.036209133
248	0x3c30e1ea	0.01079605
249	0x3c8cd903	0.017193323
250	0x3cddbc6f	0.027067391
251	0x3cbac301	0.022798063
252	0xbc223b2b	-0.009901802
253	0xbcdc6f4d	-0.026908541
254	0xbb3eb562	-0.0029099812
255	0x3cb9e5ee	0.022692647

action_model._continuous_distribution.mu.bias f4 [51]
0	0x00000000	0.0
1	0x00000000	0.0
2	0x00000000	0.0
3	0x00000000	0.0
4	0x00000000	0.0
5	0x00000000	0.0
6	0x00000000	0.0
7	0x00000000	0.0
8	0x00000000	0.0
9	0x00000000	0.0
10	0x00000000	0.0
11	0x00000000	0.0
12	0x00000000	0.0
13	0x00000000	0.0
14	0x00000000	0.0
15	0x00000000	0.0
16	0x00000000	0.0
17	0x00000000	0.0
18	0x00000000	0.0
19	0x00000000	0.0
20	0x00000000	0.0
21	0x00000000	0.0
22	0x00000000	0.0
23	0x00000000	0.0
24	0x00000000	0.0
25	0x00000000	0.0
26	0x00000000	0.0
27	0x00000000	0.0
28	0x00000000	0.0
29	0x00000000	0.0
30	0x00000000	0.0
31	0x00000000	0.0
32	0x00000000	0.0
33	0x00000000	0.0
34	0x00000000	0.0
35	0x00000000	0.0
36	0x00000000	0.0
37	0x00000000	0.0
38	0x00000000	0.0
39	0x00000000	0.0
40	0x00000000	0.0
41	0x00000000	0.0
42	0x00000000	0.0
43	0x00000000	0.0
44	0x00000000	0.0
45	0x00000000	0.0
46	0x00000000	0.0
47	0x00000000	0.0
48	0x00000000	0.0
49	0x00000000	0.0
50	0x00000000	0.0

action_model._discrete_distribution.branches.0.weight f4 [1, 128]
0	0x3bf8f7f0	0.007597916
1	0xbc3c83d3	-0.011506039
2	0xbbce3423	-0.0062928363
3	0xbc0a9feb	-0.008460979
4	0xbb82eec8	-0.00399575
5	0xbb19d51c	-0.002347297
6	0x3c13c57c	0.009019252
7	0xbb8e68de	-0.0043459972
8	0x3c10a545	0.008828466
9	0x3acd1fb7	0.001564971
10	0xbb609f00	-0.003427446
11	0xbbfc2868	-0.0076952465
12	0x39a227c7	0.00030928684
13	0x3b882907	0.0041552815
14	0x3b3a9502	0.0028470163
15	0xbab34c50	-0.0013679359
16	0xbcf6f168	-0.030144408
17	0xbb2121b8	-0.0024586748
18	0xbaf3969d	-0.0018584315
19	0xbbc12f46	-0.005895528
20	0xbc755f5d	-0.01497635
21	0x3b7aef57	0.003828963
22	0xbd02c9db	-0.031930786
23	0x3ca5f73b	0.02025949
24	0x3c043e60	0.008071512
25	0x3b2cad77	0.002634851
26	0x3bbfd869	0.0058546555
27	0xbbdfa5e8	-0.0068251975
28	0x3bb566bf	0.00553593
29	0x3a179587	0.0005782474
30	0x3b6d2305	0.0036184203
31	0x3c5896b0	0.01321952
32	0xbb91437b	-0.004433093
33	0xbbde4230	-0.0067827925
34	0x3c74cbd0	0.014941171
35	0xbbcaa84d	-0.006184614
36	0x3a953663	0.0011384006
37	0xbc0d14a4	-0.008610878
38	0xba74d8e7	-0.00093401823
39	0x3b9c9c69	0.0047793877
40	0x393e7004	0.00018161541
41	0xbb5fa253	-0.0034123852
42	0xbbee91ff	-0.0072805877
43	0xbb54b3b5	-0.0032455747
44	0xbb9101b3	-0.0044252514
45	0x3c008f13	0.007846612
46	0x3bb8ca0e	0.005639321
47	0x3c162f12	0.009166496
48	0xbbe09b9f	-0.006854489
49	0x3bf9cb1a	0.0076230885
50	0x3bfeee9f	0.0077799107
51	0x3b10affa	0.0022077546
52	0x3b4f7e0f	0.003166083
53	0x3bfb2627	0.00766446
54	0xbb2301b2	-0.0024872837
55	0x3ac49446	0.0014997802
56	0x3b8eea56	0.004361431
57	0xbb8a1026	-0.004213351
58	0x3b6d34fb	0.003619491
59	0xbb188e1a	-0.0023278059
60	0x3ba80a3b	0.0051281727
61	0x3be8269d	0.007084681
62	0xbc0c83ad	-0.008576316
63	0xbbf4f908	-0.007475976
64	0xbc7128b3	-0.014719176
65	0xbc893071	-0.016746731
66	0x390b06bf	0.00013258586
67	0xbbfe7e72	-0.0077665383
68	0x3c146e2d	0.009059471
69	0xba80b4cb	-0.0009819506
70	0xba775347	-0.00094347115
71	0x3b0f50dd	0.0021868267
72	0x3c9e98d9	0.019359993
73	0xbc09cc4b	-0.008410524
74	0xbc7eaaf8	-0.015543692
75	0x3a44cda7	0.0007507451
76	0xbc2c2652	-0.010507183
77	0xbb34f4a1	-0.002761163
78	0x3c00f809	0.007871636
79	0x3ba8e73b	0.005154518
80	0x3b8f41b1	0.0043718447
81	0x39ad045f	0.00033000388
82	0xbc4224e3	-0.011849615
83	0x3b06e48f	0.002058301
84	0xbbd72e22	-0.0065667788
85	0x3c00b614	0.007855911
86	0x3c166366	0.009178972
87	0xbb0ec337	-0.0021783838
88	0xbb36bbdc	-0.002788297
89	0xbbde38fd	-0.006781696
90	0x3b6177d7	0.0034403706
91	0xbc1deab9	-0.009638482
92	0xbc47b085	-0.012188082
93	0xbc163c47	-0.009169645
94	0x3bfed3f2	0.0077767307
95	0xbc0f3010	-0.008739486
96	0x3c8bd68b	0.017070075
97	0x3b122717	0.0022301131
98	0x3caa745b	0.020807436
99	0xb8fe4498	-0.000121244404
100	0x3babf184	0.0052472968
101	0xbc2850ae	-0.010273142
102	0xbbe9aa0a	-0.007130866
103	0x3bee3ca7	0.007270414
104	0x3c1d70e7	0.009609438
105	0xbc35b14b	-0.011089633
106	0xbb2a138b	-0.002595159
107	0x3afcb6e3	0.0019280579
108	0xb9ef68da	-0.00045663753
109	0x3be8b4e2	0.007101641
110	0xbb03a47f	-0.002008706
111	0xbac0ac8f	-0.0014699864
112	0x3b1c8bcb	0.0023887034
113	0x3c03c93f	0.008043586
114	0x3bbbe093	0.0057335584
115	0xbc366c0d	-0.01113416
116	0x3ba4a034	0.0050239805
117	0xbb842f77	-0.0040339786
118	0x3ba147c7	0.0049218866
119	0x3a037cd5	0.0005015855
120	0x3c50620a	0.012718687
121	0x3cad1585	0.021128425
122	0xbc1f1e7c	-0.009711858
123	0xbc871c57	-0.016493006
124	0x3b9f3fd6	0.0048599048
125	0x3b9c92a3	0.0047782226
126	0xbbc8ad3f	-0.006124168
127	0xbbda64e0	-0.0066648573

onnx::LSTM_116 f4 [1, 512, 128]
0	0x3e1ba8df	0.15201138
1	0x3d70d268	0.05879441
2	0x3e11e55b	0.14247648
3	0xbdc64f75	-0.09683124
4	0xbc8f39d8	-0.017483637
5	0x3de34062	0.110962644
6	0x3dda373e	0.10655068
7	0x3e016f9f	0.12640236
8	0xbdad4a23	-0.08461406
9	0x3d1f7f18	0.038939565
10	0x3b17c080	0.002315551
11	0xbd8dce3c	-0.06924102
12	0xbde11de5	-0.1099203
13	0x3e188acb	0.14896695
14	0xbca8f658	-0.020625278
15	0xbc855a30	-0.016278356
16	0x3d8dd814	0.06925979
17	0xbc2b3690	-0.01045002
18	0xbe120be3	-0.14262347
19	0x3e009cd9	0.12559833
20	0x3c9e1298	0.019295976
21	0xbc910690	-0.017703325
22	0x3dec9f12	0.11553778
23	0x3e151dd9	0.14562167
24	0xbe0e0c20	-0.13871813
25	0x3d9fbd82	0.077998176
26	0x3d6f65b0	0.058446586
27	0xbd78691a	-0.060647108
28	0xbe0a61be	-0.13513848
29	0x3dd7367e	0.105084404
30	0xbd83111a	-0.06399746
31	0x3de00316	0.109380886
32	0x3db6fc68	0.089348614
33	0x3cb79458	0.022409603
34	0x3da1020e	0.0786172
35	0xbd4008f0	-0.046883523
36	0x3c51b610	0.012799755
37	0x3e0923cd	0.13392563
38	0xbbdcc2a0	-0.0067370683
39	0xbd78e60c	-0.060766265
40	0xbdaf9615	-0.08573548
41	0x3dca1e7e	0.09869097
42	0x3d8db54e	0.06919347
43	0xbdba3154	-0.0909144
44	0xbd874998	-0.06605834
45	0xbcb66e68	-0.022269443
46	0xbd3703ee	-0.044681482
47	0xbd95bf59	-0.07311887
48	0xbdb9878f	-0.09059059
49	0x3d456d84	0.048200145
50	0x3d5b6f70	0.053573072
51	0xbb6ae200	-0.0035840273
52	0x3ccef2d8	0.025262281
53	0x3df7b362	0.120947614
54	0x3d0f1328	0.03493038
55	0xbd0bfafc	-0.034174904
56	0xbb9c83a0	-0.004776433
57	0x3d9e15aa	0.07718976
58	0x3d962b6a	0.07332499
59	0xbdaebfec	-0.085327
60	0x3e09821b	0.13428538
61	0x3d025800	0.031822205
62	0x3df52132	0.11969222
63	0xbd024f50	-0.03181392
64	0xbdb4a3bd	-0.08820293
65	0x3dc12c18	0.09432238
66	0x3d04a0dc	0.03237997
67	0x3e09a13d	0.13440414
68	0x3def3d62	0.1168163
69	0x3be5df80	0.0070151687
70	0xbda1f6be	-0.079083905
71	0x3e16217d	0.14661212
72	0x3d329cd0	0.04360658
73	0xbd8ccdf5	-0.06875221
74	0xbcbc8998	-0.023014829
75	0xbdf1fe38	-0.118160665
76	0xbe18a2f2	-0.14905909
77	0x3ddbc56a	0.10731013
78	0xbe1bc437	-0.15211569
79	0x3d3cfb74	0.046138242
80	0x3def0fbe	0.116729245
81	0x3dbb1bd2	0.09136166
82	0xbe0e0986	-0.1387082
83	0xbdf6e086	-0.12054543
84	0xbda6c4c5	-0.081429996
85	0xbe07f36f	-0.13276456
86	0x3e146fb5	0.14495738
87	0x3ced95c8	0.029002085
88	0xbe16da24	-0.14731652
89	0x3e062b27	0.13102399
90	0xbd2c4342	-0.04205633
91	0xbdb019a8	-0.085986435
92	0x3d9e97fa	0.07743831
93	0x3d3db360	0.046313643
94	0xbd9b3b2d	-0.07579646
95	0x3d33352c	0.04375188
96	0xbd294128	-0.041321903
97	0x3dee231a	0.11627789
98	0x3bca3960	0.0061713904
99	0x3dd93a8a	0.106068686
100	0x3e0df1dd	0.13861795
101	0xbd9cb465	-0.07651595
102	0xbe063c7c	-0.1310901
103	0xbddcf910	-0.107896924
104	0x3dbe3220	0.09286904
105	0x3d5db8b0	0.05413121
106	0x3dce5906	0.100755736
107	0x3c807bc0	0.015684009
108	0x3d1f8908	0.038949043
109	0xbc8bd148	-0.017067567
110	0xbc415cb0	-0.011801884
111	0x3df9b272	0.12192239
112	0xbd27d8da	-0.04097829
113	0x3c707790	0.014676943
114	0x3b061600	0.002045989
115	0xbddd736f	-0.10813033
116	0xbdedfb79	-0.1162023
117	0x3e0554e1	0.1302066
118	0x3d509e28	0.05093208
119	0xbdb31c38	-0.08745617
120	0x3e158a53	0.14603548
121	0xbe134cf0	-0.14384818
122	0x3d1deda4	0.03855671
123	0x3d806154	0.06268564
124	0xbe0d52f2	-0.13801172
125	0x3daf0c3e	0.08547257
126	0xbcf970c8	-0.030449286
127	0xb9b8b400	-0.00035229325
128	0x3e096ec1	0.13421156
129	0x3d94f7ca	0.072738245
130	0x3d83a224	0.0642741
131	0xbd50c7f6	-0.050971948
132	0x3d9b2978	0.07576269
133	0xbb5453c0	-0.0032398552
134	0x3dd0e8b6	0.10200636
135	0xbd2dfc0c	-0.0424767
136	0x3bfc9780	0.00770849
137	0x3d83ac26	0.06429319
138	0x3d9175aa	0.07102521
139	0x3d7421e8	0.059602648
140	0xbd9fc5ad	-0.078013755
141	0x3b3e6dc0	0.0029057115
142	0x3e04dcf5	0.12974913
143	0x3dda78fe	0.10667609
144	0xbdfa9c3a	-0.12236829
145	0xbdacce30	-0.08437765
146	0xbe04a876	-0.12954888
147	0x3e0d2df9	0.13787068
148	0xbdcedc16	-0.10100572
149	0x3e0ab111	0.13544108
150	0xbc85a2d8	-0.016313002
151	0xbe0cda5b	-0.13755171
152	0x3d420d48	0.047375947
153	0x3d6826a0	0.05667746
154	0x3da620a2	0.08111693
155	0xbe01b6b8	-0.12667358
156	0x3d2134e4	0.03935708
157	0xbd15f01e	-0.036605947
158	0x3d496b14	0.049174383
159	0xbd2b0b0a	-0.041758575
160	0x3e0311c5	0.12799747
161	0x3d972de2	0.07381798
162	0xbe0afa7c	-0.13572115
163	0x3be4ce60	0.0069826096
164	0xbd218ac2	-0.03943897
165	0xbdb79db1	-0.08965624
166	0x3e0f3fa5	0.13989122
167	0x3d84b25a	0.0647933
168	0xbd680b6c	-0.056651518
169	0xbd3758fe	-0.044762604
170	0x3bec86e0	0.007218227
171	0xbdcb2f4a	-0.09921129
172	0xbd1f5748	-0.038901597
173	0xbd94f651	-0.072735436
174	0xbb9c4da0	-0.004769996
175	0xbdb55648	-0.088543475
176	0x3d9c255a	0.07624312
177	0x3dd84c76	0.10561459
178	0xbe1295ac	-0.14314908
179	0xbd59aeb8	-0.05314514
180	0x3de683b2	0.11255588
181	0xbdc53e6c	-0.09631047
182	0x3dabd63a	0.0839047
183	0x3ded8932	0.115984336
184	0xbba797e0	-0.0051145405
185	0xbd49ec14	-0.049297407
186	0x3d2963a4	0.04135479
187	0x3dc93806	0.09825139
188	0x3dd1123e	0.102085575
189	0xbb93b780	-0.004507959
190	0xbdf5d5dc	-0.12003681
191	0x3d5599d0	0.05214864
192	0x3e1c4713	0.15261488
193	0xbda6b4b9	-0.08139939
194	0xbd425f44	-0.047454134
195	0xbe08dfdf	-0.1336665
196	0xbbf3f7e0	-0.0074453205
197	0xbda07e6c	-0.07836613
198	0xbd16a75e	-0.036780708
199	0xbdaf1b28	-0.085501015
200	0x3e0ebac7	0.13938437
201	0xbdfffdc6	-0.12499575
202	0xbdb3beb8	-0.08776611
203	0x3e1b79db	0.15183203
204	0xbd2215be	-0.039571516
205	0xbe0e648a	-0.1390554
206	0xbd148eae	-0.036268882
207	0xbdae0da5	-0.08498696
208	0xbd98d618	-0.0746271
209	0x3dec4bf2	0.11537923
210	0xbe165e1c	-0.14684337
211	0xbbbe0da0	-0.005799964
212	0x3d9852ea	0.074376896
213	0xbe17e578	-0.14833629
214	0xbe153999	-0.14572753
215	0x3b3fc900	0.0029264092
216	0x3d1da88c	0.038490817
217	0x3ce38638	0.027773961
218	0xbdc7bc05	-0.09752659
219	0x3e17c0fb	0.1481971
220	0xbc5684a0	-0.013093144
221	0xbd7b3cde	-0.061337344
222	0xbdc8ec5e	-0.098107085
223	0xbcb53e28	-0.022124365
224	0xbd88cc45	-0.06679586
225	0x3dadaae6	0.08479862
226	0x3d98d1c8	0.074618876
227	0x3d3b00e4	0.045655146
228	0xbe033820	-0.12814379
229	0x3e1308e7	0.14358865
230	0xbd86df2d	-0.06585536
231	0x3bc58fe0	0.006029114
232	0x3cb497c8	0.022045031
233	0x3d36b3a0	0.044604897
234	0xbe11aa2c	-0.14225072
235	0xbce49e60	-0.02790755
236	0x3def3bfa	0.116813615
237	0xbd3bcd0a	-0.045849837
238	0x3d99a232	0.075016394
239	0xbdced051	-0.10098327
240	0x3d19c364	0.037539855
241	0xbdc44ad6	-0.09584586
242	0x3cfa0b48	0.030522957
243	0xbd752914	-0.05985363
244	0x3dad12f2	0.08450879
245	0x3d988bee	0.074485645
246	0x3df4647a	0.11933227
247	0xbcac3b98	-0.02102451
248	0xbb6c3b40	-0.0036046058
249	0x3b4bf4c0	0.0031121224
250	0xbdb23505	-0.08701519
251	0x3e0412f1	0.1289785
252	0x3b821440	0.003969699
253	0xbdc2f22a	-0.095188454
254	0xbe04a171	-0.1295221
255	0xbcb80e48	-0.022467747

onnx::LSTM_117 f4 [1, 512, 128]
0	0x3da34788	0.07972628
1	0x3d1ce2f8	0.03830239
2	0xbcad8c98	-0.021185204
3	0x3da70582	0.081553474
4	0x3d2f687c	0.042824253
5	0xbc531880	-0.012884259
6	0x3e1af87b	0.1513385
7	0x3e1a62db	0.15076773
8	0x3d57498c	0.052560374
9	0xbdf7b8c4	-0.12095788
10	0xbdd8e61c	-0.10590765
11	0xbde66be6	-0.11251049
12	0xbdd26b5d	-0.10274384
13	0xbd44a904	-0.04801275
14	0xbdae4b6e	-0.08510481
15	0x3c882450	0.016618878
16	0x3d833f62	0.06408574
17	0x3cb6b480	0.022302866
18	0x3d808a50	0.06276381
19	0xbe17cf1d	-0.14825101
20	0xbe0de7a9	-0.13857903
21	0xb9a92200	-0.00032259524
22	0x3c1d6aa0	0.009607941
23	0x3dd6810e	0.10473834
24	0xbbd96c60	-0.0066352338
25	0xbafdea80	-0.0019372255
26	0xbd81d6c8	-0.063397944
27	0xbe0087dd	-0.12551828
28	0x3c8497a8	0.016185597
29	0xbe06f908	-0.13180935
30	0xbd95e7c4	-0.073195964
31	0x3e11e6b5	0.14248164
32	0x3ce02d88	0.027365461
33	0xbdeccbc8	-0.11562306
34	0x3e157c65	0.14598234
35	0x3e1198d5	0.14218457
36	0xbd8f0ddd	-0.06985066
37	0xbb9aa6a0	-0.0047195703
38	0x3dc8554e	0.097818956
39	0x3dc6a452	0.0969931
40	0x3deb85fa	0.115001634
41	0xbe1babbb	-0.15202229
42	0xbcfb51b0	-0.0306786
43	0x3dd22702	0.102613464
44	0xbd67f5bc	-0.056630835
45	0xbdacd714	-0.084394604
46	0x3db9c0c0	0.09069967
47	0x3dd5a566	0.10431938
48	0xbd7719ce	-0.060327344
49	0x3e015f69	0.12634052
50	0xbceb0780	-0.0286901
51	0xbd3fab5c	-0.04679428
52	0x3b979560	0.004625961
53	0xbde1ad0c	-0.11019334
54	0x3d49163c	0.04909347
55	0x3da4904e	0.080353364
56	0x3db73f14	0.08947578
57	0x3d69b378	0.05705592
58	0x3c882c40	0.016622663
59	0xbd84a23c	-0.06476256
60	0xbd1b79b0	-0.037957847
61	0x3d81495c	0.0631282
62	0x3ca09b60	0.019605339
63	0x3e1a229b	0.15052263
64	0xbd79c4a4	-0.060978547
65	0xbd50133c	-0.050799593
66	0x3d982fd6	0.07430999
67	0xbdef1fb2	-0.11675967
68	0x3cea0698	0.028567597
69	0xbc383650	-0.011243418
70	0xbd824d62	-0.06362416
71	0x3cc81cf0	0.024427861
72	0xbd9a70da	-0.07541056
73	0xbd0902f8	-0.033450097
74	0xbddc8d4c	-0.10769138
75	0x3c59edb0	0.013301298
76	0x3dcade6a	0.09905703
77	0xbdf85e00	-0.12127304
78	0x3de90e76	0.11379711
79	0x3d8e6154	0.069521576
80	0xbc9cf528	-0.019159868
81	0x3c9e6598	0.019335553
82	0x3df0a442	0.1175008
83	0x3d93e6fe	0.07221793
84	0x3da62ea8	0.08114368
85	0xbc686ad0	-0.014185622
86	0xbdc01275	-0.093785204
87	0x3cdc7a48	0.026913777
88	0x3e0903b1	0.13380314
89	0x3d0fe388	0.0351291
90	0x3c6cb350	0.014447048
91	0x3cfcb838	0.030849561
92	0xbe17487a	-0.14773741
93	0x3e153c57	0.14573799
94	0x3d9fc768	0.078017056
95	0x3daf7e72	0.085690394
96	0x3db590c4	0.088655025
97	0x3d7f3648	0.062307626
98	0xbdf55a16	-0.11980073
99	0xbddb7e7a	-0.10717483
100	0xbc6f7790	-0.014615908
101	0xbddd25cc	-0.10798225
102	0x3dfc8a3e	0.12331055
103	0xbdb55d1f	-0.08855652
104	0xbe0279aa	-0.12741724
105	0x3d8d5cde	0.06902479
106	0xbdecb367	-0.11557656
107	0x3e157f0b	0.14599244
108	0xbd6312aa	-0.05543772
109	0x3d117144	0.03550841
110	0xbdb3e6e3	-0.087842725
111	0x3daf66ba	0.085645154
112	0xbe0410d7	-0.12897049
113	0x3e15a923	0.14615302
114	0x3a4c5600	0.00077947974
115	0xbc492cd0	-0.012278751
116	0x3cb2e948	0.021839753
117	0x3c071620	0.008245021
118	0xbc84e640	-0.016223073
119	0xbe197154	-0.14984637
120	0x3c4381f0	0.011932835
121	0xbc32dc50	-0.010916784
122	0xbd9fc260	-0.07800746
123	0x3c353330	0.011059567
124	0x3cfdff78	0.031005606
125	0xbca8c9e0	-0.020604074
126	0xbe0e967e	-0.13924596
127	0x3dd3c112	0.103395596
128	0xbde0fbda	-0.10985537
129	0x3c24c560	0.0100568235
130	0x3db82058	0.08990544
131	0xbc573100	-0.013134241
132	0x3d23c3b4	0.03998156
133	0xbd1d4f60	-0.038405776
134	0xbe0f2962	-0.1398063
135	0x3d81e888	0.0634318
136	0xbd136a82	-0.035990246
137	0x3dcf08a2	0.101090685
138	0xbe017b59	-0.1264471
139	0x3bc7d320	0.006098166
140	0x3d23f2e0	0.040026546
141	0x3d64e228	0.055879742
142	0x3d95177e	0.072798714
143	0xbbc2c2c0	-0.005943626
144	0xbd897da1	-0.06713415
145	0xbd03bd88	-0.032163173
146	0xbdde6c44	-0.10860494
147	0x3d119ad0	0.03554803
148	0x3d9b6c74	0.07589045
149	0xbdd3ab96	-0.10335462
150	0xbd8ca5f1	-0.06867588
151	0x3d53e5b8	0.05173275
152	0xbd569e7a	-0.05239723
153	0x3a5a0100	0.0008316189
154	0xbe16ac44	-0.14714152
155	0x3d65d8dc	0.056115016
156	0x3d60564c	0.0547698
157	0x3e052edd	0.13006158
158	0x3e1bf879	0.15231504
159	0xbc833100	-0.016014576
160	0x3d94a63c	0.07258269
161	0x3d9439f2	0.07237615
162	0xbded9386	-0.116004035
163	0x3d3dc828	0.046333462
164	0x3dcdb0be	0.100434765
165	0x3d016cdc	0.031597957
166	0x3d14373c	0.036185488
167	0xbdb4a931	-0.08821333
168	0x3e12e71b	0.14345972
169	0xbde77efa	-0.11303516
170	0x3d43a348	0.04776314
171	0x3bb16a00	0.0054142475
172	0x3dbb344a	0.09140833
173	0x3d93a752	0.07209648
174	0x3e0df10b	0.13861482
175	0x3df880ca	0.121339396
176	0x3df20efa	0.11819263
177	0xbd10117e	-0.03517293
178	0xbe0fb78b	-0.1403486
179	0xbba90640	-0.0051582158
180	0xbd6da35c	-0.05801712
181	0xbe0dae11	-0.13835932
182	0x3dc72232	0.09723319
183	0xbd8b1c5c	-0.067925185
184	0xbdeed124	-0.11660984
185	0xbbcbd640	-0.006220609
186	0x3d63d99c	0.05562745
187	0x3e1a8ad1	0.15092017
188	0x3d903096	0.07040517
189	0xbde6561a	-0.11246891
190	0xbde5c60c	-0.11219415
191	0xbd94a62c	-0.07258257
192	0x3c8ec220	0.01742655
193	0xbdf82242	-0.12115909
194	0x3da7c152	0.0819117
195	0x3d00a748	0.03140953
196	0x3d988906	0.0744801
197	0x3c84d3d8	0.016214296
198	0xbbacf300	-0.0052779913
199	0xbc181f70	-0.009284839
200	0xbe0609df	-0.13089703
201	0xbcae0848	-0.021244183
202	0xbdec0e83	-0.115262054
203	0x3dfd426e	0.12366186
204	0xbe0712f8	-0.1319083
205	0x3df82bb2	0.12117709
206	0x3cbe5e28	0.023238257
207	0xbde80aec	-0.11330208
208	0x3de3c326	0.11121206
209	0xbd114794	-0.035468653
210	0xbdc1a6c6	-0.09455638
211	0xbdc6f992	-0.097155705
212	0xbc938320	-0.018006861
213	0xbd4ed4ac	-0.05049579
214	0x3db83298	0.08994025
215	0xbdb448af	-0.08802926
216	0x3de4b606	0.11167531
217	0x3e0f1211	0.13971736
218	0xbd65b5ea	-0.05608169
219	0x3cfad3b8	0.030618533
220	0x3e0a738d	0.13520642
221	0x3dcd52fa	0.10025592
222	0xbe0c0b5d	-0.1367621
223	0xbdbe6c66	-0.09298019
224	0xbd7ccade	-0.061716907
225	0x3c94cbc0	0.018163562
226	0x3b0a6880	0.0021119416
227	0xbd824536	-0.06360857
228	0xbcbe7570	-0.023249358
229	0xbe128adb	-0.14310782
230	0xbdcc8a24	-0.09987286
231	0xbcbd6448	-0.023119107
232	0x3da1f1f0	0.07907474
233	0xbd85a719	-0.06526012
234	0xbb4df340	-0.0031425506
235	0xbc99dec8	-0.018782988
236	0xbdc561d2	-0.09637798
237	0xbd7b2ec4	-0.061323896
238	0xbdd3402e	-0.10314976
239	0x3c6e2b50	0.014536694
240	0xbddef7c1	-0.10887099
241	0xbe059b34	-0.13047487
242	0x3d90f37a	0.070776895
243	0x3c5b0e10	0.013370052
244	0x3c3e8320	0.011627942
245	0xbd90a332	-0.07062377
246	0xbdcac910	-0.09901631
247	0x3b274780	0.0025524795
248	0x3db99a06	0.09062581
249	0x3d7a473c	0.06110309
250	0xbdc5c4c8	-0.09656674
251	0x3e0ec4d7	0.13942276
252	0xbda7c483	-0.081917785
253	0xbdfb3b98	-0.12267226
254	0xbe1389c0	-0.14408016
255	0xbd5ceeae	-0.05393856

onnx::LSTM_118 f4 [1, 1024]
0	0x00000000	0.0
1	0x00000000	0.0
2	0x00000000	0.0
3	0x00000000	0.0
4	0x00000000	0.0
5	0x00000000	0.0
6	0x00000000	0.0
7	0x00000000	0.0
8	0x00000000	0.0
9	0x00000000	0.0
10	0x00000000	0.0
11	0x00000000	0.0
12	0x00000000	0.0
13	0x00000000	0.0
14	0x00000000	0.0
15	0x00000000	0.0
16	0x00000000	0.0
17	0x00000000	0.0
18	0x00000000	0.0
19	0x00000000	0.0
20	0x00000000	0.0
21	0x00000000	0.0
22	0x00000000	0.0
23	0x00000000	0.0
24	0x00000000	0.0
25	0x00000000	0.0
26	0x00000000	0.0
27	0x00000000	0.0
28	0x00000000	0.0
29	0x00000000	0.0
30	0x00000000	0.0
31	0x00000000	0.0
32	0x00000000	0.0
33	0x00000000	0.0
34	0x00000000	0.0
35	0x00000000	0.0
36	0x00000000	0.0
37	0x00000000	0.0
38	0x00000000	0.0
39	0x00000000	0.0
40	0x00000000	0.0
41	0x00000000	0.0
42	0x00000000	0.0
43	0x00000000	0.0
44	0x00000000	0.0
45	0x00000000	0.0
46	0x00000000	0.0
47	0x00000000	0.0
48	0x00000000	0.0
49	0x00000000	0.0
50	0x00000000	0.0
51	0x00000000	0.0
52	0x00000000	0.0
53	0x00000000	0.0
54	0x00000000	0.0
55	0x00000000	0.0
56	0x00000000	0.0
57	0x00000000	0.0
58	0x00000000	0.0
59	0x00000000	0.0
60	0x00000000	0.0
61	0x00000000	0.0
62	0x00000000	0.0
63	0x00000000	0.0
64	0x00000000	0.0
65	0x00000000	0.0
66	0x00000000	0.0
67	0x00000000	0.0
68	0x00000000	0.0
69	0x00000000	0.0
70	0x00000000	0.0
71	0x00000000	0.0
72	0x00000000	0.0
73	0x00000000	0.0
74	0x00000000	0.0
75	0x00000000	0.0
76	0x00000000	0.0
77	0x00000000	0.0
78	0x00000000	0.0
79	0x00000000	0.0
80	0x00000000	0.0
81	0x00000000	0.0
82	0x00000000	0.0
83	0x00000000	0.0
84	0x00000000	0.0
85	0x00000000	0.0
86	0x00000000	0.0
87	0x00000000	0.0
88	0x00000000	0.0
89	0x00000000	0.0
90	0x00000000	0.0
91	0x00000000	0.0
92	0x00000000	0.0
93	0x00000000	0.0
94	0x00000000	0.0
95	0x00000000	0.0
96	0x00000000	0.0
97	0x00000000	0.0
98	0x00000000	0.0
99	0x00000000	0.0
100	0x00000000	0.0
101	0x00000000	0.0
102	0x00000000	0.0
103	0x00000000	0.0
104	0x00000000	0.0
105	0x00000000	0.0
106	0x00000000	0.0
107	0x00000000	0.0
108	0x00000000	0.0
109	0x00000000	0.0
110	0x00000000	0.0
111	0x00000000	0.0
112	0x00000000	0.0
113	0x00000000	0.0
114	0x00000000	0.0
115	0x00000000	0.0
116	0x00000000	0.0
117	0x00000000	0.0
118	0x00000000	0.0
119	0x00000000	0.0
120	0x00000000	0.0
121	0x00000000	0.0
122	0x00000000	0.0
123	0x00000000	0.0
124	0x00000000	0.0
125	0x00000000	0.0
126	0x00000000	0.0
127	0x00000000	0.0
128	0x00000000	0.0
129	0x00000000	0.0
130	0x00000000	0.0
131	0x00000000	0.0
132	0x00000000	0.0
133	0x00000000	0.0
134	0x00000000	0.0
135	0x00000000	0.0
136	0x00000000	0.0
137	0x00000000	0.0
138	0x00000000	0.0
139	0x00000000	0.0
140	0x00000000	0.0
141	0x00000000	0.0
142	0x00000000	0.0
143	0x00000000	0.0
144	0x00000000	0.0
145	0x00000000	0.0
146	0x00000000	0.0
147	0x00000000	0.0
148	0x00000000	0.0
149	0x00000000	0.0
150	0x00000000	0.0
151	0x00000000	0.0
152	0x00000000	0.0
153	0x00000000	0.0
154	0x00000000	0.0
155	0x00000000	0.0
156	0x00000000	0.0
157	0x00000000	0.0
158	0x00000000	0.0
159	0x00000000	0.0
160	0x00000000	0.0
161	0x00000000	0.0
162	0x00000000	0.0
163	0x00000000	0.0
164	0x00000000	0.0
165	0x00000000	0.0
166	0x00000000	0.0
167	0x00000000	0.0
168	0x00000000	0.0
169	0x00000000	0.0
170	0x00000000	0.0
171	0x00000000	0.0
172	0x00000000	0.0
173	0x00000000	0.0
174	0x00000000	0.0
175	0x00000000	0.0
176	0x00000000	0.0
177	0x00000000	0.0
178	0x00000000	0.0
179	0x00000000	0.0
180	0x00000000	0.0
181	0x00000000	0.0
182	0x00000000	0.0
183	0x00000000	0.0
184	0x00000000	0.0
185	0x00000000	0.0
186	0x00000000	0.0
187	0x00000000	0.0
188	0x00000000	0.0
189	0x00000000	0.0
190	0x00000000	0.0
191	0x00000000	0.0
192	0x00000000	0.0
193	0x00000000	0.0
194	0x00000000	0.0
195	0x00000000	0.0
196	0x00000000	0.0
197	0x00000000	0.0
198	0x00000000	0.0
199	0x00000000	0.0
200	0x00000000	0.0
201	0x00000000	0.0
202	0x00000000	0.0
203	0x00000000	0.0
204	0x00000000	0.0
205	0x00000000	0.0
206	0x00000000	0.0
207	0x00000000	0.0
208	0x00000000	0.0
209	0x00000000	0.0
210	0x00000000	0.0
211	0x00000000	0.0
212	0x00000000	0.0
213	0x00000000	0.0
214	0x00000000	0.0
215	0x00000000	0.0
216	0x00000000	0.0
217	0x00000000	0.0
218	0x00000000	0.0
219	0x00000000	0.0
220	0x00000000	0.0
221	0x00000000	0.0
222	0x00000000	0.0
223	0x00000000	0.0
224	0x00000000	0.0
225	0x00000000	0.0
226	0x00000000	0.0
227	0x00000000	0.0
228	0x00000000	0.0
229	0x00000000	0.0
230	0x00000000	0.0
231	0x00000000	0.0
232	0x00000000	0.0
233	0x00000000	0.0
234	0x00000000	0.0
235	0x00000000	0.0
236	0x00000000	0.0
237	0x00000000	0.0
238	0x00000000	0.0
239	0x00000000	0.0
240	0x00000000	0.0
241	0x00000000	0.0
242	0x00000000	0.0
243	0x00000000	0.0
244	0x00000000	0.0
245	0x00000000	0.0
246	0x00000000	0.0
247	0x00000000	0.0
248	0x00000000	0.0
249	0x00000000	0.0
250	0x00000000	0.0
251	0x00000000	0.0
252	0x00000000	0.0
253	0x00000000	0.0
254	0x00000000	0.0
255	0x00000000	0.0
