results/try-16/My Behavior.onnx (onnx, 693209 bytes, 10 tensors)

network_body._body_endoder.seq_layers.0.weight f4 [128, 122]
000000 da 09 97 3d 4d 38 8d 3d 5a ae 72 3d a3 c7 02 3e
       0.07374926 0.06895504 0.059248306 0.12771468
000010 25 7f 35 3c e3 d9 74 bd 5a c3 17 bd 1d d8 8c 3d
       0.011077677 -0.059778105 -0.037051536 0.06877158
000020 0b 59 f5 3b 4c 76 98 3c 71 9a 41 bd 37 d8 31 be
       0.0074874214 0.018611096 -0.047266427 -0.17367636
000030 3c c2 fa bd 08 79 8a bd 1e ba 5d 3e 18 07 1b 3e
       -0.122440785 -0.06761366 0.2165303 0.15139425
000040 78 03 3e bd 81 1f 12 bd 2f 6e 93 3c 7c 1c 32 be
       -0.046390027 -0.035674576 0.017996876 -0.17393678
000050 50 c9 e0 3d 23 eb b8 3c b8 c4 09 bd b5 1c f7 3c
       0.10975897 0.02257306 -0.03363487 0.030165056
000060 e7 96 5e 3d 80 11 05 be 3e 9c 5c 3e 95 f1 04 3c
       0.05434313 -0.12994957 0.21543977 0.008114238
000070 e3 50 73 3d 05 6b f3 3d 4a 2c 8a 3d 6a b1 29 3e
       0.05940331 0.11885647 0.06746729 0.16571584
000080 bf d5 25 3d 60 c2 10 be 77 2f 05 3c 86 68 84 be
       0.040487047 -0.14136648 0.008128992 -0.25860995
000090 f2 41 9e 3d 49 d4 01 3e 27 d8 f2 3a 2c 0b 80 bd
       0.07727422 0.12678637 0.0018527553 -0.06252131
0000a0 99 94 b0 bc 10 7b c5 3d 19 31 1c be 6c 2f 15 3c
       -0.021555232 0.09642613 -0.15253104 0.009105545
0000b0 6c e0 b9 bd 22 11 1b 3d df ab 32 3d b4 df 34 3c
       -0.09076008 0.037858136 0.04362094 0.011039663
0000c0 56 d0 0b be 1d b5 e3 3d 42 90 d8 bd f3 07 e1 bc
       -0.13653693 0.11118529 -0.1057439 -0.02746961
0000d0 17 1d 03 3d d3 73 14 3e 31 8c 34 be 53 b8 b6 3d
       0.032010164 0.14497308 -0.17631604 0.08921876
0000e0 d4 a0 3e 3d 9c 95 5e bd 5e 0b a5 bd 86 ff d8 bd
       0.046540096 -0.054341897 -0.08058809 -0.10595612
0000f0 c3 96 93 bd 49 ed 20 bd 62 59 3a bd bf 50 73 ba
       -0.0720649 -0.039288793 -0.0454954 -0.00092817465
000100 56 f2 69 3d 58 e4 8d bd 70 25 b0 3d a2 74 0a bc
       0.057115875 -0.06928319 0.08600891 -0.008450659
000110 66 5d 88 3d 73 fc 99 bc 41 ac 09 3d 98 dc 04 be
       0.06658439 -0.018797135 0.03361154 -0.12974775
000120 06 ae 43 bd fd 56 db bc 9c 9a f7 bc 14 72 1e 3c
       -0.047773384 -0.026774878 -0.03022509 0.009670753
000130 e9 ef 81 bd d2 2f cc bd 5c 2d 99 3d 66 e4 c6 3d
       -0.06344587 -0.099700585 0.07479355 0.09711532
000140 08 2c 7d bd 6e 1e 13 be 47 3a 9b bb b4 7f 97 bd
       -0.06180957 -0.14367077 -0.004737172 -0.07397404
000150 0a 07 07 be 46 85 1f 3d f1 75 7f 3c 27 ae b8 bd
       -0.13186279 0.03894546 0.015592084 -0.09017592
000160 c1 5f fe 3d 94 6f 38 3e 34 57 10 3e 1c b2 69 3d
       0.12420607 0.18011314 0.14095765 0.057054624
000170 a7 65 54 bd 58 3d 25 bc 94 3b 8c bd 1a 12 5f be
       -0.051854756 -0.010085426 -0.06847301 -0.21784249
000180 e5 51 41 be 45 af da 3c 8d 7a 85 bc 75 26 0e 3b
       -0.18878897 0.026694903 -0.016293788 0.0021690403
000190 9f 90 07 3d f6 9c 4c bd 6e 3a a1 bc 3f 18 f8 bc
       0.033096906 -0.049954377 -0.019681182 -0.030284999
0001a0 ee 41 14 be cb c9 d0 3c b5 00 46 bd 89 f7 39 3e
       -0.14478275 0.025486847 -0.048340518 0.18160833
0001b0 2a 6f 81 bd 2e 41 2e bd 45 76 be 3c 5c 81 51 3d
       -0.06320031 -0.04254263 0.023249755 0.051148757
0001c0 8a 64 aa bd b1 50 f0 3d 66 7d bd bd 89 18 4d 3c
       -0.083199576 0.11734141 -0.092524335 0.012518057
0001d0 fb 09 82 3c cf 1c cd bc bf fe aa 3b de 68 7e bd
       0.0158739 -0.025038151 0.0052183564 -0.062111728
0001e0 4a 7e 37 3d 08 1b 06 be d3 31 d7 3d 99 d9 35 3d
       0.044798173 -0.13096249 0.1050755 0.04439697
0001f0 99 54 28 3c d5 9b c6 3c 98 ae b3 3d 83 7d 6f 3d
       0.010274076 0.024244228 0.087735355 0.058469307
000200 a3 14 42 3d ff d0 0f 3e 10 85 e8 bd 82 d1 58 3d
       0.047382962 0.1404457 -0.11353505 0.052934177
000210 b6 51 49 3e 10 ea b4 3d 80 14 56 3d e7 9f 99 bd
       0.19660076 0.088337064 0.052265644 -0.07501202
000220 a7 40 cc bd 74 39 9f 3c 05 c5 c9 3d 31 a1 0e 3d
       -0.09973269 0.019436575 0.098520316 0.034821693
000230 c0 8d fc bc 89 58 e1 bc 7b e6 cb bc a4 0d f7 bd
       -0.03082931 -0.027508037 -0.024890175 -0.120631486
000240 50 73 e9 bd 00 ec 7c bd 32 41 b6 bc 42 74 45 3d
       -0.11398947 -0.061748505 -0.022247884 0.048206575
000250 f9 c3 a0 3a 5f 48 cb bc cb 38 ee 3d f8 4d 43 be
       0.0012265436 -0.024814783 0.11631926 -0.19072711
000260 04 9a 54 3d 96 c0 13 bd de 8d 95 3d ff 04 2d bd
       0.051904693 -0.036072336 0.0730245 -0.042241093
000270 ed ed a6 3d a5 b1 0c 3d 6b e6 0d be 21 4e 87 bd
       0.081508495 0.034349103 -0.13857429 -0.06606699
000280 f4 51 40 bd fc ac cc bd e7 06 d7 bd 7f 7a a4 bd
       -0.046953157 -0.09993932 -0.104993634 -0.08031177
000290 b8 b9 47 3d ae b8 f3 bd 7f a9 3f bd c5 67 b3 bd
       0.0487611 -0.11900459 -0.046792503 -0.08760027
0002a0 f3 0c 44 bd 4e 3e 7d bd 50 76 ea bc e7 9c 6d 3e
       -0.04786391 -0.061826997 -0.028620869 0.23204385
0002b0 33 0e b8 3d f7 1a 25 3d 80 24 57 3d 9d 2a 43 be
       0.08987083 0.04030892 0.052525043 -0.19059224
0002c0 db 7e 92 3c 3b 71 5a bd 37 df e0 3d 99 10 0b 3e
       0.017882755 -0.05333064 0.10980075 0.1358055
0002d0 1b cb 79 3d e9 ca 2f 3e 40 df 8d bc 14 85 c8 3c
       0.060984712 0.17167248 -0.017318368 0.02447752
0002e0 b4 e9 2f be e6 90 0d 3d 05 8e 95 bd c3 11 cc 3d
       -0.17178994 0.034562014 -0.07302479 0.09964325
0002f0 d8 40 0f 3e 60 4e 0a be fb 34 80 3d ca 67 37 bd
       0.1398958 -0.1350646 0.06260105 -0.044776715
000300 ea 59 65 3e 9e bf 02 bb 9e e0 b4 3d d5 cb ed 3c
       0.2239758 -0.0019950639 0.08831905 0.029027859
000310 df 84 98 3b 4b a6 ae bd 7b 06 53 be 34 40 38 3c
       0.0046545113 -0.085278116 -0.20607941 0.011245776
000320 5d 84 27 bd bc b1 0f 3e da 25 5c 3e 33 1b e5 3d
       -0.040897716 0.14032644 0.21498814 0.111868285
000330 32 95 04 bd 85 28 0d 3e 0f dd 6e 3d a6 de fc bc
       -0.032368846 0.13784988 0.058316287 -0.030867886
000340 95 34 9a bd ec a8 2a 3e f0 3a c0 3b 9e c1 38 3d
       -0.075295605 0.16666001 0.005866401 0.045106523
000350 57 fd 83 3d 38 c6 c0 bd 6c f7 74 3d 8a 26 07 3e
       0.06444805 -0.09412807 0.059806272 0.13198295
000360 17 50 d5 bd 4d 4f 8d 3d 64 8b 07 3d 22 ce 87 3d
       -0.104156666 0.06899891 0.033091918 0.066311136
000370 a9 6b 44 bd 1f 99 df 3d 60 2e 8a 3d 32 68 c1 bc
       -0.047954235 0.109178774 0.067471266 -0.023609255
000380 47 03 e7 bd 5c 5d 2d 3e 72 c2 12 3e c0 b0 eb 3c
       -0.11279922 0.16930145 0.14331988 0.028770804
000390 42 47 41 3c 5f 9b 0c 3e f4 44 78 3d d8 5f 26 bd
       0.011796774 0.13731144 0.060612634 -0.040618747
0003a0 35 50 30 3e 14 45 a6 be 7c 6e 4d be 38 88 8f bd
       0.17218097 -0.32474577 -0.20061678 -0.070084035
0003b0 da 10 22 bd 6c c7 95 3d 28 13 aa 3d 13 5c 0a 3d
       -0.039566852 0.07313427 0.08304435 0.033779215
0003c0 b6 30 7d 3d c0 b7 6c 3d b7 6d f0 3d fa 05 89 3c
       0.061814032 0.057792425 0.117396764 0.016726483
0003d0 c7 94 1d 3d b5 5a 26 3d 62 bf 48 bd cc 8a ee bd
       0.038471963 0.04061385 -0.049010642 -0.11647567
0003e0 bd f4 99 3d a5 72 fd bd 7a 81 da bd c3 28 ab 3d
       0.07517383 -0.12375382 -0.10669227 0.08357384
0003f0 da 95 cc bd 9b 93 b0 bb ec 9a ed 3d 0d 5e 47 3d
       -0.099895194 -0.0053886897 0.11601815 0.04867368

network_body._body_endoder.seq_layers.0.bias f4 [128]
000000 00 00 00 00 00 00 00 00 00 00 00 00 00 00 00 00
       0.0 0.0 0.0 0.0
000010 00 00 00 00 00 00 00 00 00 00 00 00 00 00 00 00
       0.0 0.0 0.0 0.0
000020 00 00 00 00 00 00 00 00 00 00 00 00 00 00 00 00
       0.0 0.0 0.0 0.0
000030 00 00 00 00 00 00 00 00 00 00 00 00 00 00 00 00
       0.0 0.0 0.0 0.0
000040 00 00 00 00 00 00 00 00 00 00 00 00 00 00 00 00
       0.0 0.0 0.0 0.0
000050 00 00 00 00 00 00 00 00 00 00 00 00 00 00 00 00
       0.0 0.0 0.0 0.0
000060 00 00 00 00 00 00 00 00 00 00 00 00 00 00 00 00
       0.0 0.0 0.0 0.0
000070 00 00 00 00 00 00 00 00 00 00 00 00 00 00 00 00
       0.0 0.0 0.0 0.0
000080 00 00 00 00 00 00 00 00 00 00 00 00 00 00 00 00
       0.0 0.0 0.0 0.0
000090 00 00 00 00 00 00 00 00 00 00 00 00 00 00 00 00
       0.0 0.0 0.0 0.0
0000a0 00 00 00 00 00 00 00 00 00 00 00 00 00 00 00 00
       0.0 0.0 0.0 0.0
0000b0 00 00 00 00 00 00 00 00 00 00 00 00 00 00 00 00
       0.0 0.0 0.0 0.0
0000c0 00 00 00 00 00 00 00 00 00 00 00 00 00 00 00 00
       0.0 0.0 0.0 0.0
0000d0 00 00 00 00 00 00 00 00 00 00 00 00 00 00 00 00
       0.0 0.0 0.0 0.0
0000e0 00 00 00 00 00 00 00 00 00 00 00 00 00 00 00 00
       0.0 0.0 0.0 0.0
0000f0 00 00 00 00 00 00 00 00 00 00 00 00 00 00 00 00
       0.0 0.0 0.0 0.0
000100 00 00 00 00 00 00 00 00 00 00 00 00 00 00 00 00
       0.0 0.0 0.0 0.0
000110 00 00 00 00 00 00 00 00 00 00 00 00 00 00 00 00
       0.0 0.0 0.0 0.0
000120 00 00 00 00 00 00 00 00 00 00 00 00 00 00 00 00
       0.0 0.0 0.0 0.0
000130 00 00 00 00 00 00 00 00 00 00 00 00 00 00 00 00
       0.0 0.0 0.0 0.0
000140 00 00 00 00 00 00 00 00 00 00 00 00 00 00 00 00
       0.0 0.0 0.0 0.0
000150 00 00 00 00 00 00 00 00 00 00 00 00 00 00 00 00
       0.0 0.0 0.0 0.0
000160 00 00 00 00 00 00 00 00 00 00 00 00 00 00 00 00
       0.0 0.0 0.0 0.0
000170 00 00 00 00 00 00 00 00 00 00 00 00 00 00 00 00
       0.0 0.0 0.0 0.0
000180 00 00 00 00 00 00 00 00 00 00 00 00 00 00 00 00
       0.0 0.0 0.0 0.0
000190 00 00 00 00 00 00 00 00 00 00 00 00 00 00 00 00
       0.0 0.0 0.0 0.0
0001a0 00 00 00 00 00 00 00 00 00 00 00 00 00 00 00 00
       0.0 0.0 0.0 0.0
0001b0 00 00 00 00 00 00 00 00 00 00 00 00 00 00 00 00
       0.0 0.0 0.0 0.0
0001c0 00 00 00 00 00 00 00 00 00 00 00 00 00 00 00 00
       0.0 0.0 0.0 0.0
0001d0 00 00 00 00 00 00 00 00 00 00 00 00 00 00 00 00
       0.0 0.0 0.0 0.0
0001e0 00 00 00 00 00 00 00 00 00 00 00 00 00 00 00 00
       0.0 0.0 0.0 0.0
0001f0 00 00 00 00 00 00 00 00 00 00 00 00 00 00 00 00
       0.0 0.0 0.0 0.0

network_body._body_endoder.seq_layers.2.weight f4 [128, 128]
000000 2e 72 b7 bd b4 5d f5 3d 77 e3 3e bd 02 69 c0 bc
       -0.08957325 0.11980763 -0.046603646 -0.023487572
000010 46 fa af ba 5a c0 3c 3d f4 35 6d be 42 94 1f 3e
       -0.0013426028 0.04608188 -0.23165113 0.155839
000020 13 c9 0b be bb 42 d7 bc a6 22 67 3d 60 5f b5 3c
       -0.13650922 -0.026276937 0.056429528 0.022140205
000030 a2 31 8b bd 43 ac 68 bd 08 07 29 bd cd ee ab 3d
       -0.06796576 -0.056804907 -0.04126647 0.08395157
000040 aa f0 c4 bd 78 e5 67 bd 02 b3 74 bd 70 5c 21 3c
       -0.096162155 -0.056615323 -0.059741028 0.009848699
000050 50 35 96 bd 04 9a 33 3c 5d 3f 1f be 69 e6 d9 3d
       -0.07334387 0.010962013 -0.15551515 0.106396504
000060 04 3e ce ba e7 84 8f 3d f3 84 08 bd b2 55 bf 3d
       -0.0015735035 0.07007771 -0.033329915 0.09342517
000070 ee b1 75 bd 22 4c 1a be 0b dd 89 3d ad e8 4d bd
       -0.05998414 -0.15068105 0.06731614 -0.050270725
000080 71 62 41 3d d4 b4 58 bd 4d 80 0c 3e 67 8b 52 bd
       0.04721302 -0.052906826 0.13720818 -0.051402476
000090 83 f4 c2 bd 50 5e ba 3d 86 82 fa bc 40 6a bb 3d
       -0.09519293 0.0910002 -0.030579817 0.09151125
0000a0 e9 7a c7 3d 86 2b 86 bd 56 10 09 be 57 6e e8 bd
       0.0974024 -0.0655127 -0.13385138 -0.11349171
0000b0 be 15 ed 3d c8 82 07 3c c2 52 f6 3d ec 7c 2c 3e
       0.115764126 0.008270927 0.120275036 0.16844529
0000c0 96 f1 4b bd fb b0 ef 3d 7b f8 c4 3b 30 e2 e9 bd
       -0.04979094 0.11703678 0.0060110665 -0.11420095
0000d0 43 89 9b bc 93 2b 97 3c 75 95 ac bd 2f 9f 84 3d
       -0.01898635 0.018453395 -0.08426944 0.06475674
0000e0 50 25 e3 3d 35 7f 19 3e e8 3f be bb e2 bf 32 bd
       0.11091101 0.14989932 -0.005805958 -0.043640025
0000f0 5c 4b 77 ba 55 3c b7 bb 36 b4 44 3e 39 51 12 be
       -0.00094335317 -0.005591909 0.1920937 -0.14288796
000100 61 80 02 be 8f 68 cc bd 91 f4 63 3d b1 ff fa bd
       -0.12744285 -0.099808805 0.05565316 -0.122558005
000110 e8 cb 5a 3d 3d 1d 60 bc e4 a9 09 bd f7 a9 38 3d
       0.053417116 -0.013678846 -0.033609286 0.045083966
000120 e6 4e a8 bd 19 0c af bd ea 2f 2e 3c f9 f2 e0 3c
       -0.08218174 -0.08547229 0.010631541 0.027459608
000130 2c bb ff bd 70 04 fc 3c e1 63 59 3e d9 ae b5 bc
       -0.12486872 0.030763835 0.21229507 -0.0221781
000140 8a 4b 9c bd 81 66 8b 3c 34 ff 1e 3d 8a fa ba 3d
       -0.076315954 0.017016651 0.0388176 0.09129818
000150 d8 03 9b bd 1a f0 cb bc 51 80 1d bd ba 0e 23 bd
       -0.075690925 -0.024894763 -0.03845245 -0.039808966
000160 ef c9 48 3d e9 5f d6 3c 99 ba 58 3d 67 25 84 bd
       0.049020704 0.02616878 0.05291233 -0.064524464
000170 aa 47 0d bd 7e f3 af bd e8 0c ae bc 6e 98 54 3d
       -0.034492172 -0.08591364 -0.021246389 0.05190318
000180 35 7b 14 be 83 f0 aa bb 30 71 b8 bc 93 09 a1 bc
       -0.14500125 -0.0052166595 -0.02251491 -0.019657886
000190 05 5a ac bd 30 e8 86 3d 22 e0 8f bc 15 cb 43 3c
       -0.08415607 0.06587255 -0.01756293 0.011950274
0001a0 a1 68 3a 3e ef 50 c7 bc 11 51 09 be c8 79 55 3d
       0.18203975 -0.024330584 -0.1340983 0.052118093
0001b0 db 10 21 be 5d 06 18 bd 3c 1c e2 bd c3 8a 84 3d
       -0.15729086 -0.037115443 -0.110405415 0.06471779
0001c0 6f aa 69 bd 66 ac 14 3c 16 01 59 bc 98 00 40 bd
       -0.057047304 0.009074306 -0.013244888 -0.046875566
0001d0 70 9a f8 bc 7f a0 45 3d 5d 02 2d be dc 46 48 be
       -0.030347079 0.048248764 -0.16895433 -0.1955828
0001e0 1d 21 77 bc 88 79 93 bd fb 57 d1 bc 46 c6 fc 3d
       -0.015083578 -0.072009146 -0.025554648 0.12342505
0001f0 6e f6 13 3e 4d 81 98 bd da de 12 be c7 cf 85 3d
       0.14449474 -0.07446537 -0.14342824 0.06533771
000200 0c ad cb bc 58 07 61 3d b8 1b c7 bd 44 45 59 3d
       -0.024862789 0.054938644 -0.09722084 0.053044572
000210 7b 0b 25 bd 0a 84 81 bd c3 b0 17 3d 59 93 38 be
       -0.04029415 -0.063240126 0.037033807 -0.18024959
000220 b1 44 92 bc ae 3a 61 3d ef 32 de bc 1d f9 0f 3e
       -0.01785502 0.054987602 -0.027123896 0.14059873
000230 f3 19 3e 3d 9e 5e a1 bd 5c 68 4e bb 81 37 19 ba
       0.046411466 -0.07879375 -0.0031495309 -0.00058447575
000240 77 a2 56 3c 68 c8 e3 3d f4 9f 7f bc 76 03 c2 3c
       0.013100258 0.11122209 -0.015602101 0.02368329
000250 6e 55 39 bd 1e e9 10 be 5e c9 3b 3e 25 9f 8c bd
       -0.045247488 -0.14151427 0.18338534 -0.06866292
000260 48 72 28 bc 4e 45 07 3e e8 b7 03 3e c2 41 c0 3d
       -0.010281153 0.13210031 0.12863123 0.09387542
000270 d6 d1 95 3d 32 80 af bc f5 f9 8f bd a4 4b 17 bc
       0.07315414 -0.021423433 -0.070300974 -0.009234343
000280 80 19 64 be be d2 b4 3d 7c 1a 9a bd ba ef fb 3c
       -0.22275352 0.088292584 -0.07524583 0.030753959
000290 32 9b d2 3d 8a 39 81 3d 7e 18 03 be b1 8e ef 3d
       0.102835074 0.06309803 -0.12802312 0.11697138
0002a0 5e 85 1f 3b 65 6a 9d bc bd 98 7a 3b dd 24 0e 3e
       0.0024340968 -0.019215772 0.0038238012 0.1388125
0002b0 a1 64 0c be 14 ea 73 3c ed e0 f5 bc 62 fe 4d be
       -0.13710262 0.014887352 -0.03001448 -0.2011657
0002c0 92 ce 60 bb 94 bf 00 3e 68 c3 ae bd 4c cd a1 3d
       -0.0034302813 0.12573081 -0.085333645 0.079004854
0002d0 c6 08 52 3d a2 e6 17 3c 7f 72 8a 3d 57 76 99 bc
       0.0512779 0.009271296 0.0676012 -0.018733187
0002e0 81 ea 9c bd d1 40 96 3d 73 b0 38 be cc 03 40 bd
       -0.076619156 0.073365815 -0.1803606 -0.04687862
0002f0 fc f4 97 3c ec 1d 82 3d 7e b2 6e bd d5 c9 fd bb
       0.018549435 0.063533634 -0.058275692 -0.0077450075
000300 82 98 cf bc f7 0d 74 bd 55 ee cb bc 26 5e 35 bc
       -0.025341276 -0.05958363 -0.024893919 -0.01106981
000310 14 01 79 3d 1b 33 16 3d c2 77 08 be b4 23 f1 3c
       0.060792044 0.03666983 -0.13326934 0.02943597
000320 66 96 b1 bc 4c d8 79 39 f6 9f 13 bd 4d 1e f3 3d
       -0.02167816 0.00023827067 -0.036041223 0.11871014
000330 4c dd 94 3d 2f 6c 00 3d 93 6e da 3b 32 95 04 bd
       0.072687715 0.031353172 0.0066660135 -0.032368846
000340 b5 f5 2f 3d 34 f9 dc bd 71 a7 1e bd 49 d9 87 bd
       0.042958934 -0.10789719 -0.038733903 -0.06633241
000350 2f 22 88 3d ce 8d 9a bd 82 b9 d1 3d 22 2d 86 bc
       0.06647145 -0.07546578 0.10240461 -0.016378943
000360 42 21 9d bd 24 ee 85 3c f2 47 45 3d 2e cf 8b bb
       -0.07672359 0.016348906 0.048164316 -0.004266641
000370 81 10 3c 3d cb 5c 9a bc 91 85 72 3d 8f 7e a2 3d
       0.045914177 -0.018843075 0.05920941 0.079342954
000380 65 de 11 3e 75 e7 22 3d e8 ec 13 be da 37 99 3e
       0.14244993 0.039771516 -0.14445841 0.29925424
000390 8f 44 79 bd ff a5 5c 3b de 20 25 bd 74 b8 c7 3c
       -0.0608564 0.0033668277 -0.040314548 0.024379946
0003a0 c6 60 31 3d f2 e4 a9 bd 66 80 a3 3d ab 6c 5d 3d
       0.04330518 -0.08295621 0.079834744 0.054058712
0003b0 15 de 76 3d ab 66 dc bc 40 7f 2f be ca 02 f6 3d
       0.060270388 -0.026904425 -0.17138386 0.12012251
0003c0 c0 76 b2 3d dd 98 17 bd 4a 15 61 3d bc 5d 75 bd
       0.08714056 -0.037011016 0.054951943 -0.059903845
0003d0 41 3a 0f be aa 3a f4 bb 99 c9 f6 ba 37 c6 5c 3e
       -0.13987066 -0.0074532824 -0.0018828391 0.21559988
0003e0 b5 03 a0 3d 10 53 b9 3d 70 68 fb bb a8 07 b8 bd
       0.07813207 0.09049046 -0.007672362 -0.08985835
0003f0 46 1f 8a 3d 2b 53 13 bb 88 b2 44 bc 7d fa 95 b8
       0.06744246 -0.0022479992 -0.012005456 -7.151531e-05

action_model._continuous_distribution.log_sigma f4 [1, 51]
000000 00 00 00 00 00 00 00 00 00 00 00 00 00 00 00 00
       0.0 0.0 0.0 0.0
000010 00 00 00 00 00 00 00 00 00 00 00 00 00 00 00 00
       0.0 0.0 0.0 0.0
000020 00 00 00 00 00 00 00 00 00 00 00 00 00 00 00 00
       0.0 0.0 0.0 0.0
000030 00 00 00 00 00 00 00 00 00 00 00 00 00 00 00 00
       0.0 0.0 0.0 0.0
000040 00 00 00 00 00 00 00 00 00 00 00 00 00 00 00 00
       0.0 0.0 0.0 0.0
000050 00 00 00 00 00 00 00 00 00 00 00 00 00 00 00 00
       0.0 0.0 0.0 0.0
000060 00 00 00 00 00 00 00 00 00 00 00 00 00 00 00 00
       0.0 0.0 0.0 0.0
000070 00 00 00 00 00 00 00 00 00 00 00 00 00 00 00 00
       0.0 0.0 0.0 0.0
000080 00 00 00 00 00 00 00 00 00 00 00 00 00 00 00 00
       0.0 0.0 0.0 0.0
000090 00 00 00 00 00 00 00 00 00 00 00 00 00 00 00 00
       0.0 0.0 0.0 0.0
0000a0 00 00 00 00 00 00 00 00 00 00 00 00 00 00 00 00
       0.0 0.0 0.0 0.0
0000b0 00 00 00 00 00 00 00 00 00 00 00 00 00 00 00 00
       0.0 0.0 0.0 0.0
0000c0 00 00 00 00 00 00 00 00 00 00 00 00
       0.0 0.0 0.0

action_model._continuous_distribution.mu.weight f4 [51, 128]
000000 bb 4f 83 3b 6a 1c d7 3b 3b da 95 3b b5 1e 52 3c
       0.0040073073 0.0065646665 0.0045731342 0.012824704
000010 f8 ba 93 bc 77 f1 32 bc fc 0d c8 3c a0 06 f0 bc
       -0.01803349 -0.0109218275 0.02442073 -0.029300034
000020 97 07 b9 3b 8f 00 40 3b b6 a3 1e 3c ef 48 ad bc
       0.0056466567 0.0029297208 0.009682586 -0.021152942
000030 36 f5 a2 bc 3b c2 46 bc 8b 77 bf bc 9b 2e e7 3c
       -0.019892316 -0.012131269 -0.023372432 0.028220465
000040 04 23 b0 3c 73 34 43 3b 45 29 ec bc cd 00 a4 bc
       0.021501072 0.00297859 -0.028828273 -0.020019913
000050 63 1d 89 bb 63 dd 07 3b 5a 44 55 3c 32 df 3f bc
       -0.0041844114 0.0020731322 0.013016785 -0.011710929
000060 03 6e ba bb 06 ad 07 3c 19 9a 38 bc 45 66 c1 bc
       -0.005689384 0.008280998 -0.0112672085 -0.023608336
000070 1b 3c b3 ba 3f ad 98 bc af 34 01 3d 29 d4 17 bc
       -0.0013674529 -0.018637298 0.031544384 -0.0092668915
000080 90 38 d4 ba 67 f8 bd 3b 16 91 c4 3a 32 22 14 3c
       -0.0016191173 0.005797434 0.0014996852 0.009041356
000090 e3 4f 6b bc 58 1e 5e bc 9b 8b 4a 3c 13 21 b8 3c
       -0.014362308 -0.013557039 0.012362386 0.022476709
0000a0 4c 42 0a 3d f3 c8 49 bc ca bf 80 bc 22 83 03 3c
       0.033754632 -0.012315976 -0.015716452 0.00802687
0000b0 f0 89 18 39 20 93 95 3c 75 69 2f bb 18 5b 7b 3c
       0.00014547235 0.018258631 -0.0026765738 0.015341543
0000c0 c3 3d 1e 3b b2 99 b4 ba 13 86 91 3c 9b 79 97 3a
       0.00241457 -0.0013778715 0.017764127 0.0011556627
0000d0 aa 9e 12 3c b7 e4 b3 bc 3b c8 54 bc 75 dd 7b 3c
       0.008948961 -0.021959646 -0.012987192 0.015372624
0000e0 68 d2 5d 3c 9f a8 52 bc df a4 4f bc ef db d8 3b
       0.013538934 -0.012857585 -0.012673586 0.006618015
0000f0 d1 ae 1f bb e7 33 22 3c 7c ac c0 3c 7c f4 07 bb
       -0.0024365673 0.00990007 0.023519747 -0.002074509
000100 38 e7 4d 3c 27 c8 92 ba df fc f1 3c 09 4e 00 bd
       0.012567334 -0.0011198566 0.029539524 -0.03132442
000110 71 77 ad 3c 88 5b 95 3b a7 ba ba bb cb d1 be bc
       0.021175118 0.0045580305 -0.00569852 -0.023293396
000120 77 06 78 bc 22 88 df bc f4 d1 38 bb 57 c8 9f 3c
       -0.01513826 -0.027286593 -0.0028201314 0.01950471
000130 5d b3 ad 3b b5 df be 3c d8 db c5 3c 6a 12 a2 ba
       0.005300923 0.023300031 0.024152681 -0.0012365107
000140 ef 2a 35 bc be 13 b0 3c 48 ab 4e 3c 38 ee cc bc
       -0.011057599 0.021493789 0.012614079 -0.025015935
000150 02 ec f9 bb 81 fb 1a bd b8 59 1f ba ae 72 96 3b
       -0.0076270113 -0.03783751 -0.0006078738 0.0045913076
000160 b3 9f f6 3a 42 00 81 bc 1f 12 62 3c c0 8d c8 3c
       0.0018815905 -0.015747193 0.013798266 0.024481654
000170 5b cc 6a 3c 83 4e a6 bc 59 ee 44 3c e8 4b 6e bc
       0.014330949 -0.02030111 0.012019717 -0.014544465
000180 9c f7 0f bd b7 74 12 3c 50 55 82 3b 60 7d be 3c
       -0.035148248 0.00893896 0.003977455 0.023253143
000190 97 58 87 bc 18 c5 34 bc b1 8b 05 3d 28 83 57 3c
       -0.016521735 -0.011033319 0.032603923 0.013153829
0001a0 ef 1c f5 3b 9c 80 a1 3c a5 e1 33 3d 3d 7f 0b 3d
       0.007480256 0.019714646 0.043916363 0.03405689
0001b0 70 7d 7a 3c 25 ea 58 3a fa 34 41 b9 87 2e de 3c
       0.015288696 0.00082746363 -0.0001842565 0.027121795
0001c0 3f e5 cd ba 81 51 05 bc 55 4f 0f 3b 53 55 d0 bc
       -0.001570858 -0.008137108 0.0021867354 -0.02543131
0001d0 ea 70 92 bc 5f 7c 62 b9 8b ec 99 3b 3f 0c 22 3b
       -0.017876107 -0.00021599371 0.0046973876 0.0024726538
0001e0 0a c6 46 3c ce 72 2f 3d 53 3d 76 ba 9e 0a 0b 3d
       0.012132177 0.042834096 -0.00093932933 0.033945672
0001f0 5b 2d 4f 3c 0b f2 a0 bc 7d fc 5a 3b 3e 05 0c 3d
       0.012645091 -0.019646665 0.0033414655 0.034184687
000200 c8 8f a0 bc b5 b5 be 3a 93 d3 0e 3b f7 56 91 3b
       -0.01959981 0.0014550003 0.0021793589 0.004435416
000210 a5 89 cd 3b 82 01 cd 3b 30 c7 d0 bc 87 15 4f 3a
       0.006272512 0.0062562833 -0.025485605 0.0007899631
000220 0b 16 77 3a 10 89 11 3b b7 6c 3e bc c7 a7 94 bc
       0.0009425587 0.002220694 -0.011622599 -0.018146409
000230 88 45 13 3c 87 81 55 bb 2f 4f ed bb 18 54 e4 3c
       0.0089887455 -0.0032578425 -0.0072421054 0.02787213
000240 a7 69 a7 3c 45 c2 1a bd d2 fb 86 3c c7 f6 cb 39
       0.020436121 -0.037782926 0.0164775 0.0003890304
000250 a4 5a a6 3b 33 93 40 bc c1 e5 90 3c 36 e3 42 bc
       0.005076723 -0.011753845 0.01768768 -0.011894992
000260 6b 3b 7e 3b 0b 5b 35 bb 2e b3 c4 bb fd 35 da 3c
       0.003879274 -0.0027672674 -0.006002805 0.026637072
000270 35 b4 07 3d cb 6c 10 3b cb 01 ed bc df f5 40 3c
       0.033130843 0.0022037502 -0.028931519 0.01177737
000280 4d 49 2b bc fa 91 26 bd f3 97 c7 bc 6f 92 59 3c
       -0.010454488 -0.040666558 -0.024364447 0.013279541
000290 8b 5e 9d 3b d9 8f 01 3c 51 e7 05 bd 5a d3 04 bd
       0.00480253 0.007907831 -0.032691304 -0.032428123
0002a0 da ff 71 3c 2a d2 6a bb 74 be 20 bd 28 6b d2 3c
       0.014770472 -0.0035830834 -0.03924413 0.025685862
0002b0 f8 d1 76 bc 3f 4d b8 bb e9 d6 03 b9 b1 f1 09 3c
       -0.015064709 -0.005624443 -0.00012573194 0.00841944
0002c0 2b 2f 2f 3d 09 c0 33 3c 02 ac cf 3c b0 51 72 bc
       0.042769592 0.010971078 0.025350574 -0.014789984
0002d0 96 f4 b8 3c aa a3 4e 3c 13 f3 30 3c b3 59 af b9
       0.022577565 0.012612263 0.010800141 -0.00033445432
0002e0 8d 81 f4 bc de 89 11 3c eb c0 7c 3c 4f 3a b0 bc
       -0.02984693 0.008882968 0.015426855 -0.021512179
0002f0 cd 6b b8 3b 74 b0 a5 b9 9f 0b b7 bb 12 85 1e 3d
       0.005628085 -0.0003160272 -0.005586102 0.038701124
000300 31 2d 8f bc ff ad 7b bb 7f fa 2c bc a3 8d db 3a
       -0.017477604 -0.003840327 -0.01055777 0.0016750585
000310 c3 2e 1e bb 54 ed 07 bd 55 df f5 bc 8f a0 65 3d
       -0.002413676 -0.033185318 -0.03001372 0.056061324
000320 70 bc 26 bd c3 c9 a5 3c 5a 14 d4 39 1f 0c 07 3d
       -0.04070705 0.020237809 0.00040450954 0.032970544
000330 c7 b5 40 bc 1d 2b 2c 3c b4 8a a5 3b cb 86 11 3b
       -0.011762089 0.010508326 0.005051935 0.0022205587
000340 bf 9c 35 bb 73 7b 71 3c 9d 20 f9 bb fb ab 06 bc
       -0.0027711836 0.014738905 -0.0076027648 -0.008219714
000350 2b 5a e7 bc e4 d7 91 bb 25 d7 59 3c d2 12 08 3b
       -0.028241238 -0.004450785 0.013295923 0.002076317
000360 c4 0b b2 3b 76 a9 44 3a 5e 72 08 bc dd 46 23 3c
       0.0054335315 0.0007502058 -0.0083280485 0.009965626
000370 57 71 81 3b 8f db 2e bb 48 24 ff b9 a3 16 5b bb
       0.0039502787 -0.002668116 -0.00048664422 -0.003343024
000380 e3 97 fb bb f3 c1 4a bb d7 30 97 3b 03 38 08 3d
       -0.0076780184 -0.0030938357 0.0046139765 0.033256542
000390 cb f4 de bc 0a 32 e6 bb 30 14 96 3c a8 29 a1 3c
       -0.027216336 -0.007025008 0.018320173 0.019673184
0003a0 10 98 7a bc 5a 50 8b 3c 89 09 0c bc 10 18 82 3c
       -0.015295044 0.017006088 -0.008547195 0.015880615
0003b0 c8 81 a8 bc e8 0f a4 3c 01 07 ca bb 02 b0 7a ba
       -0.020569697 0.020027116 -0.0061653857 -0.00095629704
0003c0 68 41 2b bb e1 ea 1a b9 60 e5 50 bb 0a 54 d7 3c
       -0.0026131514 -0.00014774084 -0.0031875 0.02628519
0003d0 5e 79 21 3c 17 ae bf 3b f7 ac 87 3c 17 9a 8e bb
       0.009855596 0.0058496105 0.016561968 -0.004351865
0003e0 6b b7 2a bd a4 9f 97 bb bf a8 c1 bc c0 23 d7 3c
       -0.041678827 -0.004627185 -0.023640035 0.026262164
0003f0 72 a5 db bb f2 85 45 39 1b fb 2e 3c ad d4 7b 3b
       -0.006703072 0.00018837283 0.010679985 0.0038426325

action_model._continuous_distribution.mu.bias f4 [51]
000000 00 00 00 00 00 00 00 00 00 00 00 00 00 00 00 00
       0.0 0.0 0.0 0.0
000010 00 00 00 00 00 00 00 00 00 00 00 00 00 00 00 00
       0.0 0.0 0.0 0.0
000020 00 00 00 00 00 00 00 00 00 00 00 00 00 00 00 00
       0.0 0.0 0.0 0.0
000030 00 00 00 00 00 00 00 00 00 00 00 00 00 00 00 00
       0.0 0.0 0.0 0.0
000040 00 00 00 00 00 00 00 00 00 00 00 00 00 00 00 00
       0.0 0.0 0.0 0.0
000050 00 00 00 00 00 00 00 00 00 00 00 00 00 00 00 00
       0.0 0.0 0.0 0.0
000060 00 00 00 00 00 00 00 00 00 00 00 00 00 00 00 00
       0.0 0.0 0.0 0.0
000070 00 00 00 00 00 00 00 00 00 00 00 00 00 00 00 00
       0.0 0.0 0.0 0.0
000080 00 00 00 00 00 00 00 00 00 00 00 00 00 00 00 00
       0.0 0.0 0.0 0.0
000090 00 00 00 00 00 00 00 00 00 00 00 00 00 00 00 00
       0.0 0.0 0.0 0.0
0000a0 00 00 00 00 00 00 00 00 00 00 00 00 00 00 00 00
       0.0 0.0 0.0 0.0
0000b0 00 00 00 00 00 00 00 00 00 00 00 00 00 00 00 00
       0.0 0.0 0.0 0.0
0000c0 00 00 00 00 00 00 00 00 00 00 00 00
       0.0 0.0 0.0

action_model._discrete_distribution.branches.0.weight f4 [1, 128]
000000 2c af c9 3b c5 93 0a bc f7 dd 88 bc 40 d3 67 bc
       0.0061549153 -0.008458083 -0.016707404 -0.014149487
000010 38 00 27 3b 08 f8 80 3c 00 a3 77 3c da 00 17 3c
       0.0025482308 0.01574327 0.015114546 0.009216512
000020 42 3f 55 bc 2e 73 ba b8 32 e7 d1 3b 65 e4 dd bb
       -0.01301557 -8.890625e-05 0.0064057345 -0.0067716115
000030 a5 3e f7 3b dd fa fd 3a 56 8c 98 3b 5a b8 08 bb
       0.0075453096 0.0019377131 0.004655401 -0.0020861835
000040 c3 6b 08 bc 69 94 9e bb 78 a5 d6 bb f3 a0 e0 3a
       -0.008326474 -0.004839469 -0.006550487 0.001713781
000050 ff 13 8f 3a 3b 13 25 3c 48 57 8c 3c be 45 b7 b9
       0.0010915993 0.010075386 0.017131463 -0.00034956442
000060 2c ed 24 3c 24 8a 88 bc 63 4b 56 ba 65 1f 5f 3c
       0.010066312 -0.016667433 -0.00081746856 0.013618325
000070 89 d0 aa ba b8 f8 62 bc e1 51 01 3c 20 35 df bb
       -0.0013032119 -0.0138532445 0.007893057 -0.006811753
000080 a7 aa b6 ba 51 bd ad ba 8b a1 48 3a bd b0 13 bc
       -0.0013936356 -0.0013255273 0.00076534663 -0.009014306
000090 61 f8 0f 3b bd 15 b2 ba 94 09 81 38 a6 9d ad bb
       0.0021968114 -0.0013586801 6.1529834e-05 -0.005298334
0000a0 7a 59 44 3c 63 94 36 bc 74 e2 c7 3b 53 3e c7 3b
       0.0119842235 -0.011143777 0.0060999934 0.0060804277
0000b0 bc c0 8e 3c 3f 96 a3 3b a5 32 df 3b fa c3 5a bb
       0.017425887 0.004992276 0.006811457 -0.0033380971
0000c0 65 ee 94 bb 25 3d e4 3a f0 52 6f bb 87 9f 9e 3c
       -0.0045450204 0.0017413242 -0.003651794 0.019363178
0000d0 b7 4e 87 3c 1d 86 0f bc 73 6c 22 3c b3 fb 42 3b
       0.016517026 -0.008760002 0.009913552 0.0029752075
0000e0 37 f5 1c bc 8b 79 55 bc c2 d5 6c 3c 7b 66 b6 ba
       -0.009579948 -0.013029466 0.014455261 -0.001391604
0000f0 85 bf 15 bc f1 50 35 bc 6d 56 4d bc fe fb b8 ba
       -0.0091399 -0.011066661 -0.012532813 -0.0014113185
000100 ea c0 85 3c c5 42 f6 ba 93 5b 43 3c 8e 2a 0d bc
       0.01632734 -0.0018788209 0.011923688 -0.008616103
000110 e0 16 3f bb d3 13 94 3b 18 b6 fc bb 5f af 87 3b
       -0.0029157922 0.004518965 -0.007712137 0.004140779
000120 19 67 c7 3c d2 0e de bb 89 8e 91 3a bf 0d 2f bc
       0.024341153 -0.006776669 0.0011105101 -0.01068443
000130 a3 79 75 bb b0 02 7b 3c da ad 79 bb a8 70 e1 ba
       -0.0037456534 0.015320465 -0.0038098008 -0.0017199712
000140 8b 7c 35 3c f1 e6 2a 3a df fd 28 bc 5e d4 c0 3a
       0.011077057 0.00065193983 -0.010314434 0.0014711728
000150 f4 e4 14 bc 7a a2 67 bc 67 01 58 3c 6f f1 d0 3a
       -0.00908779 -0.0141378585 0.013183928 0.0015941093
000160 d3 3f cd bb 63 5c 5b ba fe 70 b1 3b 0b ce 6a 3c
       -0.006263712 -0.00083679537 0.005415081 0.014331351
000170 32 a0 88 bb 53 7b 0d bc db bd ce bb 50 fc a5 3b
       -0.0041694874 -0.00863536 -0.0063092536 0.0050654784
000180 e2 35 11 3b 43 d8 ed 3b c9 e4 21 bc 12 86 b8 3b
       0.002215736 0.0072584464 -0.009881207 0.005631217
000190 6e bb 05 3c 8a 69 18 bb fd 1c ee 3b a0 6c f5 3b
       0.0081623625 -0.0023256266 0.0072666393 0.0074897557
0001a0 3b bf f2 bb d4 8f 9c 3a 2e fa 37 bb c7 a7 af bb
       -0.0074080504 0.001194472 -0.0028072703 -0.005360577
0001b0 9a 5c 58 bb ee 00 94 3a ed 22 96 3c cb c3 7c 3b
       -0.003301418 0.0011291781 0.0183272 0.003856885
0001c0 b0 6f d6 39 0d 98 f6 bb 42 49 c3 3c 42 0f a5 3b
       0.00040900474 -0.00752545 0.023838643 0.0050372193
0001d0 b9 32 86 3b ee 2e 2a 3b c0 5b 05 3c db 1b 99 bc
       0.004095402 0.0025967914 0.008139551 -0.01869004
0001e0 a3 20 e7 3b b9 90 90 ba 90 2e 63 3c ad 9f 43 bb
       0.007053451 -0.0011029459 0.013866082 -0.0029849813
0001f0 a7 47 07 bb bf f3 22 bc f0 93 09 3c 24 8e 47 bb
       -0.0020642073 -0.009945809 0.008397087 -0.0030449713

onnx::LSTM_116 f4 [1, 512, 128]
000000 70 13 1a be 34 c8 36 bd 50 d9 63 3c ae 91 b5 3d
       -0.15046477 -0.044624522 0.013906792 0.08865677
000010 7e 76 0f be d4 ff 1b be 2c 37 19 be e7 8b cc bd
       -0.14010045 -0.1523431 -0.14962453 -0.09987622
000020 6a 66 08 be b0 16 a6 3d 56 c0 d8 3d 0c 06 bd 3d
       -0.13320318 0.08109796 0.1058356 0.09229669
000030 27 8a 86 bd c3 59 0e 3e 9a 36 fe bd e4 62 49 3d
       -0.06569319 0.13901429 -0.12412758 0.049166575
000040 dc 95 e0 bd 03 4a 12 3e 7d 53 82 bd 5e 25 dd 3d
       -0.109660834 0.14286046 -0.063635804 0.10798143
000050 22 37 bf bd c1 f4 13 be 71 5a 14 3e 66 d0 b3 3d
       -0.093366876 -0.14448835 0.14487626 0.08779983
000060 fd 3a 08 3e 09 53 c8 bd 2c 96 ed bd e0 27 b9 3d
       0.13303752 -0.09781463 -0.11600909 0.09040809
000070 ff 10 10 3e e0 f4 81 bb 48 f6 f4 bd 74 ce 1b 3d
       0.14068983 -0.003965959 -0.11961037 0.038038686
000080 4c 69 a7 bd 80 4f 77 3d 6e 11 fb 3d 90 55 6e 3d
       -0.08174381 0.06037855 0.12259184 0.058187068
000090 bc 5b 3b 3d b8 98 19 be 4c 26 53 3d 34 08 6d 3d
       0.04574178 -0.14999664 0.051550195 0.05786915
0000a0 d0 35 6b 3d 20 c9 f6 bd c8 02 9b 3c dc e5 96 3d
       0.057424366 -0.1205008 0.018922225 0.07368061
0000b0 10 a9 b9 3d bb 97 0c 3e 0c 87 ed bd f0 f9 d0 3c
       0.09065449 0.13729756 -0.11598024 0.025509804
0000c0 56 16 a4 3d 0c c3 0d bd 6e 5e a2 3d 3b f4 0c be
       0.08012073 -0.03460984 0.07928167 -0.13765042
0000d0 90 37 79 bd 6d 7c a5 bd b8 f0 b9 bc 32 03 d1 3d
       -0.060844004 -0.08080373 -0.022697791 0.102056876
0000e0 3e ec a2 3d 3c 71 5a 3d d8 b7 7f bd bc c6 7a bd
       0.07955216 0.053330645 -0.062431186 -0.061224684
0000f0 98 da 84 bc e0 c3 92 3c 90 f8 5e bc 77 94 c9 bd
       -0.016217515 0.017915666 -0.013609067 -0.098427705
000100 56 3a 11 bd ad 83 14 3e c0 62 17 3c 6a 88 91 3d
       -0.035456024 0.14503355 0.009239852 0.07106097
000110 09 7f 02 3e a6 1a fc 3d 7a 63 f1 3d 54 24 f2 bc
       0.12743773 0.1230977 0.11786552 -0.029558338
000120 fc 90 0d 3d b8 a3 d6 3c 86 9f d6 bd 68 69 9a bc
       0.034562096 0.026201114 -0.104796454 -0.01884909
000130 b0 c5 98 bc 00 ed 4f bd 20 23 49 3c 1e 93 e0 bd
       -0.018648952 -0.05076313 0.012276441 -0.109655604
000140 e0 36 99 3b a0 f5 e8 3c 93 ce b5 bd be be 8f 3d
       0.004675731 0.028437436 -0.088772915 0.07018803
000150 d5 01 89 bd 20 50 97 bb a0 cf b1 bb 68 f3 85 bc
       -0.066898026 -0.004617706 -0.005426362 -0.016351417
000160 42 53 da 3d 76 18 80 bd 35 7f a5 bd d2 0c eb bd
       0.106604114 -0.062546656 -0.080809034 -0.11477055
000170 30 39 c6 3c f1 3b 03 3e e0 16 0c be ad 52 07 be
       0.024197191 0.12815835 -0.13680601 -0.13215132
000180 ec 87 9f bd 60 dc 3a bd 0c 75 03 bd ce 49 fc 3d
       -0.07789597 -0.045620322 -0.032094046 0.123187646
000190 ca 3d 8a bd e1 c2 12 be b8 87 b1 bc 78 97 84 bc
       -0.067500666 -0.14332153 -0.021671161 -0.016185507
0001a0 78 bd 1d bd 60 18 e5 bd 3c bb f2 bd d8 52 9f 3c
       -0.03851077 -0.1118629 -0.118521184 0.019448683
0001b0 48 df f2 bc 9d 48 19 3e 7c 2b e6 bd 4a bf 97 3d
       -0.029647484 0.14969106 -0.11238763 0.07409532
0001c0 a2 92 ec 3d a0 78 bc 3b fc 22 3c 3d f0 c2 46 bc
       0.115514055 0.0057516843 0.0459318 -0.012131438
0001d0 14 77 6a 3d e4 55 69 bd 39 e5 0d 3e 66 e0 12 bd
       0.057242468 -0.056966677 0.13856973 -0.035858534
0001e0 4f 4d 1b 3e a1 7a 08 3e 1e d5 6f bd d0 2c 62 bd
       0.1516621 0.13328029 -0.058552854 -0.055218518
0001f0 6a cd bf 3d 5c 3d 22 3d 6d 12 0a be 08 27 b9 3c
       0.093653515 0.039609298 -0.13483591 0.02260162
000200 c4 16 7b bd 45 11 8f bd 40 b3 56 bc 1b 9d 98 bd
       -0.061301008 -0.06985716 -0.01310426 -0.074518405
000210 21 7f 18 3e da 98 b5 3d ba 03 00 bd 18 bd d3 bc
       0.14892246 0.08867045 -0.031253554 -0.025847003
000220 48 ca 29 3d e8 3c ab 3c fe 72 4c bd b3 89 0c be
       0.041452676 0.020903066 -0.049914353 -0.13724403
000230 58 20 f6 bc da dd fa bd 10 48 51 3d b7 21 0c be
       -0.03004472 -0.12249346 0.051094115 -0.13684736
000240 f0 c2 03 bc 0a 0b bb 3d 0b 4c 17 3e 70 4c 24 3d
       -0.008042082 0.09132965 0.14775102 0.04011196
000250 3a 18 3e bd 60 4e e2 3b d4 4e 5a 3d a2 c0 05 bd
       -0.046409823 0.0069063157 0.053297833 -0.032654412
000260 1e 54 0b be 90 dd ee 3c f8 be 6f 3d 60 53 d8 bc
       -0.13606307 0.029158384 0.05853173 -0.026406944
000270 7a 83 c5 bd 90 51 13 3d 20 b3 0d be 00 e3 36 3d
       -0.09644218 0.035966456 -0.13837862 0.044650078
000280 c4 d3 c8 bd 80 cf 6a 3b 92 c7 f6 3d 37 51 d7 bd
       -0.09806016 0.0035829246 0.12049784 -0.105135374
000290 96 9e d0 3d 1e d3 c5 3d d4 b3 4b 3d 58 20 d1 3c
       0.10186498 0.09659408 0.049732044 0.025528118
0002a0 b0 2c 92 3c 10 d9 2a 3d de 46 d5 3d 38 d6 10 be
       0.017843574 0.041710913 0.104139075 -0.14144218
0002b0 10 ec de bd 68 36 99 3d 1b 62 10 3e 22 c7 10 bd
       -0.10884869 0.0748108 0.14099924 -0.035346158
0002c0 8a 50 cd bd ce ce b2 bd 70 d6 5c 3c e3 1a 0a 3e
       -0.10025127 -0.08730851 0.01347886 0.13486819
0002d0 74 6d 02 bd d0 68 ac bd f8 ae 83 3d 33 a2 ba bd
       -0.031842664 -0.08418429 0.06429857 -0.09112968
0002e0 ce 23 9c 3d d9 75 fc bd a0 f3 38 3c ac 59 8e 3d
       0.07624017 -0.12327165 0.0112885535 0.06950697
0002f0 00 15 09 bd e2 b0 dd 3d d5 63 d4 bd bc 3c 9b bd
       -0.033467293 0.10824753 -0.10370604 -0.075799435
000300 a4 03 9d 3d 8d 8a b2 bd 04 0d 4e bd 80 a2 fb bb
       0.0766671 -0.08717833 -0.05030538 -0.0076792836
000310 a2 dc d1 bd 96 51 f5 3d 05 88 e9 bd 80 42 85 ba
       -0.102471605 0.11978452 -0.11402897 -0.0010166913
000320 18 3a 66 3d 37 e2 15 be 60 da a7 3c 70 87 a8 bc
       0.056207746 -0.14637075 0.020489872 -0.020572394
000330 83 4c 06 3e 20 a4 fc 3b 30 de e5 3c 40 ad a0 3d
       0.13115124 0.007709995 0.028060049 0.07845545
000340 80 16 88 3b 34 cb 03 be 73 55 16 3e bc 4f a6 3d
       0.004153073 -0.12870485 0.14681034 0.08120677
000350 3f 6a 14 be 4a 63 4e bd c9 e1 07 be 70 71 72 3d
       -0.14493655 -0.05038766 -0.13269724 0.059190214
000360 82 7d 45 bd 69 24 cb bd 00 80 5e bd aa 97 56 bd
       -0.048215397 -0.09919054 -0.05432129 -0.052390732
000370 82 29 95 3d 05 3e ee bd b2 43 e4 3d b0 7c 1e 3c
       0.072833076 -0.11632923 0.11145724 0.0096732825
000380 b0 91 42 3c a7 a6 03 3e 81 ad 03 3e 94 77 27 3d
       0.011875555 0.12856542 0.12859155 0.040885523
000390 f4 d9 14 3d a9 47 b4 bd 5e ec b0 3d ee ee 3f bd
       0.03634067 -0.088027306 0.086388335 -0.04685872
0003a0 90 24 5c 3c 68 8f 4b bd 52 7c b0 3d 8c 16 35 3d
       0.013436452 -0.04969731 0.08617462 0.044210956
0003b0 51 45 04 be 2e f7 eb 3d 86 69 05 bd 1a 30 c6 bd
       -0.12917067 0.11521755 -0.032571338 -0.096771434
0003c0 b2 13 df bd 9a a4 fc 3d 6e 99 d9 3d 2d 60 09 3e
       -0.108924285 0.12336083 0.106249675 0.13415594
0003d0 40 90 0b be e0 5d 76 3c 29 fa 14 3e 60 af ad 3d
       -0.13629246 0.01503703 0.14548554 0.08480716
0003e0 d4 62 31 3d 44 12 0a be 0a 6f f4 3d a8 14 8d 3c
       0.04330714 -0.1348353 0.119352415 0.017221764
0003f0 80 5d 22 3c 94 46 48 bd b6 27 1c bd c0 ce 27 3b
       0.009909987 -0.048895434 -0.03812381 0.002560541

onnx::LSTM_117 f4 [1, 512, 128]
000000 40 35 1e bc ea 2e f9 3d 94 93 25 bd c2 49 f8 3d
       -0.0096562505 0.12167151 -0.040423945 0.12123443
000010 f2 05 f5 3d df c1 17 be 0e 2b f0 bd fc 95 22 3d
       0.119640246 -0.1482005 -0.11726962 0.039693817
000020 7c cf 52 bd a9 f1 00 3e f1 d6 ab bd 14 7c a4 bd
       -0.051467404 0.12592186 -0.08390606 -0.080314785
000030 ee 00 18 be 47 1a 81 bd 82 7f f4 3d 10 96 3d 3d
       -0.14844105 -0.0630384 0.11938383 0.04628569
000040 21 48 b1 bd fe a0 85 bd b9 4d 1b be 55 3f 10 be
       -0.086563356 -0.065248474 -0.15166368 -0.14086659
000050 34 11 be 3d 20 2f e2 bb b8 c6 27 3d 70 91 90 3d
       0.09280625 -0.0069025904 0.040960997 0.0705899
000060 6c 4e 12 bd 1e 65 e9 3d e0 8c 0c be 4f 17 01 3e
       -0.03571932 0.1139624 -0.13725615 0.12606548
000070 00 68 05 b9 10 cd 00 3d 8a 62 94 3d 7b 00 16 3e
       -0.00012722611 0.031445563 0.07245357 0.14648621
000080 48 3d 05 bd 45 fe c8 bd 84 55 32 3d c5 0e 0b 3e
       -0.032529145 -0.09814123 0.043538585 0.13579853
000090 3b 76 b5 bd 8e ab a5 3d c2 1a 31 bd ee d0 cc 3d
       -0.08860441 0.08089362 -0.04323841 0.10000788
0000a0 ea 14 12 bd dc 4b 9a bd 9d df 12 3e f6 b3 dd bd
       -0.035664476 -0.07534 0.14343114 -0.108253404
0000b0 8b 16 c3 bd 7c 30 28 bd ae 2a 8b 3d 0a 7d f7 bd
       -0.09525784 -0.041061863 0.0679525 -0.12084396
0000c0 da b4 eb 3d 0c d2 05 bd 08 26 13 be 60 f2 b7 3c
       0.11509104 -0.03267102 -0.14369977 0.02245444
0000d0 85 c2 00 3e ce c7 0b be e1 de 81 bd 2c 9b 0a be
       0.12574203 -0.13650438 -0.06341339 -0.13535756
0000e0 f0 f2 c8 3c 7a 95 cd 3d c6 1d a1 3d 00 c2 a2 3b
       0.024529904 0.10038276 0.07867007 0.0049669743
0000f0 d2 9d e2 3d f8 31 c0 bc 30 8d 40 bd 4b 39 d5 bd
       0.11065258 -0.023461327 -0.047009647 -0.104113184
000100 e4 d4 08 bd 5c 02 03 3d c0 b1 e3 bc 32 4a 39 bd
       -0.033406153 0.031984672 -0.027794719 -0.045236774
000110 ce 27 42 bd 4e bc 1c bd 90 8a 5e 3d 58 13 d4 bc
       -0.047401242 -0.03826552 0.054331362 -0.02588813
000120 40 43 13 3c 87 a3 1b 3e e4 3f 3e 3d 66 3a 17 bd
       0.008988202 0.151991 0.04644765 -0.036920927
000130 1b 98 05 3e d5 37 b0 bd 40 67 ba bb a6 66 c2 3d
       0.13046305 -0.08604399 -0.005688578 0.09492235
000140 10 95 54 bd cf 9e 0b be ee 79 c6 3d cc ea 6f 3d
       -0.05189997 -0.136348 0.09691225 0.05857353
000150 54 09 dd bd 92 2b 25 bd de 83 8f 3d 8b 60 8d bd
       -0.10792795 -0.040324755 0.070075735 -0.0690318
000160 00 ab 66 3a ff 9d 19 3e 44 0a 5c 3d c0 1d 85 3b
       0.00087992847 0.15001677 0.053720728 0.0040623844
000170 c3 e9 04 3e d4 26 95 3d 80 a0 f8 3c 74 f2 f1 bc
       0.12979798 0.072827965 0.03034997 -0.029534556
000180 24 7a 11 bd ba 92 1c bd 00 4e 05 bc 05 9c c0 bd
       -0.035516873 -0.038225867 -0.008136272 -0.09404758
000190 ba f0 c3 bd f2 75 cf bd 36 da d9 3d 20 53 e4 bd
       -0.09567399 -0.10129918 0.106373236 -0.11148667
0001a0 b8 ad e1 bc 96 db a9 3d 77 7d 07 3e 01 f4 1b 3e
       -0.027548656 0.08293836 0.13231455 0.15229799
0001b0 a8 d9 47 3d 28 5a 31 3d a8 76 00 bd a0 56 b9 3b
       0.048791558 0.04329887 -0.03136316 0.0056560785
0001c0 33 43 0c be bb f6 00 be 1c 48 78 bd 80 fe 8d ba
       -0.1369751 -0.1259412 -0.060615644 -0.0010833293
0001d0 08 20 b9 3d 02 c7 c9 3d 10 2e 81 3c 18 ef a1 3c
       0.090393126 0.09852411 0.015769035 0.01976733
0001e0 34 29 6b 3d 42 f0 9f bd a2 93 68 bd 18 07 f8 bc
       0.05741234 -0.078094974 -0.05678142 -0.03027682
0001f0 05 89 94 bd 6c dc 8e 3d 90 06 94 3d b2 17 9c 3d
       -0.07252697 0.06975636 0.07227814 0.07621707
000200 1a 55 d5 3d ac dc 9b 3d f6 7b ca bd 84 bb 29 bd
       0.104166225 0.07610449 -0.09886925 -0.041438594
000210 a2 e3 dd bd 2a 5b c0 3d 07 1c 15 be 70 40 6a bc
       -0.10834433 0.09392388 -0.14561473 -0.01429759
000220 fb 77 06 3e ae 63 ec 3d 42 08 c5 bd bc 7d 8b bd
       0.13131706 0.1154245 -0.09620716 -0.06811091
000230 c0 f2 70 bc 08 2b 1c be 06 ca a1 bd 00 62 44 3d
       -0.014706314 -0.1525079 -0.07899861 0.047945023
000240 02 07 14 bd 3c 33 16 3d 20 b9 cb bc 98 7d a1 3c
       -0.036139496 0.036669955 -0.024868548 0.019713208
000250 90 2f 0b be 48 50 58 3d 7b ea 17 3e 96 09 1b be
       -0.13592362 0.052810937 0.14835541 -0.15140375
000260 61 46 13 3e 5f 5e a6 bd 50 3c ce bd 4c 1d c5 bd
       0.14382316 -0.081234686 -0.100700974 -0.096247286
000270 a0 ab 8a 3d fe fb eb 3d 72 9f 8b 3d 25 a4 12 be
       0.06771016 0.11522673 0.06817521 -0.14320429
000280 02 d1 b9 3d 00 83 c5 3b 96 59 03 bd cc da 47 3d
       0.09073068 0.0060275793 -0.032067858 0.048792645
000290 7f 59 03 be ae dd 5f bd ba bd 71 bd 98 8a 24 bd
       -0.12827109 -0.05465477 -0.059018828 -0.040171236
0002a0 30 9d 0b bc 40 96 0c bc 1c 3c 9b 3d 66 52 29 bd
       -0.008521363 -0.008580744 0.07579824 -0.041338347
0002b0 20 4d c5 bb 7f bf 9d bd 39 22 ed bd fe 69 e6 3d
       -0.006021157 -0.077025406 -0.11578793 0.11250685
0002c0 80 aa b2 bd a0 96 1d 3d b0 5f fe bd 73 29 db bd
       -0.087239265 0.038473725 -0.12420595 -0.10701265
0002d0 b9 07 18 3e 52 3d e4 3d f7 c9 15 3e 10 46 22 3d
       0.14846696 0.111445084 0.14627825 0.039617598
0002e0 b0 82 6d bc e0 98 6a bd d5 33 0a 3e 8e 89 f8 3d
       -0.01449649 -0.0572747 0.13496335 0.121356115
0002f0 9d 0b 0c be 10 0b 65 3d ea a5 fb 3d 3a 59 db 3d
       -0.13676305 0.055918753 0.12287505 0.10710378
000300 f6 3f 09 bd 23 c7 80 bd 7c 4e 3b 3d 8b fa ba bd
       -0.033508264 -0.06287982 0.045729145 -0.091298185
000310 c8 6a dc bd 78 cd 5b bd c8 de ee bc 60 20 15 be
       -0.107625544 -0.053662747 -0.029158965 -0.14563131
000320 80 4a 57 3c 80 56 c4 bd ae 7d 8d bd 95 87 0f 3e
       0.013140321 -0.09586811 -0.06908737 0.14016564
000330 5f 38 07 3e 82 f9 b2 bd f6 d0 73 bd b6 f2 48 bd
       0.13205098 -0.08738996 -0.059525453 -0.049059592
000340 95 03 fc bd 0c 79 17 bd b6 fa dc bd 3f a9 fb bd
       -0.12305371 -0.036980674 -0.10790007 -0.122881405
000350 fa 93 8f 3d de 43 bb 3d 25 6c 1a 3e e2 63 8a 3d
       0.07010646 0.09143804 0.15080316 0.067573324
000360 18 62 b0 3c 98 3e 3a bd d2 d9 35 bd c0 72 0f 3b
       0.02153115 -0.04546985 -0.044397183 0.0021888465
000370 30 76 a4 bc c0 14 22 3b 1a 32 82 3d 20 f7 2e 3c
       -0.020075887 0.0024731606 0.06357212 0.010679036
000380 2a 87 e2 3d 08 e9 ed 3c c0 89 0b 3c da d8 eb bd
       0.11060937 0.029041782 0.008516729 -0.115159705
000390 44 f8 63 bd 80 11 cc bb 0a 39 c5 3d c0 b8 6e 3d
       -0.055656686 -0.006227672 0.0963002 0.05828166
0003a0 da 25 51 bd 86 90 5b bd e8 30 8c 3c 00 f4 e3 3c
       -0.05106149 -0.053604625 0.017113164 0.02782631
0003b0 d4 41 30 3d 37 7e 14 3e 60 30 73 3d 6e 44 74 bd
       0.04303153 0.14501272 0.059372306 -0.059635572
0003c0 a8 62 00 3d e0 b2 9f bb 72 8e b0 3d ce 65 f0 bd
       0.031344086 -0.0048736185 0.08620919 -0.11738168
0003d0 c0 b1 90 bc 80 4f 78 3d 27 9e 0e be 61 4c 87 bd
       -0.017662883 0.060622692 -0.13927518 -0.06606365
0003e0 fc 1c 05 3d 25 55 8a bd a0 d1 9b bc 7a e2 3e bd
       0.032498345 -0.06754521 -0.019020855 -0.046602704
0003f0 72 15 98 3d c0 8b 4c bc 12 b2 db 3d 34 65 58 3d
       0.07425965 -0.012484491 0.107273236 0.05283089

onnx::LSTM_118 f4 [1, 1024]
000000 00 00 00 00 00 00 00 00 00 00 00 00 00 00 00 00
       0.0 0.0 0.0 0.0
000010 00 00 00 00 00 00 00 00 00 00 00 00 00 00 00 00
       0.0 0.0 0.0 0.0
000020 00 00 00 00 00 00 00 00 00 00 00 00 00 00 00 00
       0.0 0.0 0.0 0.0
000030 00 00 00 00 00 00 00 00 00 00 00 00 00 00 00 00
       0.0 0.0 0.0 0.0
000040 00 00 00 00 00 00 00 00 00 00 00 00 00 00 00 00
       0.0 0.0 0.0 0.0
000050 00 00 00 00 00 00 00 00 00 00 00 00 00 00 00 00
       0.0 0.0 0.0 0.0
000060 00 00 00 00 00 00 00 00 00 00 00 00 00 00 00 00
       0.0 0.0 0.0 0.0
000070 00 00 00 00 00 00 00 00 00 00 00 00 00 00 00 00
       0.0 0.0 0.0 0.0
000080 00 00 00 00 00 00 00 00 00 00 00 00 00 00 00 00
       0.0 0.0 0.0 0.0
000090 00 00 00 00 00 00 00 00 00 00 00 00 00 00 00 00
       0.0 0.0 0.0 0.0
0000a0 00 00 00 00 00 00 00 00 00 00 00 00 00 00 00 00
       0.0 0.0 0.0 0.0
0000b0 00 00 00 00 00 00 00 00 00 00 00 00 00 00 00 00
       0.0 0.0 0.0 0.0
0000c0 00 00 00 00 00 00 00 00 00 00 00 00 00 00 00 00
       0.0 0.0 0.0 0.0
0000d0 00 00 00 00 00 00 00 00 00 00 00 00 00 00 00 00
       0.0 0.0 0.0 0.0
0000e0 00 00 00 00 00 00 00 00 00 00 00 00 00 00 00 00
       0.0 0.0 0.0 0.0
0000f0 00 00 00 00 00 00 00 00 00 00 00 00 00 00 00 00
       0.0 0.0 0.0 0.0
000100 00 00 00 00 00 00 00 00 00 00 00 00 00 00 00 00
       0.0 0.0 0.0 0.0
000110 00 00 00 00 00 00 00 00 00 00 00 00 00 00 00 00
       0.0 0.0 0.0 0.0
000120 00 00 00 00 00 00 00 00 00 00 00 00 00 00 00 00
       0.0 0.0 0.0 0.0
000130 00 00 00 00 00 00 00 00 00 00 00 00 00 00 00 00
       0.0 0.0 0.0 0.0
000140 00 00 00 00 00 00 00 00 00 00 00 00 00 00 00 00
       0.0 0.0 0.0 0.0
000150 00 00 00 00 00 00 00 00 00 00 00 00 00 00 00 00
       0.0 0.0 0.0 0.0
000160 00 00 00 00 00 00 00 00 00 00 00 00 00 00 00 00
       0.0 0.0 0.0 0.0
000170 00 00 00 00 00 00 00 00 00 00 00 00 00 00 00 00
       0.0 0.0 0.0 0.0
000180 00 00 00 00 00 00 00 00 00 00 00 00 00 00 00 00
       0.0 0.0 0.0 0.0
000190 00 00 00 00 00 00 00 00 00 00 00 00 00 00 00 00
       0.0 0.0 0.0 0.0
0001a0 00 00 00 00 00 00 00 00 00 00 00 00 00 00 00 00
       0.0 0.0 0.0 0.0
0001b0 00 00 00 00 00 00 00 00 00 00 00 00 00 00 00 00
       0.0 0.0 0.0 0.0
0001c0 00 00 00 00 00 00 00 00 00 00 00 00 00 00 00 00
       0.0 0.0 0.0 0.0
0001d0 00 00 00 00 00 00 00 00 00 00 00 00 00 00 00 00
       0.0 0.0 0.0 0.0
0001e0 00 00 00 00 00 00 00 00 00 00 00 00 00 00 00 00
       0.0 0.0 0.0 0.0
0001f0 00 00 00 00 00 00 00 00 00 00 00 00 00 00 00 00
       0.0 0.0 0.0 0.0
000200 00 00 00 00 00 00 00 00 00 00 00 00 00 00 00 00
       0.0 0.0 0.0 0.0
000210 00 00 00 00 00 00 00 00 00 00 00 00 00 00 00 00
       0.0 0.0 0.0 0.0
000220 00 00 00 00 00 00 00 00 00 00 00 00 00 00 00 00
       0.0 0.0 0.0 0.0
000230 00 00 00 00 00 00 00 00 00 00 00 00 00 00 00 00
       0.0 0.0 0.0 0.0
000240 00 00 00 00 00 00 00 00 00 00 00 00 00 00 00 00
       0.0 0.0 0.0 0.0
000250 00 00 00 00 00 00 00 00 00 00 00 00 00 00 00 00
       0.0 0.0 0.0 0.0
000260 00 00 00 00 00 00 00 00 00 00 00 00 00 00 00 00
       0.0 0.0 0.0 0.0
000270 00 00 00 00 00 00 00 00 00 00 00 00 00 00 00 00
       0.0 0.0 0.0 0.0
000280 00 00 00 00 00 00 00 00 00 00 00 00 00 00 00 00
       0.0 0.0 0.0 0.0
000290 00 00 00 00 00 00 00 00 00 00 00 00 00 00 00 00
       0.0 0.0 0.0 0.0
0002a0 00 00 00 00 00 00 00 00 00 00 00 00 00 00 00 00
       0.0 0.0 0.0 0.0
0002b0 00 00 00 00 00 00 00 00 00 00 00 00 00 00 00 00
       0.0 0.0 0.0 0.0
0002c0 00 00 00 00 00 00 00 00 00 00 00 00 00 00 00 00
       0.0 0.0 0.0 0.0
0002d0 00 00 00 00 00 00 00 00 00 00 00 00 00 00 00 00
       0.0 0.0 0.0 0.0
0002e0 00 00 00 00 00 00 00 00 00 00 00 00 00 00 00 00
       0.0 0.0 0.0 0.0
0002f0 00 00 00 00 00 00 00 00 00 00 00 00 00 00 00 00
       0.0 0.0 0.0 0.0
000300 00 00 00 00 00 00 00 00 00 00 00 00 00 00 00 00
       0.0 0.0 0.0 0.0
000310 00 00 00 00 00 00 00 00 00 00 00 00 00 00 00 00
       0.0 0.0 0.0 0.0
000320 00 00 00 00 00 00 00 00 00 00 00 00 00 00 00 00
       0.0 0.0 0.0 0.0
000330 00 00 00 00 00 00 00 00 00 00 00 00 00 00 00 00
       0.0 0.0 0.0 0.0
000340 00 00 00 00 00 00 00 00 00 00 00 00 00 00 00 00
       0.0 0.0 0.0 0.0
000350 00 00 00 00 00 00 00 00 00 00 00 00 00 00 00 00
       0.0 0.0 0.0 0.0
000360 00 00 00 00 00 00 00 00 00 00 00 00 00 00 00 00
       0.0 0.0 0.0 0.0
000370 00 00 00 00 00 00 00 00 00 00 00 00 00 00 00 00
       0.0 0.0 0.0 0.0
000380 00 00 00 00 00 00 00 00 00 00 00 00 00 00 00 00
       0.0 0.0 0.0 0.0
000390 00 00 00 00 00 00 00 00 00 00 00 00 00 00 00 00
       0.0 0.0 0.0 0.0
0003a0 00 00 00 00 00 00 00 00 00 00 00 00 00 00 00 00
       0.0 0.0 0.0 0.0
0003b0 00 00 00 00 00 00 00 00 00 00 00 00 00 00 00 00
       0.0 0.0 0.0 0.0
0003c0 00 00 00 00 00 00 00 00 00 00 00 00 00 00 00 00
       0.0 0.0 0.0 0.0
0003d0 00 00 00 00 00 00 00 00 00 00 00 00 00 00 00 00
       0.0 0.0 0.0 0.0
0003e0 00 00 00 00 00 00 00 00 00 00 00 00 00 00 00 00
       0.0 0.0 0.0 0.0
0003f0 00 00 00 00 00 00 00 00 00 00 00 00 00 00 00 00
       0.0 0.0 0.0 0.0
