results/try-24/My Behavior/My Behavior-4832.onnx (onnx, 693209 bytes, 10 tensors)

network_body._body_endoder.seq_layers.0.weight f4 [128, 122]
0.052268013 -0.14731081 -0.028666101 0.059209924 -0.051071636 -0.032122605 0.12132959 -0.09072805
0.21353512 0.1603901 -0.057226732 0.044222813 0.08188452 0.10092172 -0.067193724 0.008250153
-0.045713574 0.011197843 -0.14897268 0.023075728 -0.014701435 -0.15698344 0.09314382 0.05527955
-0.0055203936 -0.17625834 -0.05611843 0.058332723 -0.10377827 -0.11283814 0.035212025 -0.001390739
0.077305816 0.060216136 -0.06522831 -0.16931874 0.06374887 0.021906964 -0.002759662 -0.03968894
0.16226485 0.05832212 0.027300056 -0.0028617843 -0.016091112 -0.083219856 -0.074033484 0.010803973
-0.14474878 -0.061389618 -0.080321215 -0.08430265 0.040859655 0.16547452 0.10991672 -0.052129645
0.02077818 0.06934143 -0.13063419 -0.20300712 0.0048139524 0.14218175 0.105619594 -0.09757819
0.20795418 0.10018183 0.05116647 0.045653112 -0.047761384 -0.072323635 0.0046360856 0.13921009
0.049761035 -0.13529103 -0.053801715 0.007668572 0.045034282 0.09859644 0.06836458 -0.019229803
-0.06803483 -0.14095262 0.03109632 0.16785851 -0.041023247 0.14781527 0.020627078 0.24792644
-0.05593899 0.10337268 0.032418583 -0.09217169 -0.13128705 0.1353127 -0.0465604 0.21633779
-0.08954291 0.10855197 0.03424768 0.023162311 0.057869524 0.0028396465 0.03278146 -0.016853401
-0.08853809 -0.034345392 0.07831412 0.049691584 0.021391472 -0.03760909 0.02661312 0.009870451
-0.12380625 0.04938516 -0.08651826 0.183798 0.035092305 0.020524425 0.028611924 -0.11770775
0.048006855 -0.14634605 0.047948193 -0.018438697 0.055653863 -0.06414379 -0.03725772 -0.0007676761
-0.06734718 0.062730104 0.07428202 -0.009667509 0.032811765 -0.03161716 -0.04532806 -0.042059492
0.08582007 -0.09001184 -0.031993296 0.054469187 -0.041461494 -0.06298256 -0.12228346 -0.07453939
0.06753141 0.10858274 -0.055344652 -0.025034921 0.06800038 -0.016665239 0.07519661 0.018782202
-0.23039849 0.057292588 -0.06933571 -0.04227603 0.22764315 0.012322762 -0.04125871 -0.06866064
0.18304667 -0.16000369 0.10064742 0.06455973 0.039196298 0.07087067 -0.071808875 0.066021465
0.17173083 0.0441145 -0.033610355 -0.057108898 0.028980494 0.13619618 0.018859196 -0.13159578
-0.030038113 0.028055655 0.0501841 -0.16326283 -0.024799991 0.059528276 0.16301374 0.032407798
0.03410068 0.27489588 0.17183575 0.14643578 -0.058859803 -0.042321485 -0.094211444 -0.050358877
-0.19084843 -0.003614858 0.007791259 0.078471415 0.0091456985 0.13403496 -0.044311125 -0.0008908324
-0.06969316 0.06355023 0.075123146 0.0042559765 0.03193823 0.06534688 -0.06936438 0.010338984
-0.051062424 -0.08562625 -0.064827204 -0.14062922 -0.12596688 -0.06631062 -0.04682478 -0.07676598
0.063876346 0.09281292 -0.04712916 0.06847356 0.07389539 0.06103683 0.09974604 -0.13504097
0.06856415 -0.079847805 -0.13689007 0.14516988 0.030101739 -0.113 -0.0025049548 -0.008098763
0.061517406 -0.049901064 -0.0355445 -0.10499587 0.01789405 -0.11238593 0.18127269 -0.11397966
0.0411376 0.0026271641 0.1980633 -0.12440174 0.05908614 0.23485936 0.17271425 -0.042457014
0.029835014 0.098207854 0.046203285 -0.048890308 0.089717515 0.0006941545 0.03933651 0.1495699
00000000: fc16 563d a5d8 16be 2cd5 eabc 1b86 723d
00000010: 7e30 51bd fe92 03bd a67b f83d a1cf b9bd
00000020: f3a8 5a3e 4d3d 243e 9466 6abd fb22 353d
00000030: 12b3 a73d 0cb0 ce3d dd9c 89bd a62b 073c
00000040: 283e 3bbd 2877 373c 4b8c 18be 4f09 bd3c
00000050: 4ade 70bc 44c0 20be 30c2 be3d cf6c 623d
00000060: 6be4 b4bb 117d 34be 70dc 65bd 4bee 6e3d
00000070: b489 d4bd af17 e7bd 7c3a 103d 7549 b6ba
00000080: 8352 9e3d 32a5 763d 6c96 85bd e461 2dbe
00000090: c48e 823d 3c76 b33c 72db 34bb df90 22bd
000000a0: c228 263e 2de3 6e3d 5ea4 df3c c68c 3bbb
000000b0: 82d1 83bc 2c6f aabd de9e 97bd 2603 313c
000000c0: 0639 14be ae73 7bbd 737f a4bd dea6 acbd
000000d0: 745c 273d 2772 293e 041c e13d e585 55bd
000000e0: 0037 aa3c e102 8e3d f8c4 05be 19e1 4fbe
000000f0: 5cbe 9d3b 1898 113e 164f d83d 13d7 c7bd
00000100: f1f1 543e 222c cd3d ef93 513d c2fe 3a3d
00000110: 71a1 43bd 6a1e 94bd 4eea 973b 178d 0e3e
00000120: 3ad2 4b3d bb89 0abe 305f 5cbd a548 fb3b
00000130: de75 383d eeec c93d bb02 8c3d d287 9dbc
00000140: d855 8bbd e255 10be b6bd fe3c 1ae3 2b3e
00000150: fe07 28bd e35c 173e 1efa a83c 6ee0 7d3e
00000160: 4820 65bd 0eb5 d33d 59c9 043d 83c4 bcbd
00000170: 1d70 06be 6a8f 0a3e 1eb6 3ebd a787 5d3e
00000180: 4662 b7bd 7f50 de3d 4c47 0c3d e3be bd3c
00000190: 9808 6d3d 5d19 3a3b da45 063d 2510 8abc
000001a0: 7553 b5bd c1ad 0cbd 2763 a03d 6789 4b3d
000001b0: 2b3d af3c fd0b 1abd c203 da3c acb7 213c
000001c0: 228e fdbd 1848 4a3d 7c30 b1bd 8b35 3c3e
000001d0: f3bc 0f3d d722 a83c 8e63 ea3c c310 f1bd
000001e0: d6a2 443d bddb 15be 5365 443d c00c 97bc
000001f0: 4ef5 633d d25d 83bd 8d9b 18bd df3d 49ba
00000200: 51ed 89bd a478 803d 2c21 983d 7964 1ebc
00000210: a165 063d ff80 01bd eaa9 39bd 9346 2cbd
00000220: 6fc2 af3d 2158 b8bd 670b 03bd 151b 5f3d
00000230: 87d3 29bd 00fd 80bd c06f fabd 1ca8 98bd
00000240: e84d 8a3d a160 de3d 13b1 62bd 0916 cdbc
00000250: c943 8b3d 8a85 88bc ae00 9a3d 22dd 993c
00000260: 95ed 6bbe a2ab 6a3d e1ff 8dbd a129 2dbd
00000270: 491b 693e 69e5 493c e5fe 28bd f39d 8cbd
00000280: 9670 3b3e 02d8 23be 3c20 ce3d e437 843d
00000290: 4c8c 203d a424 913d 8810 93bd 4336 873d
000002a0: 35da 2f3e 68b1 343d 03ab 09bd 05eb 69bd
000002b0: 8068 ed3c 0377 0b3e 9a7e 9a3c 0bc1 06be
000002c0: 7d12 f6bc f9d4 e53c d88d 4d3d 5f2e 27be
000002d0: 5a29 cbbc ecd3 733d 13ed 263e 0abe 043d
000002e0: 28ad 0b3d 27bf 8c3e b6f5 2f3e 43f3 153e
000002f0: fa16 71bd 4b59 2dbd eef1 c0bd 1c45 4ebd
00000300: c56d 43be 41e7 6cbb d14d ff3b 9fb5 a03d
00000310: d7d7 153c 7640 093e 957f 35bd c086 69ba
00000320: 4abb 8ebd 9f26 823d 2ada 993d b875 8b3b
00000330: a9d1 023d 96d4 853d e90e 8ebd d864 293c
00000340: d526 51bd d15c afbd 20c4 84bd 1b01 10be
00000350: 76fd 00be ddcd 87bd 57cb 3fbd 7b37 9dbd
00000360: 9ad1 823d b314 be3d 820a 41bd de3b 8c3d
00000370: 7756 973d c101 7a3d a747 cc3d 2e48 0abe
00000380: 5c6b 8c3d 3f87 a3bd e92c 0cbe 6aa7 143e
00000390: ec97 f63c 8b6c e7bd 2b2a 24bb adb0 04bc
000003a0: adf9 7b3d 0f65 4cbd 1c97 11bd 1308 d7bd
000003b0: 8b96 923c 982a e6bd 8c9f 393e 2b6e e9bd
000003c0: e67f 283d 802c 2c3b 1bd1 4a3e 57c6 febd
000003d0: 4f04 723d f97e 703e 01dc 303e 68e7 2dbd
000003e0: 8f68 f43c 3321 c93d a83f 3d3d 3441 48bd
000003f0: d1bd b73d ecf7 353a 521f 213d da28 193e

network_body._body_endoder.seq_layers.0.bias f4 [128]
0.0 0.0 0.0 0.0 0.0 0.0 0.0 0.0
0.0 0.0 0.0 0.0 0.0 0.0 0.0 0.0
0.0 0.0 0.0 0.0 0.0 0.0 0.0 0.0
0.0 0.0 0.0 0.0 0.0 0.0 0.0 0.0
0.0 0.0 0.0 0.0 0.0 0.0 0.0 0.0
0.0 0.0 0.0 0.0 0.0 0.0 0.0 0.0
0.0 0.0 0.0 0.0 0.0 0.0 0.0 0.0
0.0 0.0 0.0 0.0 0.0 0.0 0.0 0.0
0.0 0.0 0.0 0.0 0.0 0.0 0.0 0.0
0.0 0.0 0.0 0.0 0.0 0.0 0.0 0.0
0.0 0.0 0.0 0.0 0.0 0.0 0.0 0.0
0.0 0.0 0.0 0.0 0.0 0.0 0.0 0.0
0.0 0.0 0.0 0.0 0.0 0.0 0.0 0.0
0.0 0.0 0.0 0.0 0.0 0.0 0.0 0.0
0.0 0.0 0.0 0.0 0.0 0.0 0.0 0.0
0.0 0.0 0.0 0.0 0.0 0.0 0.0 0.0
00000000: 0000 0000 0000 0000 0000 0000 0000 0000
00000010: 0000 0000 0000 0000 0000 0000 0000 0000
00000020: 0000 0000 0000 0000 0000 0000 0000 0000
00000030: 0000 0000 0000 0000 0000 0000 0000 0000
00000040: 0000 0000 0000 0000 0000 0000 0000 0000
00000050: 0000 0000 0000 0000 0000 0000 0000 0000
00000060: 0000 0000 0000 0000 0000 0000 0000 0000
00000070: 0000 0000 0000 0000 0000 0000 0000 0000
00000080: 0000 0000 0000 0000 0000 0000 0000 0000
00000090: 0000 0000 0000 0000 0000 0000 0000 0000
000000a0: 0000 0000 0000 0000 0000 0000 0000 0000
000000b0: 0000 0000 0000 0000 0000 0000 0000 0000
000000c0: 0000 0000 0000 0000 0000 0000 0000 0000
000000d0: 0000 0000 0000 0000 0000 0000 0000 0000
000000e0: 0000 0000 0000 0000 0000 0000 0000 0000
000000f0: 0000 0000 0000 0000 0000 0000 0000 0000
00000100: 0000 0000 0000 0000 0000 0000 0000 0000
00000110: 0000 0000 0000 0000 0000 0000 0000 0000
00000120: 0000 0000 0000 0000 0000 0000 0000 0000
00000130: 0000 0000 0000 0000 0000 0000 0000 0000
00000140: 0000 0000 0000 0000 0000 0000 0000 0000
00000150: 0000 0000 0000 0000 0000 0000 0000 0000
00000160: 0000 0000 0000 0000 0000 0000 0000 0000
00000170: 0000 0000 0000 0000 0000 0000 0000 0000
00000180: 0000 0000 0000 0000 0000 0000 0000 0000
00000190: 0000 0000 0000 0000 0000 0000 0000 0000
000001a0: 0000 0000 0000 0000 0000 0000 0000 0000
000001b0: 0000 0000 0000 0000 0000 0000 0000 0000
000001c0: 0000 0000 0000 0000 0000 0000 0000 0000
000001d0: 0000 0000 0000 0000 0000 0000 0000 0000
000001e0: 0000 0000 0000 0000 0000 0000 0000 0000
000001f0: 0000 0000 0000 0000 0000 0000 0000 0000

network_body._body_endoder.seq_layers.2.weight f4 [128, 128]
-0.101397075 0.032666903 -0.0049096057 -0.073525906 -0.0008674093 -0.19789599 0.01845641 -0.029623862
-0.021548403 -0.09674367 0.015726687 0.036353324 0.13661933 0.029194513 -0.018473338 -0.089393
0.018288216 -0.088539936 0.12532364 0.12010151 0.06578977 0.05850653 -0.08486655 -0.030010525
-0.14481048 0.068590574 0.050149422 -0.046668578 0.04466846 0.013083568 0.009204723 -0.062203765
-0.09324597 0.11812339 -0.092180416 0.046671007 -0.028343078 0.12662323 -0.10118021 -0.032693565
-0.12315344 -0.05521894 -0.23337032 0.13147712 0.05120619 -0.11771237 -0.05263546 0.047107015
-0.045782663 -0.016702319 0.018075446 0.04736872 -0.10002626 0.07874322 -0.034841165 0.056394625
0.20291094 -0.083666444 0.003562458 -0.06620544 0.031879246 -0.06349592 -0.14608553 -0.0019792847
-0.031068034 0.02343136 -0.00086478336 0.15843365 0.116888665 0.03347446 -0.13901667 0.01347563
0.16985962 -0.12269379 0.07651567 -0.08729286 0.12086806 0.0033022882 -0.019429883 -0.060633782
0.04106921 0.07743942 -0.036633927 -0.0131589165 0.008523158 0.0034400981 -0.112278916 0.028186837
-0.06728753 0.027430283 0.025113508 0.00065417145 -0.050783753 -0.08573259 0.042647082 0.027443027
0.10525775 -0.010159988 -0.13016473 -0.044326514 0.014082274 -0.120116085 0.26068664 0.15297697
0.05430236 -0.053844612 0.14401397 0.14635119 0.14251244 0.100067146 0.06195286 -0.008020037
0.06861122 0.06874179 0.0805415 -0.042597957 0.099835575 -0.094105884 0.09953255 -0.021730846
-0.24792281 -0.12048202 0.091527134 0.1029496 -0.060744908 -0.12234191 -0.06458504 0.102120034
-0.018980257 -0.1394098 0.059656322 0.015616557 0.007324492 -0.09605171 -0.020055687 -0.013661048
-0.0017934162 -0.08409482 -0.059795544 0.08863674 0.13639753 -0.013502249 0.06464247 0.045101322
0.053577024 0.0045524556 -0.018475454 0.055214 -0.018631432 -0.11391599 0.050151963 -0.12577021
0.051124845 0.2027335 0.0015152377 -0.12071831 0.030853797 0.015371366 0.042839322 -0.031726845
0.08827163 -0.066432014 -0.1267126 -0.06705151 -0.11483906 0.040296357 0.057825334 -0.0029182935
-0.06411368 -0.008021994 -0.06774166 0.04928843 0.0060180863 -0.09083855 -0.105439514 0.10172102
0.0017811807 0.027177721 -0.076812215 0.045540456 0.090042755 0.06625001 0.09806072 -0.17254344
-0.01813093 -0.12570132 0.019862285 -0.008012044 -0.037218586 0.12966113 0.0360432 -0.1547714
0.027180362 -0.05586167 0.16079292 0.07391675 -0.08527116 -0.13773304 -0.0126612885 0.16568574
0.028763192 0.10292548 0.009215125 -0.102625534 0.0031243768 0.036115855 -0.00084582716 -0.028687488
-0.047700085 0.038183782 0.056665648 0.00024558243 -0.1211934 0.0044578565 -0.11979117 -0.00038277073
0.0047621178 -0.1274878 0.019213216 -0.17969956 -0.056096576 -0.12800525 0.0374077 0.056479216
0.07036344 -0.042527042 -0.043128565 -0.0077734864 0.034192327 0.03175993 0.27534896 -0.14801209
0.08314804 -0.27434063 0.18083653 0.024520375 -0.119146585 -0.07187658 0.08257296 0.054214265
0.078313544 0.08338852 -0.013693888 0.052770767 -0.14809437 0.024896864 0.07548982 -0.064017154
-0.032629885 -0.10310608 0.011773967 -0.16207366 -0.07678784 0.16945599 0.0012330285 0.009134285
00000000: 45a9 cfbd bbcd 053d c2e0 a0bb c094 96bd
00000010: da62 63ba 3fa5 4abe e631 973c bead f2bc
00000020: 4786 b0bc 8c21 c6bd 41d5 803c 39e7 143d
00000030: f0e5 0b3e 5529 ef3c 6655 97bc ad13 b7bd
00000040: 2bd1 953c 6d54 b5bd d754 003e c8f7 f53d
00000050: c9bc 863d 8ba4 6f3d 84ce adbd a2d8 f5bc
00000060: 3349 14be 3779 8c3d 7b69 4d3d 8d27 3fbd
00000070: 46f6 363d 765c 563c 68cf 163c 60c9 7ebd
00000080: bef7 bebd adea f13d 16c9 bcbd 192a 3f3d
00000090: be2f e8bc 85a9 013e 9237 cfbd b0e9 05bd
000000a0: df37 fcbd 412d 62bd a1f8 6ebe f0a1 063e
000000b0: 95bd 513d 2f13 f1bd 4898 57bd 49f3 403d
000000c0: 9a86 3bbd 4dd3 88bc f512 943c b405 423d
000000d0: 91da ccbd 2044 a13d 9cb5 0ebd 0dfe 663d
000000e0: e3c7 4f3e 5059 abbd 2178 693b b896 87bd
000000f0: d093 023d 260a 82bd 7297 15be e3b6 01bb
00000100: 6482 febc 20f3 bf3c a1b2 62ba 6e3c 223e
00000110: 5363 ef3d 841c 093d 635a 0ebe e4c8 5c3c
00000120: aeef 2d3e e246 fbbd 3fb4 9c3d 99c6 b2bd
00000130: ac89 f73d 346b 583b 6b2b 9fbc 215b 78bd
00000140: 3038 283d 8f98 9e3d 750d 16bd 7f98 57bc
00000150: b7a4 0b3c 4573 613b 7df2 e5bd 15e8 e63c
00000160: 0bce 89bd 79b5 e03c d8ba cd3c b47c 2b3a
00000170: a002 50bd 9194 afbd b5ae 2e3d 33d0 e03c
00000180: 6091 d73d 1476 26bc e749 05be b88f 35bd
00000190: 57b9 663c 6cff f5bd b878 853e ffa5 1c3e
000001a0: 276c 5e3d 2b8c 5cbd 6678 133e 16dd 153e
000001b0: c8ee 113e 01f0 cc3d 48c2 7d3d 7966 03bc
000001c0: 0a84 8c3d 7fc8 8c3d f1f2 a43d 327b 2ebd
000001d0: 9876 cc3d 96ba c0bd b9d7 cb3d e304 b2bc
000001e0: 7adf 7dbe 47bf f6bd 9472 bb3d 3dd7 d23d
000001f0: a7cf 78bd 658e fabd 2945 84bd 4f24 d13d
00000200: 7c7c 9bbc 71c1 0ebe 305a 743d 96dc 7f3c
00000210: 4b02 f03b c2b6 c4bd d34b a4bc 97d2 5fbc
00000220: 1011 ebba e839 acbd 2cec 74bd 2e87 b53d
00000230: cbab 0b3e 8938 5dbc 4563 843d 2abc 383d
00000240: 9573 5b3d c42c 953b d659 97bc 1328 623d
00000250: f2a0 98bc c94c e9bd 256c 4d3d e8c9 00be
00000260: 4968 513d 5f99 4f3e f19a c63a 293b f7bd
00000270: 1ac1 fc3c 2fd8 7b3c 4978 2f3d 02f4 01bd
00000280: c2c7 b43d 820d 88bd f3c0 01be 4d52 89bd
00000290: be30 ebbd cb0d 253d 42da 6c3d d740 3fbb
000002a0: 084e 83bd ae6e 03bc 24bc 8abd aae2 493d
000002b0: 5e33 c53b 9009 babd acf0 d7bd 1c53 d03d
000002c0: 8276 e93a d0a3 de3c b94f 9dbd a188 3a3d
000002d0: 5668 b83d 16ae 873d 0fd4 c83d 3aaf 30be
000002e0: 5187 94bc d9b7 00be 3bb6 a23c f344 03bc
000002f0: 8472 18bd e3c5 043e 09a2 133d 657c 1ebe
00000300: 5aa9 de3c 35cf 64bd e6a6 243e aa61 973d
00000310: a5a2 aebd e409 0dbe 4b71 4fbc 86a9 293e
00000320: c9a0 eb3c 98ca d23d 09fb 163c 562d d2bd
00000330: 58c2 4c3b 38ee 133d 80ba 5dba 0602 ebbc
00000340: 2a61 43bd 9966 1c3d 3d1a 683d 84c1 8039
00000350: 3f34 f8bd 3613 923b 1355 f5bd 9eae c8b9
00000360: 8a0b 9c3b 298c 02be 0965 9d3c 2903 38be
00000370: 86c5 65bd cf13 03be d138 193d c056 673d
00000380: b51a 903d d630 2ebd 94a7 30bd bbb8 febb
00000390: 410d 0c3d b316 023d 8afa 8c3e 7b90 17be
000003a0: 8549 aa3d 6076 8cbe 362d 393e f4de c83c
000003b0: 2003 f4bd 0734 93bd 031c a93d c70f 5e3d
000003c0: da62 a03d 9ac7 aa3d 545c 60bc 2926 583d
000003d0: 0da6 17be 82f4 cb3c 689a 9a3d 6d1b 83bd
000003e0: eaa6 05bd 4829 d3bd 99e7 403c a3f6 25be
000003f0: f142 9dbd df85 2d3e 929d a13a f8a7 153c

action_model._continuous_distribution.log_sigma f4 [1, 51]
0.0 0.0 0.0 0.0 0.0 0.0 0.0 0.0
0.0 0.0 0.0 0.0 0.0 0.0 0.0 0.0
0.0 0.0 0.0 0.0 0.0 0.0 0.0 0.0
0.0 0.0 0.0 0.0 0.0 0.0 0.0 0.0
0.0 0.0 0.0 0.0 0.0 0.0 0.0 0.0
0.0 0.0 0.0 0.0 0.0 0.0 0.0 0.0
0.0 0.0 0.0
00000000: 0000 0000 0000 0000 0000 0000 0000 0000
00000010: 0000 0000 0000 0000 0000 0000 0000 0000
00000020: 0000 0000 0000 0000 0000 0000 0000 0000
00000030: 0000 0000 0000 0000 0000 0000 0000 0000
00000040: 0000 0000 0000 0000 0000 0000 0000 0000
00000050: 0000 0000 0000 0000 0000 0000 0000 0000
00000060: 0000 0000 0000 0000 0000 0000 0000 0000
00000070: 0000 0000 0000 0000 0000 0000 0000 0000
00000080: 0000 0000 0000 0000 0000 0000 0000 0000
00000090: 0000 0000 0000 0000 0000 0000 0000 0000
000000a0: 0000 0000 0000 0000 0000 0000 0000 0000
000000b0: 0000 0000 0000 0000 0000 0000 0000 0000
000000c0: 0000 0000 0000 0000 0000 0000

action_model._continuous_distribution.mu.weight f4 [51, 128]
0.01431185 0.0015975578 -0.005142625 -0.0010094402 -0.0065860287 0.0023025805 -0.01635138 0.02949196
-0.011642402 0.00107611 0.04954238 0.008397176 0.02338753 -0.004932999 0.008692223 0.0033257965
0.024316583 -0.01751021 -0.034286674 -0.0031224184 0.043226723 0.0033669665 -0.012726726 0.0009282082
0.011229941 0.03608015 0.009703323 0.0065570124 0.00032164328 -0.018346533 -0.025226554 -0.022388332
-0.006356084 0.00882985 0.0083600925 0.011167111 -0.01187469 0.009389674 0.00083841145 -0.0020730137
-0.012762311 -0.020152709 -0.02138496 0.008982108 -0.03092807 -0.004657718 0.0027812282 -0.008949993
0.019951114 0.0117342835 0.009657304 -0.015184239 0.010664605 0.0101620145 -0.036693152 -0.0072459825
0.0032873985 -0.005301028 0.0039117057 -0.0070237177 -0.015481253 -0.0015413642 0.0109408125 -0.02115765
-0.0053815236 -0.012774743 -0.041683104 0.031279106 0.023453068 0.013942293 -0.024996817 0.013476953
0.019492896 -0.028110296 0.0048396443 0.006221934 0.017776752 -0.034179267 0.027000252 0.023345727
0.01733352 -0.010262529 -0.0053553353 0.016240155 -0.0042878874 0.0019206144 0.009749651 -0.053314615
-0.026533557 0.012649233 -0.022462362 -0.001980853 -0.0136007 -0.020799203 -0.017902983 0.0041878014
0.010205441 -0.004632868 -0.02423734 -0.012648418 -0.008377408 -0.01951375 -0.0061840443 -0.00095584476
-0.0038686374 0.001135928 0.01287704 -0.0034938243 -0.013154142 0.021795629 0.0036809146 0.01994337
0.01882731 0.014450884 0.0015028024 0.04439834 -0.032730237 0.005300342 -0.025871802 -0.0011730961
-0.011403176 -0.0003427509 1.4367854e-05 -0.018177992 -0.01678027 -0.023654385 -0.003137635 -0.02772798
-0.00048193 -0.0044774273 -0.04577772 -0.02345187 -0.0052780826 -0.024710475 -0.010769851 -0.0001914964
0.011987104 -0.002727594 -0.0047866814 -0.0062382915 0.0083063925 -0.0025311352 -0.019837534 -0.01950671
-0.0026011947 -0.007849779 -0.036952704 -0.0027984749 0.019969672 0.01520961 -0.027510453 0.005538923
0.03166997 -0.0022016156 -0.010891684 0.0035423418 0.01821565 0.024304943 -0.0038313202 0.017747603
0.034134116 0.020430831 0.01131473 0.00053119916 -0.017271368 0.0029920116 -0.003486972 0.020207541
-0.0066339746 -0.004618401 -0.01392138 0.010881257 -0.01685861 0.02133729 0.00074354577 0.016490432
0.009281569 0.020225592 0.030587787 0.0022538402 0.013739563 -0.014173825 0.036106538 0.0038731662
-0.020373704 0.040573206 -0.003495592 -0.004846185 -0.01272686 -0.012770886 0.013924241 0.014401029
-0.006379779 0.011452507 0.026036996 0.013512132 -0.032394137 0.014407669 -0.015203004 0.020111956
0.00972237 -0.0069181523 -0.011409596 -0.0023841648 0.014134208 0.008876993 -0.022170663 0.007103359
0.012478647 -0.026884869 0.00013129598 -0.0021251645 -0.007114929 -0.0052794344 0.016332796 -0.01099295
0.022221027 -0.0021962046 -0.010932031 -0.00917093 0.009428383 0.0059928773 0.0045909486 0.0077734883
-0.012669985 0.0061824494 0.00095401565 0.003484691 -0.01332721 -0.0047888416 0.02701037 0.016662126
0.012210374 0.029200155 0.020636067 0.0042566857 -0.057226505 0.024266046 -0.0053076125 0.009735921
-0.0062074265 -0.005779282 -0.008143141 0.01794775 0.009398519 -0.010829016 0.02218286 0.00093929115
0.023986587 -0.0076866685 -0.0063944953 -0.027561892 -0.021230957 -0.021299737 0.003983887 0.0053104307
00000000: 407c 6a3c 2565 d13a 7783 a8bb 314f 84ba
00000010: 9dcf d7bb e4e6 163b 54f3 85bc 1f99 f13c
00000020: c6bf 3ebc 430c 8d3a f3ec 4a3d 4f94 093c
00000030: 3597 bf3c ffa4 a1bb d369 0e3c 9bf5 593b
00000040: 9233 c73c 9271 8fbc 2f70 0cbd 7da1 4cbb
00000050: 810e 313d 53a8 5c3b c283 50bc ff52 733a
00000060: c9fd 373c c8c8 133d b0fa 1e3c 35dc d63b
00000070: 3ba2 a839 784b 96bc eba7 cebc bc67 b7bc
00000080: b246 d0bb 13ab 103c c5f8 083c 42f6 363c
00000090: 0f8e 42bc 26d7 193c d7c8 5b3a 66db 07bb
000000a0: 0319 51bc 4b17 a5bc 832f afbc b129 133c
000000b0: dd5c fdbc c59f 98bb 4445 363b fea2 12bc
000000c0: 8570 a33c 2741 403c ab39 1e3c 50c7 78bc
000000d0: 98ba 2e3c 947e 263c 8f4b 16bd b56f edbb
000000e0: 6571 573b 3fb4 adbb c42d 803b 3727 e6bb
000000f0: 15a5 7dbc 9a07 caba 1841 333c cf52 adbc
00000100: 7e57 b0bb 284d 51bc e7bb 2abd 851e 003d
00000110: a620 c03c 376e 643c 20c6 ccbc 70ce 5c3c
00000120: 91af 9f3c 9047 e6bc e195 9e3b 5ee1 cb3b
00000130: 8da0 913c 8fff 0bbd a22f dd3c 8a3f bf3c
00000140: 07ff 8d3c 2b24 28bc cf7b afbb 130a 853c
00000150: 6881 8cbb 20bd fb3a 00bd 1f3c 6d60 5abd
00000160: e75c d9bc bb3e 4f3c fd02 b8bc 33d1 01bb
00000170: 78d5 5ebc 1763 aabc 47a9 92bc d339 893b
00000180: b934 273c 50cf 97bb 638d c6bc 4f3b 4fbc
00000190: 6541 09bc 4ddb 9fbc 86a3 cabb a891 7aba
000001a0: f788 7dbb 6be3 943a 38fa 523c a5f8 64bb
000001b0: 7884 57bc bf8c b23c 803b 713b 4760 a33c
000001c0: bb3b 9a3c 67c3 6c3c aef9 c43a 09db 353d
000001d0: 2410 06bd 7eae ad3b 1af1 d3bc 93c2 99ba
000001e0: 63d4 3abc 3fb3 b3b9 770d 7137 03ea 94bc
000001f0: c776 89bc d7c6 c1bc c8a0 4dbb ca25 e3bc
00000200: 8dab fcb9 62b7 92bb 6b81 3bbd 231e c0bc
00000210: c4f3 acbb 9f6d cabc 0774 30bc 6ccc 48b9
00000220: 8f65 443c 6fc1 32bb 98d9 9cbb 956a ccbb
00000230: 8917 083c 67e1 25bb 5382 a2bc 89cc 9fbc
00000240: ce78 2abb 5c9c 00bc b85b 17bd 9e66 37bb
00000250: 7097 a33c ba31 793c 9a5d e1bc db7f b53b
00000260: 5fb8 013d fb48 10bb 0973 32bc a226 683b
00000270: fd38 953c 291b c73c e316 7bbb 6c63 913c
00000280: 37d0 0b3d 8f5e a73c 6b61 393c 2c40 0b3a
00000290: af7c 8dbc a015 443b af85 64bb 498a a53c
000002a0: d061 d9bb f555 97bb 8016 64bc 4d47 323c
000002b0: 111b 8abc 8acb ae3c 83ea 423a f116 873c
000002c0: b911 183c 24b0 a53c 3d93 fa3c 2ab5 133b
000002d0: e71b 613c 5539 68bc 73e4 133d f2d4 7d3b
000002e0: c1e6 a6bc 1730 263d 4d16 65bb bfcc 9ebb
000002f0: 5284 50bc fa3c 51bc 8022 643c 4bf2 6b3c
00000300: 770d d1bb 4ca3 3b3c 8a4b d53c fd61 5d3c
00000310: b7af 04bd 250e 6c3c 0516 79bc d4c1 a43c
00000320: 934a 1f3c abb1 e2bb 50ef 3abc a63f 1cbb
00000330: 2a93 673c cf70 113c 409f b5bc 4bc3 e83b
00000340: 3d73 4c3c a83d dcbc 7fac 0939 5846 0bbb
00000350: 5a24 e9bb 1bff acbb 5bcc 853c c61b 34bc
00000360: df08 b63c 33ee 0fbb 431c 33bc ab41 16bc
00000370: 8179 1a3c e65f c43b ab6f 963b bfb8 fe3b
00000380: c595 4fbc 2596 ca3b e816 7a3a 6a5f 643b
00000390: 5f5a 5abc b7eb 9cbb da44 dd3c 037f 883c
000003a0: 050e 483c 2a35 ef3c f80c a93c ab7b 8b3b
000003b0: 5766 6abd 96c9 c63c 7beb adbb 6a83 1f3c
000003c0: ab67 cbbb 2260 bdbb cf6a 05bc 2907 933c
000003d0: 3ffc 193c 2f6c 31bc d4b8 b53c c33a 763a
000003e0: 857f c43c 73e0 fbbb ea88 d1bb 7ac9 e1bc
000003f0: 8bec adbc c97c aebc 448b 823b 1f03 ae3b

action_model._continuous_distribution.mu.bias f4 [51]
0.0 0.0 0.0 0.0 0.0 0.0 0.0 0.0
0.0 0.0 0.0 0.0 0.0 0.0 0.0 0.0
0.0 0.0 0.0 0.0 0.0 0.0 0.0 0.0
0.0 0.0 0.0 0.0 0.0 0.0 0.0 0.0
0.0 0.0 0.0 0.0 0.0 0.0 0.0 0.0
0.0 0.0 0.0 0.0 0.0 0.0 0.0 0.0
0.0 0.0 0.0
00000000: 0000 0000 0000 0000 0000 0000 0000 0000
00000010: 0000 0000 0000 0000 0000 0000 0000 0000
00000020: 0000 0000 0000 0000 0000 0000 0000 0000
00000030: 0000 0000 0000 0000 0000 0000 0000 0000
00000040: 0000 0000 0000 0000 0000 0000 0000 0000
00000050: 0000 0000 0000 0000 0000 0000 0000 0000
00000060: 0000 0000 0000 0000 0000 0000 0000 0000
00000070: 0000 0000 0000 0000 0000 0000 0000 0000
00000080: 0000 0000 0000 0000 0000 0000 0000 0000
00000090: 0000 0000 0000 0000 0000 0000 0000 0000
000000a0: 0000 0000 0000 0000 0000 0000 0000 0000
000000b0: 0000 0000 0000 0000 0000 0000 0000 0000
000000c0: 0000 0000 0000 0000 0000 0000

action_model._discrete_distribution.branches.0.weight f4 [1, 128]
0.0023836477 -0.0146381585 0.009631095 0.0008256021 -0.009924207 0.011393308 -0.002440153 -0.0030079926
0.009148202 0.0044816374 -0.0053273984 -0.0029121763 0.012331578 0.008313897 -0.0040011657 -0.0022061814
-0.00093523087 -0.002781295 -0.0017517041 0.0035389517 -0.00395004 -0.013290971 -0.0038469129 -0.00022212004
-0.002886697 0.015713265 -3.0949577e-05 0.008365716 -0.015909398 0.0013765101 -0.0058357534 0.00094479247
0.00038766782 0.0002420015 -0.016601104 0.012298678 -0.002427087 -0.0022030424 0.0039871605 -0.010000455
-0.009923489 -0.014653985 0.008502993 0.012620555 -0.008817198 0.013551055 -0.009219388 -0.00410519
-0.0008358528 -0.0013251415 -0.003394232 0.005564209 0.005644864 -0.0024844713 0.00018341263 0.0083432
0.0022931395 -0.0065875836 0.008980255 0.013551535 -0.0073894137 0.0035645247 0.009121688 0.003150016
0.0017589604 0.01605214 -0.0031563062 -0.004019766 0.0011642381 -0.0026194428 0.0117721725 0.004817507
-0.011079576 0.003261501 -0.008075873 -0.003734298 -8.9636717e-07 -0.011131234 0.004399896 -0.01022821
0.015531152 0.0034324133 -0.0115287835 -0.0032196224 0.0037335716 -0.0061336635 -0.010805752 -0.0054788794
0.004765104 -0.0025134434 -0.009757905 0.011052169 0.010838916 -0.0018358391 -0.009695056 -0.004915287
0.0031256971 0.008175316 -0.00010724653 -0.003913239 -0.010653806 0.013391587 -0.010675039 -0.0024721448
0.0017142103 0.0057450524 -0.0045254636 -0.0059572845 -0.013071309 -0.0052708318 -0.003923923 -0.0073719616
-0.00505433 0.01953214 -0.0029503482 -0.0005848735 -0.0070735845 -0.011237079 -0.014460245 -0.00095476693
-0.008407636 0.0050205397 -0.0081568565 0.00030957823 -0.00553264 0.0032989518 0.0074866354 0.0048708664
00000000: f936 1c3b e3d4 6fbc becb 1d3c 386d 583a
00000010: 2499 22bc ffaa 3a3c f9ea 1fbb be21 45bb
00000020: 57e2 153c b3da 923b 7591 aebb 36da 3ebb
00000030: 630a 4a3c 0337 083c 361c 83bb 9595 10bb
00000040: 482a 75ba 6346 36bb 7099 e5ba c2ed 673b
00000050: 566f 81bb 5fc2 59bc 7d1c 7cbb e5e8 68b9
00000060: bd2e 3dbb 1bb9 803c dbcf 01b8 5b10 093c
00000070: 6d54 82bc 046c b43a d939 bfbb f3ab 773a
00000080: e53f cb39 c8c1 7d39 0aff 87bc 6580 493c
00000090: c30f 1fbb eb60 10bb baa6 823b f3d8 23bc
000000a0: 2196 22bc 4517 70bc 2350 0b3c 72c6 4e3c
000000b0: 0276 10bc 3f05 5e3c ea0c 17bc d484 86bb
000000c0: 221d 5bba 5fb0 adba c371 5ebb f853 b63b
000000d0: 8df8 b83b 83d2 22bb 7452 4039 ebb1 083c
000000e0: 7f48 163b a8dc d7bb eb21 133c 4207 5e3c
000000f0: e522 f2bb cd9a 693b 2273 153c 8070 4e3b
00000100: eb8c e63a c77f 833c 08da 4ebb 3eb8 83bb
00000110: 5999 983a f5aa 2bbb 12e0 403c 2edc 9d3b
00000120: 1c87 35bc e8be 553b ab50 04bc 20bb 74bb
00000130: e29d 70b5 c75f 36bc 012d 903b 3994 27bc
00000140: 5f76 7e3c 57f2 603b 39e3 3cbc 4d00 53bb
00000150: f0ae 743b e6fc c8bb 9c0a 31bc 2c88 b3bb
00000160: 9724 9c3b 95b8 24bb 9fdf 1fbc 2814 353c
00000170: b595 313c 8aa0 f0ba 03d8 1ebc 6a10 a1bb
00000180: 7fd8 4c3b c3f1 053c 8be9 e0b8 a13a 80bb
00000190: 4d8d 2ebc 6368 5b3c 5ce6 2ebc b503 22bb
000001a0: 5aaf e03a fe40 bc3b 574a 94bb 5335 c3bb
000001b0: 0b29 56bc f1b6 acbb 4094 80bb 7f90 f1bb
000001c0: cb9e a5bb de01 a03c a15a 41bb 3252 19ba
000001d0: 87c9 e7bb ba1b 38bc aaea 6cbc 5349 7aba
000001e0: 2ec0 09bc 5783 a43b 56a4 05bc e34e a239
000001f0: 264b b5bb 3a33 583b 7352 f53b ca9b 9f3b

onnx::LSTM_116 f4 [1, 512, 128]
0.12023254 -0.13111584 0.03317982 -0.15113857 0.117469266 0.089359716 -0.09939976 0.14982899
-0.04671622 0.053603068 -0.052742086 0.119237855 0.030611932 -0.10228206 -0.0024694204 -0.14241855
-0.046653442 -0.018873334 -0.14071745 0.015835628 0.08900468 -0.14601462 0.08249502 -0.07366143
-0.01338774 0.115144566 -0.10179211 0.03731036 0.028633326 0.070577145 -0.14814702 -0.012584314
-0.0151631385 0.04766673 -0.14717346 -0.08899951 -0.13981016 0.13971217 0.03950818 -0.14196104
-0.01458995 -0.015092596 0.01338914 -0.14407505 -0.050423786 0.0715304 0.13360141 -0.0011491925
0.13804884 -0.13627279 0.102316126 0.11158754 -0.022327513 0.024283856 -0.03350109 0.13410161
-0.07659215 -0.022732764 0.11040281 -0.021034867 0.005023375 -0.13904409 0.03685595 -0.008456051
-0.03527508 0.054582357 -0.027779147 -0.10660431 0.02948603 0.15076749 -0.053336985 -0.078771174
-0.05309608 0.045102105 0.05834347 0.09868188 -0.010074183 -0.1469814 0.006832242 0.022955835
-0.10053231 -0.0029354393 -0.083135724 -0.08557305 0.103356436 0.0987397 0.052856877 0.08791636
0.095069915 -0.007123783 -0.13491401 -0.010381013 -0.10990756 0.10177724 0.04446721 -0.04113528
0.08941935 0.03462389 0.0021198392 0.0992509 -0.12417373 0.04315418 0.15117355 0.12751324
-0.051126197 -0.037299946 0.06341529 -0.031083204 0.06488775 -0.080957815 -0.04099313 -0.111100644
-0.060543574 -0.10846241 -0.03887566 0.12275685 0.06743792 -0.07399714 0.05374843 -0.08383306
-0.06808607 -0.02136065 -0.032313026 0.050223455 0.056386665 -0.014394641 0.10702206 -0.09123557
-0.117928594 -0.12143585 0.13670827 0.017786697 -0.01736024 0.059488 -0.04354187 -0.076540224
0.12681957 -0.12206408 0.11557247 0.13314404 0.054981485 0.088210285 -0.031718567 -0.09398546
0.06872833 0.09384777 0.0539317 0.10763733 -0.054711804 0.13330616 -0.107036576 -0.034846835
0.1377766 -0.018872082 -0.0823446 0.05358392 0.1143267 -0.009750158 0.031105638 0.11678301
0.05916801 -0.07384554 -0.15075658 0.10123418 0.09827085 0.010541886 -0.012351498 -0.015029907
-0.08556241 0.08040887 -0.045395404 -0.13072662 0.13040392 -0.063846424 -0.054512143 -0.15110515
0.14376323 -0.10937913 -0.02608253 0.1060435 -0.027239472 -0.070773385 -0.15302052 0.028601468
0.13164099 -0.14674796 -0.11938457 0.123685434 -0.061729707 0.04477389 0.0011683702 -0.0059229136
-0.05004824 0.06592862 0.0060562044 0.043641448 0.058741957 -0.06211573 0.13089387 0.02471684
0.013202831 -0.037608117 0.047271818 0.10877268 0.12007235 0.030780539 0.05752179 0.07404171
0.123750344 -0.016799003 -0.08220401 -0.032767855 -0.13195083 -0.12324214 0.046885088 -0.13283436
0.023774654 0.13213028 -0.019217372 -0.062155865 0.12064274 -0.07979172 -0.063136406 -0.053018555
-0.07238987 0.034307986 0.12438966 0.03502983 0.13502164 -0.08860896 0.063850835 -0.118432835
0.08094847 -0.010783955 0.08861697 0.0374524 0.016500011 -0.051165804 -0.050857082 -0.03643153
-0.14854506 -0.07718895 -0.14329173 0.010693118 0.015880436 -0.01796852 0.14996152 0.1079887
0.038013637 -0.09109307 0.13668571 -0.13685669 -0.053789422 0.056310892 0.13276939 -0.14645514
00000000: 7a3c f63d 3b43 06be 90e7 073d 12c4 1abe
00000010: ba93 f03d 3a02 b73d 1a92 cbbd c56c 193e
00000020: 8259 3fbd e48e 5b3d 1608 58bd fa32 f43d
00000030: e0c5 fa3c 4279 d1bd 00d6 21bb 2bd6 11be
00000040: ae17 3fbd 409c 9abc 3c18 10be b8b9 813c
00000050: 1648 b63d db84 15be 26f3 a83d cedb 96bd
00000060: 4058 5bbc ead0 eb3d 6278 d0bd c0d2 183d
00000070: 7090 ea3c c08a 903d dab3 17be 702e 4ebc
00000080: d06e 78bc 303e 433d a4b4 16be 6045 b6bd
00000090: 652a 0fbe b510 0f3e 54d3 213d 3c5e 11be
000000a0: b00a 6fbc f046 77bc 205e 5b3c 6988 13be
000000b0: 2c89 4ebd 887e 923d cfce 083e 80a0 96ba
000000c0: ad5c 0d3e 188b 0bbe 1e8b d13d 0288 e43d
000000d0: 30e8 b6bc f0ee c63c 7038 09bd ef51 093e
000000e0: 58dc 9cbd 103a babc de1a e23d 5051 acbc
000000f0: 209b a43b 9361 0ebe 44f6 163d 408b 0abc
00000100: 9a7c 10bd c091 5f3d 1891 e3bc 5c53 dabd
00000110: b08c f13c cb62 1a3e e277 5abd c852 a1bd
00000120: 467b 59bd fcbc 383d 90f9 6e3d ba19 ca3d
00000130: 300e 25bc 4b82 16be 00e1 df3b e00d bc3c
00000140: e2e3 cdbd 8060 40bb 1043 aabd ec40 afbd
00000150: 8aac d33d 0a38 ca3d 7480 583d 7e0d b43d
00000160: 04b4 c23d a06e e9bb e626 0abe 2015 2abc
00000170: 3717 e1bd 9670 d03d 4023 363d 787d 28bd
00000180: 7e21 b73d c8d1 0d3d 00ed 0a3b 0e44 cb3d
00000190: cc4e febd 70c2 303d 3dcd 1a3e d592 023e
000001a0: b469 51bd d4c7 18bd e0df 813d 34a2 febc
000001b0: dee3 843d 36cd a5bd 6ae8 27bd bc88 e3bd
000001c0: 8afc 77bd 8a21 debd 163c 1fbd f267 fb3d
000001d0: e41c 8a3d d08b 97bd 5027 5c3d abb0 abbd
000001e0: b670 8bbd 88fc aebc aa5a 04bd 1cb7 4d3d
000001f0: b4f5 663d 80d7 6bbc 622e db3d b7d9 babd
00000200: 8c84 f1bd 5cb3 f8bd 41fd 0b3e 68b5 913c
00000210: 1037 8ebc b0a9 733d f658 32bd 1fc1 9cbd
00000220: fddc 013e bbfc f9bd 42b1 ec3d e956 083e
00000230: 4434 613d 98a7 b43d 54eb 01bd 737b c0bd
00000240: 70c1 8c3d 4233 c03d 7ce7 5c3d f670 dc3d
00000250: 7c19 60bd 6981 083e fe35 dbbd 8ebb 0ebd
00000260: 4f15 0d3e a099 9abc 49a4 a8bd d07a 5b3d
00000270: 1e24 ea3d 20bf 1fbc 40d1 fe3c ee2b ef3d
00000280: 285a 723d 553c 97bd ef5f 1abe de53 cf3d
00000290: 3a42 c93d e0b7 2c3c f05d 4abc 0040 76bc
000002a0: 583b afbd 68ad a43d 88f0 39bd 33dd 05be
000002b0: 9b88 053e eac1 82bd 2048 5fbd 4fbb 1abe
000002c0: ab36 133e 2a02 e0bd 08ab d5bc 562d d93d
000002d0: 5025 dfbc a3f1 90bd 69b1 1cbe a04d ea3c
000002e0: e5cc 063e 1945 16be e67f f4bd ca4e fd3d
000002f0: 4ad8 7cbd d464 373d 0024 993a 0015 c2bb
00000300: 62ff 4cbd 9605 873d 2073 c63b 60c1 323d
00000310: 689b 703d 106d 7ebd 0b09 063e f87a ca3c
00000320: b050 583c f80a 1abd 18a0 413d 36c4 de3d
00000330: 7ee8 f53d 7827 fc3c f89b 6b3d 2ea3 973d
00000340: d270 fd3d 109e 89bc 935a a8bd 9637 06bd
00000350: 1e1e 07be 6066 fcbd 940a 403d bb05 08be
00000360: 10c3 c23c 294d 073e c06d 9dbc 2697 7ebd
00000370: 8a13 f73d d769 a3bd a94d 81bd fc29 59bd
00000380: 2441 94bd 8886 0c3d 02c0 fe3d 707b 0f3d
00000390: 1d43 0a3e 9d78 b5bd 3ac4 823d ea8c f2bd
000003a0: 50c8 a53d 30af 30bc d07c b53d b067 193d
000003b0: 082b 873c 3c93 51bd 844f 50bd 3a39 15bd
000003c0: 321c 18be 3d15 9ebd 11bb 12be 3032 2f3c
000003d0: b017 823c b832 93bc 838f 193e 2e29 dd3d
000003e0: 30b4 1b3d 018f babd 57f7 0b3e 2924 0cbe
000003f0: 4c52 5cbd 40a6 663d b3f4 073e 56f8 15be

onnx::LSTM_117 f4 [1, 512, 128]
-0.008206874 0.054414377 0.12140562 -0.06608343 0.06528069 0.14816912 0.12310283 -0.13428777
-0.06415255 0.14929996 -0.08302219 0.13293318 0.12373491 0.0069016963 0.048130304 -0.027958259
-0.06049738 -0.03858886 -0.09329869 0.09892215 0.06693871 0.08042559 0.06688906 0.118820146
-0.024394393 0.029338688 -0.062418334 -0.06889802 0.014358059 -0.1435362 0.03791134 -0.09170604
-0.0018588305 0.044673443 0.010266587 -0.04531259 0.08856556 0.0008559376 -0.06669972 0.029997438
0.07013884 0.015532553 -0.12328558 -0.04409317 0.0014720857 0.075938076 0.0055842996 -0.023153618
0.12419923 -0.04479523 -0.13906088 0.11659314 -0.060878426 -0.13516158 -0.12913422 0.05165565
0.0013412535 -0.13363396 0.14418857 -0.031646863 0.1251163 0.107155964 0.1086563 0.09260538
-0.10001472 -0.09721796 0.038199067 -0.08663227 0.025727421 0.07803422 0.076789856 -0.08056024
-0.03671395 -0.11809251 -0.07813057 0.12396149 -0.08132917 0.022974417 0.051175788 0.14299183
0.09645997 0.08036478 -0.04515394 -0.09558901 -0.055194534 0.019025475 0.072189555 0.0014478415
0.023890942 0.08710177 0.13798527 0.07859348 0.07404287 -0.14467609 0.048855588 -0.14495632
-0.048626296 -0.05572027 -0.12029491 0.07602918 -0.048486173 0.10151063 0.08039698 0.11255245
-0.08781221 0.03563343 0.074020326 -0.03614851 -0.103458606 -0.0680887 0.06643936 0.030887157
-0.018250138 0.022489786 -0.10142231 -0.03823559 -0.061375707 0.1203212 0.00067958236 0.0076821446
0.099979594 -0.034269802 0.0630157 0.07040721 0.09100518 -0.10122691 0.100579605 -0.035209596
0.143434 0.068059415 0.0728129 -0.15279274 0.12287025 -0.13544163 -0.06479862 -0.075054556
-0.08992975 0.13746153 -0.13286242 0.029548317 0.1279379 0.13894396 -0.13188197 -0.09494297
0.09918173 -0.014053449 -0.0057060122 0.07409781 0.054922163 -0.021540597 0.12530647 0.035847887
-0.13399917 -0.07275192 -0.037953645 -0.022248745 0.15247779 -0.047211163 -0.1515038 0.13462849
0.1004449 -0.09252894 0.09345129 -0.08587463 -0.022564262 -0.014474541 -0.13750704 -0.04014802
0.11018933 0.009927481 0.05023198 -0.14532274 0.14368938 0.08846733 -0.11119578 0.12485634
-0.00091803074 0.08076827 0.005202532 0.07297914 -0.07386859 -0.09624694 0.101339445 -0.062440127
-0.11400283 -0.08769488 0.080996946 -0.14985436 0.018595815 -0.012930393 0.11121909 0.0645244
0.023090765 0.054351524 -0.074499294 0.072174594 0.14192195 -0.14286853 0.11592539 0.1486824
-0.004410982 -0.010559082 0.011666775 0.08552645 0.09666921 0.032232672 0.13088311 -0.011308089
0.016435847 -0.09689732 0.006106913 -0.0001861006 -0.11932349 0.13344093 -0.1345402 -0.10639399
-0.07382413 -0.01073885 0.04710707 -0.032534584 0.061911255 -0.11689082 0.013877735 0.1055695
0.061334163 0.021301672 -0.019704744 0.03287153 -0.14579073 0.07334563 0.1410731 -0.10589325
0.11804472 0.10225193 -0.0716068 0.07106605 0.08201426 -0.05460166 -0.005103469 -0.048615918
0.081772044 -0.10677781 0.0018313676 -0.015224874 -0.09184784 0.07032412 -0.096473224 -0.067534976
-0.113187015 -0.023238316 0.108874485 0.12943228 -0.13734767 -0.1216733 -0.025002956 -0.1125276
00000000: 2076 06bc 9ce1 5e3d 82a3 f83d c056 87bd
00000010: e2b1 853d a5b9 173e 561d fc3d bc82 09be
00000020: 6a62 83bd 17e2 183e 8a07 aabd a31f 083e
00000030: ba68 fd3d a027 e23b 4824 453d b808 e5bc
00000040: 1acc 77bd 5a0f 1ebd 6213 bfbd b297 ca3d
00000050: 2a17 893d 2cb6 a43d 22fd 883d fa57 f33d
00000060: c0d6 c7bc b057 f03c 5eaa 7fbd 681a 8dbd
00000070: 103e 6b3c 27fb 12be ec48 1b3d 60d0 bbbd
00000080: 00a4 f3ba 80fb 363d 3035 283c b299 39bd
00000090: dc61 b53d 0061 603a dd99 88bd 30bd f53c
000000a0: f4a4 8f3d 407c 7e3c 267d fcbd 0a9b 34bd
000000b0: 00f3 c03a 6c85 9b3d 80fc b63b a8ac bdbc
000000c0: 2a5c fe3d 347b 37bd fa65 0ebe 62c8 ee3d
000000d0: a85b 79bd cc67 0abe c33b 04be e094 533d
000000e0: 00cd af3a 57d7 08be 2ba6 133e 24a0 01bd
000000f0: 7d1e 003e 9674 db3d 3287 de3d e4a7 bd3d
00000100: 84d4 ccbd 361a c7bd a076 1c3d 426c b1bd
00000110: 50c2 d23c 68d0 9f3d 0044 9d3d c4fc a4bd
00000120: 5e61 16bd 7cda f1bd ec02 a0bd 86df fd3d
00000130: e88f a6bd d834 bc3c b49d 513d 736c 123e
00000140: ce8c c53d 4a96 a43d 56f3 38bd 2cc4 c3bd
00000150: aa13 62bd 50db 9b3c 1ed8 933d 80c5 bd3a
00000160: f0b6 c33c 6a62 b23d 034c 0d3e 9ef5 a03d
00000170: caa3 973d f825 14be cc1c 483d 6e6f 14be
00000180: 5e2c 47bd f03a 64bd 2e5d f6bd 30b5 9b3d
00000190: 7099 46bd cee4 cf3d 2ca7 a43d e681 e63d
000001a0: e3d6 b3bd 5cf4 113d f897 973d 7610 14bd
000001b0: 1be2 d3bd 1772 8bbd 5c11 883d 1007 fd3c
000001c0: 5081 95bc 803c b83c 80b6 cfbd ec9c 1cbd
000001d0: 1865 7bbd f66a f63d 0026 323a 80ba fb3b
000001e0: 1ac2 cc3d 7e5e 0cbd 600e 813d a831 903d
000001f0: ec60 ba3d 0e50 cfbd aefc cd3d f037 10bd
00000200: 5de0 123e bc62 8b3d ee1e 953d b375 1cbe
00000210: 66a3 fb3d 36b1 0abe 24b5 84bd 34b6 99bd
00000220: 172d b8bd b7c2 0c3e 160d 08be 500f f23c
00000230: 2702 033e 5347 0e3e 110c 07be 7671 c2bd
00000240: ca1f cb3d 7040 66bc 80f9 babb 98c0 973d
00000250: 10f6 603d e875 b0bc 5750 003e 3cd5 123d
00000260: 1437 09be f5fe 94bd 4875 1bbd 0043 b6bc
00000270: 2323 1c3e 7e60 41bd d023 1bbe 0ddc 093e
00000280: 0eb6 cd3d d07f bdbd 6463 bf3d 0adf afbd
00000290: b0d8 b8bc a026 6dbc a5ce 0cbe 4072 24bd
000002a0: f2aa e13d e0a6 223c 0cc0 4d3d 7ccf 14be
000002b0: 4f23 133e 5c2e b53d 9dba e3bd aeb4 ff3d
000002c0: 00a8 70ba d669 a53d 007a aa3b 1676 953d
000002d0: 6a48 97bd 1e1d c5bd 0e8b cf3d 38c1 7fbd
000002e0: 517a e9bd 6099 b3bd bae1 a53d 6c73 19be
000002f0: 4056 983c 00da 53bc d6c6 e33d 5e25 843d
00000300: d828 bd3c b49f 5e3d 1693 98bd 46d0 933d
00000310: fd53 113e 214c 12be 4a6a ed3d 3340 183e
00000320: 008a 90bb 0000 2dbc 0026 3f3c 7e28 af3d
00000330: 82fa c53d 6806 043d 3906 063e 9045 39bc
00000340: 78a4 863c 1a72 c6bd 801c c83b 0024 43b9
00000350: e05f f4bd bda4 083e e8c4 09be 18e5 d9bd
00000360: 1b31 97bd 00f2 2fbc 58f3 403d fc42 05bd
00000370: a896 7d3d 7464 efbd 705f 633c d234 d83d
00000380: 8839 7b3d d880 ae3c d86b a1bc 4ca4 063d
00000390: 2a4a 15be 3c36 963d 7775 103e 8fde d8bd
000003a0: 6ec1 f13d 7669 d13d 96a6 92bd 148b 913d
000003b0: 18f7 a73d fea5 5fbd 003b a7bb 7c21 47bd
000003c0: 1a78 a73d 53ae dabd 800a f03a c071 79bc
000003d0: b81a bcbd 1806 903d c193 c5bd c74f 8abd
000003e0: 98ce e7bd 485e bebc 96f9 de3d e589 043e
000003f0: dea4 0cbe da2f f9bd 00d3 ccbc df74 e6bd

onnx::LSTM_118 f4 [1, 1024]
0.0 0.0 0.0 0.0 0.0 0.0 0.0 0.0
0.0 0.0 0.0 0.0 0.0 0.0 0.0 0.0
0.0 0.0 0.0 0.0 0.0 0.0 0.0 0.0
0.0 0.0 0.0 0.0 0.0 0.0 0.0 0.0
0.0 0.0 0.0 0.0 0.0 0.0 0.0 0.0
0.0 0.0 0.0 0.0 0.0 0.0 0.0 0.0
0.0 0.0 0.0 0.0 0.0 0.0 0.0 0.0
0.0 0.0 0.0 0.0 0.0 0.0 0.0 0.0
0.0 0.0 0.0 0.0 0.0 0.0 0.0 0.0
0.0 0.0 0.0 0.0 0.0 0.0 0.0 0.0
0.0 0.0 0.0 0.0 0.0 0.0 0.0 0.0
0.0 0.0 0.0 0.0 0.0 0.0 0.0 0.0
0.0 0.0 0.0 0.0 0.0 0.0 0.0 0.0
0.0 0.0 0.0 0.0 0.0 0.0 0.0 0.0
0.0 0.0 0.0 0.0 0.0 0.0 0.0 0.0
0.0 0.0 0.0 0.0 0.0 0.0 0.0 0.0
0.0 0.0 0.0 0.0 0.0 0.0 0.0 0.0
0.0 0.0 0.0 0.0 0.0 0.0 0.0 0.0
0.0 0.0 0.0 0.0 0.0 0.0 0.0 0.0
0.0 0.0 0.0 0.0 0.0 0.0 0.0 0.0
0.0 0.0 0.0 0.0 0.0 0.0 0.0 0.0
0.0 0.0 0.0 0.0 0.0 0.0 0.0 0.0
0.0 0.0 0.0 0.0 0.0 0.0 0.0 0.0
0.0 0.0 0.0 0.0 0.0 0.0 0.0 0.0
0.0 0.0 0.0 0.0 0.0 0.0 0.0 0.0
0.0 0.0 0.0 0.0 0.0 0.0 0.0 0.0
0.0 0.0 0.0 0.0 0.0 0.0 0.0 0.0
0.0 0.0 0.0 0.0 0.0 0.0 0.0 0.0
0.0 0.0 0.0 0.0 0.0 0.0 0.0 0.0
0.0 0.0 0.0 0.0 0.0 0.0 0.0 0.0
0.0 0.0 0.0 0.0 0.0 0.0 0.0 0.0
0.0 0.0 0.0 0.0 0.0 0.0 0.0 0.0
00000000: 0000 0000 0000 0000 0000 0000 0000 0000
00000010: 0000 0000 0000 0000 0000 0000 0000 0000
00000020: 0000 0000 0000 0000 0000 0000 0000 0000
00000030: 0000 0000 0000 0000 0000 0000 0000 0000
00000040: 0000 0000 0000 0000 0000 0000 0000 0000
00000050: 0000 0000 0000 0000 0000 0000 0000 0000
00000060: 0000 0000 0000 0000 0000 0000 0000 0000
00000070: 0000 0000 0000 0000 0000 0000 0000 0000
00000080: 0000 0000 0000 0000 0000 0000 0000 0000
00000090: 0000 0000 0000 0000 0000 0000 0000 0000
000000a0: 0000 0000 0000 0000 0000 0000 0000 0000
000000b0: 0000 0000 0000 0000 0000 0000 0000 0000
000000c0: 0000 0000 0000 0000 0000 0000 0000 0000
000000d0: 0000 0000 0000 0000 0000 0000 0000 0000
000000e0: 0000 0000 0000 0000 0000 0000 0000 0000
000000f0: 0000 0000 0000 0000 0000 0000 0000 0000
00000100: 0000 0000 0000 0000 0000 0000 0000 0000
00000110: 0000 0000 0000 0000 0000 0000 0000 0000
00000120: 0000 0000 0000 0000 0000 0000 0000 0000
00000130: 0000 0000 0000 0000 0000 0000 0000 0000
00000140: 0000 0000 0000 0000 0000 0000 0000 0000
00000150: 0000 0000 0000 0000 0000 0000 0000 0000
00000160: 0000 0000 0000 0000 0000 0000 0000 0000
00000170: 0000 0000 0000 0000 0000 0000 0000 0000
00000180: 0000 0000 0000 0000 0000 0000 0000 0000
00000190: 0000 0000 0000 0000 0000 0000 0000 0000
000001a0: 0000 0000 0000 0000 0000 0000 0000 0000
000001b0: 0000 0000 0000 0000 0000 0000 0000 0000
000001c0: 0000 0000 0000 0000 0000 0000 0000 0000
000001d0: 0000 0000 0000 0000 0000 0000 0000 0000
000001e0: 0000 0000 0000 0000 0000 0000 0000 0000
000001f0: 0000 0000 0000 0000 0000 0000 0000 0000
00000200: 0000 0000 0000 0000 0000 0000 0000 0000
00000210: 0000 0000 0000 0000 0000 0000 0000 0000
00000220: 0000 0000 0000 0000 0000 0000 0000 0000
00000230: 0000 0000 0000 0000 0000 0000 0000 0000
00000240: 0000 0000 0000 0000 0000 0000 0000 0000
00000250: 0000 0000 0000 0000 0000 0000 0000 0000
00000260: 0000 0000 0000 0000 0000 0000 0000 0000
00000270: 0000 0000 0000 0000 0000 0000 0000 0000
00000280: 0000 0000 0000 0000 0000 0000 0000 0000
00000290: 0000 0000 0000 0000 0000 0000 0000 0000
000002a0: 0000 0000 0000 0000 0000 0000 0000 0000
000002b0: 0000 0000 0000 0000 0000 0000 0000 0000
000002c0: 0000 0000 0000 0000 0000 0000 0000 0000
000002d0: 0000 0000 0000 0000 0000 0000 0000 0000
000002e0: 0000 0000 0000 0000 0000 0000 0000 0000
000002f0: 0000 0000 0000 0000 0000 0000 0000 0000
00000300: 0000 0000 0000 0000 0000 0000 0000 0000
00000310: 0000 0000 0000 0000 0000 0000 0000 0000
00000320: 0000 0000 0000 0000 0000 0000 0000 0000
00000330: 0000 0000 0000 0000 0000 0000 0000 0000
00000340: 0000 0000 0000 0000 0000 0000 0000 0000
00000350: 0000 0000 0000 0000 0000 0000 0000 0000
00000360: 0000 0000 0000 0000 0000 0000 0000 0000
00000370: 0000 0000 0000 0000 0000 0000 0000 0000
00000380: 0000 0000 0000 0000 0000 0000 0000 0000
00000390: 0000 0000 0000 0000 0000 0000 0000 0000
000003a0: 0000 0000 0000 0000 0000 0000 0000 0000
000003b0: 0000 0000 0000 0000 0000 0000 0000 0000
000003c0: 0000 0000 0000 0000 0000 0000 0000 0000
000003d0: 0000 0000 0000 0000 0000 0000 0000 0000
000003e0: 0000 0000 0000 0000 0000 0000 0000 0000
000003f0: 0000 0000 0000 0000 0000 0000 0000 0000
