results/try-15/My Behavior/My Behavior-5568.onnx (onnx, 693209 bytes, 10 tensors)

network_body._body_endoder.seq_layers.0.weight f4 [128, 122]
00000000: 44bc 283d e408 a03d 73ca 92bd 04c2 803d
00000010: f237 e13c 8308 cf3c c0e5 79bc de3d 9e3d
00000020: a527 333d cefb 92bd 1cf6 cfbd 8c5d 8a3d
00000030: 0f9c ca3d 4c67 e03c ffbd 20bd ac29 5ebd
00000040: 9f7f d7bc 4b45 cd3c bc64 c5bd d068 51bd
00000050: 3b42 c4bc 1ad4 47bd 4bbc ce3d c48a 55bc
00000060: d95b f3bc 1e1b 0fbe 48ed 0dbd 8eae 71bb
00000070: 0f11 f3bc dd33 eebd e7a6 eebd 2ae4 543c
00000080: 59e1 45bd d61a 0f3d 85c4 7f3d 4894 e4bd
00000090: 82e4 3ebd 4c00 953d db64 933d 0f5b 313d
000000a0: 2d13 b9bd c99f 1cbd 8112 203e b7e6 5dbd
000000b0: e31f 573e 8b10 41bd 87a5 10be c0b6 893d
000000c0: 04c7 823d 947c d6bd f1fd 4b3d 7fb3 833d
000000d0: 2e65 5c3d 46bf 1bbe 8bb1 32bd df5e 9bbd
000000e0: cb74 3f3d 37d5 03be e769 d03c 6f03 e43b
000000f0: 39bb 8ebc f7ca 283b ec04 07be 911f 37be
00000100: 4a62 a63d 32c4 d5bd 19e7 743b 8bce 66bc
00000110: 49ce 83bd 9291 1cbe c96a bfbc 0058 903d
00000120: 9e81 e0bd 5000 86bc 5867 cb3d 05d6 11be
00000130: 162a 5fbd 4eb7 f63d ef8f 9b3d cdf9 0a3e
00000140: 3884 3ebd 728f fbbd aab6 39be 6e27 33be
00000150: 265f 2e3d 33d0 c3bd 55d2 1f3e 8cba 82bd
00000160: c859 02be a180 783b 9a99 ceba ca69 203e
00000170: 637e 30bd e9a6 aa3d a618 a83c 6c7f 73bd
00000180: 0e48 92bd cb23 78bc 338b 28bc 6c96 2cbe
00000190: 8b5f bebc aaaf 193e c4bf 2abe 45e1 733d
000001a0: 6152 cabd 1220 d33c 9e18 3fbd 49c6 81bc
000001b0: efdf 42be c86d 0c3e 0d21 f5bc e0f8 9cbd
000001c0: 7a9a 9a3d f1b8 023e 5d7c bdbb 1cd9 e4bd
000001d0: cc0c bc3d f79e 5d3d 6b0c d43c 5b46 17bb
000001e0: 48e9 0dbd 52ac 9ebd f62d 3a3e db9a aabc
000001f0: 890d b03d 7479 aa3d c507 76bd 4918 113b
00000200: 8e6b 10bd 8e50 923d f918 de3d 5f58 5a3d
00000210: 98ab 33bc 9e79 91bd 4e13 41bc 9884 db3c
00000220: 7148 493c 4c83 26bd 173e bc3b 9364 c83d
00000230: d8fc 643b 93e1 1abd d1c0 1cbd 3c93 49bd
00000240: 4b4f 27bd 309a 683e 9d39 f93d 1409 3f3d
00000250: 7031 69bd 6efb a6bc fdd3 82bd d32d 923a
00000260: 217c f4bd 211c 29be f02c 133d 11ec cd3d
00000270: bdf0 9ebd 7d41 edbc cea7 a53d 892f d8bd
00000280: c949 8b3d ed1f c8bc 57e0 553b f288 3d3d
00000290: c843 56bd d39f f63d 511e df3b c933 b5bd
000002a0: f89a 0a3e c719 273c 8603 c2bc 9de7 e03d
000002b0: 5c32 e83d f48b 16bd 9106 9abc 799d a83d
000002c0: e1d7 f23d a492 19be 46be 8ebd caa6 e03d
000002d0: b5fc d43b 8dc6 94bd 08d3 08bb cf0a 18bd
000002e0: f408 8e3d cadc 01be 3cdc 093d 4306 e8bc
000002f0: 9cd3 1e3e 930f 8d3d 73e4 6abc 4bdd 9e3b
00000300: 0ef0 a5bd 6a4d 44bc 3cc4 c93c b4bc fd3b
00000310: e90a dbbc 4ed1 25bd 233a ca3d b065 a53d
00000320: 6ae3 fc3c 298e 54bd c535 be3c a96c 3d3d
00000330: 50b7 aa3d 8f66 bcbc 9c9a 033e 1c4d e13d
00000340: 6582 4e3b 02c3 66bd e65d 1f3b b0e4 b0bd
00000350: 9b4c 6cbd b7e1 9f38 985c a3bc a04e ad3c
00000360: 913f ad3c c2ba 553d 3295 19bd e871 e7bd
00000370: 6a68 333c a5d3 e43b d737 2f3d 49a0 0abd
00000380: 21d6 24bd 6dd2 0bbc 3262 123d e8de c9bc
00000390: ef43 c1bd d2b6 743d 447f 96bd 9b7b c23d
000003a0: 6a7d c73d b359 c2bd 3958 f5ba a14f f23b
000003b0: b0df a33d a88a 9fbd 7b6c a1bd b583 603c
000003c0: dc0d 88bd 20ad 44bd 6f09 923d 8f94 16bc
000003d0: bb9e 5ebc ce99 db3c 6aa4 243d c7e5 b4bc
000003e0: 6c7b 87bd 00c9 38bd bff3 79bd 261b df3c
000003f0: 0f9b 1a3d d108 3a3d ab4f d4bd 048f e23d
0.04119517 0.07814196 -0.071675204 0.062870055 0.027492497 0.025272613 -0.015252531 0.07726644
0.04373898 -0.07176934 -0.101543635 0.06756124 0.09893047 0.027393006 -0.039243694 -0.05423896
-0.026305972 0.025057456 -0.09638354 -0.051125348 -0.023957362 -0.04878626 0.10094508 -0.013033573
-0.029706882 -0.13975188 -0.034650117 -0.0036877724 -0.02967122 -0.11630986 -0.11652928 0.012993852
-0.04831061 0.034937702 0.062443275 -0.11161095 -0.04660464 0.07275447 0.07196971 0.04329973
-0.090368606 -0.03823832 0.15632059 -0.054175105 0.21008258 -0.047134917 -0.14125644 0.0672431
0.063856155 -0.1047298 0.049802724 0.064307205 0.05380743 -0.15209684 -0.04362635 -0.075864546
0.04674224 -0.12874304 0.025441123 0.006958417 -0.01742326 0.0025755742 -0.13185471 -0.17883135
0.08124216 -0.10437812 0.003736919 -0.01408733 -0.0643583 -0.15289906 -0.023366349 0.07048035
-0.109622225 -0.01635757 0.09931821 -0.14241798 -0.054483496 0.12046681 0.075958125 0.13571854
-0.046512812 -0.122832194 -0.18136087 -0.1749551 0.04257121 -0.09561195 0.15607579 -0.06383237
-0.12729561 0.0037918466 -0.001576233 0.15665355 -0.04308928 0.08332617 0.020519566 -0.05944769
-0.071426496 -0.015145252 -0.010287094 -0.16854256 -0.023238918 0.15008417 -0.16674715 0.059541006
-0.09878994 0.025772128 -0.046654336 -0.01584162 -0.19030736 0.13713753 -0.029922986 -0.07664657
0.07548995 0.12765862 -0.0057826475 -0.11174223 0.09182128 0.05410668 0.025884828 -0.0023082707
-0.034646302 -0.07747711 0.18181595 -0.020825794 0.085963316 0.083239466 -0.060066003 0.002213972
-0.035258822 0.07144271 0.10844607 0.053306933 -0.010966204 -0.07103275 -0.011784388 0.026796624
0.012285338 -0.04065256 0.0057447064 0.09784808 0.0034940746 -0.03781278 -0.03826982 -0.04921268
-0.040847104 0.22715068 0.12169192 0.046639517 -0.056931913 -0.020383563 -0.0638809 0.0011152573
-0.11937738 -0.16514637 0.035931528 0.10054792 -0.07760761 -0.028961891 0.08088647 -0.105559416
0.06801183 -0.024429286 0.0032634938 0.04627318 -0.052310735 0.12042203 0.006809034 -0.08847768
0.13535678 0.010199017 -0.02368332 0.10981677 0.1133773 -0.036754563 -0.01880196 0.082331605
0.11857582 -0.14997345 -0.069698855 0.109693125 0.0064998516 -0.07264433 -0.0020877738 -0.037119683
0.069353014 -0.1268188 0.033657297 -0.028323298 0.1551041 0.06887736 -0.014336693 0.0048481575
-0.081024274 -0.011981348 0.024629705 0.0077434424 -0.0267386 -0.04048281 0.0987437 0.08076036
0.030870158 -0.051893387 0.023218999 0.046246205 0.08335745 -0.022998122 0.12851948 0.110010356
0.0031510827 -0.056338318 0.0024317442 -0.08637369 -0.057690244 7.6237535e-05 -0.019941613 0.021155655
0.021148475 0.05218006 -0.0374958 -0.11301023 0.010950187 0.006983238 0.042777862 -0.033844266
-0.04024327 -0.008534056 0.035738178 -0.024642423 -0.094367854 0.059744664 -0.07348493 0.09496232
0.09740718 -0.09489765 -0.0018718309 0.0073947464 0.080016494 -0.077901185 -0.07882019 0.013703276
-0.066432685 -0.048016667 0.071307056 -0.009190693 -0.013587649 0.026806738 0.04019586 -0.022082223
-0.06615338 -0.045113564 -0.06102347 0.027234625 0.03774553 0.045418564 -0.10366758 0.11062434

network_body._body_endoder.seq_layers.0.bias f4 [128]
00000000: 0000 0000 0000 0000 0000 0000 0000 0000
00000010: 0000 0000 0000 0000 0000 0000 0000 0000
00000020: 0000 0000 0000 0000 0000 0000 0000 0000
00000030: 0000 0000 0000 0000 0000 0000 0000 0000
00000040: 0000 0000 0000 0000 0000 0000 0000 0000
00000050: 0000 0000 0000 0000 0000 0000 0000 0000
00000060: 0000 0000 0000 0000 0000 0000 0000 0000
00000070: 0000 0000 0000 0000 0000 0000 0000 0000
00000080: 0000 0000 0000 0000 0000 0000 0000 0000
00000090: 0000 0000 0000 0000 0000 0000 0000 0000
000000a0: 0000 0000 0000 0000 0000 0000 0000 0000
000000b0: 0000 0000 0000 0000 0000 0000 0000 0000
000000c0: 0000 0000 0000 0000 0000 0000 0000 0000
000000d0: 0000 0000 0000 0000 0000 0000 0000 0000
000000e0: 0000 0000 0000 0000 0000 0000 0000 0000
000000f0: 0000 0000 0000 0000 0000 0000 0000 0000
00000100: 0000 0000 0000 0000 0000 0000 0000 0000
00000110: 0000 0000 0000 0000 0000 0000 0000 0000
00000120: 0000 0000 0000 0000 0000 0000 0000 0000
00000130: 0000 0000 0000 0000 0000 0000 0000 0000
00000140: 0000 0000 0000 0000 0000 0000 0000 0000
00000150: 0000 0000 0000 0000 0000 0000 0000 0000
00000160: 0000 0000 0000 0000 0000 0000 0000 0000
00000170: 0000 0000 0000 0000 0000 0000 0000 0000
00000180: 0000 0000 0000 0000 0000 0000 0000 0000
00000190: 0000 0000 0000 0000 0000 0000 0000 0000
000001a0: 0000 0000 0000 0000 0000 0000 0000 0000
000001b0: 0000 0000 0000 0000 0000 0000 0000 0000
000001c0: 0000 0000 0000 0000 0000 0000 0000 0000
000001d0: 0000 0000 0000 0000 0000 0000 0000 0000
000001e0: 0000 0000 0000 0000 0000 0000 0000 0000
000001f0: 0000 0000 0000 0000 0000 0000 0000 0000
0.0 0.0 0.0 0.0 0.0 0.0 0.0 0.0
0.0 0.0 0.0 0.0 0.0 0.0 0.0 0.0
0.0 0.0 0.0 0.0 0.0 0.0 0.0 0.0
0.0 0.0 0.0 0.0 0.0 0.0 0.0 0.0
0.0 0.0 0.0 0.0 0.0 0.0 0.0 0.0
0.0 0.0 0.0 0.0 0.0 0.0 0.0 0.0
0.0 0.0 0.0 0.0 0.0 0.0 0.0 0.0
0.0 0.0 0.0 0.0 0.0 0.0 0.0 0.0
0.0 0.0 0.0 0.0 0.0 0.0 0.0 0.0
0.0 0.0 0.0 0.0 0.0 0.0 0.0 0.0
0.0 0.0 0.0 0.0 0.0 0.0 0.0 0.0
0.0 0.0 0.0 0.0 0.0 0.0 0.0 0.0
0.0 0.0 0.0 0.0 0.0 0.0 0.0 0.0
0.0 0.0 0.0 0.0 0.0 0.0 0.0 0.0
0.0 0.0 0.0 0.0 0.0 0.0 0.0 0.0
0.0 0.0 0.0 0.0 0.0 0.0 0.0 0.0

network_body._body_endoder.seq_layers.2.weight f4 [128, 128]
00000000: 2155 b6bd 7f63 963d 3c9d 783c 874d c7bd
00000010: 80ca e33c daef 8e3e d474 783d fbcf fbbd
00000020: f941 2dbd 59fa 8dbd 937e 883d 360e 243e
00000030: caa3 b73c 5e59 bb3d 7f73 8fbc 6ea9 643d
00000040: 44a2 8f3c 8ff2 4a3c 3b4a 9a3d b5ff 35bd
00000050: 5c2d 983d 95b1 a03d 38c5 793d d3a0 aabd
00000060: 6c5e 363e 17ed d7bd 9b0d b9bd c8b9 b5bd
00000070: 0730 42bd 9111 7fbc 7406 d3bd 7eca 8ebd
00000080: 8e3d b53d d892 48bd 9c04 903c f439 8cbd
00000090: 815d 513d 48de 173e 6197 bbbd 8585 aebd
000000a0: 5fc8 4b3d a048 943d 8bff 653c 34b4 b2bd
000000b0: f214 1dbe 905a d63d 9fdd 173c 2627 b2bb
000000c0: 5586 013e 1d02 48be f81b 043e 4d3c 983d
000000d0: 9992 a03c a618 87bd b72b e9bc bc1e 263d
000000e0: aa18 85bc 9e09 2fbc 274f c8bc 4227 b0bd
000000f0: f0a7 3cbd 538f af3d 915d 3cbc 4e8c e23d
00000100: 2a5a 68bd ac08 cabc 80eb 1cbe 068a 1abe
00000110: ba3d c2bc 2d8e 46be caca 8fbc c89d 1bbe
00000120: fb9d 163c 25a7 fcba dcea 203e b181 ec3c
00000130: 84bf 203e a91f b23a 831b 41bc a229 ce3d
00000140: c7f8 693c 0280 5d3c dc84 0c3d 5f8d 59bd
00000150: d4cd 303d 2a2f 52bd a0dd 91bd 4493 0bbe
00000160: d8fc 8dbd 3d2b ccbd b63b a5bd 84a8 16bd
00000170: 1246 d4bd 40ad 333e a11a 9d3c b6b5 a33c
00000180: daea e83c d39f d83d 01af 47bd c061 5a3d
00000190: 49a3 383d 680a 123e 8000 70bd 302c c6bd
000001a0: 03fc 843d 46e8 96bc 9ece 833d 12a6 23be
000001b0: 3f7f dc3d f584 393e 3f7a 2f3d 40b4 ff3b
000001c0: 2bbf fdbc f9f2 ecbc 469c 83bd bab5 1a3c
000001d0: eea5 d3bd 5a74 b13d 3356 063e cead efbd
000001e0: 866b b03b df8a 76bc 4538 84bd 79a8 b9bd
000001f0: 6522 4c3d 2977 f8bd f58c e1bd 4acb aebd
00000200: c952 4c3b 2f77 d0bc 9564 2fbd 437d 143e
00000210: 01f6 3cbe b2f3 093e 76a5 88bd dd8a b73d
00000220: 5078 453d bc35 1c3d b33f 76bd 0746 763d
00000230: 8d40 093d 5a14 00be 7297 dcbd 391f a23b
00000240: 31ee f3bc ce63 8bba b060 153d d00d 0cbb
00000250: c43b 873e 1ac1 3ebe 7254 76bd 097e 8b3d
00000260: b8d8 2c3c b5bf 16bd 5327 2dbc 941e c13d
00000270: a38c 383d 5a4c 5c3c 9609 413c 4e72 bf3d
00000280: 1063 763d bd02 88bb d0d1 e63c bfce a8bb
00000290: ae95 503d 5fd4 863d e366 1bbd 9885 213d
000002a0: 6ced e2bd 70c3 3abd c5de 1f3e 221d 7e3c
000002b0: e5e2 67bc 6b50 f83c 9c50 07be c895 873d
000002c0: bd3d 22be bae7 4e3d d685 6f3c e162 a5bc
000002d0: 23b2 e63c 104a 293c 52a4 e3bd 8b3f abbc
000002e0: 9d2f 0abd 29d5 13be 6414 54bd 4234 9f3d
000002f0: a648 c33c f82b f5bd 37b3 233e 6868 abbd
00000300: 60e4 3b3d a7f2 cc3c 8906 b43d 3e89 2dbd
00000310: ec44 cbbc d2bf 8bbd b673 a8bd 4421 a13d
00000320: bebc 163c d75b ae3c 1e11 1db9 3a02 893d
00000330: d5ea bb3c b23b 113d 06c5 5e3c 3c6e db3c
00000340: 237f e83d a0a2 9f3c e89a 673d f501 04be
00000350: 4b09 013d 5444 2dbd 94cb feb9 946b b5bd
00000360: 9ef8 193e 9daa e1bc 01ec 86bd 59a5 dc3d
00000370: 1765 bdbc ea43 9fbc 23f0 a4bc 43ed f23d
00000380: 7420 9c3c 7b5a 6a3c d21d babd 7e02 91bc
00000390: 6826 86bd 0166 b4bd 3b66 563d a3c9 63be
000003a0: dd6c f93c cdce d0bd e0d0 7fbe d4a0 1fbd
000003b0: 57e3 16bd 3a14 9d3b be75 34be c883 32be
000003c0: 5ae1 39bd 62b7 09be 5293 0ebe 92a2 be3d
000003d0: 755a 9b3c 3e3f af3d 9aa4 c63c c5e2 c43d
000003e0: c150 35bd 115a 423e 6b23 fd3d d1d5 903d
000003f0: 9783 4cbd d842 09be 04d9 9cbc b9f7 9bbd
-0.08902956 0.07343196 0.015174206 -0.09731584 0.02780652 0.27917367 0.06065829 -0.122955285
-0.042299245 -0.06932516 0.06664767 0.16021046 0.022416968 0.09147905 -0.017511128 0.055825643
0.017533429 0.012386932 0.075336896 -0.044433314 0.074305266 0.07846371 0.060979098 -0.08331456
0.17809457 -0.10543268 -0.09035798 -0.088733256 -0.047409084 -0.015568153 -0.10303965 -0.06972216
0.08849631 -0.048968166 0.017580323 -0.06846991 0.051114563 0.14830887 -0.091597326 -0.085215606
0.049751636 0.072404146 0.014037977 -0.08725777 -0.15340021 0.10466492 0.009269147 -0.0054367958
0.126489 -0.19532056 0.12901294 0.074333765 0.019601153 -0.06596498 -0.028463228 0.040556654
-0.016247112 -0.010683445 -0.024451805 -0.08601238 -0.046058595 0.08572259 -0.011496917 0.11061917
-0.056726612 -0.024662338 -0.15324211 -0.15091714 -0.023711074 -0.19390173 -0.017552752 -0.15196908
0.009192939 -0.0019275887 0.15714592 0.028870435 0.15698057 0.0013589758 -0.011786344 0.100665346
0.014280505 0.013519289 0.034306392 -0.053113338 0.043165043 -0.05131451 -0.0712235 -0.13630396
-0.06932992 -0.099691845 -0.080680296 -0.036781803 -0.10364927 0.17546558 0.019177737 0.019984107
0.028432298 0.10577359 -0.04875088 0.053315878 0.045077596 0.14261782 -0.058594227 -0.09676397
0.0649338 -0.018421303 0.064358935 -0.1598132 0.10766458 0.18117125 0.042841192 0.00780347
-0.030974945 -0.028924452 -0.06426291 0.009442741 -0.10334383 0.086647704 0.1311882 -0.117030725
0.0053839115 -0.015047758 -0.06456045 -0.09065337 0.04983749 -0.12132103 -0.110132135 -0.08534868
0.0031177273 -0.025447456 -0.042820532 0.14500909 -0.18453218 0.13471869 -0.06672184 0.08962033
0.048210442 0.038137183 -0.060119342 0.060125377 0.033508826 -0.12507764 -0.107710734 0.0049475697
-0.029776664 -0.0010634603 0.03646916 -0.0021370538 0.26412785 -0.1862835 -0.060139127 0.06811149
0.010549717 -0.03680392 -0.010568458 0.094296604 0.045055997 0.013445938 0.011782071 0.09347974
0.060153067 -0.004150717 0.028176218 -0.005151599 0.050923996 0.06583475 -0.037939917 0.039434046
-0.11080441 -0.04559654 0.15612324 0.0155098755 -0.014153217 0.030311784 -0.13214344 0.066203654
-0.15843864 0.05051396 0.014619311 -0.02018875 0.028161114 0.010332599 -0.11115326 -0.020904323
-0.033736814 -0.14436783 -0.05177726 0.07773639 0.023838352 -0.11971277 0.15986334 -0.08369523
0.045872092 0.02501805 0.08790309 -0.042367212 -0.024813138 -0.06823696 -0.08225195 0.07867673
0.009200273 0.021284027 -0.00014979063 0.06689878 0.022939125 0.03545732 0.013596779 0.026785962
0.113523744 0.019486725 0.056544214 -0.12891372 0.031503003 -0.04230149 -0.00048598333 -0.088584095
0.15036246 -0.027547175 -0.06587983 0.10773725 -0.023119492 -0.019441564 -0.020134037 0.1186166
0.019058444 0.014303799 -0.09087719 -0.017701384 -0.06550294 -0.08808518 0.05234359 -0.22244887
0.030447418 -0.10195694 -0.24982023 -0.038971737 -0.036837902 0.004793671 -0.1762304 -0.17433083
-0.045380928 -0.13448861 -0.13923386 0.093083516 0.018964032 0.08556984 0.02424841 0.09613565
-0.044266466 0.1897967 0.12360271 0.07072032 -0.04993018 -0.13404405 -0.01914645 -0.07615609

action_model._continuous_distribution.log_sigma f4 [1, 51]
00000000: 0000 0000 0000 0000 0000 0000 0000 0000
00000010: 0000 0000 0000 0000 0000 0000 0000 0000
00000020: 0000 0000 0000 0000 0000 0000 0000 0000
00000030: 0000 0000 0000 0000 0000 0000 0000 0000
00000040: 0000 0000 0000 0000 0000 0000 0000 0000
00000050: 0000 0000 0000 0000 0000 0000 0000 0000
00000060: 0000 0000 0000 0000 0000 0000 0000 0000
00000070: 0000 0000 0000 0000 0000 0000 0000 0000
00000080: 0000 0000 0000 0000 0000 0000 0000 0000
00000090: 0000 0000 0000 0000 0000 0000 0000 0000
000000a0: 0000 0000 0000 0000 0000 0000 0000 0000
000000b0: 0000 0000 0000 0000 0000 0000 0000 0000
000000c0: 0000 0000 0000 0000 0000 0000
0.0 0.0 0.0 0.0 0.0 0.0 0.0 0.0
0.0 0.0 0.0 0.0 0.0 0.0 0.0 0.0
0.0 0.0 0.0 0.0 0.0 0.0 0.0 0.0
0.0 0.0 0.0 0.0 0.0 0.0 0.0 0.0
0.0 0.0 0.0 0.0 0.0 0.0 0.0 0.0
0.0 0.0 0.0 0.0 0.0 0.0 0.0 0.0
0.0 0.0 0.0

action_model._continuous_distribution.mu.weight f4 [51, 128]
00000000: f45f 8bbb cbf0 433c bab8 a83b eff2 68bd
00000010: 88c8 453c 037a 99bc b263 a2b9 6087 04bc
00000020: e947 c23b ed0a 4bbc 4f18 3bbc 8e47 a138
00000030: e7e5 e83b cfa0 91bc 730b c63c 33d8 143c
00000040: e321 e7bb 87ee 55bb c623 c9bc 39d3 183d
00000050: 38c6 cf3c 0e38 19bd f5b7 0e3d 5bed 253c
00000060: dfbe c23c c055 2fbc da81 cabc fb48 923c
00000070: 20ce 223c 2920 1a3b b21b a8bb 2498 333c
00000080: 2858 6abc 86c5 3a3c a7d3 883c 2662 3abd
00000090: 9bb7 8d3c 8bbb 6b3c 8af9 523b 9c89 b7bb
000000a0: 6ff6 91bc b326 c7bc 7b08 963c 0f08 9c3c
000000b0: e822 f93b 0fe1 c1bc 4f24 cc3c b395 d0bc
000000c0: 4f43 2dbc c8ca aa3c 8887 d2bb d72b 1fbd
000000d0: 271e beba 3b0b 11bc 4fdf 3dbb 79b6 4b3c
000000e0: 18ea 0cbd 8dc9 123c 1084 e9bb 91cf 403c
000000f0: d29e 86b9 6611 a63c 1abd 0a3c 8f78 c9bb
00000100: ab19 283c e5f7 a33c 5a33 143d 66a0 0fbb
00000110: e20b f43b ce13 02bd 5e2e 483c df7c cc3c
00000120: 13eb 23bb a2e2 fabc d224 b9bc 435a d63a
00000130: 339f 493c f198 8ebc 0514 3a3c 4daf 9b3c
00000140: 3b6c dcbc 8f19 0fbc 9392 05bc 95bb f93b
00000150: 5d0e 4a3c 63a0 5abc 77a9 513c 40ca a03c
00000160: cb29 ecbc 62de f03a 6392 23bc aa78 dc3c
00000170: 8f8e 5a3c 6d1b 713c 9577 9ebb b7ea bdbc
00000180: 222d e7bb c545 e3bc cbfd eb3b c836 4e3c
00000190: 30d8 ee3b 172c 733c 9f59 1cbd eada afbc
000001a0: fd2e e13c c03b 51bc c865 e33c d210 513a
000001b0: e2ab 843b 43a6 563b d653 b53c eff9 0cbd
000001c0: 52b3 f13c dfcd 3bbc 9f58 96bc 7732 483c
000001d0: 9fc1 373b 09a9 93bc 19a5 44bc d374 8b3b
000001e0: fea2 b63c 6b07 96bc 851e a039 4a7b 5c3c
000001f0: 3b1a 9d3c 4553 a3b9 6247 d33c 1be4 27bb
00000200: 6752 113a f2d1 9cba a170 8a3c b331 3b3b
00000210: 0588 d6bb 6dae 403c c534 983b d6e9 103d
00000220: 6689 b83c fb66 0bbc 57ae 70bb 2161 183c
00000230: ef1a 003d fb85 50bc 3af2 d9bc 63a1 143a
00000240: 1f61 e439 3fb4 f2bb b858 fd3c 6689 b9bc
00000250: 5eaf b03c 0707 4b3b 6e13 3abb 66b1 48bc
00000260: 01c2 073b 0533 7dbb 3b1d 5fbd 45d6 73bc
00000270: a70c a03c c3de f8bb 7306 d0bb c03d d9bb
00000280: 381f 61bb 6a67 623b 9606 993b daae 29bc
00000290: 48fa ebbb e7bb ec3b 9362 89bb ff62 0d3d
000002a0: 2061 583c fbd2 cabc 9b3d c93c 6555 fabb
000002b0: 9d94 1dbd 3040 c3bc 43f6 9abb 3b30 73bc
000002c0: b51d 46b9 7462 8c3b bf9d 06bc cfbc d63b
000002d0: 9c1e a03c d043 83bc 7b8a 04bc d7d9 dd3b
000002e0: 4240 8dbc 7d1d 87bc 745d 363c 933b c9bb
000002f0: 41d2 2bbc d383 263d 5bbf 8e3c c7b1 7bbb
00000300: 1685 8abb 7791 3c3a 3ded 90bc e11d 8538
00000310: 5a66 883c 9af9 66bc 9927 4c3c 86e5 ab3c
00000320: fff5 c53b 3cd1 2cbc d254 9fbc b6dc 9cbb
00000330: 90d9 ea3c bf15 6abb cb35 5cbd eead 3ebb
00000340: e795 9dbb ca5d 10bc d2e5 183d e14e af3c
00000350: a7cc c33b 332b 753c 1d28 9e3c 4ab8 57bb
00000360: dbce 80ba 5b0d 7ebb 77c1 01bc aa7b 8bbb
00000370: 5bff 4abc c6fd bebc 0f47 27bc a81d 5b3c
00000380: 331e e93b f3e2 aebc 175b e1bc f20d 503c
00000390: fef4 03bc 7ded 443c 20ce 373c e227 18bc
000003a0: 008f d43b aac1 673c 5705 eb3a 0bb2 ebba
000003b0: 8187 9a3c 6aa6 953b a794 e2bc e7ef f83c
000003c0: e7f9 6cbc c88d 503c c392 bb3b 1f9f 673c
000003d0: 9345 b3ba 9711 0ebb 7eb2 153c 1bfb 493c
000003e0: bb02 34bc 86f1 3dbc c38d 263c 6771 4ebb
000003f0: 33bc a53b 825a a5bb 1dc3 993a 69f2 143c
-0.004253382 0.011959265 0.0051489742 -0.056872305 0.012071736 -0.018734938 -0.00030973327 -0.008088917
0.0059289825 -0.012392742 -0.01141937 7.690406e-05 0.0071074846 -0.017776875 0.024175381 0.009084749
-0.0070536 -0.0032643394 -0.02455319 0.037310813 0.025363073 -0.037406974 0.034843404 0.010127391
0.023772655 -0.010701597 -0.024720121 0.017857065 0.009936839 0.0023517704 -0.0051302547 0.010961566
-0.014303245 0.011399632 0.016702486 -0.045503758 0.017299464 0.014387975 0.0032192194 -0.005601121
-0.017817704 -0.024310445 0.01831459 0.019046811 0.007603038 -0.023666887 0.024919657 -0.025462007
-0.01057513 0.020848647 -0.006424848 -0.03886017 -0.0014504836 -0.008852775 -0.0028972214 0.012433642
-0.034402937 0.008959186 -0.007126339 0.011768238 -0.00025676802 0.020271968 0.008467937 -0.006148405
0.010260026 0.020015666 0.036181785 -0.0021915673 0.0074477056 -0.03175717 0.012218086 0.024961887
-0.0025011941 -0.030625645 -0.022600565 0.0016353804 0.012306022 -0.017406913 0.011357312 0.019004488
-0.026907077 -0.008734121 -0.008152622 0.0076212385 0.012332526 -0.013343903 0.012796751 0.01962769
-0.028828522 0.0018376822 -0.009983632 0.026913006 0.013339653 0.0147160115 -0.0048360326 -0.02318321
-0.007054941 -0.02774323 0.0072018853 0.012586303 0.007288955 0.014842055 -0.038171407 -0.021466691
0.027488226 -0.012770593 0.027758494 0.00079752237 0.0040488103 0.0032752908 0.022134703 -0.034418043
0.029504452 -0.011462658 -0.018352805 0.012219063 0.002803899 -0.018024938 -0.012002253 0.00425587
0.022294518 -0.018314084 0.00030540317 0.013457129 0.019177547 -0.00031151823 0.025790874 -0.002561814
0.000554359 -0.0011964424 0.016899409 0.0028563559 -0.0065469765 0.011760336 0.0046449625 0.035379253
0.022526454 -0.008508439 -0.0036725008 0.009300501 0.031275686 -0.012727256 -0.02660476 0.00056698004
0.0004355991 -0.007406741 0.030926093 -0.022648524 0.021567997 0.003097953 -0.0028392929 -0.012249326
0.0020715 -0.0038635146 -0.054471236 -0.014882629 0.019537283 -0.0075949146 -0.006348425 -0.0066296756
-0.0034350883 0.0034546503 0.0046699746 -0.010356629 -0.0072014667 0.007224548 -0.004192659 0.03451824
0.01320675 -0.024758806 0.024565509 -0.0076395744 -0.038471807 -0.023834318 -0.0047290637 -0.014843042
-0.00018893818 0.0042841975 -0.008216321 0.0065532695 0.019545846 -0.016023546 -0.008089657 0.0067703533
-0.017242555 -0.016493553 0.011130679 -0.006141135 -0.01048714 0.04065306 0.01742523 -0.0038405524
-0.004227291 0.0007193307 -0.017691249 6.3474996e-05 0.016650368 -0.014097596 0.012460613 0.020983469
0.006041288 -0.010547932 -0.019449625 -0.004787053 0.028668195 -0.0035718528 -0.05376224 -0.002909537
-0.0048091295 -0.008811424 0.03732855 0.021399917 0.005975324 0.014963913 0.019306237 -0.0032916241
-0.0009827273 -0.0038765285 -0.007919661 -0.0042566853 -0.012389983 -0.023314368 -0.010209813 0.01337377
0.0071141957 -0.021348452 -0.027509255 0.012698637 -0.008054016 0.012019512 0.011218578 -0.009286853
0.0064867735 0.014145294 0.0017930669 -0.0017982138 0.018863441 0.0045669572 -0.027658774 0.030387832
-0.014463878 0.012729116 0.0057242825 0.0141370585 -0.0013677351 -0.0021677965 0.009136794 0.012327935
-0.010986979 -0.011593228 0.010165635 -0.0031500699 0.0050578355 -0.0050461898 0.0011731122 0.009090998

action_model._continuous_distribution.mu.bias f4 [51]
00000000: 0000 0000 0000 0000 0000 0000 0000 0000
00000010: 0000 0000 0000 0000 0000 0000 0000 0000
00000020: 0000 0000 0000 0000 0000 0000 0000 0000
00000030: 0000 0000 0000 0000 0000 0000 0000 0000
00000040: 0000 0000 0000 0000 0000 0000 0000 0000
00000050: 0000 0000 0000 0000 0000 0000 0000 0000
00000060: 0000 0000 0000 0000 0000 0000 0000 0000
00000070: 0000 0000 0000 0000 0000 0000 0000 0000
00000080: 0000 0000 0000 0000 0000 0000 0000 0000
00000090: 0000 0000 0000 0000 0000 0000 0000 0000
000000a0: 0000 0000 0000 0000 0000 0000 0000 0000
000000b0: 0000 0000 0000 0000 0000 0000 0000 0000
000000c0: 0000 0000 0000 0000 0000 0000
0.0 0.0 0.0 0.0 0.0 0.0 0.0 0.0
0.0 0.0 0.0 0.0 0.0 0.0 0.0 0.0
0.0 0.0 0.0 0.0 0.0 0.0 0.0 0.0
0.0 0.0 0.0 0.0 0.0 0.0 0.0 0.0
0.0 0.0 0.0 0.0 0.0 0.0 0.0 0.0
0.0 0.0 0.0 0.0 0.0 0.0 0.0 0.0
0.0 0.0 0.0

action_model._discrete_distribution.branches.0.weight f4 [1, 128]
00000000: 57e6 0c3c 38f1 d13b 8996 1f3c 2961 903c
00000010: 6325 0dbc bbc8 ac3b 68a0 2f3b 8eec 9a3b
00000020: f183 b5bb f781 803b 35ce 83bb 1b1b 40bc
00000030: b3a8 1e3c bb36 653b 2844 79bc 4267 92bb
00000040: c618 183c 0d92 04bc bfa5 183b e751 8f3c
00000050: d109 383a 2549 57b8 3cf8 873b 9dc5 bcbb
00000060: cf0c 863b fa3a 0fbc eb83 813c 2748 eb3b
00000070: d8f0 2f3c 67a1 853b 7f47 c13b c97d 423c
00000080: 475d d43b f757 53bb ed69 d63b 37ff f5bb
00000090: 0bfc d6bb 13ec 8b3b 46be 8a3b 33f7 b73a
000000a0: 5650 17bc b831 dab9 83c6 933b 503c 05bb
000000b0: 7c3e 22bb ffdb dd3b af3f 65bb d26e 493c
000000c0: 5f1d d039 b027 8ebb 014b 90bc cb18 92bb
000000d0: 0438 2a3c 732d 4ebc adb4 883b dd58 c7ba
000000e0: ac90 9cba 19e9 3c3b 8338 7fbb b584 d0ba
000000f0: d773 1c3c 1314 b83b a2eb 3dbc b7d7 1b3c
00000100: 1484 8139 edff fabb 1150 393c 0fff 1b3c
00000110: 251b e13b eb14 c73a 830e c43b e995 853b
00000120: 8b6f b83b e166 25bc 27fc 18ba 4330 f5bb
00000130: 6218 753b d55b 5b3b b8b4 24bb 1524 6a3c
00000140: 1dcb e43b 80a1 82bb cb2a 1e3c 0651 c33a
00000150: 1f78 04bc e061 ff3a f815 e2ba f584 e83b
00000160: 9f85 09ba b8f9 293b 183f d43b 3df6 fcbb
00000170: 8fc4 ec3b 5a07 daba d68e 0abb b5a7 183c
00000180: 316d aebb 7079 c7ba e247 5d3c a7e8 c5bb
00000190: c83e 3cbc d38b 0cbc 1716 6fbc 093a 2cb9
000001a0: dbe9 53bb 4a55 c13b eebf 0cbc 2870 1d3c
000001b0: abae 3aba d58d e5bb 9a7d 4bba 130a 653c
000001c0: 3f8d 133c 539c 153b 0d10 853a 076e 45bb
000001d0: 8217 4f3c 2abf b9bb 2ba5 31bc 9a6c acbb
000001e0: b44d 4c3a dc3b 17bc 789b 18ba bbc8 123c
000001f0: b576 2e38 6b3b b3bb 1ca0 b0bc 6b0a daba
0.008599839 0.0064069293 0.00974048 0.017624455 -0.008614871 0.0052729524 0.002679849 0.0047279065
-0.0055394103 0.003921743 -0.0040223845 -0.011725212 0.009683776 0.003497525 -0.015214004 -0.0044678757
0.00928325 -0.008091462 0.0023292152 0.017495109 0.0007020506 -5.1328116e-05 0.004149465 -0.005760862
0.0040908824 -0.008742088 0.015809974 0.007180232 0.010738574 0.0040780785 0.0058984156 0.01187081
0.006480846 -0.0032248476 0.006543389 -0.0075072306 -0.0065608076 0.0042700856 0.004234108 0.0014035463
-0.009235462 -0.00041617244 0.0045097484 -0.0020330139 -0.0024756482 0.0067706103 -0.0034980585 0.012294488
0.00039694735 -0.004338227 -0.01761389 -0.004458522 0.010389332 -0.012584078 0.004171929 -0.0015208978
-0.0011944971 0.002882546 -0.0038943596 -0.001590869 0.009549103 0.0056176274 -0.011591824 0.00951188
0.00024703203 -0.0076599033 0.011310593 0.00952126 0.006869691 0.0015188729 0.0059831752 0.0040767086
0.0056285313 -0.010095329 -0.00058359135 -0.00748256 0.0037398566 0.0033471484 -0.002513213 0.014290829
0.006982221 -0.0039865375 0.009653757 0.0014901466 -0.00808528 0.0019484125 -0.0017248979 0.007095928
-0.00052460463 0.0025936197 0.006477248 -0.0077197836 0.00722558 -0.0016634271 -0.0021142266 0.009317328
-0.005323075 -0.0015218686 0.013505908 -0.006039697 -0.011489578 -0.008578259 -0.014592669 -0.00016424818
-0.0032335434 0.00590006 -0.0085906815 0.00960926 -0.00071213645 -0.007005433 -0.00077625515 0.013979453
0.009005844 0.0022828772 0.0010151878 -0.0030125396 0.012639882 -0.0056685405 -0.010842602 -0.0052619698
0.0007793561 -0.00923058 -0.00058215065 0.008958991 4.1595387e-05 -0.0054697297 -0.021560721 -0.0016635185

onnx::LSTM_116 f4 [1, 512, 128]
00000000: 6ce3 4cbd 943d a4bd e001 a1bb 3e3e c03d
00000010: d81b 893d f800 4dbd 78c7 91bd 1ef4 c83d
00000020: 2972 12be 6b33 183e 1513 1abe 2f92 a4bd
00000030: 58b8 abbc 82d4 fb3d 8a7d f4bd 155f 033e
00000040: f08a a9bc 6a13 f0bd 3649 1fbd e0e3 ce3c
00000050: f8fc 0b3d cc84 8ebd c28d e9bd 005d e2bb
00000060: 0630 5cbd f861 333d 88f9 06be 9ed0 f8bd
00000070: 0435 363d 532c 80bd e6ba e73d b0bb 9dbc
00000080: cef3 af3d a8e5 a53d fa40 17be b2ee 98bd
00000090: dec9 7dbd e108 0d3e c00d eebd 02e4 df3d
000000a0: 36b7 babd c0e6 a93c 8e79 38bd 085d 09be
000000b0: 36a9 4abd 0195 053e d835 9e3d d203 9e3d
000000c0: f66a 39bd 8d00 87bd 98a7 a2bc 8b61 00be
000000d0: 5c5a 0c3d 08c0 8a3d bf72 80bd 6069 06bc
000000e0: 823b 893d b85b 1abe f9ad 183e ca88 c93d
000000f0: e7c0 0fbe 3cc2 57bd a0f9 0dbe e415 7a3d
00000100: 7f5b 9bbd 4861 ac3d ca57 c43d 6643 a9bd
00000110: e940 dabd c9a9 05be 40f3 88bb 1310 04be
00000120: 6844 dbbd 9611 dabd fb07 09be 606c a8bb
00000130: aed1 15be 1687 42bd 72f3 f6bd 7558 1a3e
00000140: 608a b23b fceb 1f3d e02f 89bb b04f fabc
00000150: 6f46 0dbe ac2c f0bd 2e0c d23d 987d ecbc
00000160: 833c 0d3e d402 3a3d c085 943d 2071 073c
00000170: 7786 b1bd 0eab cd3d 678b 1a3e 008a d23c
00000180: 8e40 13be a0f5 993c 535b b6bd 36c3 1bbe
00000190: 50e2 453d b0aa 7b3c 43ca 1a3e 05ab b6bd
000001a0: ce1b d6bd fd01 013e 3056 5e3c 4c6e 603d
000001b0: 40e1 4bbd fc74 b73d d0f0 ddbc c5fe 0a3e
000001c0: db14 053e e00f eebb 2c2b 3c3d c05b a1bc
000001d0: 107d 1ebd 0429 65bd e08c 233d 8ca9 62bd
000001e0: d86b bb3c fc44 c33d 4c3a dbbd 70f3 22bc
000001f0: 0268 c4bd f63b 8cbd 27b5 8bbd 8e4d 8a3d
00000200: 18cb ecbd 35e9 d5bd 1047 0abc 1c69 f7bd
00000210: e048 fabc 2c26 11be bd9a 0a3e c2aa ce3d
00000220: 92a0 1dbd c040 7ebc ad1d 15be 7091 733c
00000230: edbe 8ebd d126 193e b499 753d 282a b73d
00000240: b450 963d 1347 013e 4adb f13d d0cb 71bd
00000250: 20c8 b33d c0ef f03c feae da3d d2e8 b5bd
00000260: ad13 023e f27a d83d 28e8 b93c a8cb f53c
00000270: 76fa f2bd c0d5 c93b 9ca0 f0bc 0ae5 1dbd
00000280: 28d4 7d3d 487c a13d 84e1 1c3d 11af cdbd
00000290: 1478 1bbe 5ed0 1abe 2bcc d7bd f0de 013d
000002a0: 08d4 7a3d a0ca 3c3c e267 0fbd 668b ff3d
000002b0: ddf7 163e 8017 463c 4cde fbbc a8aa ea3c
000002c0: 5074 c5bc 8079 e6bd eafd c3bd fa3f 9abd
000002d0: 3465 8e3d 9088 c9bd 145f 67bd 743a 97bd
000002e0: 4973 003e 283e b63c 576c 173e 24a3 243d
000002f0: e41b aabd 0284 b5bd f7af 133e 323e 9b3d
00000300: a065 673d b5e5 07be 3a20 08be 10cd b93c
00000310: a60e fe3d 3eac 813d 1cc4 88bd 90aa bd3c
00000320: 1059 633d 52d2 efbd 60b7 f3bc 285c bdbc
00000330: 70c3 863d e6d8 39bd e411 00be 5205 d43d
00000340: 476e 16be 0212 0ebe 920c bebd 4622 e33d
00000350: e0c9 403c 7d90 bbbd 08ae 37bd 0229 b9bd
00000360: 005d 563a 386a 6fbd 4302 9abd 8cce 8a3d
00000370: dad2 c73d bebd f03d 9048 65bc 3214 a5bd
00000380: e536 0d3e e058 913b 502f 8e3d d6a7 e13d
00000390: 9e90 17be c27c a53d 4f4f 063e 4dbd 123e
000003a0: 7c7b 2e3d 407d 4e3d 106f 9abc 8abe d93d
000003b0: 9a41 80bd f64d bbbd 2555 17be 0c1a 5a3d
000003c0: 3e84 04be ee05 dabd 2b0b debd aebb b63d
000003d0: 7a42 47bd 4457 553d 18e6 babd e0fc 1ebd
000003e0: 6e2b d3bd 5299 a0bd 946d 463d 2c74 febd
000003f0: 9b14 b9bd 4a57 a73d c99c a8bd 3a1f 10be
-0.050021574 -0.080195576 -0.0049135536 0.09386872 0.06694764 -0.050049752 -0.07118124 0.09812187
-0.14301361 0.14863364 -0.15046342 -0.08035695 -0.020961925 0.12296392 -0.11938007 0.1282924
-0.020696133 -0.11722453 -0.03888818 0.025255144 0.034176797 -0.06958923 -0.11403991 -0.006908059
-0.053756736 0.043794602 -0.13181126 -0.121491656 0.044484153 -0.06258454 0.11314945 -0.019254535
0.08591424 0.08100444 -0.1477088 -0.074674025 -0.061960094 0.13772918 -0.11623716 0.10932161
-0.09116976 0.020739913 -0.0450378 -0.13414395 -0.04947778 0.13045122 0.07725114 0.077155724
-0.04526802 -0.06591902 -0.019855306 -0.1253721 0.03426586 0.06774908 -0.06271886 -0.008203834
0.06700803 -0.1507405 0.14910115 0.098405436 -0.1403843 -0.05267547 -0.13864756 0.061056033
-0.07585811 0.084169924 0.09587057 -0.08264808 -0.10656912 -0.13053049 -0.0041793883 -0.12896757
-0.10706407 -0.106478855 -0.1338195 -0.0051398724 -0.14630768 -0.04749211 -0.12058152 0.15072806
0.0054486245 0.03904341 -0.0041866153 -0.030555576 -0.137964 -0.117272705 0.10256229 -0.028868482
0.13792615 0.045412853 0.07252073 0.008266717 -0.08668225 0.10042392 0.1509224 0.02570057
-0.14380094 0.018793881 -0.089041375 -0.15211186 0.04831153 0.015360519 0.15116219 -0.08919338
-0.10454522 0.12598415 0.013570353 0.054792687 -0.049775362 0.0895786 -0.027092367 0.1357375
0.12996237 -0.007265076 0.04593961 -0.01969707 -0.038693488 -0.05594732 0.03992927 -0.055337474
0.022878572 0.09534642 -0.107044786 -0.009945735 -0.095901504 -0.06847374 -0.068216614 0.06753074
-0.115621746 -0.10444871 -0.008439794 -0.12080595 -0.030552328 -0.14174718 0.1353559 0.10091163
-0.03848321 -0.015518367 -0.14562102 0.014866218 -0.0697001 0.14956214 0.059961036 0.089435875
0.07339612 0.12624769 0.11809404 -0.05903226 0.08778405 0.029411197 0.10677908 -0.088822976
0.12702818 0.10570325 0.022693709 0.030004337 -0.11864178 0.006159514 -0.02937346 -0.038548507
0.061969906 0.07885033 0.038301006 -0.10043157 -0.15182525 -0.15118548 -0.10536989 0.03170675
0.061237365 0.011522919 -0.03501118 0.1247776 0.1474299 0.012090564 -0.030745648 0.028645828
-0.024103314 -0.11253643 -0.09569915 -0.07531734 0.06952897 -0.098405 -0.056487158 -0.07384196
0.12543978 0.022246435 0.14787422 0.040194646 -0.08306101 -0.08863069 0.14422594 0.07580222
0.0564934 -0.1327122 -0.13293543 0.02268079 0.12405138 0.06331681 -0.0667803 0.02315262
0.05550486 -0.11710037 -0.029750526 -0.023115233 0.065802455 -0.045372866 -0.12506825 0.10352577
-0.14690505 -0.13874057 -0.09279741 0.110905215 0.011766881 -0.09158418 -0.044843704 -0.09041025
0.000817731 -0.058450907 -0.07519963 0.06777677 0.097570136 0.117549405 -0.013994351 -0.080604926
0.13790472 0.0044356436 0.06942618 0.1101834 -0.14801261 0.08080436 0.13116191 0.14330025
0.042598233 0.050412416 -0.018851787 0.106320456 -0.062625125 -0.09145729 -0.14778574 0.053247496
-0.12941071 -0.10645662 -0.10841974 0.08922516 -0.04864738 0.052085176 -0.09125918 -0.03881538
-0.10311018 -0.078417435 0.048444346 -0.12424502 -0.09037133 0.08170946 -0.082330294 -0.14074412

onnx::LSTM_117 f4 [1, 512, 128]
00000000: c28e 76bd 96bd e43d 1098 c4bd 6abe 14be
00000010: b0f1 cb3c 7a0a ce3d be8a 903d 4046 78bd
00000020: f0c8 a13c 4013 70bc c074 5c3b 5109 0dbe
00000030: e0d6 723c bef4 b7bd 86c4 f83d 6ef4 c0bd
00000040: 80ee b8bc ae45 0bbd f0b7 b93c ba7c d03d
00000050: f020 7e3c 18cf 733d 1c9b a63d 3022 9dbc
00000060: 84f4 7ebd acf5 083d e018 c63b a676 17be
00000070: e88b 2c3d e047 46bd e391 a3bd cca8 2b3d
00000080: 90c5 a0bc 31ce 12be c26a 07be e420 ffbc
00000090: 603b 74bc 2801 abbd 20b1 e73c d844 4b3d
000000a0: 6f2c 19be 66d6 19bd c803 97bd f9ff 12be
000000b0: d7b7 18be da92 e63d 140e 51bd 12f3 bc3d
000000c0: 9e6c 12bd 22f3 db3d c470 95bd 8075 ff3a
000000d0: 8c77 dfbd 8260 cbbd 1445 683d 502a 213c
000000e0: eddc fcbd 702b 3ebd e808 50bd 00e7 283c
000000f0: cc10 b3bd 8b18 adbd 0044 9739 003b 4dbb
00000100: b825 843c 38c0 dc3c 2051 d2bc d674 e13d
00000110: 4e9e 20bd 665c da3d 4078 8bbb 8215 8f3d
00000120: 7305 1c3e 7d63 d5bd dcdf febc b012 2a3d
00000130: d819 0f3d d89e c5bc 58ee a93d f687 1cbe
00000140: 25c6 103e 27ee 073e 76a2 c4bd d069 f0bc
00000150: 9cce 6fbd 142d f5bd 0884 debc 5292 cdbd
00000160: 545f efbd 8001 393c d0f1 853d 0050 8b3a
00000170: 825c f03d 3a98 f83d 0043 c1bc 8411 263d
00000180: 56ec ef3d 3b36 093e 2ce1 f5bd 1068 7c3d
00000190: feba 71bd 48e9 9e3d 51b0 0b3e b056 e4bc
000001a0: 3083 0dbd 0029 00bd a482 89bd 5906 0fbe
000001b0: 2ed5 ca3d 8a45 d93d c0a6 0bbc 8092 693b
000001c0: fcdd ebbd 8460 f6bd fd50 98bd 50e6 773d
000001d0: a9b6 183e 74a7 4c3d 7218 d63d a0f7 01bc
000001e0: 4f68 9fbd 1aa1 e73d 005b f33b 908a 5ebd
000001f0: d2a2 f93d 0cea 1ebd 12b7 22bd 9bc5 0e3e
00000200: 062d 1dbd 6097 4c3d f853 8cbd 6205 9ebd
00000210: 428e 89bd ca7c d5bd 8ecc a43d 015e b4bd
00000220: 5040 e5bd 2dd5 0b3e 3151 1c3e e077 d1bb
00000230: b01d 97bc 1c00 14be a0aa 323c 816e 93bd
00000240: 16b1 6abd 053e efbd 6ac7 953d 15b8 133e
00000250: 2aae d93d c664 a33d b81d c0bd d82c a53c
00000260: 16d0 d23d ca9e 45bd 7486 74bd 8419 7e3d
00000270: b899 0ebe af79 163e c070 da3c 1cd1 653d
00000280: daf7 0fbe fadd e93d 7e42 c8bd 007e b6bb
00000290: 3c16 d9bd 7e0a f83d e640 11be a0ea 58bc
000002a0: be21 ec3d 7d5c c3bd cc8d 07be 7c61 883d
000002b0: 881b 9bbc 0c5a 093d a456 313d e2fa 99bd
000002c0: 383f adbd 0b6e 0dbe e83d 393d 2a48 eb3d
000002d0: 9264 8e3d ef21 153e a2fb ca3d 54b6 f2bc
000002e0: a84f a93c 80d2 ca3a 8714 98bd bcf1 c1bd
000002f0: d0df c8bc 86a1 c8bd 10ef 14bc 7219 49bd
00000300: d680 fc3d 0a1b 1abe b87a e8bd 3255 a73d
00000310: 8851 69bd b306 043e ea99 5fbd 422b bf3d
00000320: 6e12 b13d c052 0f3d b4a6 74bd b8e5 febc
00000330: 9a18 c7bd 1076 7ebc 2567 90bd e7fb 0e3e
00000340: 2e23 09bd 8d45 053e 34f5 6b3d 7d32 113e
00000350: a229 60bd 0072 0bbc 4082 6d3b 0056 9fba
00000360: 05ac dabd 8866 b1bc a020 e13b 00c8 6dbb
00000370: 9e60 c93d b9ab 1bbe aea5 c63d a88c 903d
00000380: 60f6 003d 706f 143d 3030 193c abf5 033e
00000390: 51d1 10be d2c4 de3d e049 c0bd 31fb 173e
000003a0: 52e7 05be 767a 3dbd bc25 7dbd 556b 13be
000003b0: a122 12be 4009 383c fcc0 1f3d 07cf a6bd
000003c0: b6e8 ecbd 26a5 d43d 9e98 883d 0dcd 1b3e
000003d0: 6ac8 a03d e8b0 d4bd c8f9 9fbc c0e5 00bd
000003e0: 2e6f 10bd e845 f83c cc9f ebbd 2c55 7bbd
000003f0: da82 f9bd fe38 09bd 6735 c6bd f5ab 043e
-0.06019474 0.11168973 -0.09599316 -0.14525762 0.024895519 0.10060592 0.07057713 -0.06061387
0.019749135 -0.014653027 0.0033638924 -0.13773085 0.014821738 -0.08982228 0.12146859 -0.09421621
-0.022574663 -0.034002 0.022670716 0.1018004 0.015510783 0.059523672 0.081350535 -0.019181341
-0.062244907 0.033437416 0.006045446 -0.14791355 0.042125612 -0.04840839 -0.0798681 0.041909024
-0.019625455 -0.14336468 -0.13224319 -0.031143613 -0.014906734 -0.0834983 0.028282702 0.0496262
-0.14958356 -0.037557982 -0.07373768 -0.14355458 -0.1491388 0.112584785 -0.051038817 0.092260495
-0.035748117 0.10739733 -0.07296899 0.0019489974 -0.10911474 -0.09930517 0.056706503 0.009836748
-0.12346826 -0.046428144 -0.050789744 0.010308981 -0.08743438 -0.08451947 0.00028851628 -0.0031315684
0.016131267 0.026947126 -0.025673449 0.11008613 -0.03921347 0.10662155 -0.0042562783 0.06986524
0.15236454 -0.104193665 -0.031112604 0.041521728 0.034936756 -0.024123594 0.082974136 -0.1528624
0.14138086 0.13274442 -0.096012995 -0.02934733 -0.058546647 -0.119714886 -0.027162567 -0.10037674
-0.11688104 0.0112918615 0.06540263 0.00106287 0.117363945 0.1213841 -0.023591518 0.040544048
0.117149994 0.13399594 -0.12005839 0.06162268 -0.05901622 0.077593386 0.13641478 -0.027873367
-0.03454894 -0.0312891 -0.06714371 -0.13967265 0.09903942 0.10608967 -0.008523643 0.00356403
-0.115169495 -0.12030128 -0.07437322 0.060522377 0.1491343 0.049964383 0.10453881 -0.007932574
-0.07783567 0.113100246 0.0074266195 -0.054331362 0.12189259 -0.038797423 -0.03972537 0.13942568
-0.038373016 0.04994905 -0.06851953 -0.077158704 -0.06716587 -0.10424192 0.08046828 -0.08806992
-0.11193907 0.13655539 0.15265347 -0.006392464 -0.018446773 -0.14453167 0.010904938 -0.07198811
-0.05729779 -0.11681751 0.07313426 0.1442569 0.10628922 0.079782054 -0.093806684 0.020162985
0.102935955 -0.048247136 -0.059698537 0.062036052 -0.13925827 0.14694856 0.026665092 0.056107625
-0.14059392 0.11419292 -0.097783074 -0.0055692196 -0.10599944 0.12111376 -0.14184913 -0.013239533
0.11529873 -0.09539125 -0.13237685 0.06659219 -0.018934026 0.03353314 0.043295518 -0.07518555
-0.08459324 -0.1381151 0.045225054 0.114883736 0.06952776 0.14563726 0.099112764 -0.029627956
0.020667866 0.0015474111 -0.0742579 -0.09469935 -0.024520785 -0.09796433 -0.0090902 -0.049096532
0.12329261 -0.15049377 -0.11351532 0.081705466 -0.05696252 0.1289318 -0.054590143 0.09334423
0.08646093 0.034991026 -0.059729293 -0.031115398 -0.09721489 -0.015531078 -0.07050923 0.1396328
-0.033480816 0.13014813 0.05760689 0.14179416 -0.054727204 -0.008511066 0.0036240965 -0.0012156367
-0.10677341 -0.021655336 0.0068703443 -0.003628254 0.098328814 -0.15202226 0.0969957 0.07058078
0.03148496 0.036239088 0.009349868 0.12886684 -0.14142348 0.10877384 -0.093890905 0.14841916
-0.13076523 -0.046259366 -0.061803564 -0.14396413 -0.14271022 0.011232674 0.039002404 -0.08144956
-0.115678236 0.10383062 0.066697344 0.1521494 0.07850726 -0.10385305 -0.019528285 -0.031469107
-0.03526228 0.030306771 -0.11505088 -0.061360523 -0.12183161 -0.033501618 -0.096781544 0.12956221

onnx::LSTM_118 f4 [1, 1024]
00000000: 0000 0000 0000 0000 0000 0000 0000 0000
00000010: 0000 0000 0000 0000 0000 0000 0000 0000
00000020: 0000 0000 0000 0000 0000 0000 0000 0000
00000030: 0000 0000 0000 0000 0000 0000 0000 0000
00000040: 0000 0000 0000 0000 0000 0000 0000 0000
00000050: 0000 0000 0000 0000 0000 0000 0000 0000
00000060: 0000 0000 0000 0000 0000 0000 0000 0000
00000070: 0000 0000 0000 0000 0000 0000 0000 0000
00000080: 0000 0000 0000 0000 0000 0000 0000 0000
00000090: 0000 0000 0000 0000 0000 0000 0000 0000
000000a0: 0000 0000 0000 0000 0000 0000 0000 0000
000000b0: 0000 0000 0000 0000 0000 0000 0000 0000
000000c0: 0000 0000 0000 0000 0000 0000 0000 0000
000000d0: 0000 0000 0000 0000 0000 0000 0000 0000
000000e0: 0000 0000 0000 0000 0000 0000 0000 0000
000000f0: 0000 0000 0000 0000 0000 0000 0000 0000
00000100: 0000 0000 0000 0000 0000 0000 0000 0000
00000110: 0000 0000 0000 0000 0000 0000 0000 0000
00000120: 0000 0000 0000 0000 0000 0000 0000 0000
00000130: 0000 0000 0000 0000 0000 0000 0000 0000
00000140: 0000 0000 0000 0000 0000 0000 0000 0000
00000150: 0000 0000 0000 0000 0000 0000 0000 0000
00000160: 0000 0000 0000 0000 0000 0000 0000 0000
00000170: 0000 0000 0000 0000 0000 0000 0000 0000
00000180: 0000 0000 0000 0000 0000 0000 0000 0000
00000190: 0000 0000 0000 0000 0000 0000 0000 0000
000001a0: 0000 0000 0000 0000 0000 0000 0000 0000
000001b0: 0000 0000 0000 0000 0000 0000 0000 0000
000001c0: 0000 0000 0000 0000 0000 0000 0000 0000
000001d0: 0000 0000 0000 0000 0000 0000 0000 0000
000001e0: 0000 0000 0000 0000 0000 0000 0000 0000
000001f0: 0000 0000 0000 0000 0000 0000 0000 0000
00000200: 0000 0000 0000 0000 0000 0000 0000 0000
00000210: 0000 0000 0000 0000 0000 0000 0000 0000
00000220: 0000 0000 0000 0000 0000 0000 0000 0000
00000230: 0000 0000 0000 0000 0000 0000 0000 0000
00000240: 0000 0000 0000 0000 0000 0000 0000 0000
00000250: 0000 0000 0000 0000 0000 0000 0000 0000
00000260: 0000 0000 0000 0000 0000 0000 0000 0000
00000270: 0000 0000 0000 0000 0000 0000 0000 0000
00000280: 0000 0000 0000 0000 0000 0000 0000 0000
00000290: 0000 0000 0000 0000 0000 0000 0000 0000
000002a0: 0000 0000 0000 0000 0000 0000 0000 0000
000002b0: 0000 0000 0000 0000 0000 0000 0000 0000
000002c0: 0000 0000 0000 0000 0000 0000 0000 0000
000002d0: 0000 0000 0000 0000 0000 0000 0000 0000
000002e0: 0000 0000 0000 0000 0000 0000 0000 0000
000002f0: 0000 0000 0000 0000 0000 0000 0000 0000
00000300: 0000 0000 0000 0000 0000 0000 0000 0000
00000310: 0000 0000 0000 0000 0000 0000 0000 0000
00000320: 0000 0000 0000 0000 0000 0000 0000 0000
00000330: 0000 0000 0000 0000 0000 0000 0000 0000
00000340: 0000 0000 0000 0000 0000 0000 0000 0000
00000350: 0000 0000 0000 0000 0000 0000 0000 0000
00000360: 0000 0000 0000 0000 0000 0000 0000 0000
00000370: 0000 0000 0000 0000 0000 0000 0000 0000
00000380: 0000 0000 0000 0000 0000 0000 0000 0000
00000390: 0000 0000 0000 0000 0000 0000 0000 0000
000003a0: 0000 0000 0000 0000 0000 0000 0000 0000
000003b0: 0000 0000 0000 0000 0000 0000 0000 0000
000003c0: 0000 0000 0000 0000 0000 0000 0000 0000
000003d0: 0000 0000 0000 0000 0000 0000 0000 0000
000003e0: 0000 0000 0000 0000 0000 0000 0000 0000
000003f0: 0000 0000 0000 0000 0000 0000 0000 0000
0.0 0.0 0.0 0.0 0.0 0.0 0.0 0.0
0.0 0.0 0.0 0.0 0.0 0.0 0.0 0.0
0.0 0.0 0.0 0.0 0.0 0.0 0.0 0.0
0.0 0.0 0.0 0.0 0.0 0.0 0.0 0.0
0.0 0.0 0.0 0.0 0.0 0.0 0.0 0.0
0.0 0.0 0.0 0.0 0.0 0.0 0.0 0.0
0.0 0.0 0.0 0.0 0.0 0.0 0.0 0.0
0.0 0.0 0.0 0.0 0.0 0.0 0.0 0.0
0.0 0.0 0.0 0.0 0.0 0.0 0.0 0.0
0.0 0.0 0.0 0.0 0.0 0.0 0.0 0.0
0.0 0.0 0.0 0.0 0.0 0.0 0.0 0.0
0.0 0.0 0.0 0.0 0.0 0.0 0.0 0.0
0.0 0.0 0.0 0.0 0.0 0.0 0.0 0.0
0.0 0.0 0.0 0.0 0.0 0.0 0.0 0.0
0.0 0.0 0.0 0.0 0.0 0.0 0.0 0.0
0.0 0.0 0.0 0.0 0.0 0.0 0.0 0.0
0.0 0.0 0.0 0.0 0.0 0.0 0.0 0.0
0.0 0.0 0.0 0.0 0.0 0.0 0.0 0.0
0.0 0.0 0.0 0.0 0.0 0.0 0.0 0.0
0.0 0.0 0.0 0.0 0.0 0.0 0.0 0.0
0.0 0.0 0.0 0.0 0.0 0.0 0.0 0.0
0.0 0.0 0.0 0.0 0.0 0.0 0.0 0.0
0.0 0.0 0.0 0.0 0.0 0.0 0.0 0.0
0.0 0.0 0.0 0.0 0.0 0.0 0.0 0.0
0.0 0.0 0.0 0.0 0.0 0.0 0.0 0.0
0.0 0.0 0.0 0.0 0.0 0.0 0.0 0.0
0.0 0.0 0.0 0.0 0.0 0.0 0.0 0.0
0.0 0.0 0.0 0.0 0.0 0.0 0.0 0.0
0.0 0.0 0.0 0.0 0.0 0.0 0.0 0.0
0.0 0.0 0.0 0.0 0.0 0.0 0.0 0.0
0.0 0.0 0.0 0.0 0.0 0.0 0.0 0.0
0.0 0.0 0.0 0.0 0.0 0.0 0.0 0.0
