results/try-21/My Behavior.onnx (onnx, 693209 bytes, 10 tensors)

network_body._body_endoder.seq_layers.0.weight f4 [128, 122]
000000 6e 16 10 3e 3d 1f 69 bd b9 3d 16 bd 17 21 42 bd
       0.14071056 -0.056914557 -0.036679957 -0.04739484
000010 44 20 51 bd 36 bc 01 3d ad c7 42 be ae 76 a6 3d
       -0.05105616 0.031673633 -0.19021483 0.08128105
000020 de 6f d6 3c 45 65 17 be 8b 0a 11 3e 15 cc fd bb
       0.02617639 -0.14784725 0.14164178 -0.0077452757
000030 48 86 18 3d 45 db bf 3d 3f ee 2d be c9 23 ec 3c
       0.037237436 0.09367994 -0.16985415 0.028825657
000040 36 7d 3c 3e 6f c7 36 bd 63 61 e8 3c d2 fb 8a 3a
       0.18407139 -0.04462379 0.02836675 0.0010603613
000050 79 ed 89 3d f0 57 d4 bc 3e 56 43 be 4b 91 7f 3d
       0.067347474 -0.025920838 -0.19075868 0.06239442
000060 63 c1 0a be 6e f0 07 3e 1f 26 f9 3c 60 58 61 3d
       -0.13550334 0.1327531 0.030413685 0.05501592
000070 ce bf e4 3d 5e 51 23 3e b3 b2 8b bd 54 68 f2 bc
       0.11169396 0.15949008 -0.068211935 -0.029590763
000080 70 27 83 bc c9 0c 83 3c d2 55 c7 bd b0 e2 17 3d
       -0.016010016 0.015997307 -0.09733166 0.03708142
000090 3e b2 d5 3d bb fe 20 3d eb 19 d2 ba 99 a0 50 bd
       0.104343876 0.03930543 -0.0016029453 -0.050934408
0000a0 e6 6d b6 bd 91 86 b4 3c 74 6d 3f 3c bb 51 dc bd
       -0.0890768 0.022036823 0.0116838105 -0.10757776
0000b0 43 fb ba bd a0 e7 b3 3d 48 93 a3 3d f9 a1 bc 3d
       -0.091299556 0.08784413 0.07987076 0.09210581
0000c0 d3 20 1a 3e 38 ee eb bd 1d 1d 97 bd 96 9e 8e bb
       0.15051584 -0.11520046 -0.073786 -0.004352401
0000d0 65 29 01 3e d1 08 d3 bd bd 86 93 3d dc a4 2a bd
       0.12613447 -0.10304416 0.07203434 -0.04166113
0000e0 d9 08 25 bd 4e ee 62 3d 05 54 82 bd 18 d6 95 3d
       -0.04029164 0.055403046 -0.06363682 0.07316226
0000f0 95 6b a1 3d bc 0c e9 3d b1 90 65 3d e0 6e fc 3d
       0.07881848 0.11379382 0.05604619 0.12325835
000100 81 89 41 be 23 22 87 3d 3f 21 33 bd 73 8c 34 3d
       -0.1890011 0.06598308 -0.043732878 0.044079255
000110 90 bf 52 3d 7b 9f 49 bd bb 8c 93 3d b8 29 1e be
       0.05145222 -0.049224358 0.072045766 -0.15445602
000120 48 47 66 3c 82 85 40 3b 4c d1 fa bc 8c 51 58 bd
       0.014055081 0.0029376452 -0.030617379 -0.052812144
000130 d0 a4 97 3b 5a 9d d1 ba 4f 0e a6 3d c1 cd 32 3e
       0.0046278015 -0.0015992329 0.08108198 0.17461301
000140 b1 ba dc bc 9b d0 0e 3d ed 44 20 3e fe e5 da 3d
       -0.02694449 0.03486691 0.15651293 0.10688399
000150 89 7f 5a 3d 22 13 21 bb 1b a2 d8 bd 5c ef ea 3d
       0.053344283 -0.0024578054 -0.10577794 0.114714354
000160 fd 38 5c bc e7 0b 49 bb 6e 75 3c 3d 1c b0 e4 3d
       -0.013441321 -0.003067726 0.046010427 0.11166403
000170 09 63 1c 3e ad b7 ac bd 27 1d 7d bd 31 ca 8a 3c
       0.15272154 -0.08433471 -0.06179538 0.016942116
000180 d5 2c ac 3d e4 52 f0 ba f6 e8 f0 3c 1c d9 5e bd
       0.084069885 -0.001833525 0.02940796 -0.05440627
000190 cb 2a e2 3b 9d 4a cc bd 25 f9 e2 bd d8 12 a9 3d
       0.006902074 -0.09975169 -0.11082677 0.08255547
0001a0 b8 e8 40 bd d8 f0 b1 3d c7 88 6b bc eb f7 92 3c
       -0.047096938 0.086885154 -0.014375872 0.017940482
0001b0 6f 47 e7 3c f9 92 aa 3d b7 0a c9 bd 9e 8b e5 3d
       0.028232304 0.08328814 -0.09816497 0.112082705
0001c0 e8 ac b0 bd ea c4 00 be c8 d5 1c 3b 49 5a b6 bd
       -0.08626729 -0.12575117 0.0023931134 -0.08903939
0001d0 b3 55 45 3e a4 64 d4 3d a3 35 b8 3c a8 bd 80 bc
       0.19270973 0.10370758 0.022486513 -0.015715435
0001e0 f1 16 59 3e e6 34 d3 3c 5d 76 e3 bd fc 14 23 3d
       0.21200158 0.02578206 -0.111065604 0.039814934
0001f0 8d ff 41 3d c7 6a e5 bc 0d 6d 75 3b f7 9e 0e 3d
       0.047362853 -0.028005017 0.0037449033 0.03481957
000200 98 d7 4b 3b 7a 75 42 3d d8 0c 84 3c 05 1b 96 3d
       0.0031103846 0.047475316 0.016119406 0.07329372
000210 b2 34 8c 3d d8 fb 66 bd b0 32 26 3d fd 78 97 3c
       0.06845988 -0.05639252 0.040575683 0.018490309
000220 6b 43 1c bc da 2e 3b bd 96 ae 0f 3d 08 4e 2a bd
       -0.009537558 -0.045698978 0.035078607 -0.041578323
000230 21 69 b9 3d ae 8c 8b 3d 9b 59 a0 3d ca c8 71 be
       0.09053255 0.06813942 0.07829591 -0.23611751
000240 a6 38 93 bc d6 a2 0d bd 0d bf 53 bd 7b 39 9b 3c
       -0.017971348 -0.03457912 -0.051695872 0.018948307
000250 c6 e4 18 3e a6 40 4e bc c8 1b 50 3c 14 c9 95 3d
       0.1493102 -0.012588656 0.012701936 0.07313743
000260 45 eb 13 3d 5c b5 8b 3d 84 bc 1a 3e 69 01 c3 bd
       0.036113042 0.06821701 0.15110976 -0.09521753
000270 e9 6e d5 bd ad d5 52 3c 94 d6 55 be b7 c7 1f 3d
       -0.10421545 0.012868327 -0.20882636 0.039008822
000280 2f 94 aa 3d 73 0c 38 be 37 9a 7d bd 58 3c 37 be
       0.08329045 -0.17973499 -0.06191465 -0.17894113
000290 1d 79 14 be d3 1e 00 3b d7 af 5c bc b8 c7 26 3c
       -0.14499326 0.0019549623 -0.013469658 0.010179453
0002a0 a7 a0 ca bc dd 6d 68 3d 72 d1 5e 3d 64 f7 1a 3e
       -0.024734808 0.0567454 0.05439896 0.15133435
0002b0 d8 4c f2 3c 2d 8d 11 bb 35 6b 66 bc 32 eb 05 3e
       0.029577658 -0.0022209391 -0.014063646 0.13078001
0002c0 92 e1 9c 3d 90 0a a6 bd 3e 0b 4f 3c 0a 8a fb bd
       0.076602116 -0.081074834 0.012636958 -0.12282188
0002d0 0c f3 8c 3c d4 db 13 3d 59 56 d1 bd fc 01 9d 3d
       0.017205738 0.036098316 -0.10221548 0.07666394
0002e0 75 68 d4 39 34 97 85 bd d4 6a 51 bc d1 a2 05 3d
       0.00040513618 -0.0652298 -0.0127818175 0.032625977
0002f0 25 ba 1d 3e 40 5c b3 bd ef 2b 66 3c 74 2d c0 bd
       0.1540304 -0.0875783 0.0140485605 -0.093836695
000300 44 fb 21 be d6 cd 6c ba f0 ed 30 be ba 6b 96 bd
       -0.15818506 -0.00090333575 -0.17278266 -0.07344766
000310 4b 45 a2 3d ab 8c e8 3d c6 fe 28 3e 89 47 62 bd
       0.07923373 0.11354955 0.16503438 -0.055244002
000320 0c e1 04 bd bf 26 24 bd 88 8e 19 bd db cf 06 be
       -0.032441184 -0.040076014 -0.037489444 -0.13165228
000330 0f 64 10 bd 96 3f 0f 3e d0 04 c4 bc c7 db be 3c
       -0.035251673 0.139891 -0.023928076 0.023298157
000340 e6 5f 22 be 0c 89 13 3d 21 57 d0 bd 3e 17 b9 bd
       -0.15856895 0.03601937 -0.101728685 -0.09037636
000350 e3 2c cb bd 57 af 6c be 75 cd 92 3c 30 50 a3 bd
       -0.09920671 -0.23113762 0.017920235 -0.07974279
000360 97 de 83 bd 79 1f f5 3d 9f b6 11 bc 8d 2a c7 bc
       -0.0643894 0.119688936 -0.008893638 -0.024312282
000370 29 2e a9 3b 7b 8b df 3d 47 57 a8 3d 75 94 1a 3b
       0.0051629734 0.10915276 0.08219772 0.0023587022
000380 fd f8 12 3e 11 5e 25 be aa d0 65 be 47 31 02 bd
       0.14352794 -0.16149165 -0.2244288 -0.031785276
000390 a2 97 40 be 9d 09 cc bc 32 8a 87 bd e1 eb d1 3d
       -0.18807843 -0.024906928 -0.066181555 0.102500685
0003a0 a4 b1 b4 bd ef ed 0a bd 1a 93 9d bd f0 81 11 be
       -0.08822945 -0.033918317 -0.07694073 -0.14209723
0003b0 31 52 90 3c cf 2b bf bc 93 e1 84 bc c5 70 48 3e
       0.017617317 -0.02333632 -0.016220843 0.19574268
0003c0 57 5e 42 3c 60 b1 a3 3d e7 9d ad 3d ed 02 35 bc
       0.011863313 0.07992816 0.08477383 -0.011048061
0003d0 4a d3 ce 3c 4a f1 3c bd 7b 4d af 3d e0 13 05 be
       0.025247235 -0.04612855 0.085597 -0.12995863
0003e0 2d 46 01 3e d8 97 36 3c 27 3f 81 3e b8 62 00 3e
       0.12624426 0.011144601 0.25243494 0.12537658
0003f0 75 f3 8d 3c c7 06 a7 bd fb 34 c4 bd ee a6 27 3d
       0.017328003 -0.081555896 -0.09580418 0.04093068

network_body._body_endoder.seq_layers.0.bias f4 [128]
000000 00 00 00 00 00 00 00 00 00 00 00 00 00 00 00 00
       0.0 0.0 0.0 0.0
000010 00 00 00 00 00 00 00 00 00 00 00 00 00 00 00 00
       0.0 0.0 0.0 0.0
000020 00 00 00 00 00 00 00 00 00 00 00 00 00 00 00 00
       0.0 0.0 0.0 0.0
000030 00 00 00 00 00 00 00 00 00 00 00 00 00 00 00 00
       0.0 0.0 0.0 0.0
000040 00 00 00 00 00 00 00 00 00 00 00 00 00 00 00 00
       0.0 0.0 0.0 0.0
000050 00 00 00 00 00 00 00 00 00 00 00 00 00 00 00 00
       0.0 0.0 0.0 0.0
000060 00 00 00 00 00 00 00 00 00 00 00 00 00 00 00 00
       0.0 0.0 0.0 0.0
000070 00 00 00 00 00 00 00 00 00 00 00 00 00 00 00 00
       0.0 0.0 0.0 0.0
000080 00 00 00 00 00 00 00 00 00 00 00 00 00 00 00 00
       0.0 0.0 0.0 0.0
000090 00 00 00 00 00 00 00 00 00 00 00 00 00 00 00 00
       0.0 0.0 0.0 0.0
0000a0 00 00 00 00 00 00 00 00 00 00 00 00 00 00 00 00
       0.0 0.0 0.0 0.0
0000b0 00 00 00 00 00 00 00 00 00 00 00 00 00 00 00 00
       0.0 0.0 0.0 0.0
0000c0 00 00 00 00 00 00 00 00 00 00 00 00 00 00 00 00
       0.0 0.0 0.0 0.0
0000d0 00 00 00 00 00 00 00 00 00 00 00 00 00 00 00 00
       0.0 0.0 0.0 0.0
0000e0 00 00 00 00 00 00 00 00 00 00 00 00 00 00 00 00
       0.0 0.0 0.0 0.0
0000f0 00 00 00 00 00 00 00 00 00 00 00 00 00 00 00 00
       0.0 0.0 0.0 0.0
000100 00 00 00 00 00 00 00 00 00 00 00 00 00 00 00 00
       0.0 0.0 0.0 0.0
000110 00 00 00 00 00 00 00 00 00 00 00 00 00 00 00 00
       0.0 0.0 0.0 0.0
000120 00 00 00 00 00 00 00 00 00 00 00 00 00 00 00 00
       0.0 0.0 0.0 0.0
000130 00 00 00 00 00 00 00 00 00 00 00 00 00 00 00 00
       0.0 0.0 0.0 0.0
000140 00 00 00 00 00 00 00 00 00 00 00 00 00 00 00 00
       0.0 0.0 0.0 0.0
000150 00 00 00 00 00 00 00 00 00 00 00 00 00 00 00 00
       0.0 0.0 0.0 0.0
000160 00 00 00 00 00 00 00 00 00 00 00 00 00 00 00 00
       0.0 0.0 0.0 0.0
000170 00 00 00 00 00 00 00 00 00 00 00 00 00 00 00 00
       0.0 0.0 0.0 0.0
000180 00 00 00 00 00 00 00 00 00 00 00 00 00 00 00 00
       0.0 0.0 0.0 0.0
000190 00 00 00 00 00 00 00 00 00 00 00 00 00 00 00 00
       0.0 0.0 0.0 0.0
0001a0 00 00 00 00 00 00 00 00 00 00 00 00 00 00 00 00
       0.0 0.0 0.0 0.0
0001b0 00 00 00 00 00 00 00 00 00 00 00 00 00 00 00 00
       0.0 0.0 0.0 0.0
0001c0 00 00 00 00 00 00 00 00 00 00 00 00 00 00 00 00
       0.0 0.0 0.0 0.0
0001d0 00 00 00 00 00 00 00 00 00 00 00 00 00 00 00 00
       0.0 0.0 0.0 0.0
0001e0 00 00 00 00 00 00 00 00 00 00 00 00 00 00 00 00
       0.0 0.0 0.0 0.0
0001f0 00 00 00 00 00 00 00 00 00 00 00 00 00 00 00 00
       0.0 0.0 0.0 0.0

network_body._body_endoder.seq_layers.2.weight f4 [128, 128]
000000 8b 4f b8 bd b2 fb 9c 3c bf a2 62 bc b3 62 ea 3d
       -0.089995466 0.019162986 -0.013832747 0.11444607
000010 80 73 a2 3d cf 05 22 be 1f 26 29 3d 87 37 1d be
       0.07932186 -0.15822528 0.04129612 -0.15353213
000020 c2 27 58 bd e1 11 7e 3d 71 8f c6 bc 70 50 e8 bd
       -0.05277229 0.06202877 -0.02423832 -0.11343467
000030 ee aa 48 be 69 50 0c bc 7f ae 51 bc d8 70 50 be
       -0.19596455 -0.008564093 -0.012797951 -0.20355546
000040 63 44 41 bd b7 c9 d5 bd 14 3f c4 bd 98 25 bc 3d
       -0.04718436 -0.10438865 -0.09582344 0.09186858
000050 7b c4 91 3d 93 e4 9f 3d 03 3f 4d bc 48 2c b7 3d
       0.07117554 0.07807269 -0.01252723 0.08943993
000060 99 8b 91 bc 1f d5 0c be 23 73 89 3c 24 fd a9 bd
       -0.01776676 -0.13753174 0.016778534 -0.08300236
000070 b1 43 42 be e6 30 1d bd 22 42 24 3b 44 0c 8b bd
       -0.18971135 -0.03837671 0.0025063832 -0.06789449
000080 e6 84 9a 3d 9d cf b1 bd 77 64 21 bd 6e d4 e4 3c
       0.075448796 -0.08682177 -0.03940245 0.027933326
000090 17 81 05 3d f3 48 8e 3d 34 6f 1a bd 57 cd 14 3e
       0.032593813 0.06947508 -0.037703708 0.14531456
0000a0 9e 27 6d bc 4e 47 d8 3d 55 4a 95 3d 2c a0 d3 3d
       -0.0144747775 0.10560475 0.07289568 0.10333285
0000b0 a6 80 9c bd 6f 1c 88 3c 9d 17 23 3e 25 ae 2a 3d
       -0.07641725 0.01661512 0.15926977 0.041669983
0000c0 cb df b8 3d 75 c8 48 3e 64 a0 a2 3b c5 d9 31 be
       0.0902706 0.19607718 0.0049629677 -0.17368229
0000d0 5b 71 95 be 1d e0 ad 3d 5f fb 74 bd 34 18 83 bd
       -0.29188046 0.08490012 -0.05981004 -0.06401101
0000e0 fa c4 9f bd 90 e1 c9 3c 3d c4 91 bd f6 60 30 bd
       -0.07801242 0.02464369 -0.071175076 -0.04306122
0000f0 4b 9c 01 3e 2e 66 1c 3d 1f de 8e bc b2 19 f6 bd
       0.12657277 0.038183384 -0.0174399 -0.1201662
000100 1b f2 2d bc bd 94 ea bc 3c 22 36 3e b5 31 26 bd
       -0.0106168045 -0.028635377 0.17786497 -0.040574748
000110 c4 d1 36 bd 57 d8 14 3c 92 82 5a 3d 39 d7 4f 3c
       -0.04463364 0.009084783 0.053347178 0.01268559
000120 5b 3b 08 bd c9 2b 89 3d 78 34 1a 3d 9d 4d a4 3d
       -0.03325973 0.066978045 0.037647694 0.08022616
000130 a5 0b 86 bd 79 86 73 3d 11 c9 ed 3c 62 f1 78 bd
       -0.0654519 0.059454415 0.02902654 -0.060777076
000140 9b a3 6a bd 88 4e c3 b9 bc 1d 03 3d 4c 13 dd 3d
       -0.057284933 -0.0003725181 0.03201078 0.10794696
000150 97 85 59 bd 55 f1 4a bd 47 5b 00 be 20 5a 89 3d
       -0.053105917 -0.04954656 -0.1253482 0.06706643
000160 6c 90 ba bd 2c 83 41 be a1 72 74 3d 2b ab da 3d
       -0.091095775 -0.18897694 0.05967963 0.10677179
000170 04 d2 90 bc cd b3 ad bd 37 96 f0 bd a0 ba 4a bd
       -0.017678268 -0.0848156 -0.11747401 -0.049494386
000180 59 c2 c1 bc df f5 57 3d 80 7e c8 bd bc 08 33 3e
       -0.023652242 0.052724715 -0.09789753 0.174838
000190 af 9e c9 3d e6 c4 cf bd b3 ca 10 3e ab b8 ba 3d
       0.098447196 -0.10144977 0.14139824 0.09117254
0001a0 bd 0c e1 3d 85 96 12 bd da 40 ff bb 9d eb ed 3d
       0.10988758 -0.035788078 -0.0077897133 0.11617205
0001b0 f1 7c 8c 3d 0b e2 9f 3d 6a ab 6c 3e 6a 94 1a 3b
       0.06859768 0.07806786 0.23112264 0.0023586997
0001c0 15 84 2e bd d3 aa 03 3e 49 2c 1d bd bf 2d aa 3d
       -0.042606432 0.12858133 -0.03837231 0.083095066
0001d0 49 9a 17 bc 27 50 8b 3d f7 71 56 bc 9c ee f7 3c
       -0.009253093 0.06802397 -0.013088695 0.030265145
0001e0 b7 b1 ad 3c 6c 65 a7 bd 54 fe d2 bb ec 57 68 bc
       0.021202905 -0.081736416 -0.0064390097 -0.014181118
0001f0 ce fe 7b be 65 65 18 bc 0b c6 7d bd 2c df 06 3d
       -0.24608919 -0.009301518 -0.061956447 0.032927677
000200 43 e3 88 3c 7b b3 b9 3d 6a 0d 27 3c aa 6e d6 3b
       0.01670993 0.09067436 0.010196069 0.006543954
000210 0e d0 b2 bd ac fe 81 bd 37 d4 27 3e 6d 6c 35 be
       -0.087310895 -0.06347403 0.16389547 -0.17717142
000220 57 09 db 3b 5d e9 fc bc b4 e2 f0 3c bb 69 e9 3d
       0.006684463 -0.030872995 0.029404975 0.113971196
000230 89 26 17 3e 65 ad e1 3d 7c d6 ac bd 5c 07 e3 bd
       0.14760794 0.110194005 -0.08439347 -0.11085388
000240 5b 10 bf bd 01 8b 4d 3d 58 06 2d 3e 51 99 49 3e
       -0.093292914 0.050181393 0.16896951 0.19687392
000250 43 f0 8b bd 33 9f f4 bd 47 91 e2 bc de ec 20 3c
       -0.06832936 -0.11944427 -0.027657164 0.009822099
000260 21 fc fd bd 46 2d 25 bb f5 14 fb bd 47 b9 8e 3c
       -0.124016054 -0.0025203987 -0.122598566 0.017422331
000270 4c b3 25 3e 3d f5 c5 bd d7 84 e9 bc dc 09 86 bd
       0.16181678 -0.09665916 -0.028505726 -0.06544849
000280 95 8e 2c be bf bb ae bc a3 dc e8 bb 80 ee 97 bd
       -0.16851266 -0.021329759 -0.00710638 -0.07418537
000290 c8 d7 54 bd 18 5d 03 be 0d 50 10 3c ca 80 f8 3b
       -0.051963598 -0.12828481 0.008808148 0.007583712
0002a0 65 0e 70 be 47 f0 cf bd 9d 79 81 3d 76 5a e9 3c
       -0.23442991 -0.10153251 0.06322024 0.028485518
0002b0 4c 69 b5 3d f3 b8 12 bd 02 a3 86 bd 20 01 0d 3e
       0.088579744 -0.035820913 -0.0657406 0.1376996
0002c0 a3 70 84 3d 0c c9 68 3d 14 c4 95 bd f3 f2 5a 3e
       0.06466796 0.05683236 -0.073127896 0.2138174
0002d0 d3 fa 0b 3e a9 c3 9a bd 86 94 9e bd f8 08 45 3c
       0.136699 -0.075568505 -0.07743172 0.012026064
0002e0 07 30 23 3c 02 35 68 3d e9 77 bc 3d ab 29 d4 3c
       0.009960181 0.056691177 0.092025585 0.025898775
0002f0 99 1f 32 3d 7e f2 88 3c 14 17 79 bd ba d7 dd bd
       0.043487165 0.016717192 -0.060813025 -0.10832162
000300 0d 12 bb bd 1b 29 db bd d7 38 0c bc 31 a3 c8 3c
       -0.09134302 -0.107011996 -0.008558474 0.024491878
000310 81 83 8e 3c ef b3 59 3d 7d 4c 81 bd aa d2 77 bd
       0.01739669 0.053150114 -0.06313417 -0.06050364
000320 d1 aa 04 3d 55 0d 91 3d 98 7a f2 bc 24 95 7d 3d
       0.032389466 0.07082621 -0.029599473 0.06190981
000330 13 e2 19 be 43 dc a0 3d 13 61 04 3e 6a 0e b1 3d
       -0.15027647 0.078545116 0.12927656 0.086453274
000340 9b 32 c4 bd bf 6f e1 bc a2 88 36 3d 89 35 60 3d
       -0.09579965 -0.027519105 0.044563897 0.054738555
000350 84 5a 64 bc 18 aa 17 3e d6 89 84 3d 97 2a 49 be
       -0.013937596 0.1481098 0.064716026 -0.19645153
000360 f5 3d cd bd fa 6f ab bd b4 61 b7 3d 9d 29 48 3c
       -0.10021583 -0.08370967 0.08954182 0.012216953
000370 c7 52 52 bd 3a d4 38 3d bd 68 95 bd ec 49 b7 bd
       -0.051348474 0.04512427 -0.07295368 -0.08949646
000380 9f 46 c4 3b b8 94 0e 3e 92 c4 cb bc db 8a 01 bd
       0.005989864 0.13923919 -0.024874005 -0.031626564
000390 10 61 e9 3d e4 57 87 3d ce ed 03 be 28 1d 9d bc
       0.11395466 0.06608561 -0.12883684 -0.019178942
0003a0 e6 32 28 3e f7 2e 16 3d 19 79 db bb dd 80 ae bc
       0.16425666 0.036665883 -0.0066977856 -0.021301681
0003b0 9a 68 a5 3c f2 fb 3b bd 9a cc b9 bd 1d fd 76 bb
       0.02019148 -0.04589457 -0.09072228 -0.0037687488
0003c0 77 a5 9c bc 4b 65 61 3d f8 b2 98 3d c1 cc 13 bd
       -0.019121869 0.05502824 0.074560106 -0.03608394
0003d0 39 d8 80 bd 0e 46 1a 3d 60 43 81 be a8 4c 2f bd
       -0.06291241 0.037664466 -0.25246716 -0.042797714
0003e0 83 98 b4 bd cb 7a 91 bc 31 b3 14 3e 79 c6 08 3c
       -0.08818152 -0.017758748 0.14521481 0.008348101
0003f0 ec 81 a3 3d 57 22 f8 bd be d7 80 bd 31 ff 32 3d
       0.07983765 -0.12115925 -0.062911496 0.0437004

action_model._continuous_distribution.log_sigma f4 [1, 51]
000000 00 00 00 00 00 00 00 00 00 00 00 00 00 00 00 00
       0.0 0.0 0.0 0.0
000010 00 00 00 00 00 00 00 00 00 00 00 00 00 00 00 00
       0.0 0.0 0.0 0.0
000020 00 00 00 00 00 00 00 00 00 00 00 00 00 00 00 00
       0.0 0.0 0.0 0.0
000030 00 00 00 00 00 00 00 00 00 00 00 00 00 00 00 00
       0.0 0.0 0.0 0.0
000040 00 00 00 00 00 00 00 00 00 00 00 00 00 00 00 00
       0.0 0.0 0.0 0.0
000050 00 00 00 00 00 00 00 00 00 00 00 00 00 00 00 00
       0.0 0.0 0.0 0.0
000060 00 00 00 00 00 00 00 00 00 00 00 00 00 00 00 00
       0.0 0.0 0.0 0.0
000070 00 00 00 00 00 00 00 00 00 00 00 00 00 00 00 00
       0.0 0.0 0.0 0.0
000080 00 00 00 00 00 00 00 00 00 00 00 00 00 00 00 00
       0.0 0.0 0.0 0.0
000090 00 00 00 00 00 00 00 00 00 00 00 00 00 00 00 00
       0.0 0.0 0.0 0.0
0000a0 00 00 00 00 00 00 00 00 00 00 00 00 00 00 00 00
       0.0 0.0 0.0 0.0
0000b0 00 00 00 00 00 00 00 00 00 00 00 00 00 00 00 00
       0.0 0.0 0.0 0.0
0000c0 00 00 00 00 00 00 00 00 00 00 00 00
       0.0 0.0 0.0

action_model._continuous_distribution.mu.weight f4 [51, 128]
000000 21 80 0a 3b 2b 6a 0d 3d c9 7f 17 bd 1d fa a8 3c
       0.00211335 0.034525078 -0.0369871 0.020627076
000010 e9 14 ae ba 17 65 cb bc d7 db 58 3c fb 4f 65 bc
       -0.0013281378 -0.024828477 0.013236008 -0.01399612
000020 ab 08 27 bc 57 10 27 3d a3 3b e9 3b ba 6a fd ba
       -0.010194938 0.040787067 0.007117705 -0.0019334175
000030 37 0d cc 3c ed 7d 35 3c b1 fc 84 3b dd b3 ea bc
       0.024908645 0.011077386 0.0040584435 -0.028650219
000040 e8 62 67 3c d0 cc da bc 23 b3 4c ba 17 1f 56 3c
       0.014122702 -0.02670899 -0.0007808676 0.013068936
000050 6a 92 74 3c f2 79 1c bd 73 6c 91 3c 57 ce a8 bc
       0.014927486 -0.038202234 0.017751908 -0.020606203
000060 35 9a df 3c 2f ec bb bc 44 e7 8f 3c dc 3e 8c 3a
       0.027295211 -0.02293977 0.01756633 0.0010699886
000070 57 84 26 bc 57 71 2e 3c 12 0f 9a bc 84 03 17 3d
       -0.010163388 0.0106471395 -0.018806014 0.036868587
000080 15 32 e8 bb 12 36 b1 bb e7 ba bd 3c 6b cf 12 3d
       -0.0070860484 -0.005408057 0.023160411 0.03584234
000090 47 7f ac 3c d5 70 b9 3b 3f 7e fb bc e7 23 fb bc
       0.021056784 0.0056592026 -0.030699847 -0.030656768
0000a0 09 46 84 bb d8 2a 1d 3d 63 86 d0 3c 51 41 3d 3c
       -0.004036669 0.038370937 0.025454706 0.011551217
0000b0 4c 9d c4 3a 12 9a 6f 3c 6b c8 2f bc ff 42 d3 bb
       0.0015000491 0.014624136 -0.010728936 -0.0064471955
0000c0 e7 11 b2 3b b3 5d 61 bd 19 53 ad 3b 74 07 17 3c
       0.005434263 -0.055021 0.005289447 0.009218086
0000d0 6b 0f 19 bb f9 df c5 bb 5b a7 b9 bc 7a 5f 56 bc
       -0.0023355137 -0.0060386625 -0.02266281 -0.013084287
0000e0 d3 71 0a bc c9 51 96 bc 6e cf a5 bb 23 8a 1e bc
       -0.008449989 -0.018349545 -0.005060128 -0.009676489
0000f0 f7 02 bf 3c 80 07 6a 3c fc d1 be 3c 95 82 93 3c
       0.023316843 0.014284015 0.023293488 0.018006602
000100 a8 a8 73 3b 8f 31 13 bc 97 fb ca 39 8d 4f b9 3c
       0.0037179384 -0.008983984 0.0003871589 0.02262094
000110 67 9d 36 bc ff 40 98 bc 63 ba bb 3b f1 1b a9 bc
       -0.011145926 -0.01858568 0.005729006 -0.020643206
000120 c3 7e 60 3c 43 74 f5 bb a8 1f f8 3b 0d aa 04 3d
       0.013702097 -0.007490666 0.007572133 0.032388736
000130 97 49 0d bc 0a f1 f8 3b 3a 9c 84 bb 6b 77 ba bb
       -0.008623502 0.0075970935 -0.004046944 -0.0056905053
000140 c7 7f 45 bd b2 d3 ea 3c bc 58 83 bb 4b 94 bd 3b
       -0.04821756 0.028665397 -0.0040083807 0.0057855
000150 0b e4 c9 bb aa fa 5e bb b3 4e e3 ba 95 c3 7e bc
       -0.006161218 -0.003402392 -0.001734218 -0.01554956
000160 a7 2a ac bc 10 65 f8 bb 9f b4 55 3c 47 f0 64 3d
       -0.021016432 -0.007580407 0.013043552 0.05589321
000170 18 ed 2e 3b fd c4 15 bb 98 3b e5 3c 7f 1b 06 3c
       0.0026691612 -0.002285301 0.027982518 0.0081852665
000180 60 65 ec 3c c3 99 01 3c 67 74 bd 3c 31 f4 18 3c
       0.028856933 0.007910195 0.023126794 0.0093355635
000190 e3 2c 24 bc f6 df 0e bd 43 e5 ec bc 6b 8a dd bb
       -0.010020467 -0.034881555 -0.028917914 -0.0067608855
0001a0 01 14 85 bc 7f ce 9d bc 2b 47 13 bc a4 2b 2f bc
       -0.01624489 -0.019263504 -0.008989136 -0.010691557
0001b0 ca 26 82 3c ad 54 31 bd 09 98 bc ba e5 44 e3 bb
       0.015887637 -0.043293644 -0.0014388572 -0.006935703
0001c0 f6 49 a8 3c 7f 37 ab bc 3c a2 1e bc 1f 67 68 3c
       0.02054308 -0.020900486 -0.009682234 0.014184742
0001d0 c3 e6 c1 3b a3 b7 00 3d a3 4b df 3b d6 3d 4b bc
       0.0059174015 0.03142513 0.0068144365 -0.01240488
0001e0 a2 2e cc bc 24 34 3f bc eb 10 fe bc 88 1d f1 3b
       -0.02492458 -0.011670146 -0.031013926 0.0073582567
0001f0 4b d8 1b bd 9b aa 7d 39 d6 b6 18 bc a7 69 4a bb
       -0.03804807 0.00024191516 -0.009320935 -0.0030885728
000200 fc 5f 41 bb e7 74 a4 3b 49 06 b0 3b 3f 6a 0d 3c
       -0.0029506674 0.0050188187 0.005371843 0.008631288
000210 f9 f5 bd 3c ba 3a 13 bc df 66 c7 bb cd f6 ee 3c
       0.023188578 -0.0089861695 -0.0060852612 0.029170418
000220 9c aa 0b 3b 97 9c 83 ba 62 f1 5b 3b 61 69 97 bb
       0.0021311408 -0.0010041174 0.0033560623 -0.0046207164
000230 f5 57 2a 3c 1a cc 41 3c 52 91 f7 3a ea 65 e5 3c
       0.010396947 0.011828447 0.0018887913 0.028002698
000240 cd 26 09 bb 17 d2 aa bc c7 a4 87 bc d1 25 3d 3d
       -0.0020927668 -0.020852132 -0.016558064 0.046178643
000250 d8 2d 8e 3c fd 2f 86 3c 8e 76 9d 3c 88 ee 8d bb
       0.017355844 0.016380304 0.01922157 -0.0043314137
000260 0b 13 67 bc 30 53 2e bd af 7c ca bc b7 d0 6f bc
       -0.014103661 -0.042559803 -0.024717657 -0.014637164
000270 17 8a a4 bb 97 b2 73 bc 45 08 ae 3c cb 6d 0e 3a
       -0.0050213444 -0.014874122 0.021244178 0.00054332305
000280 e5 33 cc bc b5 5e 4d bc d7 b1 e0 bb 1b d1 ef bb
       -0.024927089 -0.012534787 -0.0068571377 -0.0073186285
000290 47 ee 35 3c 36 b8 84 bc af 1e 2d 3d e5 e6 1a 3c
       0.011104173 -0.01620112 0.04226559 0.009454464
0002a0 23 26 20 3c bf 5d d3 bb 5c 44 87 ba 4b de 1c bc
       0.0097747175 -0.0064503844 -0.0010320055 -0.009574483
0002b0 9e f2 0d 3c 05 0e fd 3a 29 9a c8 3c 0f 47 88 bc
       0.0086638015 0.0019306546 0.024487572 -0.016635446
0002c0 62 bd 67 bc ee 8c b2 ba b0 c3 8d bc ea 40 43 3c
       -0.0141442735 -0.0013622323 -0.017305225 0.011917332
0002d0 61 18 c4 3b 27 70 a7 bc 27 19 fa 3c b3 18 1b bb
       0.0059843515 -0.02043922 0.030529572 -0.0023665845
0002e0 95 69 e3 bc d3 22 a2 3b 5e d8 8c bc 35 2b ac 3b
       -0.027760306 0.004947999 -0.017193016 0.005254174
0002f0 12 56 2f 3c 8e b4 13 bd 56 42 4b 3a 78 4b 83 bc
       0.010701673 -0.036060862 0.000775372 -0.016027197
000300 09 3a aa 3c 63 a0 45 bd 28 a9 64 bb 1e 13 1e 3c
       0.020779626 -0.04824866 -0.0034890864 0.009648113
000310 30 32 62 bc 2a 7f a7 3c a6 99 0d bc 2f 4a 52 3c
       -0.013805911 0.020446379 -0.00864259 0.01283507
000320 5d d4 01 bc 1a 7b b2 3c ff 39 02 bd 44 14 0e bc
       -0.0079241665 0.021787215 -0.03179359 -0.008671824
000330 37 93 99 3b c8 c3 4a bd 4c 6d 15 bc 63 92 16 bc
       0.004686739 -0.049503118 -0.009120297 -0.009190175
000340 ed fa ee bc f8 29 13 bc 3b 47 29 bc dd 31 22 3c
       -0.029172385 -0.008982174 -0.010331924 0.009899584
000350 99 94 9a 3c 98 fe 03 bd 7f 01 35 bd 59 3e b0 3c
       0.018869685 -0.03222522 -0.04419088 0.021514105
000360 4f b2 de ba ce 55 93 3b 59 7c 0e bd b9 f6 24 3c
       -0.0016990396 0.0044963127 -0.034786556 0.010068589
000370 82 f3 14 bb d4 79 0d bc 12 ca 52 3c 0c cf 90 3c
       -0.002272815 -0.008635003 0.01286556 0.017676853
000380 d2 12 19 3c 70 24 9b 3c 25 14 24 3d 6f 7f 8c 3c
       0.009342866 0.018938273 0.040058274 0.017150609
000390 1f 0f 0d 3c ef 8f c6 3c 96 92 ac bc 87 86 5e bc
       0.008609562 0.024238555 -0.021065991 -0.0135818785
0003a0 67 9d 6f bc 52 07 83 3c 57 34 82 bc f3 8b 09 bc
       -0.01462493 0.015994702 -0.015894098 -0.008395183
0003b0 e5 39 dd 3c 24 2e 14 bb 13 ab fd 3a 89 eb 92 3c
       0.027005145 -0.002261051 0.0019353352 0.017934578
0003c0 9d e4 56 bc 0e ad 49 bd 0a be 21 bc 0b ff f7 3c
       -0.013116029 -0.049237303 -0.009871969 0.030272981
0003d0 33 06 c0 3c 4c d0 80 3c a5 13 be ba 43 1a 26 bd
       0.023440456 0.015724324 -0.0014501704 -0.04055239
0003e0 64 4f 14 bb f5 68 e1 3b 1c 8d 19 3b 54 bf ac 3c
       -0.0022630328 0.006878967 0.0023430055 0.021087326
0003f0 3f ae 31 bb 91 f4 24 bc d3 f2 46 39 02 5f 8e bc
       -0.0027111915 -0.010068075 0.0001897321 -0.017379288

action_model._continuous_distribution.mu.bias f4 [51]
000000 00 00 00 00 00 00 00 00 00 00 00 00 00 00 00 00
       0.0 0.0 0.0 0.0
000010 00 00 00 00 00 00 00 00 00 00 00 00 00 00 00 00
       0.0 0.0 0.0 0.0
000020 00 00 00 00 00 00 00 00 00 00 00 00 00 00 00 00
       0.0 0.0 0.0 0.0
000030 00 00 00 00 00 00 00 00 00 00 00 00 00 00 00 00
       0.0 0.0 0.0 0.0
000040 00 00 00 00 00 00 00 00 00 00 00 00 00 00 00 00
       0.0 0.0 0.0 0.0
000050 00 00 00 00 00 00 00 00 00 00 00 00 00 00 00 00
       0.0 0.0 0.0 0.0
000060 00 00 00 00 00 00 00 00 00 00 00 00 00 00 00 00
       0.0 0.0 0.0 0.0
000070 00 00 00 00 00 00 00 00 00 00 00 00 00 00 00 00
       0.0 0.0 0.0 0.0
000080 00 00 00 00 00 00 00 00 00 00 00 00 00 00 00 00
       0.0 0.0 0.0 0.0
000090 00 00 00 00 00 00 00 00 00 00 00 00 00 00 00 00
       0.0 0.0 0.0 0.0
0000a0 00 00 00 00 00 00 00 00 00 00 00 00 00 00 00 00
       0.0 0.0 0.0 0.0
0000b0 00 00 00 00 00 00 00 00 00 00 00 00 00 00 00 00
       0.0 0.0 0.0 0.0
0000c0 00 00 00 00 00 00 00 00 00 00 00 00
       0.0 0.0 0.0

action_model._discrete_distribution.branches.0.weight f4 [1, 128]
000000 b1 4e 1a ba cd 77 c8 3b f3 51 bf bb c8 98 38 3c
       -0.000588636 0.006117797 -0.0058386265 0.011266895
000010 07 da 94 bb f3 4d 20 3c 0a d6 e6 3b eb ce ce ba
       -0.0045425924 0.00978421 0.0070445584 -0.0015778219
000020 15 81 ef bb b3 23 02 bb ed 64 4e bb 9d 2b 6e 3c
       -0.007309089 -0.0019857704 -0.0031493262 0.014536765
000030 47 57 77 3b 47 64 39 bc 22 c3 90 bb 40 57 6b bc
       0.003774123 -0.011315412 -0.004417793 -0.014364064
000040 69 73 1f 3c a7 26 c7 b9 a9 01 8c 3a 01 b8 bf bb
       0.009732106 -0.00037985036 0.0010681647 -0.0058507924
000050 ed ee 5e 3c 3b 16 ee ba 8a 85 61 bc ff 5a cb bb
       0.013606769 -0.0018164584 -0.013764748 -0.006205916
000060 19 51 30 3c c9 86 80 3b a7 19 a1 3b 3d 80 da 3b
       0.010761523 0.0039223176 0.004916388 0.006668119
000070 9a 45 40 3a d7 92 95 3b 40 b5 14 39 32 ac 38 bc
       0.000733459 0.004564624 0.00014181901 -0.011271523
000080 08 5e 06 3c d6 6a 85 3b 8b 92 38 ba 73 9a 17 bc
       0.00820113 0.0040715737 -0.00070408796 -0.009253132
000090 6c 38 0f bb b7 c5 ff 3b 94 5d 0c ba 9c 16 0e 3b
       -0.0021853698 0.007805552 -0.00053545204 0.0021680957
0000a0 4c d9 1b 3c f8 aa aa 3a 86 76 1b 3b 36 d6 86 3c
       0.009512257 0.0013020923 0.0023721769 0.016459566
0000b0 f1 e7 aa 3b 2e c7 2a bb 40 92 76 3c a2 33 7b bc
       0.005215638 -0.0026058662 0.015049517 -0.015332134
0000c0 d5 a2 26 3c e3 1f 45 bc f0 5e a5 3a 51 8a b8 bb
       0.010170658 -0.012031528 0.0012616795 -0.005631723
0000d0 20 33 2d 3b c2 fc f8 3b 26 f9 86 3c 33 ee f2 bb
       0.0026428178 0.0075984905 0.016476225 -0.0074136495
0000e0 50 28 0f 3c 13 17 cd b8 0f 33 d4 3b 23 bf b6 bc
       0.008737639 -9.77946e-05 0.006475813 -0.022307938
0000f0 3a e4 7d 3b 97 94 3a bc db 66 c0 ba 20 e2 00 3c
       0.003874077 -0.011387966 -0.0014679091 0.007866412
000100 0d cf 44 bb eb 49 b3 3a 7f bf 20 3c f6 ef b2 bb
       -0.0030030638 0.0013678645 0.009811281 -0.0054607345
000110 24 2c a6 bb 6d bc ab b8 da ca 02 3c a3 b8 8b bb
       -0.00507118 -8.1890124e-05 0.007982934 -0.004263954
000120 2a 4c bb 3b d2 97 e7 bb 0b 8c 1e 3c 65 00 f7 bb
       0.0057158666 -0.007067659 0.0096769435 -0.007537889
000130 cb 24 58 3b 4b 28 1d 3b 97 1b f2 b9 e8 90 e3 3a
       0.0032980915 0.0023980315 -0.00046178393 0.0017361911
000140 72 38 9a 3b 07 a3 c2 bb f0 27 c5 bb e4 87 b6 3b
       0.004706436 -0.0059398445 -0.006016724 0.0055703986
000150 9b db 17 bc 10 f9 b8 3b 7e 11 cc 3b 73 8f 85 3b
       -0.009268667 0.005644925 0.006227671 0.0040759384
000160 a9 ca 06 bc a0 50 31 bb 16 31 40 bc 5e da 48 bc
       -0.008227029 -0.0027056113 -0.011730453 -0.012259094
000170 b7 55 88 bb e7 c6 82 bb 1e a0 98 3c 4b f9 70 bb
       -0.0041606086 -0.003990996 0.018631037 -0.0036769684
000180 5f 50 95 bb 0b 2f bd 3b 54 fc 19 bc d7 42 e3 bb
       -0.0045567 0.00577343 -0.009398539 -0.006935458
000190 73 ce 68 3b 24 91 95 3b eb 1f a8 3c b8 cb 0a 3c
       0.0035523444 0.0045644213 0.020523032 0.008471422
0001a0 ef 44 3a bc 85 84 7e 3c 03 5f 52 bc 27 0a dc ba
       -0.011368974 0.015534525 -0.012840035 -0.0016787694
0001b0 54 7d 8e 3b f5 b5 0d 3a 3b ae 8b b9 ec ee 1b bc
       0.0043484364 0.0005405837 -0.00026641958 -0.009517413
0001c0 e6 f1 2a 3b cd 2f d8 3b 8b 16 5b bb 2a 0d 98 3b
       0.0026084124 0.006597495 -0.0033430185 0.004640241
0001d0 18 5d 95 3c f7 9a 2a bc e3 84 18 bc 6a d0 70 3b
       0.018232867 -0.010412923 -0.009309026 0.0036745318
0001e0 7d 75 f9 bb 75 24 00 bc 37 1d 41 3c 9b e1 90 ba
       -0.0076128826 -0.007821192 0.0117867505 -0.0011053564
0001f0 1d e7 26 3b 3e 53 07 bc 78 f1 65 bb 3b 6e 07 3c
       0.0025467344 -0.008259593 -0.0035086554 0.008266027

onnx::LSTM_116 f4 [1, 512, 128]
000000 af 29 06 3e cf 62 03 3e fa d8 d3 3d 91 7a 0b be
       0.13101839 0.12830661 0.10344119 -0.13620974
000010 90 0e 7b 3d de eb b9 bd 46 5d d0 3d 50 02 02 3d
       0.061293185 -0.09078191 0.101740405 0.031740487
000020 8b d9 11 3e 98 90 5f 3d 61 d7 06 3e 58 fb 9d bc
       0.14243142 0.054581255 0.13168098 -0.01928489
000030 85 4a fa bd 90 ce 63 3d a0 2b 32 3d 78 53 b5 3d
       -0.12221245 0.055616915 0.043498635 0.08853811
000040 fe a2 99 3d 38 ba 39 3d 78 04 79 bd 8a 63 e9 3d
       0.075017914 0.045343608 -0.060795277 0.11395939
000050 76 4c b3 3d 24 7a 21 3d d2 00 a1 bd c4 08 aa 3d
       0.08754818 0.039423123 -0.078614846 0.08302453
000060 50 1a c0 bd d9 ef 00 be c4 6f 1d 3d 4a ed 89 bd
       -0.09380019 -0.12591495 0.038436666 -0.067347124
000070 4d b8 08 3e e5 e6 07 3e 50 7e 95 bd 9a 1d d4 bd
       0.13351555 0.13271673 -0.07299483 -0.103572085
000080 fc ae 1a 3d 21 eb 10 3e 59 6c 9d bd 60 df 72 bc
       0.037764534 0.14152195 -0.07686681 -0.014823765
000090 1b e7 01 3e c0 48 51 bd 4e 92 0c be 26 98 e4 3d
       0.12685816 -0.05109477 -0.13727686 0.111618325
0000a0 55 89 17 3e 5b 4c db bd a0 34 92 3d 10 d9 b5 bc
       0.14798482 -0.10707923 0.07138944 -0.02219823
0000b0 c6 02 17 be c0 dc b1 3c 62 ab b3 3d e8 e0 9a 3d
       -0.14747152 0.021711707 0.08772923 0.07562429
0000c0 60 af e6 3c aa 43 7f bd dc 99 ae bd f0 d3 57 3c
       0.028159797 -0.06232039 -0.0852544 0.013173088
0000d0 00 64 45 3d 24 36 c6 3d 94 42 69 bd 20 4d 05 3d
       0.04819107 0.09678295 -0.05694826 0.032544255
0000e0 28 50 6a bd 6f f4 12 be a9 32 0f 3e 9e 6f 82 bd
       -0.05720535 -0.14351057 0.13984169 -0.063689455
0000f0 5b 60 81 bd 40 72 35 bd 79 59 04 3e 31 9f 13 3e
       -0.063172065 -0.04429841 0.12924756 0.14416195
000100 92 8f c8 3d 90 3e 62 bc 7c 33 1a bd 72 e7 89 3d
       0.09793009 -0.013808861 -0.037646756 0.06733598
000110 00 68 7d bc 1e 20 da 3d a0 b1 80 3d d2 77 f4 3d
       -0.01546669 0.10650657 0.06283879 0.119369164
000120 6e 49 9a bd c4 77 a0 3d a2 29 fb bd d0 b0 c4 3d
       -0.07533537 0.078353435 -0.122638 0.09604037
000130 af 75 15 3e 60 d7 d9 bc 85 e3 06 be 92 55 ca bd
       0.14595674 -0.026591957 -0.1317273 -0.098796025
000140 be ba 9c 3d 20 9c de 3b 04 97 fd bc 67 43 85 bd
       0.07652806 0.006793514 -0.030955799 -0.065069966
000150 34 de cf bd 3c 94 f3 bd c0 65 6b 3b c0 5c 24 bc
       -0.10149804 -0.11893508 0.0035918802 -0.010031879
000160 3e 94 17 be ca 50 6e bd e0 99 ee 3b 7b da 13 3e
       -0.14802644 -0.058182515 0.007281527 0.14438812
000170 5b 37 9b bd c0 42 9a 3c 46 73 75 bd fe 26 f9 bd
       -0.075789176 0.018830657 -0.059924386 -0.1216564
000180 3c 61 b1 bd 9c fe d0 bd d4 9c 46 3d c8 74 12 be
       -0.08661124 -0.10204813 0.048489407 -0.14302361
000190 26 11 8e 3d 3f 1c 06 3e 88 af 4b 3d 04 24 0a be
       0.069368646 0.13096713 0.049727947 -0.13490301
0001a0 ea 91 a2 bd 48 86 51 3d a8 61 95 bc 20 9c f8 3c
       -0.07937987 0.05115345 -0.018235043 0.030347884
0001b0 68 42 26 3d e0 a4 92 bc 1a 25 d8 3d f3 fb 07 be
       0.040590674 -0.017900884 0.105539516 -0.13279705
0001c0 64 ce 7e bd 0a 44 67 bd 6c 7c bb 3d 98 50 ba bc
       -0.06220855 -0.05646137 0.09154591 -0.022743508
0001d0 04 64 52 3d bf c0 96 bd 6a 61 c5 bd e0 c1 4d 3c
       0.051364914 -0.07360982 -0.09637721 0.01255843
0001e0 5a b2 36 bd 6a fe 1a be 8f 57 0c 3e 74 63 76 3d
       -0.044603683 -0.15136114 0.13705276 0.06015344
0001f0 e0 ec af bb 78 54 2f 3d 36 7b be 3d e0 6a 98 3c
       -0.005368814 0.042805165 0.09300844 0.01860565
000200 fc 47 75 3d 3e 27 fb bd ec 27 98 3d b6 8e ec 3d
       0.059883103 -0.12263344 0.074294895 0.115506575
000210 86 5b aa 3d 40 0a 48 bc 2c dc 0e be 5a 01 c5 bd
       0.08318238 -0.012209475 -0.13951176 -0.096193984
000220 21 db 06 3e 34 6b da bd 9b e4 a9 bd 65 5a 12 3e
       0.13169529 -0.106649786 -0.08295556 0.14292295
000230 cf 2c 0f 3e a3 68 8a bd 00 48 5d bc 5c c7 6b 3d
       0.13981937 -0.06758239 -0.013505936 0.05756317
000240 60 c5 70 3d 1f ad 11 3e 44 04 8e bd a0 08 38 bc
       0.05878198 0.14226197 -0.06934407 -0.011232525
000250 35 68 06 3e 44 ec 65 3d 5e 25 04 be dc 96 17 be
       0.1312569 0.056133524 -0.1290488 -0.14803642
000260 3f 47 16 3e 50 44 2c bd 00 2c 01 ba b4 67 0f 3d
       0.14675616 -0.042057335 -0.0004927516 0.03501101
000270 cd 38 05 3e 5a 3c d7 3d 69 b8 15 3e 4e 71 f0 3d
       0.13009949 0.10509558 0.14621128 0.11740361
000280 da eb b1 bd 77 28 12 be a0 47 a6 3d 28 ee 70 bd
       -0.08687563 -0.14273249 0.0811913 -0.058820873
000290 50 32 e0 bd 60 cf 54 bd 4c e0 01 3d 73 aa 08 be
       -0.10947096 -0.05195558 0.031708047 -0.13346271
0002a0 ce 1b a4 bd 3e 06 c5 bd ab 39 dd bd 43 0b 08 3e
       -0.08013116 -0.09620331 -0.10802015 0.13285546
0002b0 5d a2 03 3e 24 ac 9e 3d 28 a5 a5 bd c4 c0 b8 3d
       0.12854905 0.07747677 -0.08088142 0.09021142
0002c0 f2 7f 25 bd 00 04 97 3b 80 2b 5a bc b0 a2 b8 bd
       -0.04040522 0.004608631 -0.013316035 -0.09015405
0002d0 74 7a 83 3d 38 3e 85 bc 28 79 e1 bc 9a f4 de 3d
       0.064198405 -0.01626502 -0.027523592 0.10886498
0002e0 be d6 9d 3d a0 92 91 3c 40 31 77 bb ec ea 1c 3d
       0.077069744 0.017770112 -0.0037718564 0.038309976
0002f0 d4 09 14 be b6 4d fa 3d 40 b0 36 3d 89 f4 1a 3e
       -0.14456874 0.122218534 0.04460168 0.15132345
000300 00 42 a4 39 b8 38 49 3d 50 cc bf 3d 48 b6 2a 3d
       0.0003132969 0.049126357 0.093651414 0.041677743
000310 16 86 72 bd c0 2a 28 bc ee 75 c3 3d 18 63 0b bd
       -0.059209906 -0.010264099 0.09543978 -0.03403005
000320 ac b4 06 be c0 03 4b bc ea b4 d2 3d c0 b0 b1 bc
       -0.13154858 -0.012391031 0.10288413 -0.021690726
000330 f2 e9 ab 3d 02 99 f3 3d 80 ce b5 3b e0 09 c7 bb
       0.08394231 0.11894418 0.0055482984 -0.0060741752
000340 ff 5c aa bd 26 97 0d be 80 69 b1 3d 51 6f 09 3e
       -0.08318519 -0.1382719 0.08662701 0.1342137
000350 b5 7d 10 3e f6 2c c1 bd b3 3d 07 3e e1 a9 fa bd
       0.14110453 -0.09432404 0.1320713 -0.12239433
000360 22 5d b3 3d c0 21 75 3d 98 50 fd 3c 20 e4 96 bc
       0.08757998 0.05984664 0.03092222 -0.018419325
000370 d9 bd 1b be b8 7b 74 bd 8e 2e a3 3d 55 f0 9e bd
       -0.1520914 -0.0596883 0.07967864 -0.077606834
000380 00 30 57 3a 50 9c 3d bc 7e 00 ec 3d e2 15 ec 3d
       0.00082087517 -0.011572912 0.115235314 0.11527611
000390 ba 41 b3 3d c9 1f 13 3e 69 43 07 3e 59 91 13 3e
       0.08752771 0.14367594 0.13209309 0.14410914
0003a0 f0 08 d6 bd d5 20 17 3e 12 ff c6 3d eb b4 c5 bd
       -0.104509234 0.14758618 0.097166196 -0.09653648
0003b0 54 af c1 bd 7c 2a 33 3d 5c 4f 3d 3d 62 80 15 bd
       -0.09457269 0.043741688 0.04621826 -0.03649939
0003c0 6e 4a 9d 3d b8 62 db bc a9 b5 09 be a4 dc b0 3d
       0.07680212 -0.026780471 -0.13448204 0.08635834
0003d0 72 31 ed 3d 9e af fd 3d 80 a3 64 3d 5c 07 0a be
       0.115816966 0.12387012 0.05581999 -0.1347937
0003e0 4d 4d 07 3e 6b 09 9c bd 00 40 59 b8 e6 fa a1 bd
       0.13213082 -0.07618984 -5.1796436e-05 -0.07909183
0003f0 5e e8 10 be 52 a8 a0 3d 0c 9d 0b be 16 c6 f9 3d
       -0.14151141 0.078446046 -0.13634127 0.12195985

onnx::LSTM_117 f4 [1, 512, 128]
000000 ae 41 cb bd f0 c4 a6 bc b2 a9 cb 3d 99 e7 0c 3e
       -0.09924637 -0.020357579 0.09944476 0.13760222
000010 fe c5 0d bd 41 e6 08 3e 78 c4 13 bd ab 04 d7 bd
       -0.03461265 0.13369085 -0.03607604 -0.10498937
000020 d1 a6 83 bd 44 27 8c 3d b3 88 e9 bd 86 4a 09 be
       -0.06428302 0.06843427 -0.114030264 -0.13407335
000030 6e 31 af 3d 4e b4 df 3d 3a fb e3 3d fe 29 ff 3d
       0.0855435 0.10923062 0.11131902 0.12459181
000040 00 0b 8c bc 2e 8f 3a bd ee 77 9c 3d 60 32 bf bb
       -0.017095089 -0.045546703 0.07640062 -0.0058348626
000050 39 9b 11 3e e2 69 e3 3d cf ef 10 3e e0 ba 6d bc
       0.14219369 0.1110418 0.1415398 -0.0145098865
000060 b8 e4 ea 3c d0 ec 76 bc 28 88 91 bd 90 04 16 3d
       0.028673515 -0.015071109 -0.07106048 0.036625445
000070 ac f2 48 bd aa f9 00 be 12 fa 11 bd 08 ec a5 bc
       -0.049059555 -0.1259524 -0.035638876 -0.02025415
000080 8a 36 14 bd 80 0b 88 ba 12 94 bd 3d 86 82 ce bd
       -0.036184825 -0.0010379404 0.09256758 -0.10083489
000090 32 c2 db 3d 60 51 b3 3d 7a 99 01 bd 74 9c 1b be
       0.10730399 0.087557554 -0.031640507 -0.15196401
0000a0 80 83 fe bd 08 f5 d0 bd 56 a5 02 bd d0 4a 7b 3c
       -0.124274254 -0.10202986 -0.031895958 0.015337661
0000b0 50 2b 78 3d c6 39 ff 3d 30 3d 27 3c 5a d1 21 bd
       0.06058818 0.12462191 0.010207459 -0.039506294
0000c0 22 04 1f bd 32 0e be bd 69 51 96 bd b5 17 ed bd
       -0.0388223 -0.09280051 -0.073397465 -0.115767874
0000d0 68 83 a9 bc 9e 92 e6 3d 31 32 9d bd 56 51 8e 3d
       -0.020692542 0.11258434 -0.07675589 0.06949107
0000e0 0e 80 c5 3d 9e 63 de bd d0 88 9a 3d 08 8c 4f 3d
       0.09643565 -0.10858844 0.07545626 0.050670654
0000f0 04 9c 21 3d 39 f0 17 3e 4d d0 8f bd 80 a5 cc 3b
       0.03945543 0.14837731 -0.07022152 0.006245315
000100 34 a8 ae bd 34 fb e6 bd 98 e2 b8 bd 5b e6 07 3e
       -0.08528176 -0.11278382 -0.09027594 0.13271467
000110 1f 77 14 be 4c 3f 17 be 5e a0 b4 bd 68 81 9e bc
       -0.14498566 -0.1477024 -0.0881965 -0.019348815
000120 a0 1d c0 bd 12 63 b9 3d bc 05 e1 bd b2 5c 4f bd
       -0.093806505 0.09052099 -0.10987422 -0.05062551
000130 a0 79 02 3c 76 2c 0f be 32 15 e9 3d 5a 18 30 bd
       0.007963568 -0.13981804 0.11380996 -0.042991973
000140 e2 c2 cc 3d 92 60 d9 3d 50 41 3c bd 20 6e 4f bc
       0.099981084 0.106141225 -0.045960724 -0.012660533
000150 54 8e 05 be 7c 72 bf 3d 2e 20 e4 bd 88 cc c2 bd
       -0.13042575 0.09348008 -0.1113895 -0.095116675
000160 e6 57 de 3d 63 65 91 bd a0 a8 8f 3c c0 3c c9 bc
       0.10856609 -0.07099416 0.017536461 -0.0245651
000170 c1 94 ce bd 1f b0 13 3e 80 6a 29 3c f2 71 e5 3d
       -0.10086966 0.14422654 0.010340333 0.11203374
000180 a4 d9 f3 bd 0a 31 ef 3d 34 98 55 3d ec 7a 41 3d
       -0.11906746 0.11679275 0.052147105 0.047236368
000190 0a c5 fa 3d 1d 42 0c be 78 86 04 be 23 45 eb bd
       0.122446135 -0.13697095 -0.12941921 -0.11487796
0001a0 12 91 bf 3d b8 65 2a bd ce d6 99 3d 63 93 a4 bd
       0.09353842 -0.041600913 0.07511674 -0.08035924
0001b0 ea 13 ce 3d e3 48 01 3e 92 50 e6 3d 32 ad a1 3d
       0.10062392 0.1262546 0.11245836 0.078943625
0001c0 e0 4b d9 bc be 14 96 3d 88 a1 d5 bd 00 98 c0 39
       -0.026525438 0.07328175 -0.104312 0.00036734343
0001d0 97 f5 06 3e 6c ac 53 3d bd ca 18 3e f8 2d 9f 3c
       0.13179623 0.051678106 0.14921089 0.0194311
0001e0 e1 aa 17 be 4a 71 c4 3d 1a 5c ce bd 83 2c 00 3e
       -0.14811279 0.09591921 -0.10076161 0.1251698
0001f0 39 cc eb bd 00 c3 e6 3c 40 4e 01 bc 70 b4 c6 bc
       -0.11513562 0.028169155 -0.007892191 -0.024255961
000200 40 ed 47 bd 21 fc 99 bd ff 53 12 3e 06 3e fd bd
       -0.048810244 -0.07518793 0.14289854 -0.12365346
000210 20 ed a4 3b 90 a9 46 bc d4 88 69 3d 9d 61 0f 3e
       0.0050331503 -0.012125388 0.057015255 0.1400208
000220 3e 16 9d 3d a5 29 08 3e a2 e3 b0 bd db 6f 17 be
       0.07670258 0.13297136 -0.086371675 -0.14788763
000230 80 a8 dc bb ac e6 74 bd 0f 79 1b 3e e6 0f cf 3d
       -0.006733954 -0.0597903 0.15182899 0.10110454
000240 26 14 15 be 8b 7a af bd 88 9f 01 be 2d 61 04 be
       -0.14558467 -0.08568295 -0.12658513 -0.12927695
000250 64 d0 1d 3d d2 04 ef 3d f8 98 43 bd 54 a2 11 3d
       0.038528815 0.11670841 -0.047753304 0.0355552
000260 d2 77 f2 3d e7 be 00 3e 5e 43 a4 bd c4 95 fe bc
       0.1183926 0.12572823 -0.08020662 -0.031077273
000270 c0 f5 97 bb cc 1a 1a bd 90 d4 4e 3d d6 61 f2 3d
       -0.00463745 -0.03762321 0.050495684 0.11835067
000280 ea 31 43 bd c0 13 6e 3d 72 15 db bd 4a 1d 1b bd
       -0.047655024 0.058124304 -0.1069745 -0.03786973
000290 88 b8 d8 bd a4 7e 3e bd dc 61 62 3d 5a 92 d9 3d
       -0.105820715 -0.046507493 0.055269107 0.106236175
0002a0 7c 67 02 3d 80 af b1 bc d7 8a 02 3e c4 b0 74 3d
       0.03183697 -0.02169013 0.12748276 0.05973889
0002b0 c8 f2 2c 3d e8 e2 05 3d 2a 1d f3 bd d0 7c e6 bd
       0.04222372 0.032687098 -0.11870797 -0.11254275
0002c0 5c db 0d be 8e 0a 11 bd c4 2b 62 3d 44 7a ab bd
       -0.1385321 -0.035410456 0.05521752 -0.0837293
0002d0 0a d8 f4 3d 6e 5d 86 bd 60 9c d6 3b 5b 33 c9 bd
       0.11955269 -0.06560789 0.006549403 -0.098242484
0002e0 e0 3c ef bb 80 7e 63 3b 64 99 52 3d c5 03 1a 3e
       -0.007300958 0.003471285 0.051415816 0.150405
0002f0 20 ec 86 3d e6 a9 f5 bd 23 4c 11 3e 1e 86 d8 3d
       0.06588006 -0.11995296 0.141892 0.10572456
000300 d4 7c 7a bd 00 9d 13 bb d8 41 9f 3c 42 b7 8c 3d
       -0.0611542 -0.0022524 0.019440576 0.06870891
000310 80 36 7b bb 2d a6 b6 bd 95 54 0f be 24 f9 6f 3d
       -0.0038332045 -0.08918414 -0.13997109 0.05858721
000320 80 17 29 3d 38 08 3b bd 30 a7 87 bc dc 09 af 3d
       0.041282177 -0.045662135 -0.016559213 0.085468024
000330 9a 14 e8 3d a4 b5 9b bd 5c 86 4e bd 36 c7 e0 3d
       0.113320544 -0.076030046 -0.050421104 0.109754965
000340 ea ef 95 3d 40 10 f1 3b 50 b0 8a bd a6 7b 92 3d
       0.073211506 0.0073566735 -0.0677191 0.0715249
000350 cc 3c a9 3d c0 ac 77 3b 8a 56 9d bd f2 01 f3 3d
       0.08263549 0.0037792176 -0.07682522 0.118656054
000360 24 53 73 3d cc e6 15 3d 90 5d 35 bc 3c ac 6c 3d
       0.05940546 0.03659706 -0.01106967 0.057781443
000370 b0 9e bd 3c 89 7b 13 3e 90 77 00 bc 50 98 ae 3c
       0.023146957 0.14402594 -0.007841006 0.021312863
000380 6a 14 47 bd 34 73 aa 3d 0a b5 db 3d 90 84 57 3c
       -0.048603453 0.083227545 0.1072789 0.013154164
000390 24 8e 29 3d 80 b0 e4 bd 70 9a e2 bc ef c3 b3 bd
       0.04139532 -0.11166477 -0.027661532 -0.08777606
0003a0 4a 53 a0 bd 70 e2 57 3c 98 0e a8 3d 5e 7e 91 bd
       -0.07828386 0.0131765455 0.082059085 -0.07104181
0003b0 f8 b9 bd 3d b4 c7 77 3d 98 02 56 bd b0 f4 69 bd
       0.09263986 0.060493186 -0.052248567 -0.057118118
0003c0 e6 3e e3 bd a4 2a 5e 3d 8c f7 0b 3d 2e 67 a2 bd
       -0.11095981 0.054239884 0.034171626 -0.07929836
0003d0 9a c4 11 bd ba 79 f6 3d b0 0c 8c 3c 36 f0 f9 3d
       -0.035587884 0.12034936 0.017095894 0.1220402
0003e0 64 41 0d be cc 75 0f 3d a8 47 32 3d 76 3f eb 3d
       -0.13794476 0.03502445 0.043525368 0.114867136
0003f0 b5 54 1c 3e 4b cd fe bd b4 85 9d bd 90 e5 c4 3c
       0.15266688 -0.124415 -0.076915175 0.024035245

onnx::LSTM_118 f4 [1, 1024]
000000 00 00 00 00 00 00 00 00 00 00 00 00 00 00 00 00
       0.0 0.0 0.0 0.0
000010 00 00 00 00 00 00 00 00 00 00 00 00 00 00 00 00
       0.0 0.0 0.0 0.0
000020 00 00 00 00 00 00 00 00 00 00 00 00 00 00 00 00
       0.0 0.0 0.0 0.0
000030 00 00 00 00 00 00 00 00 00 00 00 00 00 00 00 00
       0.0 0.0 0.0 0.0
000040 00 00 00 00 00 00 00 00 00 00 00 00 00 00 00 00
       0.0 0.0 0.0 0.0
000050 00 00 00 00 00 00 00 00 00 00 00 00 00 00 00 00
       0.0 0.0 0.0 0.0
000060 00 00 00 00 00 00 00 00 00 00 00 00 00 00 00 00
       0.0 0.0 0.0 0.0
000070 00 00 00 00 00 00 00 00 00 00 00 00 00 00 00 00
       0.0 0.0 0.0 0.0
000080 00 00 00 00 00 00 00 00 00 00 00 00 00 00 00 00
       0.0 0.0 0.0 0.0
000090 00 00 00 00 00 00 00 00 00 00 00 00 00 00 00 00
       0.0 0.0 0.0 0.0
0000a0 00 00 00 00 00 00 00 00 00 00 00 00 00 00 00 00
       0.0 0.0 0.0 0.0
0000b0 00 00 00 00 00 00 00 00 00 00 00 00 00 00 00 00
       0.0 0.0 0.0 0.0
0000c0 00 00 00 00 00 00 00 00 00 00 00 00 00 00 00 00
       0.0 0.0 0.0 0.0
0000d0 00 00 00 00 00 00 00 00 00 00 00 00 00 00 00 00
       0.0 0.0 0.0 0.0
0000e0 00 00 00 00 00 00 00 00 00 00 00 00 00 00 00 00
       0.0 0.0 0.0 0.0
0000f0 00 00 00 00 00 00 00 00 00 00 00 00 00 00 00 00
       0.0 0.0 0.0 0.0
000100 00 00 00 00 00 00 00 00 00 00 00 00 00 00 00 00
       0.0 0.0 0.0 0.0
000110 00 00 00 00 00 00 00 00 00 00 00 00 00 00 00 00
       0.0 0.0 0.0 0.0
000120 00 00 00 00 00 00 00 00 00 00 00 00 00 00 00 00
       0.0 0.0 0.0 0.0
000130 00 00 00 00 00 00 00 00 00 00 00 00 00 00 00 00
       0.0 0.0 0.0 0.0
000140 00 00 00 00 00 00 00 00 00 00 00 00 00 00 00 00
       0.0 0.0 0.0 0.0
000150 00 00 00 00 00 00 00 00 00 00 00 00 00 00 00 00
       0.0 0.0 0.0 0.0
000160 00 00 00 00 00 00 00 00 00 00 00 00 00 00 00 00
       0.0 0.0 0.0 0.0
000170 00 00 00 00 00 00 00 00 00 00 00 00 00 00 00 00
       0.0 0.0 0.0 0.0
000180 00 00 00 00 00 00 00 00 00 00 00 00 00 00 00 00
       0.0 0.0 0.0 0.0
000190 00 00 00 00 00 00 00 00 00 00 00 00 00 00 00 00
       0.0 0.0 0.0 0.0
0001a0 00 00 00 00 00 00 00 00 00 00 00 00 00 00 00 00
       0.0 0.0 0.0 0.0
0001b0 00 00 00 00 00 00 00 00 00 00 00 00 00 00 00 00
       0.0 0.0 0.0 0.0
0001c0 00 00 00 00 00 00 00 00 00 00 00 00 00 00 00 00
       0.0 0.0 0.0 0.0
0001d0 00 00 00 00 00 00 00 00 00 00 00 00 00 00 00 00
       0.0 0.0 0.0 0.0
0001e0 00 00 00 00 00 00 00 00 00 00 00 00 00 00 00 00
       0.0 0.0 0.0 0.0
0001f0 00 00 00 00 00 00 00 00 00 00 00 00 00 00 00 00
       0.0 0.0 0.0 0.0
000200 00 00 00 00 00 00 00 00 00 00 00 00 00 00 00 00
       0.0 0.0 0.0 0.0
000210 00 00 00 00 00 00 00 00 00 00 00 00 00 00 00 00
       0.0 0.0 0.0 0.0
000220 00 00 00 00 00 00 00 00 00 00 00 00 00 00 00 00
       0.0 0.0 0.0 0.0
000230 00 00 00 00 00 00 00 00 00 00 00 00 00 00 00 00
       0.0 0.0 0.0 0.0
000240 00 00 00 00 00 00 00 00 00 00 00 00 00 00 00 00
       0.0 0.0 0.0 0.0
000250 00 00 00 00 00 00 00 00 00 00 00 00 00 00 00 00
       0.0 0.0 0.0 0.0
000260 00 00 00 00 00 00 00 00 00 00 00 00 00 00 00 00
       0.0 0.0 0.0 0.0
000270 00 00 00 00 00 00 00 00 00 00 00 00 00 00 00 00
       0.0 0.0 0.0 0.0
000280 00 00 00 00 00 00 00 00 00 00 00 00 00 00 00 00
       0.0 0.0 0.0 0.0
000290 00 00 00 00 00 00 00 00 00 00 00 00 00 00 00 00
       0.0 0.0 0.0 0.0
0002a0 00 00 00 00 00 00 00 00 00 00 00 00 00 00 00 00
       0.0 0.0 0.0 0.0
0002b0 00 00 00 00 00 00 00 00 00 00 00 00 00 00 00 00
       0.0 0.0 0.0 0.0
0002c0 00 00 00 00 00 00 00 00 00 00 00 00 00 00 00 00
       0.0 0.0 0.0 0.0
0002d0 00 00 00 00 00 00 00 00 00 00 00 00 00 00 00 00
       0.0 0.0 0.0 0.0
0002e0 00 00 00 00 00 00 00 00 00 00 00 00 00 00 00 00
       0.0 0.0 0.0 0.0
0002f0 00 00 00 00 00 00 00 00 00 00 00 00 00 00 00 00
       0.0 0.0 0.0 0.0
000300 00 00 00 00 00 00 00 00 00 00 00 00 00 00 00 00
       0.0 0.0 0.0 0.0
000310 00 00 00 00 00 00 00 00 00 00 00 00 00 00 00 00
       0.0 0.0 0.0 0.0
000320 00 00 00 00 00 00 00 00 00 00 00 00 00 00 00 00
       0.0 0.0 0.0 0.0
000330 00 00 00 00 00 00 00 00 00 00 00 00 00 00 00 00
       0.0 0.0 0.0 0.0
000340 00 00 00 00 00 00 00 00 00 00 00 00 00 00 00 00
       0.0 0.0 0.0 0.0
000350 00 00 00 00 00 00 00 00 00 00 00 00 00 00 00 00
       0.0 0.0 0.0 0.0
000360 00 00 00 00 00 00 00 00 00 00 00 00 00 00 00 00
       0.0 0.0 0.0 0.0
000370 00 00 00 00 00 00 00 00 00 00 00 00 00 00 00 00
       0.0 0.0 0.0 0.0
000380 00 00 00 00 00 00 00 00 00 00 00 00 00 00 00 00
       0.0 0.0 0.0 0.0
000390 00 00 00 00 00 00 00 00 00 00 00 00 00 00 00 00
       0.0 0.0 0.0 0.0
0003a0 00 00 00 00 00 00 00 00 00 00 00 00 00 00 00 00
       0.0 0.0 0.0 0.0
0003b0 00 00 00 00 00 00 00 00 00 00 00 00 00 00 00 00
       0.0 0.0 0.0 0.0
0003c0 00 00 00 00 00 00 00 00 00 00 00 00 00 00 00 00
       0.0 0.0 0.0 0.0
0003d0 00 00 00 00 00 00 00 00 00 00 00 00 00 00 00 00
       0.0 0.0 0.0 0.0
0003e0 00 00 00 00 00 00 00 00 00 00 00 00 00 00 00 00
       0.0 0.0 0.0 0.0
0003f0 00 00 00 00 00 00 00 00 00 00 00 00 00 00 00 00
       0.0 0.0 0.0 0.0
