results/try-12/My Behavior/My Behavior-1280.onnx (onnx, 693209 bytes, 10 tensors)

network_body._body_endoder.seq_layers.0.weight f4 [128, 122]
0.04246865 0.015549347 -0.12577811 -0.12074226 -0.00417931 -0.22402552 0.037978236 -0.024354976
0.11292522 -0.012013368 -0.036812007 0.0013089083 -0.06424522 0.08134265 -0.029151592 -0.048195533
-0.051652204 0.0119559355 -0.1632902 0.18714999 0.008050893 -0.027339892 0.02095732 0.06522714
-0.033312667 -0.017082179 -0.041639328 0.05566325 0.099992365 -0.18178132 0.016235938 0.01766218
0.110486485 -0.035683814 0.0054054866 0.03029357 0.06134234 0.067367814 0.026923757 -0.1107537
0.15010925 0.010595619 -0.053148914 -0.0672319 -0.00022261434 -0.06790457 -0.047121078 -0.087379076
0.073669605 0.011661425 0.05077844 0.026669284 0.024892226 0.014033196 0.11575432 -0.09690762
-0.06778487 -0.09506853 0.009455051 0.04928956 -0.13319391 0.033308588 -0.079780206 -0.103952594
0.027707865 -0.05846794 0.055586908 0.047433186 0.01182522 0.044826355 -0.036738522 0.13696632
0.20040789 -0.0045473543 -0.21925536 0.1023666 -0.09753787 -0.033817768 0.11039135 0.018583136
0.03894631 -0.033645052 0.034228627 0.19515918 -0.011808279 0.13128799 0.095031284 0.16574186
-0.09460495 -0.15152591 0.037703875 0.052937232 -0.07781408 -0.120878614 0.2010752 0.123101406
0.036512855 0.026939433 0.11311681 0.065167494 0.06272993 0.18402082 -0.097239494 0.051943775
0.08590329 -0.080768205 0.17537893 0.10314183 0.012051553 0.08355398 -0.15508002 -0.021893913
-0.039465453 0.19199272 0.0014106685 0.028829914 -0.048998974 -0.011307621 -0.33767024 0.009476282
0.06327117 -0.004622724 -0.070643656 -0.127844 0.09356335 -0.07770425 -0.003696247 -0.008494567
0.14065507 -0.028687207 -0.023898898 -0.04943538 -0.05908879 0.051265992 -0.11598945 0.091988094
-0.13454196 -0.09425753 -0.0012101149 0.033651743 0.022364285 0.08448636 -0.042295113 -0.006849007
-0.013801393 -0.007882079 0.10092511 0.14115436 0.047238853 -0.15758951 0.09556321 0.026229719
-0.01669401 -0.032500114 -0.10975998 0.012799653 -0.052651662 0.15645099 -0.02194902 0.052331556
-0.016200347 -0.0069169234 -0.036774226 -0.022932624 0.049442112 -0.18053813 0.07492393 -0.22416839
-0.088616155 0.08200319 0.09231867 0.0008645229 -0.06332215 0.01839606 0.016600987 -0.079946056
0.14421165 -0.01847078 -0.019966736 0.011667732 0.13531944 0.030668529 -0.024779001 -0.050645996
0.007180276 -0.020732991 -0.04797119 -0.13827404 -0.023115318 -0.11165806 0.07507781 0.065986134
-0.12586464 0.06799753 -0.019565282 -0.09261551 -0.08921181 0.007500248 -0.13856672 0.05325533
-0.022134246 0.08005095 -0.009930233 -0.10113068 -0.060991123 0.012182573 -0.023810128 -0.04872262
0.12779891 -0.025216829 -0.059892982 -0.0037868957 0.018185547 -0.012305866 0.034786947 -0.12788378
-0.18824157 0.050261684 -0.09968538 0.07776793 0.030573204 0.11043786 0.08230101 0.05608927
-0.14339073 0.1079627 0.041842412 -0.059154328 0.13586043 -0.1183939 0.0103004025 0.011213736
0.10253247 0.13660814 -0.001698802 0.038298942 -0.10884474 -0.07116584 0.012149454 0.075508416
0.16447738 -0.017784994 -0.046982784 -0.073800765 0.10903198 0.00031311015 -0.1588756 0.053908374
0.019540526 0.06842146 -0.017306538 -0.16698693 -0.009727407 0.040555265 0.16726159 -0.015551781
00000000: 9bf3 2d3d b0c2 7e3c facb 00be b847 f7bd
00000010: 98f2 88bb f266 65be 118f 1b3d 1684 c7bc
00000020: 5645 e73d b8d3 44bc 30c8 16bd ad8f ab3a
00000030: ff92 83bd fa96 a63d 52cf eebc ae68 45bd
00000040: 4391 53bd d4e2 433c 8c35 27be 3fa4 3f3e
00000050: e5e7 033c e9f7 dfbc b0ae ab3c cf95 853d
00000060: dd72 08bd edef 8bbc 008e 2abd 26ff 633d
00000070: ccc8 cc3d e224 3abe 3b01 853c 47b0 903c
00000080: bd46 e23d 3129 12bd 8220 b13b 392a f83c
00000090: 1b42 7b3d 23f8 893d 368f dc3c d6d2 e2bd
000000a0: 3db6 193e 3f99 2d3c adb2 59bd e1b0 89bd
000000b0: 956d 69b9 8d11 8bbd 0802 41bd cdf3 b2bd
000000c0: 17e0 963d 900f 3f3c 0efd 4f3d 8b79 da3c
000000d0: c8ea cb3c 7deb 653c 9a10 ed3d 8177 c6bd
000000e0: cbd2 8abd 4ab3 c2bd 5ce9 1a3c dae3 493d
000000f0: fc63 08be 966e 083d ce63 a3bd 19e5 d4bd
00000100: 9bfb e23c 147c 6fbd 19af 633d 4d49 423d
00000110: 91be 413c d79b 373d 227b 16bd e640 0c3e
00000120: ba37 4d3e f901 95bb 7a84 60be 94a5 d13d
00000130: efc1 c7bd 8084 0abd dc14 e23d a93b 983c
00000140: 2a86 1f3d 65cf 09bd 5133 0c3d cfd7 473e
00000150: 8377 41bc 5c70 063e c39f c23d 3cb8 293e
00000160: 3dc0 c1bd 9c29 1bbe 616f 1a3d b6d4 583d
00000170: fd5c 9fbd 358f f7bd a8e6 4d3e 971c fc3d
00000180: 818e 153d 16b0 dc3c c9a9 e73d 8976 853d
00000190: 8d78 803d f46f 3c3e 8025 c7bd ffc2 543d
000001a0: 10ee af3d cd69 a5bd 8996 333e 063c d33d
000001b0: e173 453c 591e ab3d 4ccd 1ebe dd5a b3bc
000001c0: 87a6 21bd bd99 443e 2ee6 b83a b62c ec3c
000001d0: 26b3 48bd 9a43 39bc 1de3 acbe 6842 1b3c
000001e0: 5194 813d 387a 97bb 9fad 90bd 8ae9 02be
000001f0: 249e bf3d 6823 9fbd bc3c 72bb cc2c 0bbc
00000200: e207 103e 6f01 ebbc 9fc7 c3bc c17c 4abd
00000210: 1607 72bd 4afc 513d e08b edbd 4164 bc3d
00000220: 5ec5 09be 180a c1bd b89c 9eba 69d6 093d
00000230: 4e35 b73c 2f07 ad3d a43d 2dbd a36d e0bb
00000240: 3d1f 62bc d623 01bc d3b1 ce3d c58a 103e
00000250: 877d 413d 255f 21be a5b6 c33d b5df d63c
00000260: e0c1 88bc d71e 05bd d7c9 e0bd a3b5 513c
00000270: 45a9 57bd b034 203e 6ece b3bc 9d59 563d
00000280: 97b6 84bc 5ca7 e2bb 92a0 16bd 33dd bbbc
00000290: d083 4a3d fdde 38be b871 993d 668c 65be
000002a0: 637c b5bd 4af1 a73d 9211 bd3d 26a1 623a
000002b0: 0baf 81bd 56b3 963c cbfe 873c c2ba a3bd
000002c0: 38ac 133e 0950 97bc 4891 a3bc 042a 3f3c
000002d0: 2e91 0a3e 913c fb3c 55fd cabc 2d72 4fbd
000002e0: 8548 eb3b 3cd8 a9bc 707d 44bd b697 0dbe
000002f0: 565c bdbc fbac e4bd 65c2 993d bd23 873d
00000300: a9e2 00be 4a42 8b3d 5f47 a0bc 33ad bdbd
00000310: aeb4 b6bd a4c4 f53b 6fe4 0dbe 4322 5a3d
00000320: e152 b5bc c1f1 a33d 6ab2 22bc 9a1d cfbd
00000330: d4d1 79bd 6a99 473c 750d c3bc 5f91 47bd
00000340: b8dd 023e 8693 cebc 5852 75bd 912d 78bb
00000350: dbf9 943c 8b9e 49bc c27c 0e3d f7f3 02be
00000360: 66c2 40be 32df 4d3d d927 ccbd cb44 9f3d
00000370: a874 fa3c 3f2d e23d 6f8d a83d ddbd 653d
00000380: 05d5 12be 8c1b dd3d f362 2b3d cf4b 72bd
00000390: ff1e 0b3e 8078 f2bd 05c3 283c d1b9 373c
000003a0: 8bfc d13d 01e3 0b3e 56aa deba 5adf 1c3d
000003b0: fee9 debd 65bf 91bd 810e 473c 28a4 9a3d
000003c0: c26c 283e d6b1 91bc 0571 40bd db24 97bd
000003d0: 294c df3d ef28 a439 49b0 22be 07cf 5c3d
000003e0: 7413 a03c 8d20 8c3d 71c6 8dbc 9ffe 2abe
000003f0: b45f 1fbc 471d 263d 9f46 2b3e e6cc 7ebc

network_body._body_endoder.seq_layers.0.bias f4 [128]
0.0 0.0 0.0 0.0 0.0 0.0 0.0 0.0
0.0 0.0 0.0 0.0 0.0 0.0 0.0 0.0
0.0 0.0 0.0 0.0 0.0 0.0 0.0 0.0
0.0 0.0 0.0 0.0 0.0 0.0 0.0 0.0
0.0 0.0 0.0 0.0 0.0 0.0 0.0 0.0
0.0 0.0 0.0 0.0 0.0 0.0 0.0 0.0
0.0 0.0 0.0 0.0 0.0 0.0 0.0 0.0
0.0 0.0 0.0 0.0 0.0 0.0 0.0 0.0
0.0 0.0 0.0 0.0 0.0 0.0 0.0 0.0
0.0 0.0 0.0 0.0 0.0 0.0 0.0 0.0
0.0 0.0 0.0 0.0 0.0 0.0 0.0 0.0
0.0 0.0 0.0 0.0 0.0 0.0 0.0 0.0
0.0 0.0 0.0 0.0 0.0 0.0 0.0 0.0
0.0 0.0 0.0 0.0 0.0 0.0 0.0 0.0
0.0 0.0 0.0 0.0 0.0 0.0 0.0 0.0
0.0 0.0 0.0 0.0 0.0 0.0 0.0 0.0
00000000: 0000 0000 0000 0000 0000 0000 0000 0000
00000010: 0000 0000 0000 0000 0000 0000 0000 0000
00000020: 0000 0000 0000 0000 0000 0000 0000 0000
00000030: 0000 0000 0000 0000 0000 0000 0000 0000
00000040: 0000 0000 0000 0000 0000 0000 0000 0000
00000050: 0000 0000 0000 0000 0000 0000 0000 0000
00000060: 0000 0000 0000 0000 0000 0000 0000 0000
00000070: 0000 0000 0000 0000 0000 0000 0000 0000
00000080: 0000 0000 0000 0000 0000 0000 0000 0000
00000090: 0000 0000 0000 0000 0000 0000 0000 0000
000000a0: 0000 0000 0000 0000 0000 0000 0000 0000
000000b0: 0000 0000 0000 0000 0000 0000 0000 0000
000000c0: 0000 0000 0000 0000 0000 0000 0000 0000
000000d0: 0000 0000 0000 0000 0000 0000 0000 0000
000000e0: 0000 0000 0000 0000 0000 0000 0000 0000
000000f0: 0000 0000 0000 0000 0000 0000 0000 0000
00000100: 0000 0000 0000 0000 0000 0000 0000 0000
00000110: 0000 0000 0000 0000 0000 0000 0000 0000
00000120: 0000 0000 0000 0000 0000 0000 0000 0000
00000130: 0000 0000 0000 0000 0000 0000 0000 0000
00000140: 0000 0000 0000 0000 0000 0000 0000 0000
00000150: 0000 0000 0000 0000 0000 0000 0000 0000
00000160: 0000 0000 0000 0000 0000 0000 0000 0000
00000170: 0000 0000 0000 0000 0000 0000 0000 0000
00000180: 0000 0000 0000 0000 0000 0000 0000 0000
00000190: 0000 0000 0000 0000 0000 0000 0000 0000
000001a0: 0000 0000 0000 0000 0000 0000 0000 0000
000001b0: 0000 0000 0000 0000 0000 0000 0000 0000
000001c0: 0000 0000 0000 0000 0000 0000 0000 0000
000001d0: 0000 0000 0000 0000 0000 0000 0000 0000
000001e0: 0000 0000 0000 0000 0000 0000 0000 0000
000001f0: 0000 0000 0000 0000 0000 0000 0000 0000

network_body._body_endoder.seq_layers.2.weight f4 [128, 128]
-0.13565066 0.13635732 -0.010539052 -0.063270524 0.08728488 0.053270295 0.09122154 0.041131355
0.028549772 -0.030665614 0.077298254 -0.06477521 -0.12246365 0.11190593 0.0031124074 -0.09171252
0.029916784 0.042431287 0.062182374 -0.015358784 -0.04194558 0.0597758 0.079319306 0.032479804
0.13790303 0.05756166 0.07014147 -0.06100393 -0.035251256 -0.1438799 0.16984905 -0.033695158
-0.0024326174 -0.14364026 -0.024433339 0.07303392 0.021229709 -0.028918952 0.025855007 0.008078645
0.020023739 -0.0041120863 -0.05333225 0.010003809 -0.055184234 -0.116305046 -0.092700936 -0.030890105
-0.011414728 0.029457597 -0.025454452 -0.18201806 0.035051793 -0.10588452 0.15624037 -0.006105482
0.059370052 -0.002524442 0.17418472 -0.10435079 -0.15098706 0.10217715 0.08393588 0.13739456
0.07243771 -0.12933627 0.13985056 0.005581903 0.06430125 -0.041681703 -0.035579626 0.051549442
-0.01965864 0.11745154 0.008369705 0.070901796 -0.087660424 -0.15983455 -0.010094233 -0.09043968
0.068165645 0.02557718 -0.043533873 0.059723876 0.06444719 0.04486464 -0.2166686 -0.10716914
-0.039631505 -0.029134657 0.0072959308 0.1595701 -0.017073419 0.10074185 -0.045285746 0.00037265514
0.046376757 0.03720074 0.023157222 -0.028599301 -0.13785563 0.003173673 -0.020862993 0.019541485
0.049805835 0.088435225 0.026131522 0.1334425 -0.020967979 -0.09358734 -0.011463433 -0.01811094
-0.07672373 0.01220895 0.08549174 0.09129731 0.1403858 -0.14586268 -0.0022266046 0.023184212
-0.09852096 -0.021955358 0.14834797 -0.06699329 -0.04634502 -0.012606574 -0.11808838 -0.07129106
-0.1398503 0.030094162 0.0033448827 0.037146352 0.11551736 0.0086229965 -0.04671892 0.043637935
0.04128819 0.016499741 -0.01712978 -0.077911094 -0.03257123 -0.17529434 -0.003083742 -0.061907433
-0.007903064 -0.20718914 0.017331945 0.13878763 0.04846504 -0.111585855 -0.065879375 -0.17361602
-0.07175851 0.05372927 0.08063281 -0.023387074 -0.07318598 0.0114355255 -0.033170577 -0.060691826
-0.044230387 0.0022716457 -0.0009297793 -0.061321788 -0.010254749 -0.050503682 0.009884943 -0.31792182
0.024828095 0.020208223 0.022256205 0.0991329 -0.10329181 -0.13386695 -0.032867067 0.010417043
-0.09652315 0.031862818 0.12548435 0.023760278 -0.013937501 0.12307141 -0.07827563 0.005300634
0.064732574 -0.009087476 -0.011360437 0.027760986 -0.11003086 -0.09488873 0.010976969 -0.06006855
-0.011275786 -0.09128613 -0.10142411 -0.18179767 0.11410985 0.015960362 0.090158135 0.027487088
-0.020541534 0.039213073 -0.003090089 0.13190328 -0.10882393 -0.25027168 0.13529748 -0.109890774
0.00075127324 0.06330448 -0.0028906653 -0.0055214954 0.07353853 -0.058055203 0.021313919 0.037435938
-0.020558638 0.08451103 0.047416363 0.010996457 0.13978451 -0.08288915 0.059354514 -0.15318683
0.06316356 -0.124996826 0.017806247 0.081080064 0.13835794 0.047630157 0.046487015 0.076384895
-0.05399671 -0.02164822 0.17678858 -0.06052726 0.16771877 0.03828092 -0.11040625 -0.040222708
-0.041621715 -0.027838072 -0.05644233 0.019915938 0.17733583 0.16348055 -0.022169946 -0.011913765
0.062535025 -0.01637254 -0.090666875 0.13904488 0.121988654 -0.09497709 -0.17881308 -0.045041848
00000000: 02e8 0abe 41a1 0b3e fdab 2cbc fa93 81bd
00000010: 6ac2 b23d f431 5a3d 5cd2 ba3d 5a79 283d
00000020: 36e1 e93c 7436 fbbc 8c4e 9e3d dea8 84bd
00000030: 39ce fabd f02e e53d 88f9 4b3b c6d3 bbbd
00000040: 0b14 f53c 6ecc 2d3d f2b2 7e3d 69a3 7bbc
00000050: 21cf 2bbd 78d7 743d 2972 a23d 8b09 053d
00000060: 7436 0d3e c6c5 6b3d 55a6 8f3d 42df 79bd
00000070: 9f63 10bd 4155 13be e9ec 2d3e ef03 0abd
00000080: 8c6c 1fbb 6f16 13be 6d28 c8bc cf92 953d
00000090: ede9 ad3c 70e7 ecbc e1cd d33c 4b5c 043c
000000a0: d308 a43c aebe 86bb eb72 5abd 04e7 233c
000000b0: dd08 62bd 5731 eebd fdd9 bdbd 3f0d fdbc
000000c0: d704 3bbc 0f51 f13c db85 d0bc f162 3abe
000000d0: 7892 0f3d fcd9 d8bd 7afd 1f3e 7f10 c8bb
000000e0: 032e 733d 1c71 25bb 7b5d 323e deb5 d5bd
000000f0: 5a9c 1abe 4142 d13d 93e6 ab3d 29b1 0c3e
00000100: 395a 943d ba70 04be fc34 0f3e 65e8 b63b
00000110: 60b0 833d 6fba 2abd f1bb 11bd 8225 533d
00000120: 280b a1bc 6f8a f03d 1621 093c f634 913d
00000130: 4f87 b3bd abab 23be 4862 25bc 7038 b9bd
00000140: 6e9a 8b3d 3c87 d13c 9350 32bd 06a1 743d
00000150: e3fc 833d fcc3 373d 60de 5dbe 7e7b dbbd
00000160: a554 22bd ceab eebc b412 ef3b 5866 233e
00000170: 8edd 8bbc be51 ce3d 8c7d 39bd ed60 c339
00000180: 8ef5 3d3d ce5f 183d 37b4 bd3c 1549 eabc
00000190: 072a 0dbe 66fd 4f3b dee8 aabc 7715 a03c
000001a0: 3401 4c3d 871d b53d c611 d63c 27a5 083e
000001b0: 0ac5 abbc b8aa bfbd 1fd1 3bbc 655d 94bc
000001c0: 5521 9dbd 0c08 483c 4b16 af3d 16fa ba3d
000001d0: 4cc1 0f3e 075d 15be 3aec 11bb d1ec bd3c
000001e0: 5bc5 c9bd b9db b3bc 88e8 173e c733 89bd
000001f0: 47d4 3dbd ce8b 4ebc 52d8 f1bd 0c01 92bd
00000200: eb34 0fbe 0888 f63c d235 5b3b c626 183d
00000210: 5e94 ec3d 7847 0d3c 575c 3fbd b1bd 323d
00000220: ce1d 293d 772a 873c c153 8cbc da8f 9fbd
00000230: 6969 05bd 5c80 33be 9b18 4abb a692 7dbd
00000240: da7b 01bc 6429 54be b9fb 8d3c 581e 0e3e
00000250: 4783 463d 2087 e4bd c4eb 86bd 66c8 31be
00000260: 20f6 92bd 3913 5c3d d122 a53d 4096 bfbc
00000270: 88e2 95bd 125c 3b3c dfdd 07bd fe97 78bd
00000280: ec2a 35bd e4df 143b 6fbc 73ba 8e2c 7bbd
00000290: 8903 28bc f3dc 4ebd 75f4 213c a6c6 a2be
000002a0: 4a64 cb3c b78b a53c a552 b63c 3106 cb3d
000002b0: a88a d3bd 6b14 09be 9e9f 06bd 3fac 2a3c
000002c0: eead c5bd 9682 023d f87e 003e eaa4 c23c
000002d0: 1e5a 64bc dd0c fc3d f94e a0bd f1b0 ad3b
000002e0: 8392 843d a3e3 14bc 2021 3abc 026b e33c
000002f0: dc57 e1bd 0655 c2bd bfd8 333c 710a 76bd
00000300: 13be 38bc 39f4 babd 72b7 cfbd 2b29 3abe
00000310: 6db2 e93d 4ebf 823c d4a4 b83d 9a2c e13c
00000320: b846 a8bc e39d 203d 1783 4abb a711 073e
00000330: 15df debd 9c23 80be 6c8b 0a3e 6a0e e1bd
00000340: 18f1 443a c7a5 813d 5171 3dbb a9ed b4bb
00000350: 5e9b 963d 4bcb 6dbd 879a ae3c 6d56 193d
00000360: 976a a8bc 1e14 ad3d a937 423d 7c2a 343c
00000370: ac23 0f3e c9c1 a9bd b81d 733d 02dd 1cbe
00000380: e65b 813d 56fe ffbd 68de 913c 4e0d a63d
00000390: b4ad 0d3e d717 433d 2b69 3e3d af6f 9c3d
000003a0: a72b 5dbd 9c57 b1bc 1108 353e 6feb 77bd
000003b0: 78be 2b3e 74cc 1c3d ac1c e2bd 91c0 24bd
000003c0: 887b 2abd ab0c e4bc 1330 67bd c026 a33c
000003d0: 8697 353e 7267 273e bf9d b5bc f431 43bc
000003e0: 5d12 803d b41f 86bc 8eaf b9bd c861 0e3e
000003f0: 30d5 f93d 5983 c2bd c71a 37be cd7d 38bd

action_model._continuous_distribution.log_sigma f4 [1, 51]
0.0 0.0 0.0 0.0 0.0 0.0 0.0 0.0
0.0 0.0 0.0 0.0 0.0 0.0 0.0 0.0
0.0 0.0 0.0 0.0 0.0 0.0 0.0 0.0
0.0 0.0 0.0 0.0 0.0 0.0 0.0 0.0
0.0 0.0 0.0 0.0 0.0 0.0 0.0 0.0
0.0 0.0 0.0 0.0 0.0 0.0 0.0 0.0
0.0 0.0 0.0
00000000: 0000 0000 0000 0000 0000 0000 0000 0000
00000010: 0000 0000 0000 0000 0000 0000 0000 0000
00000020: 0000 0000 0000 0000 0000 0000 0000 0000
00000030: 0000 0000 0000 0000 0000 0000 0000 0000
00000040: 0000 0000 0000 0000 0000 0000 0000 0000
00000050: 0000 0000 0000 0000 0000 0000 0000 0000
00000060: 0000 0000 0000 0000 0000 0000 0000 0000
00000070: 0000 0000 0000 0000 0000 0000 0000 0000
00000080: 0000 0000 0000 0000 0000 0000 0000 0000
00000090: 0000 0000 0000 0000 0000 0000 0000 0000
000000a0: 0000 0000 0000 0000 0000 0000 0000 0000
000000b0: 0000 0000 0000 0000 0000 0000 0000 0000
000000c0: 0000 0000 0000 0000 0000 0000

action_model._continuous_distribution.mu.weight f4 [51, 128]
0.013232726 0.023583988 -0.03643762 -0.033549126 -0.01615428 -0.008263928 0.011984394 0.016138239
0.0063990275 -0.021418827 0.0016388939 -0.015466641 0.020484967 0.011505577 -0.01321981 -0.01270144
-0.00568151 0.0055326 -0.013684283 -0.026061846 0.02027535 0.020259377 -0.022894291 0.0060594594
-0.013175306 0.006758178 0.018236266 0.006309185 -0.020302096 -0.010733914 0.0031311072 -0.00029681303
-0.0019337118 0.0018438231 0.0013095564 0.02493911 -0.008031824 -0.019747095 -0.011291703 -0.0026665463
-0.026897911 0.047752514 0.0073253037 -0.030879406 0.0029515044 0.024180993 0.02226327 -0.007632617
0.010502198 0.03356314 -0.036512885 -0.00685587 0.018237378 0.0025363665 0.0007133114 -0.026177749
0.016536664 -0.0051783347 0.002997076 -0.008023514 -0.0054033226 0.02694788 0.009111962 0.007556993
-0.0069967555 0.02244263 0.013424936 -0.019490799 0.0056603975 -0.008278085 -0.0010835137 0.0048303716
0.0045153648 0.0060153618 0.0073103346 -0.030317772 0.008698448 0.0850891 0.011972992 -0.032167535
0.0021343522 -0.01117069 -0.013264065 -0.01792166 0.0032054961 0.017208373 0.01502379 -0.003222389
0.0071141995 -0.026127497 -0.006717445 0.024021193 0.00081831584 -0.0048633264 -0.011091653 0.0076312083
0.019862315 0.001527527 -0.011817785 -0.016569078 0.032044165 0.01166022 0.03993715 -0.021564571
-0.009659965 -0.02253509 0.0035475318 0.022943769 -0.0074721286 0.013536512 -0.0044600493 -0.02527132
-0.0026220388 -0.009605527 0.030754358 -0.0011498578 0.027650345 -0.014884031 -0.024691874 0.023834364
0.0198155 -0.04569631 -0.011809233 -0.0007419078 0.00627867 0.0031418987 0.01738977 0.0059693637
-0.03204893 0.0045250463 -0.00049651915 -0.015551971 -0.029305777 -0.022774367 0.012802819 0.004701777
0.012736392 -0.009327467 0.003659113 0.026393414 0.019819828 0.027156666 0.022953577 -0.0007899993
0.017266145 0.0029028708 0.011350923 -0.041982375 0.014596897 -0.010537054 -0.031551134 -0.0007012417
0.027726298 -0.013441013 0.0015717881 -0.0047123833 -0.00852475 -0.018101845 -0.00527208 0.0121004665
0.008397381 -0.009489972 -0.022023091 -0.016938355 -0.003032924 -0.028518224 -0.015856037 -0.008690792
0.026989883 0.008832682 -0.014350533 0.006412963 0.009949083 -0.021555709 0.011759224 -0.003079162
-0.0131598255 0.0073848153 0.00460358 -0.005318926 -0.022878062 -0.011635058 -0.017535964 0.014215857
-0.0046190857 0.031825926 0.030776931 0.020388717 0.024796689 0.010667887 -0.005444059 -0.018517429
-0.013677306 -0.023309086 -0.03211378 -0.029173462 0.0047952733 -0.009155668 -0.011779846 -0.022240518
-0.008182711 -0.00063752435 -0.0010518488 -0.0038346543 -0.0066057057 0.015338651 0.02067743 -0.009459781
-0.009600147 0.00078891555 -0.027523775 0.0033422548 0.0035774652 -0.011270006 -0.017090084 0.0013782864
-0.0025971697 -0.029863153 0.005509168 -0.012573468 -0.028031904 0.014764494 -0.020940065 0.027333781
-0.0128999725 -0.0018451266 0.025224105 0.010607864 -0.014369808 0.02576278 0.009469499 0.02405823
0.037618324 -0.017967703 -0.00081215193 -0.005933556 0.017145002 -0.013366115 -0.010719179 -0.039679583
-0.021486754 0.031358477 0.021605616 -0.009722549 -0.02163339 -0.03275654 0.038969707 -0.011756345
0.0074360855 -0.00024162298 -0.0063265325 0.01149928 -0.0074739605 -0.004387857 0.0049075354 -0.0039340663
00000000: 13ce 583c 3533 c13c 9d3f 15bd cf6a 09bd
00000010: fb55 84bc 6d65 07bc 315a 443c 5734 843c
00000020: efae d13b 8976 afbc 27d0 d63a cb67 7dbc
00000030: 17d0 a73c e381 3c3c e797 58bc b319 50bc
00000040: f62b babb d04a b53b 0b34 60bc a77f d5bc
00000050: 7e18 a63c fef6 a53c cf8c bbbc 6e8e c63b
00000060: 3ddd 57bc b573 dd3b 3964 953c 48bd ce3b
00000070: 9550 a6bc 4cdd 2fbc 4333 4d3b 929d 9bb9
00000080: 9a74 fdba 70ac f13a 6ca5 ab3a 1b4d cc3c
00000090: e997 03bc a9c4 a1bc d600 39bc 39c1 2ebb
000000a0: 0259 dcbc 2498 433d 1a09 f03b cff6 fcbc
000000b0: 076e 413b 3817 c63c 7661 b63c 081b fabb
000000c0: 6911 2c3c 8179 093d 898e 15bd 35a7 e0bb
000000d0: 8e66 953c 2b39 263b 85fd 3a3a b872 d6bc
000000e0: e677 873c 05af a9bb 976a 443b 0f75 03bc
000000f0: 5b0e b1bb cdc1 dc3c 574a 153c a7a0 f73b
00000100: 0a45 e5bb 9bd9 b73c 43f4 5b3c 2bab 9fbc
00000110: db7a b93b cea0 07bc b004 8eba 1848 9e3b
00000120: a0f5 933b 831c c53b 888b ef3b fa5c f8bc
00000130: ef83 0e3c 3243 ae3d 5e2a 443c 1bc2 03bd
00000140: 7de0 0b3b 4505 37bc 8551 59bc 72d0 92bc
00000150: 4d13 523b 93f8 8c3c 5826 763c b72e 53bb
00000160: 3b1e e93b 5509 d6bc 031e dcbb 18c8 c43c
00000170: 3f84 563a 8a5c 9fbb c4b9 35bc 370f fa3b
00000180: 4bb6 a23c 4d37 c83a 629f 41bc e0bb 87bc
00000190: be40 033d 820a 3f3c 2395 233d 2fa8 b0bc
000001a0: d444 1ebc 829b b8bc b57d 683b 92f4 bb3c
000001b0: c2d8 f4bb 3fc8 5d3c 9b25 92bb cd05 cfbc
000001c0: 83d6 2bbb 8060 1dbc 90f0 fb3c d3b6 96ba
000001d0: fa82 e23c 27dc 73bc 9d46 cabc 4940 c33c
000001e0: 1e54 a23c 0e2c 3bbd 837b 41bc 977c 42ba
000001f0: 4dbd cd3b 50e8 4d3b fe74 8e3c a79a c33b
00000200: bd45 03bd d746 943b d628 02ba b2cd 7ebc
00000210: ab12 f0bc 4f91 babc eac2 513c 5d11 9a3b
00000220: 4dac 503c 3bd2 18bc bbcd 6f3b 0037 d83c
00000230: 315d a23c a877 de3c 2409 bc3c f517 4fba
00000240: bb71 8d3c 173e 3e3b 39f9 393c b6f5 2bbd
00000250: d327 6f3c 9ca3 2cbc c33b 01bd 89d3 37ba
00000260: 4322 e33c b237 5cbc 7504 ce3a 566a 9abb
00000270: 65ab 0bbc 524a 94bc 6ac1 acbb 0941 463c
00000280: 2b95 093c d47b 1bbc c569 b4bc 4ec2 8abc
00000290: 05c4 46bb 0d9f e9bc 85e4 81bc d363 0ebc
000002a0: e319 dd3c f4b6 103c 7f1e 6bbc d523 d23b
000002b0: 7b01 233c 9995 b0bc c3a9 403c c4cb 49bb
000002c0: 4f9c 57bc 52fc f13b a1d9 963b 634a aebb
000002d0: c66a bbbc f8a0 3ebc 95a7 8fbc a0e9 683c
000002e0: b35b 97bb e75b 023d e71f fc3c 3d06 a73c
000002f0: 6d22 cb3c 5cc8 2e3c 1464 b2bb ddb1 97bc
00000300: c716 60bc b2f2 bebc bd89 03bd 2ffd eebc
00000310: ab21 9d3b a801 16bc 4100 41bc bf31 b6bc
00000320: c710 06bc 891f 27ba 30de 89ba d34e 7bbb
00000330: ad74 d8bb f74e 7b3c b763 a93c 33fd 1abc
00000340: ef49 1dbc 3acf 4e3a 8a79 e1bc bb09 5b3b
00000350: e873 6a3b d5a5 38bc 8100 8cbc 9ea7 b43a
00000360: 4735 2abb 92a3 f4bc 4086 b43b f200 4ebc
00000370: 2aa3 e5bc c7e6 713c 808a abbc 18eb df3c
00000380: 685a 53bc 2dd8 f1ba c8a2 ce3c 9bcc 2d3c
00000390: 586f 6bbc 770c d33c f525 1b3c c415 c53c
000003a0: ac15 1a3d 0131 93bc 98e6 54ba 466e c2bb
000003b0: ad73 8c3c 8dfd 5abc 7f9f 2fbc 0f87 22bd
000003c0: fd04 b0bc bf71 003d 43fe b03c 534b 1fbc
000003d0: 8238 b1bc b92b 06bd b39e 1f3d af9d 40bc
000003e0: 68aa f33b 2d5c 7db9 cd4e cfbb 7a67 3c3c
000003f0: 20e8 f4bb 03c8 8fbb 64cf a03b 57e9 80bb

action_model._continuous_distribution.mu.bias f4 [51]
0.0 0.0 0.0 0.0 0.0 0.0 0.0 0.0
0.0 0.0 0.0 0.0 0.0 0.0 0.0 0.0
0.0 0.0 0.0 0.0 0.0 0.0 0.0 0.0
0.0 0.0 0.0 0.0 0.0 0.0 0.0 0.0
0.0 0.0 0.0 0.0 0.0 0.0 0.0 0.0
0.0 0.0 0.0 0.0 0.0 0.0 0.0 0.0
0.0 0.0 0.0
00000000: 0000 0000 0000 0000 0000 0000 0000 0000
00000010: 0000 0000 0000 0000 0000 0000 0000 0000
00000020: 0000 0000 0000 0000 0000 0000 0000 0000
00000030: 0000 0000 0000 0000 0000 0000 0000 0000
00000040: 0000 0000 0000 0000 0000 0000 0000 0000
00000050: 0000 0000 0000 0000 0000 0000 0000 0000
00000060: 0000 0000 0000 0000 0000 0000 0000 0000
00000070: 0000 0000 0000 0000 0000 0000 0000 0000
00000080: 0000 0000 0000 0000 0000 0000 0000 0000
00000090: 0000 0000 0000 0000 0000 0000 0000 0000
000000a0: 0000 0000 0000 0000 0000 0000 0000 0000
000000b0: 0000 0000 0000 0000 0000 0000 0000 0000
000000c0: 0000 0000 0000 0000 0000 0000

action_model._discrete_distribution.branches.0.weight f4 [1, 128]
0.0014583616 0.013014659 0.009626821 0.009704023 -0.0045040976 0.0060011474 -0.0015653018 0.004697158
-0.0034261819 -0.009021733 0.0016305082 -0.0070161126 0.007104307 0.014053916 0.006414757 -0.0033222728
0.015295306 0.013892183 0.008025445 -0.004396971 -0.0024029927 0.003345349 0.013352386 -0.010421286
0.008772454 0.004707991 0.0069065043 -0.013216889 0.009509304 0.009752083 -0.0027356825 -0.009318161
0.011049607 0.00079994806 0.0073704137 -0.00079115137 0.0020447744 -0.0006330886 0.01709405 0.002780046
-0.0011009873 0.0056348355 -0.0064489185 -0.0034192705 -0.0026630785 0.006996812 -0.033127222 0.016059114
-0.014566003 -0.012695198 0.012633446 0.011151311 0.0031583353 -0.0039913896 -0.004599445 -0.00657297
-0.0045221723 0.0076156543 0.0025223051 -0.0050653196 -0.011782038 -0.00022451101 0.0084540965 -0.0023359796
-0.008956307 0.0051658438 0.0014560419 -0.00030630158 0.003956567 -0.0042993114 -0.007427882 -0.010019566
-0.008233166 -0.0050052977 -0.00676861 0.0053208303 0.011122894 0.010944111 0.008342111 0.013328753
-0.0026270028 0.022110445 -0.00052518357 -0.007696283 0.008681697 0.00088798854 0.0022717826 0.0062208488
-0.016826166 -0.01443252 0.009678262 -0.00030989244 0.0075084576 0.0025326603 0.011204936 -0.0050754435
-0.008810822 0.0030354913 -0.013409886 -0.0045213285 -0.011575774 0.009007493 0.0019655374 -0.020682665
-0.0077657746 -0.009561311 -0.017745255 -0.006803881 -0.00030322655 0.003226563 -0.00058246864 -0.0030808263
0.0104151 -0.0009675974 0.019126378 0.0036248032 -0.019664114 -0.004579176 -0.013068435 0.015435609
0.00805048 -0.011881317 -0.0025198085 -0.004981949 0.0068929777 -0.0071348744 -0.002948777 -0.01820777
00000000: 7f26 bf3a 703b 553c d0b9 1d3c 9ffd 1e3c
00000010: 1c97 93bb 46a5 c43b d02a cdba 9eea 993b
00000020: cb89 60bb e4cf 13bc c7b6 d53a 6be7 e5bb
00000030: 3fcb e83b 6542 663c e232 d23b 7dba 59bb
00000040: 2a99 7a3c 0a9c 633c 287d 033c 7714 90bb
00000050: 877b 1dbb a53d 5b3b f7c3 5a3c 0bbe 2abc
00000060: 57ba 0f3c 7e45 9a3b f54f e23b a78b 58bc
00000070: e9cc 1b3c 33c7 1f3c 2349 33bb 33ab 18bc
00000080: 6909 353c 9bb3 513a 8383 f13b 4565 4fba
00000090: 9f01 063b dbf5 25ba d208 8c3c 6f31 363b
000000a0: 014f 90ba 6da4 b83b 7351 d3bb d715 60bb
000000b0: 0b87 2ebb 8345 e53b 69b0 07bd 678e 833c
000000c0: 3fa6 6ebc 85ff 4fbc 83fc 4e3c fdb3 363c
000000d0: 13fc 4e3b 34ca 82bb f1b6 96bb 1262 d7bb
000000e0: bb2e 94bb bd8c f93b 424d 253b fbfa a5bb
000000f0: 7309 41bc b76a 6bb9 0d83 0a3c 3c17 19bb
00000100: 79bd 12bc 3d46 a93b a9d8 be3a 1a97 a0b9
00000110: 17a6 813b 3de1 8cbb 9765 f3bb 1b29 24bc
00000120: 67e4 06bc 7b03 a4bb 37cb ddbb 5c5a ae3b
00000130: cc3c 363c ee4e 333c 59ad 083c d860 5a3c
00000140: cb29 2cbb f720 b53c 79ac 09ba 1a31 fcbb
00000150: ad3d 0e3c e7c7 683a 30e2 143b 43d8 cb3b
00000160: 07d7 89bc 6076 6cbc 9391 1e3c 0f79 a2b9
00000170: 8209 f63b fdfa 253b e894 373c e84f a6bb
00000180: 445b 10bc 18ef 463b 23b5 5bbc a727 94bb
00000190: 51a8 3dbc 2a94 133c 3fd0 003b b16e a9bc
000001a0: 0a78 febb 0ca7 1cbc 7f5e 91bc 17f3 debb
000001b0: 61fa 9eb9 bf74 533b cfb0 18ba b0e7 49bb
000001c0: 18a4 2a3c 5da6 7dba ecae 9c3c 1b8e 6d3b
000001d0: a316 a1bc ea0c 96bb fd1c 56bc a3e5 7c3c
000001e0: 29e6 033c dba9 42bc 5f23 25bb 9e3f a3bb
000001f0: 7dde e13b aacb e9bb 4540 41bb 7628 95bc

onnx::LSTM_116 f4 [1, 512, 128]
-0.1020336 0.0688398 -0.13310578 0.023805082 -0.14121474 0.05176744 -0.046264865 0.028980613
-0.14829236 0.11134057 -0.14547352 -0.12741153 0.041080087 -0.053206496 0.05437416 -0.06585301
-0.09385899 -0.08268185 -0.032155506 0.022687659 0.09630273 -0.039686657 0.030342713 -0.005741909
0.03076154 0.1526282 0.13069473 -0.09433422 -0.122909166 0.1516081 0.026874349 -0.1243996
0.09846009 0.13672827 0.03431 -0.14181 -0.063809596 0.06973015 0.06317781 -0.00028792024
0.02028139 0.14157079 -0.04401674 -0.13127114 0.009818479 -0.10699278 0.06267913 -0.10333091
-0.0032730699 -0.034128934 0.13586338 0.030145332 0.1446115 -0.11854051 -0.08973964 0.1292964
0.14330105 -0.0775241 -0.13395415 -0.11457795 0.14950965 0.146823 -0.09865351 0.15255044
0.047188118 0.1471497 -0.14966722 0.13057862 -0.122519195 -0.06437634 0.11082597 -0.11791842
0.016856119 -0.027270123 -0.10069567 -0.04094909 0.11455272 -0.068337634 -0.079731055 0.092629835
-0.13582708 -0.06706644 0.14643104 0.14227144 -0.10200137 0.13735367 0.14010508 0.12828846
0.14248414 0.12726022 -0.1180615 -0.024604067 -0.091613606 -0.10783756 0.033298954 0.07005085
0.09879379 0.11414476 -0.13632195 0.09882493 0.08260998 0.1270385 0.06265676 -0.057617754
0.08118148 0.013797149 0.05022812 0.14522456 -0.14864314 -0.06563076 -0.06684684 0.06948125
-0.016095117 -0.03984671 0.06491791 -0.1460412 0.029337376 0.055480063 0.100317165 0.0046821535
0.14472847 0.047388762 0.011959627 -0.030086696 0.0055758655 0.11815621 -0.13711563 -0.06065689
0.103101805 0.1034327 -0.029229686 -0.13250482 0.061784983 0.029310256 -0.058545403 -0.09777349
-0.10687782 0.10872151 0.119254425 0.14271034 0.08597465 -0.0053023547 -0.12821734 -0.10832469
-0.052909367 0.07475905 0.10814394 0.08278766 0.058911487 -0.07841424 -0.054508366 0.03741184
0.12506087 -0.097573265 0.11835934 0.08916105 0.14618675 -0.11577897 -0.1275855 -0.14047827
0.11804049 -0.050527558 -0.10165943 0.12776242 0.011201546 -0.08545152 -0.1079483 -0.081205525
0.13679488 0.068225086 -0.028282307 0.06930818 0.09930594 0.06240271 -0.010953173 0.0002194047
-0.14432201 0.14151259 0.047311127 -0.12452715 -0.082853526 0.03754647 0.006349325 -0.07890688
-0.11797114 0.018852487 -0.0026821792 0.13133343 -0.029151559 -0.08988818 -0.13713904 0.08919659
0.016190976 -0.058772728 -0.008229822 -0.11875104 -0.14980175 -0.12214374 -0.11570201 -0.064319484
0.14292382 0.14582302 0.08044979 0.045852587 0.015624255 -0.051710024 0.00083743036 0.053738445
0.121022984 -0.062075727 -0.013803437 0.13582923 0.11126129 -0.05715622 -0.10339641 -0.037005626
0.07943931 -0.060181566 -0.07815875 -0.073078156 0.052241653 0.13624223 0.007033035 -0.13981871
0.033927143 0.11474423 0.07616334 -0.005642116 0.088061586 0.0032384098 0.059850812 -0.072715856
-0.13003786 0.14390977 -0.092124656 0.021046102 0.06159082 0.063586414 0.02305764 -0.03654366
0.039689258 0.06533185 0.028307796 0.014630392 0.054927766 -0.11177451 -0.14104241 0.14910229
-0.106566295 -0.027363881 0.022364378 -0.008588478 0.020397693 0.0117046535 -0.11571959 0.039877012
00000000: fef6 d0bd e2fb 8c3d e24c 08be e002 c33c
00000010: 999a 10be 180a 543d 3a80 3dbd c068 ed3c
00000020: f4d9 17be 8606 e43d 03f7 14be 2b78 02be
00000030: 9843 283d 0eef 59bd 70b7 5e3d f1dd 86bd
00000040: 2439 c0bd 1a55 a9bd 7eb5 03bd 78db b93c
00000050: 5e3a c53d 7a8e 22bd 4891 f83c a026 bcbb
00000060: a0ff fb3c 914a 1c3e d7d4 053e 4d32 c1bd
00000070: cdb7 fbbd 273f 1b3e 9827 dc3c 38c5 febd
00000080: 72a5 c93d 7f02 0c3e a488 0c3d a436 11be
00000090: 9bae 82bd aece 8e3d 5e63 813d 00f4 96b9
000000a0: 2825 a63c eff7 103e e64a 34bd f16b 06be
000000b0: b0dd 203c 081f dbbd ea5d 803d 289f d3bd
000000c0: 0081 56bb c8ca 0bbd c51f 0b3e 58f3 f63c
000000d0: 0915 143e 5ec5 f2bd 6bc9 b7bd 4766 043e
000000e0: 83bd 123e f5c4 9ebd 472b 09be d8a7 eabd
000000f0: 0f19 193e c558 163e da0a cabd 2f36 1c3e
00000100: 5448 413d 69ae 163e 5d42 19be 67b6 053e
00000110: 58eb fabd bed7 83bd baf8 e23d 367f f1bd
00000120: d815 8a3c 9865 dfbc 8839 cebd 3cba 27bd
00000130: 9e9a ea3d 9af4 8bbd 094a a3bd b6b4 bd3d
00000140: 4116 0bbe 215a 89bd 05f2 153e 9baf 113e
00000150: 18e6 d0bd 71a6 0c3e b577 0f3e 0d5e 033e
00000160: 5de7 113e 8150 023e 3aca f1bd 788e c9bc
00000170: ea9f bbbd f0d9 dcbd 7c64 083d d276 8f3d
00000180: 6654 ca3d bac4 e93d fb97 0bbe ba64 ca3d
00000190: 6c2f a93d 6116 023e 3052 803d 9800 6cbd
000001a0: 7a42 a63d 700d 623c 00bc 4d3d bfb5 143e
000001b0: e835 18be 6b69 86bd ffe6 88bd 304c 8e3d
000001c0: e8d9 83bc 4e36 23bd aef3 843d d38b 15be
000001d0: f054 f03c 103f 633d 1673 cd3d c06c 993b
000001e0: b333 143e b81a 423d 50f2 433c 6078 f6bc
000001f0: c0b5 b63b e2fb f13d 0a68 0cbe 5c73 78bd
00000200: 0a27 d33d 86d4 d33d 1873 efbc 58af 07be
00000210: 4012 7d3d 101c f03c 4ecd 6fbd 783d c8bd
00000220: c2e2 dabd 62a9 de3d aa3b f43d a922 123e
00000230: 7a13 b03d 60bf adbb 684b 03be 56d9 ddbd
00000240: 7eb7 58bd 461b 993d 927a dd3d 948c a93d
00000250: 2c4d 713d a597 a0bd 2a44 5fbd 283d 193d
00000260: f50f 003e 7ed4 c7bd 6266 f23d 129a b63d
00000270: fbb1 153e 861d edbd c6a5 02be 89d9 0fbe
00000280: 36bf f13d fcf5 4ebd d232 d0bd 27d4 023e
00000290: b086 373c 3501 afbd 0014 ddbd 154f a6bd
000002a0: f513 0c3e 98b9 8b3d 4cb0 e7bc 72f1 8d3d
000002b0: ea60 cb3d fc99 7f3d f074 33bc 0010 6639
000002c0: 26c9 13be ade8 103e 50c9 413d 1708 ffbd
000002d0: 1caf a9bd 54ca 193d 000e d03b ee99 a1bd
000002e0: da9a f1bd 8870 9a3c 80c7 2fbb 457c 063e
000002f0: 40cf eebc 4b17 b8bd 2d6e 0cbe b4ac b63d
00000300: f0a2 843c acbb 70bd 60d6 06bc bf33 f3bd
00000310: a165 19be 7f26 fabd 2df5 ecbd efb9 83bd
00000320: 9f5a 123e a152 153e dcc2 a43d eccf 3b3d
00000330: e0fc 7f3c e4cd 53bd 0087 5b3a d81c 5c3d
00000340: e6da f73d 1e43 7ebd d027 62bc d116 0b3e
00000350: f6dc e33d a41c 6abd 7fc1 d3bd 3693 17bd
00000360: 14b1 a23d f280 76bd b211 a0bd 00aa 95bd
00000370: 58fb 553d 1583 0b3e 6075 e63b a32c 0fbe
00000380: 30f7 0a3d 06ff ea3d 86fb 9b3d 80e1 b8bb
00000390: a259 b43d 803b 543b 2026 753d 0dec 94bd
000003a0: a528 05be 155d 133e daab bcbd e068 ac3c
000003b0: a846 7c3d 9839 823d 60e3 bc3c ceae 15bd
000003c0: 3491 223d b4cc 853d c0e5 e73c 50b4 6f3c
000003d0: f0fb 603d 09ea e4bd 6c6d 10be 45ae 183e
000003e0: 6e3f dabd 382a e0bc 8035 b73c b0b6 0cbc
000003f0: 1019 a73c e0c4 3f3c 64fe ecbd 1456 233d

onnx::LSTM_117 f4 [1, 512, 128]
0.06986314 -0.016276807 0.029009923 -0.113723755 0.0125716925 -0.076300964 -0.14826894 0.12821485
0.08090164 -0.12580106 0.10131921 -0.075031854 -0.06276726 0.033217385 -0.15171926 0.092064485
-0.024031535 0.0024124235 -0.0143597275 0.08963974 0.078558445 -0.1136988 0.14280586 0.06889087
-0.0868789 0.118391946 -0.06629729 0.038009346 -0.0872838 -0.10265553 0.11179142 -0.12110396
0.12609018 0.024109766 0.04019536 -0.075120494 -0.09231632 0.07244484 -0.07387959 -0.015908882
-0.03560531 0.019657284 0.0425791 -0.034116104 -0.059484594 -0.15194368 0.06712185 -0.1502565
-0.10313292 -0.012971878 -0.1376983 0.08611897 0.04439415 0.0071692914 0.07906997 0.13668527
0.11819489 -0.078714505 -0.105116114 -0.056681648 -0.13921486 0.08423053 0.041869298 0.054380998
0.15051322 0.09127149 0.027104229 -0.013191476 0.11599086 0.049665198 0.14731161 0.06746356
0.12841512 -0.093499735 -0.03283812 -0.014449626 0.0057753026 -0.03892667 0.040329367 -0.010018036
-0.13906841 -0.008242726 -0.018159613 -0.049536034 -0.14824836 -0.034365177 0.11596252 -0.10665101
-0.10080783 0.064689144 0.027716205 0.018852606 -0.074180976 0.15003817 0.06628573 0.060484007
0.04936038 -0.10624434 0.14920904 -0.03803871 -0.07936058 -0.120499566 -0.10117519 0.030084848
0.13881643 -0.04568675 0.11577396 0.14243679 -0.09219754 0.13008471 -0.07730696 0.031243041
-0.03268493 0.09118961 0.091671824 0.09863974 0.0348579 0.099074915 -0.024941161 0.12918638
0.050998375 0.076211974 -0.144325 0.081821755 -0.0633866 -0.034172237 0.050445676 0.15184547
0.049968675 0.052043676 -0.08466184 0.08457635 0.07014637 -0.057678252 -0.014009044 -0.044465452
-0.058515236 -0.105311066 -0.1503036 -0.099310204 -0.13576305 0.106044516 -0.107303545 0.07082468
0.07005404 0.08740702 0.04933335 0.024811536 0.12301026 0.12280758 -0.14107677 0.052810192
0.067789316 -0.13829345 0.050414458 0.094668 -0.10711004 0.077040225 -0.1415221 -0.13319176
-0.0017786175 0.119596794 -0.06930362 -0.011451155 -0.08903294 -0.07527774 0.028467596 0.07736911
0.0182966 -0.07849461 0.13756604 0.099254474 -0.11196898 0.038916156 0.037730113 0.060353056
0.019769996 0.0038511157 0.06378175 0.08850311 0.019608319 -0.09921686 0.074282154 0.04120572
-0.012300432 -0.08889162 0.053877145 -0.04254452 0.08051692 -0.09327537 0.00033652782 0.030598462
-0.12283494 0.12802191 0.0058315694 -0.014618546 0.12260355 0.06688036 -0.0040669143 -0.10135658
-0.060188405 0.035566106 0.14602666 -0.14265914 -0.085030675 0.04411505 0.12111203 0.020173028
-0.006764084 -0.047051862 -0.017917246 0.09159087 0.026187629 0.0043316483 -0.07933939 0.07724415
0.11065753 -0.0022096634 -0.12810338 -0.11135548 -0.08684079 -0.012389585 0.13952832 -0.027926862
0.052237615 -0.08808969 0.11004709 -0.1052826 0.041998327 0.097460315 -0.03065522 -0.10090624
0.13736035 0.15181907 0.036703736 0.12041719 0.01898332 -0.15206656 0.007647738 0.08796367
-0.1284905 0.042524114 0.030237526 0.09067044 -0.13014084 -0.14138673 0.013344422 -0.1381535
0.044367567 0.06358123 0.07389587 -0.100878656 0.031948373 -0.05844406 0.10414569 0.14851384
00000000: 6814 8f3d f056 85bc 38a6 ed3c 00e8 e8bd
00000010: 80f9 4d3c ae43 9cbd d0d3 17be c14a 033e
00000020: c2af a53d fed1 00be 7280 cf3d 4daa 99bd
00000030: 1f8c 80bd f40e 083d 4b5c 1bbe 4e8c bc3d
00000040: c8dd c4bc c019 1e3b 1045 6bbc 0a95 b73d
00000050: 40e3 a03d ebda e8bd b33b 123e a816 8d3d
00000060: 91ed b1bd 7a77 f23d e0c6 87bd b0af 1b3d
00000070: d9c1 b2bd 103d d2bd e6f2 e43d 5a05 f8bd
00000080: c91d 013e d881 c53c e4a3 243d c6d8 99bd
00000090: 5710 bdbd f65d 943d 2f4e 97bd 5853 82bc
000000a0: e0d6 11bd 5008 a13c 6c67 2e3d 54bd 0bbd
000000b0: 1ea6 73bd 2097 1bbe 2e77 893d d7dc 19be
000000c0: 5a37 d3bd 0088 54bc c800 0dbe 245f b03d
000000d0: a4d6 353d 60ec ea3b 70ef a13d 39f7 0b3e
000000e0: 2a10 f23d 1235 a1bd 1e47 d7bd 042b 68bd
000000f0: 578e 0ebe 0e81 ac3d 247f 2b3d 9cbe 5e3d
00000100: 2320 1a3e 8cec ba3d b009 de3c 1021 58bc
00000110: 9e8c ed3d bc6d 4b3d dbd8 163e 562a 8a3d
00000120: 417f 033e ca7c bfbd 4481 06bd 20be 6cbc
00000130: c03e bd3b 9271 1fbd 6830 253d b022 24bc
00000140: f367 0ebe 800c 07bc 78c3 94bc 4ce6 4abd
00000150: 6bce 17be 80c2 0cbd c27d ed3d d86b dabd
00000160: 5674 cebd be7b 843d 180d e33c c870 9a3c
00000170: 32ec 97bd 9ba3 193e d0c0 873d 14be 773d
00000180: 1c2e 4a3d a296 d9bd 41ca 183e 7ace 1bbd
00000190: cd87 a2bd 7ac8 f6bd f034 cfbd 8074 f63c
000001a0: e525 0e3e 0822 3bbd e61a ed3d f3da 113e
000001b0: 10d2 bcbd ed34 053e 1d53 9ebd 68f1 ff3c
000001c0: a2e0 05bd 9ec1 ba3d 70be bb3d a203 ca3d
000001d0: 28c7 0e3d cae7 ca3d 6851 ccbc 6f49 043e
000001e0: ace3 503d 0615 9c3d efc9 13be 2a92 a73d
000001f0: d5d0 81bd 30f8 0bbd 20a0 4e3d 617d 1b3e
00000200: f4ab 4c3d c02b 553d 3063 adbd 5e36 ad3d
00000210: e6a8 8f3d 0840 6cbd 3086 65bc 6821 36bd
00000220: acad 6fbd 54ad d7bd 30e9 19be 2663 cbbd
00000230: 7805 0bbe de2d d93d f6c1 dbbd 880c 913d
00000240: 7e78 8f3d 7402 b33d c411 4a3d 9041 cb3c
00000250: ceec fb3d 8a82 fb3d 6e76 10be 804f 583d
00000260: 20d5 8a3d cc9c 0dbe 647f 4e3d 4ce1 c13d
00000270: 825c dbbd 44c7 9d3d 2beb 10be 6c63 08be
00000280: 8020 e9ba 2aef f43d 0eef 8dbd a09d 3bbc
00000290: e756 b6bd 372b 9abd e034 e93c b273 9e3d
000002a0: c0e2 953c c8c1 a0bd 1dde 0c3e ee45 cb3d
000002b0: fe4f e5bd 8c66 1f3d e48a 1a3d c434 773d
000002c0: b0f4 a13c 0063 7c3b 02a0 823d 1e41 b53d
000002d0: a0a1 a03c 3632 cbbd 3e21 983d 54c7 283d
000002e0: c087 49bc cf0c b6bd 48ae 5c3d 2a43 2ebd
000002f0: 0ee6 a43d 2807 bfbd 0070 b039 a0a9 fa3c
00000300: e390 fbbd 2d18 033e c016 bf3b a082 6fbc
00000310: 9217 fb3d 92f8 883d c043 85bb 0a94 cfbd
00000320: 1e88 76bd c4ad 113d 0388 153e 3d15 12be
00000330: 9024 aebd fcb1 343d 9609 f83d e841 a53c
00000340: 40a5 ddbb 74b9 40bd 30c7 92bc fe93 bb3d
00000350: 7087 d63c 80f0 8d3b b17c a2bd 2e32 9e3d
00000360: 6aa0 e23d 00d0 10bb 882d 03be 580e e4bd
00000370: 96d9 b1bd b0fd 4abc 83e0 0e3e e0c6 e4bc
00000380: 1cf7 553d 5e68 b4bd 5e60 e13d 679e d7bd
00000390: 7006 2c3d 4699 c73d a820 fbbc eea7 cebd
000003a0: 31a8 0c3e 7576 1b3e a856 163d 4a9d f63d
000003b0: e882 9b3c 56b7 1bbe e099 fa3b 4c26 b43d
000003c0: 0393 03be c42d 2e3d b0b4 f73c 6cb1 b93d
000003d0: a443 05be afc7 10be 90a2 5a3c 1c78 0dbe
000003e0: c4ba 353d e036 823d b856 973d 7899 cebd
000003f0: 4cdc 023d 0a63 6fbd 564a d53d 0314 183e

onnx::LSTM_118 f4 [1, 1024]
0.0 0.0 0.0 0.0 0.0 0.0 0.0 0.0
0.0 0.0 0.0 0.0 0.0 0.0 0.0 0.0
0.0 0.0 0.0 0.0 0.0 0.0 0.0 0.0
0.0 0.0 0.0 0.0 0.0 0.0 0.0 0.0
0.0 0.0 0.0 0.0 0.0 0.0 0.0 0.0
0.0 0.0 0.0 0.0 0.0 0.0 0.0 0.0
0.0 0.0 0.0 0.0 0.0 0.0 0.0 0.0
0.0 0.0 0.0 0.0 0.0 0.0 0.0 0.0
0.0 0.0 0.0 0.0 0.0 0.0 0.0 0.0
0.0 0.0 0.0 0.0 0.0 0.0 0.0 0.0
0.0 0.0 0.0 0.0 0.0 0.0 0.0 0.0
0.0 0.0 0.0 0.0 0.0 0.0 0.0 0.0
0.0 0.0 0.0 0.0 0.0 0.0 0.0 0.0
0.0 0.0 0.0 0.0 0.0 0.0 0.0 0.0
0.0 0.0 0.0 0.0 0.0 0.0 0.0 0.0
0.0 0.0 0.0 0.0 0.0 0.0 0.0 0.0
0.0 0.0 0.0 0.0 0.0 0.0 0.0 0.0
0.0 0.0 0.0 0.0 0.0 0.0 0.0 0.0
0.0 0.0 0.0 0.0 0.0 0.0 0.0 0.0
0.0 0.0 0.0 0.0 0.0 0.0 0.0 0.0
0.0 0.0 0.0 0.0 0.0 0.0 0.0 0.0
0.0 0.0 0.0 0.0 0.0 0.0 0.0 0.0
0.0 0.0 0.0 0.0 0.0 0.0 0.0 0.0
0.0 0.0 0.0 0.0 0.0 0.0 0.0 0.0
0.0 0.0 0.0 0.0 0.0 0.0 0.0 0.0
0.0 0.0 0.0 0.0 0.0 0.0 0.0 0.0
0.0 0.0 0.0 0.0 0.0 0.0 0.0 0.0
0.0 0.0 0.0 0.0 0.0 0.0 0.0 0.0
0.0 0.0 0.0 0.0 0.0 0.0 0.0 0.0
0.0 0.0 0.0 0.0 0.0 0.0 0.0 0.0
0.0 0.0 0.0 0.0 0.0 0.0 0.0 0.0
0.0 0.0 0.0 0.0 0.0 0.0 0.0 0.0
00000000: 0000 0000 0000 0000 0000 0000 0000 0000
00000010: 0000 0000 0000 0000 0000 0000 0000 0000
00000020: 0000 0000 0000 0000 0000 0000 0000 0000
00000030: 0000 0000 0000 0000 0000 0000 0000 0000
00000040: 0000 0000 0000 0000 0000 0000 0000 0000
00000050: 0000 0000 0000 0000 0000 0000 0000 0000
00000060: 0000 0000 0000 0000 0000 0000 0000 0000
00000070: 0000 0000 0000 0000 0000 0000 0000 0000
00000080: 0000 0000 0000 0000 0000 0000 0000 0000
00000090: 0000 0000 0000 0000 0000 0000 0000 0000
000000a0: 0000 0000 0000 0000 0000 0000 0000 0000
000000b0: 0000 0000 0000 0000 0000 0000 0000 0000
000000c0: 0000 0000 0000 0000 0000 0000 0000 0000
000000d0: 0000 0000 0000 0000 0000 0000 0000 0000
000000e0: 0000 0000 0000 0000 0000 0000 0000 0000
000000f0: 0000 0000 0000 0000 0000 0000 0000 0000
00000100: 0000 0000 0000 0000 0000 0000 0000 0000
00000110: 0000 0000 0000 0000 0000 0000 0000 0000
00000120: 0000 0000 0000 0000 0000 0000 0000 0000
00000130: 0000 0000 0000 0000 0000 0000 0000 0000
00000140: 0000 0000 0000 0000 0000 0000 0000 0000
00000150: 0000 0000 0000 0000 0000 0000 0000 0000
00000160: 0000 0000 0000 0000 0000 0000 0000 0000
00000170: 0000 0000 0000 0000 0000 0000 0000 0000
00000180: 0000 0000 0000 0000 0000 0000 0000 0000
00000190: 0000 0000 0000 0000 0000 0000 0000 0000
000001a0: 0000 0000 0000 0000 0000 0000 0000 0000
000001b0: 0000 0000 0000 0000 0000 0000 0000 0000
000001c0: 0000 0000 0000 0000 0000 0000 0000 0000
000001d0: 0000 0000 0000 0000 0000 0000 0000 0000
000001e0: 0000 0000 0000 0000 0000 0000 0000 0000
000001f0: 0000 0000 0000 0000 0000 0000 0000 0000
00000200: 0000 0000 0000 0000 0000 0000 0000 0000
00000210: 0000 0000 0000 0000 0000 0000 0000 0000
00000220: 0000 0000 0000 0000 0000 0000 0000 0000
00000230: 0000 0000 0000 0000 0000 0000 0000 0000
00000240: 0000 0000 0000 0000 0000 0000 0000 0000
00000250: 0000 0000 0000 0000 0000 0000 0000 0000
00000260: 0000 0000 0000 0000 0000 0000 0000 0000
00000270: 0000 0000 0000 0000 0000 0000 0000 0000
00000280: 0000 0000 0000 0000 0000 0000 0000 0000
00000290: 0000 0000 0000 0000 0000 0000 0000 0000
000002a0: 0000 0000 0000 0000 0000 0000 0000 0000
000002b0: 0000 0000 0000 0000 0000 0000 0000 0000
000002c0: 0000 0000 0000 0000 0000 0000 0000 0000
000002d0: 0000 0000 0000 0000 0000 0000 0000 0000
000002e0: 0000 0000 0000 0000 0000 0000 0000 0000
000002f0: 0000 0000 0000 0000 0000 0000 0000 0000
00000300: 0000 0000 0000 0000 0000 0000 0000 0000
00000310: 0000 0000 0000 0000 0000 0000 0000 0000
00000320: 0000 0000 0000 0000 0000 0000 0000 0000
00000330: 0000 0000 0000 0000 0000 0000 0000 0000
00000340: 0000 0000 0000 0000 0000 0000 0000 0000
00000350: 0000 0000 0000 0000 0000 0000 0000 0000
00000360: 0000 0000 0000 0000 0000 0000 0000 0000
00000370: 0000 0000 0000 0000 0000 0000 0000 0000
00000380: 0000 0000 0000 0000 0000 0000 0000 0000
00000390: 0000 0000 0000 0000 0000 0000 0000 0000
000003a0: 0000 0000 0000 0000 0000 0000 0000 0000
000003b0: 0000 0000 0000 0000 0000 0000 0000 0000
000003c0: 0000 0000 0000 0000 0000 0000 0000 0000
000003d0: 0000 0000 0000 0000 0000 0000 0000 0000
000003e0: 0000 0000 0000 0000 0000 0000 0000 0000
000003f0: 0000 0000 0000 0000 0000 0000 0000 0000
