results/try-20/My Behavior.onnx (onnx, 693209 bytes, 10 tensors)

network_body._body_endoder.seq_layers.0.weight f4 [128, 122]
-0.07478879 0.1957549 -0.060784277 -0.0025112615 -0.11316952 0.04991689 -0.027496064 0.106362306
-0.11148659 -0.16378081 -0.047502916 -0.051142152 -0.021337472 0.033584822 0.01082364 -0.0610785
-0.011272562 -0.03761446 0.067321464 0.02466617 0.0709709 0.019731391 -0.119408995 0.10521886
0.0020295237 -0.095324874 0.1027429 0.025874995 0.08292975 0.056558043 0.046592444 0.028230365
-0.13031256 -0.10392884 0.008239119 -0.061725944 -0.059243068 -0.09615501 -0.15272555 0.15974201
-0.02269464 -0.11237215 -0.021037815 0.012371984 -0.033314485 -0.14664678 -0.10299567 0.024071572
0.21660161 0.13626818 -0.03718246 -0.063548245 -0.0011345025 0.014945333 0.025633093 -0.052237637
0.04927183 -0.11414954 0.0005528228 0.015172819 -0.05098664 -0.12753464 0.041879434 0.007950243
0.05790809 -0.010840406 -0.0903792 0.044499807 0.031895697 -0.06771386 0.03736391 -0.12774454
-0.046996944 -0.02804544 -0.17348224 -0.11616222 0.06308894 0.07185852 -0.12871319 -0.17885092
-0.07336953 0.081479825 0.20417817 0.1591829 -0.09904026 0.1019948 0.012325025 0.11093504
0.11504715 -0.059273876 0.034940105 -0.071623795 -0.07370098 0.041784972 -0.049436577 0.09849337
0.030039702 -0.02409933 0.23985785 0.0108848335 -0.020836182 0.084540516 -0.008061472 0.32540336
-0.11211164 -0.09216935 0.043420065 0.02233825 -0.1007927 -0.015165636 0.043385293 0.01937441
0.058894873 0.014121259 -0.18799442 -0.022595728 -0.058344927 -0.007950796 -0.012560944 0.040462703
-0.06940578 -0.02682927 -0.0326961 0.05692188 0.039727084 -0.09654133 0.104299515 -0.15048239
0.1618069 0.029652778 0.0941131 -0.096193396 -0.031149432 0.05790459 -0.052679334 0.06484033
-0.054239437 -0.04926445 0.062197454 -0.0008604801 0.16488755 0.008157862 0.02002655 0.1251323
-0.10078462 0.07178457 0.0005596578 -0.055983175 -0.007868156 0.018983088 0.12830138 0.08358118
-0.0113598015 -0.20635305 0.02410498 -0.05111778 0.13330166 0.09433662 -0.04633181 -0.04227936
0.11966836 0.064037144 0.0039190087 -0.10894998 0.068371974 -0.19407728 0.02375921 -0.043774635
-0.0037931541 -0.05265041 -0.090647265 -0.07168314 -0.10048583 0.08716317 0.007353202 -0.12774904
0.13795593 -0.005507052 0.13018645 0.062388882 -0.08470882 -0.019350113 -0.06295685 0.09879543
0.17732166 0.09087874 0.009937762 0.070565455 -0.04218087 0.02600036 0.10753611 -0.06719664
-0.032639492 0.11418096 0.08595581 -0.03137957 -0.100868806 -0.11278206 -0.05797878 0.009246049
0.043791797 -0.07022192 -0.009914405 -0.04557097 0.0055462914 -0.120664716 0.08176491 0.15112405
-0.04795426 -0.084325485 -0.06396238 0.111728966 0.016716396 0.009951336 0.029705144 -0.06054346
-0.056757662 -0.023803992 0.021276934 0.13307849 0.068996795 -0.08679211 -0.077760056 -0.037623297
-0.0006538187 -0.07033756 -0.14791329 0.0946657 0.15446693 0.012869358 -0.15476078 0.06320875
-0.14575866 0.066537194 0.01810902 0.100959636 -0.030721536 -0.1967614 -0.02437399 0.052207716
-0.0914634 0.08974968 0.08554157 -0.051419027 0.0029816714 -0.010039783 0.06240757 0.0001811437
-0.021120032 -0.007259015 0.020856408 0.1665712 -0.14486276 -0.03299652 -0.03571914 -0.01108118
00000000: dd2a 99bd f973 483e eff8 78bd fa93 24bb
00000010: 6cc5 e7bd a775 4c3d 6d3f e1bc 7bd4 d93d
00000020: 1553 e4bd 28b6 27be 6b92 42bd 6f7a 51bd
00000030: eccb aebc 3d90 093d a355 313c 732d 7abd
00000040: 8db0 38bc 9f11 1abd d6df 893d b510 ca3c
00000050: 3159 913d baa3 a13c b48c f4bd fc7c d73d
00000060: c201 053b b039 c3bd df6a d23d ccf7 d33c
00000070: 13d7 a93d 68a9 673d b8d7 3e3d 5e43 e73c
00000080: a870 05be a5d8 d4bd 5ffd 063c 58d4 7cbd
00000090: dca8 72bd ebec c4bd 1664 1cbe 6993 233e
000000a0: 1cea b9bc 5f23 e6bd 7f57 acbc ddb3 4a3c
000000b0: c574 08bd 932a 16be 65ef d2bd bf31 c53c
000000c0: d0cc 5d3e e389 0b3e a34c 18bd 9525 82bd
000000d0: 96b3 94ba 45dd 743c 7efc d13c 22f7 55bd
000000e0: 42d1 493d 3cc7 e9bd 4feb 103a 6a97 783c
000000f0: 5ed7 50bd 7198 02be c589 2b3d bc41 023c
00000100: 0931 6d3d f59b 31bc bb18 b9bd 6e45 363d
00000110: 10a5 023d 90ad 8abd e60a 193d 77cf 02be
00000120: de7f 40bd 8dbf e5bc 54a5 31be 75e6 edbd
00000130: c634 813d 8f2a 933d 64cd 03be b224 37be
00000140: c442 96bd e5de a63d 1514 513e d800 233e
00000150: 9fd5 cabd a6e2 d03d e7ee 493c e931 e33d
00000160: d79d eb3d 2ac9 72bd 5b1d 0f3d 7faf 92bd
00000170: 8af0 96bd b826 2b3d 027e 4abd e4b6 c93d
00000180: d215 f63c f56b c5bc 4c9d 753e 4d56 323c
00000190: a4b0 aabc 9423 ad3d 4414 04bc 459b a63e
000001a0: ca9a e5bd 49c3 bcbd 3dd9 313d b5fe b63c
000001b0: 676c cebd 4a79 78bc c7b4 313d 15b7 9e3c
000001c0: c03b 713d da5c 673c 9c81 40be ad1a b9bc
000001d0: 17fb 6ebd 0e44 02bc 6bcc 4dbc 38bc 253d
000001e0: 9e24 8ebd 0fc9 dbbc 59ec 05bd eb26 693d
000001f0: deb8 223d 76b7 c5bd fc9a d53d 0e18 1abe
00000200: b5b0 253e 62ea f23c 5ebe c03d 0b01 c5bd
00000210: 182d ffbc 5d2d 6d3d 49c6 57bd 02cb 843d
00000220: 2c2a 5ebd 85c9 49bd c2c2 7e3d d891 61ba
00000230: 48d8 283e 8ea8 053c b80e a43c af22 003e
00000240: 2b68 cebd ca03 933d 00b6 123a 9d4e 65bd
00000250: 70e9 00bc 6c82 9b3c 7061 033e 9c2c ab3d
00000260: 761e 3abc 374e 53be cf77 c53c e160 51bd
00000270: 3b80 083e 8f33 c13d 6dc6 3dbd 1f2d 2dbd
00000280: af14 f53d e825 833d 076b 803b 2b21 dfbd
00000290: 9b06 8c3d 32bc 46be ada2 c23c 084d 33bd
000002a0: 9196 78bb f5a7 57bd 46a5 b9bd 9cce 92bd
000002b0: 84cb cdbd 9b82 b23d 21f3 f03b a5d0 02be
000002c0: 5244 0d3e 8074 b4bb 994f 053e 7c8b 7f3d
000002d0: d17b adbd 2184 9ebc 85ef 80bd 4255 ca3d
000002e0: cf93 353e a21e ba3d ffd1 223c 9f84 903d
000002f0: d9c5 2cbd b5fe d43c e43b dc3d 649e 89bd
00000300: fdb0 05bd b5d7 e93d 9a09 b03d dd87 00bd
00000310: 4e94 cebd 48fa e6bd 287b 6dbd be7c 173c
00000320: 075f 333d 83d0 8fbd 0770 22bc a0a8 3abd
00000330: aabd b53b 101f f7bd 5c74 a73d 43c0 1a3e
00000340: b06b 44bd d7b2 acbd b5fe 82bd 28d2 e43d
00000350: d3f0 883c ee0a 233c 3458 f33c 6bfc 77bd
00000360: b97a 68bd 9700 c3bc f74c ae3c ba45 083e
00000370: 314e 8d3d 10c0 b1bd aa40 9fbd e31a 1abd
00000380: 0865 2bba 230d 90bd 9576 17be 17e0 c13d
00000390: 942c 1e3e 00da 523c 9c79 1ebe 9773 813d
000003a0: c241 15be a744 883d 5e59 943c edc3 ce3d
000003b0: bbab fbbc d27b 49be f6ab c7bc c2d7 553d
000003c0: 2a51 bbbd aece b73d 6b30 af3d c29c 52bd
000003d0: 2568 433b e77d 24bc 159f 7f3d 64f1 3d39
000003e0: eb03 adbc 08dd edbb 0fdb aa3c a491 2a3e
000003f0: e756 14be 5c27 07bd 3c4e 12bd d68d 35bc

network_body._body_endoder.seq_layers.0.bias f4 [128]
0.0 0.0 0.0 0.0 0.0 0.0 0.0 0.0
0.0 0.0 0.0 0.0 0.0 0.0 0.0 0.0
0.0 0.0 0.0 0.0 0.0 0.0 0.0 0.0
0.0 0.0 0.0 0.0 0.0 0.0 0.0 0.0
0.0 0.0 0.0 0.0 0.0 0.0 0.0 0.0
0.0 0.0 0.0 0.0 0.0 0.0 0.0 0.0
0.0 0.0 0.0 0.0 0.0 0.0 0.0 0.0
0.0 0.0 0.0 0.0 0.0 0.0 0.0 0.0
0.0 0.0 0.0 0.0 0.0 0.0 0.0 0.0
0.0 0.0 0.0 0.0 0.0 0.0 0.0 0.0
0.0 0.0 0.0 0.0 0.0 0.0 0.0 0.0
0.0 0.0 0.0 0.0 0.0 0.0 0.0 0.0
0.0 0.0 0.0 0.0 0.0 0.0 0.0 0.0
0.0 0.0 0.0 0.0 0.0 0.0 0.0 0.0
0.0 0.0 0.0 0.0 0.0 0.0 0.0 0.0
0.0 0.0 0.0 0.0 0.0 0.0 0.0 0.0
00000000: 0000 0000 0000 0000 0000 0000 0000 0000
00000010: 0000 0000 0000 0000 0000 0000 0000 0000
00000020: 0000 0000 0000 0000 0000 0000 0000 0000
00000030: 0000 0000 0000 0000 0000 0000 0000 0000
00000040: 0000 0000 0000 0000 0000 0000 0000 0000
00000050: 0000 0000 0000 0000 0000 0000 0000 0000
00000060: 0000 0000 0000 0000 0000 0000 0000 0000
00000070: 0000 0000 0000 0000 0000 0000 0000 0000
00000080: 0000 0000 0000 0000 0000 0000 0000 0000
00000090: 0000 0000 0000 0000 0000 0000 0000 0000
000000a0: 0000 0000 0000 0000 0000 0000 0000 0000
000000b0: 0000 0000 0000 0000 0000 0000 0000 0000
000000c0: 0000 0000 0000 0000 0000 0000 0000 0000
000000d0: 0000 0000 0000 0000 0000 0000 0000 0000
000000e0: 0000 0000 0000 0000 0000 0000 0000 0000
000000f0: 0000 0000 0000 0000 0000 0000 0000 0000
00000100: 0000 0000 0000 0000 0000 0000 0000 0000
00000110: 0000 0000 0000 0000 0000 0000 0000 0000
00000120: 0000 0000 0000 0000 0000 0000 0000 0000
00000130: 0000 0000 0000 0000 0000 0000 0000 0000
00000140: 0000 0000 0000 0000 0000 0000 0000 0000
00000150: 0000 0000 0000 0000 0000 0000 0000 0000
00000160: 0000 0000 0000 0000 0000 0000 0000 0000
00000170: 0000 0000 0000 0000 0000 0000 0000 0000
00000180: 0000 0000 0000 0000 0000 0000 0000 0000
00000190: 0000 0000 0000 0000 0000 0000 0000 0000
000001a0: 0000 0000 0000 0000 0000 0000 0000 0000
000001b0: 0000 0000 0000 0000 0000 0000 0000 0000
000001c0: 0000 0000 0000 0000 0000 0000 0000 0000
000001d0: 0000 0000 0000 0000 0000 0000 0000 0000
000001e0: 0000 0000 0000 0000 0000 0000 0000 0000
000001f0: 0000 0000 0000 0000 0000 0000 0000 0000

network_body._body_endoder.seq_layers.2.weight f4 [128, 128]
0.033966422 0.0023890757 -0.021697098 -0.22081347 0.039373107 0.0031067198 0.0340295 -0.06336197
-0.0041413764 -0.09039715 0.17053911 -0.050251517 -0.114898175 0.11000375 0.09071207 0.17090863
0.036512524 -0.01902113 0.0019468896 0.11982752 0.20461681 -0.0013513081 0.15140408 0.025122698
0.0010034736 -0.06645729 0.041102838 -0.01960814 -0.052664172 0.108908445 0.031639677 0.04597794
0.013365171 0.1813484 0.019996414 -0.077694274 -0.19740087 0.063739434 -0.0023933535 -0.16533788
-0.0075453073 0.11025256 -0.012392894 -9.629333e-05 0.06873935 0.04359198 0.02293382 0.055248175
0.04634412 0.06696904 0.11132143 -0.035613406 0.026228163 0.17728464 -0.163242 0.016520264
0.041140478 -0.001905229 -0.13878664 0.0061747693 -0.034814984 0.03380919 -0.076807596 -0.00065505283
0.0146532785 -0.009548552 0.057845436 -0.049639657 -0.09787915 0.064676836 -0.050918892 0.091540396
0.15437631 -0.019081395 0.0054406123 0.042301554 0.17931587 -0.022716869 0.06327732 -0.032985117
0.2269502 0.049732834 -0.10575789 -0.058525365 -0.017846346 0.14353876 -0.2069362 0.051504303
-0.06428353 0.10003759 0.09782152 -0.046002433 0.13054706 -0.11383161 -0.15628077 0.12707739
0.048758868 -0.019787332 0.028865827 -0.0960493 -0.05224742 0.09474675 -0.15021718 0.01732008
0.0017011293 0.0035430968 0.12345091 -0.07018522 0.0070858663 -0.038535986 -0.05001174 -0.075196475
0.062281393 0.07067543 -0.20197622 0.07121999 0.0009252971 -0.029474545 -0.1214803 -0.098288275
-0.00847472 -0.050526958 0.005430465 0.044296842 -0.0011278483 0.040532984 -0.056838073 0.07901802
-0.04254716 0.10684794 0.011127359 -0.045407042 0.032941036 -0.066298395 0.023232203 -0.00010102158
-0.12987009 0.01662815 0.002830536 -0.05927795 0.058333527 -0.09918431 -0.0037111475 -0.023529196
0.022398626 0.048334546 -0.101831146 0.094829924 0.15983629 -0.009419328 0.17306478 0.24012153
-0.050696306 0.011872149 -0.16115142 0.07831076 0.081604026 0.034905575 0.04918483 0.0790334
0.06066446 0.06580588 0.0063133375 -0.0066455477 0.017806275 0.22446898 -0.0051256493 -0.039468158
-0.15570839 0.06818975 -0.011415159 -0.01878304 0.12027416 0.0073442864 -0.25294298 0.07337978
0.04053049 -0.022426251 0.07734511 -0.07774573 0.08037745 0.00913667 -0.0025215328 0.08444058
-0.040414516 -0.03272104 0.01441246 -0.094007134 -6.832292e-05 0.03859725 0.01212635 -0.07012508
0.016825832 -0.032175407 0.040619157 -0.017896328 0.08661182 0.06470979 -0.09615061 0.10810074
0.043587245 0.030303188 0.05415203 -0.025405312 0.13974053 -0.14642721 0.08844586 0.11572492
0.040718 -0.003008632 -0.10713804 -0.009741323 -0.03320904 0.15196705 0.12885524 0.08624993
0.050432898 -0.09290143 -0.10029797 -0.010807483 0.03075282 0.10497 0.070872195 0.13327035
-0.06516667 0.15256244 0.025696356 0.1834627 0.1706338 -0.13603756 0.009607063 0.028522288
-0.003248687 0.020982435 0.021626694 -0.068178244 -0.15159108 -0.089045666 -0.10335506 0.04034933
0.068159185 -0.062594496 -0.008696388 0.059823547 -0.11474687 0.018968834 0.1437904 -0.087017804
0.04010432 -0.034782123 -0.12455777 -0.004766248 -0.06559743 0.093935244 0.115006484 -0.10543645
00000000: 6020 0b3d 0a92 1c3b 1dbe b1bc ed1c 62be
00000010: b245 213d 1c9a 4b3b 8462 0b3d ecc3 81bd
00000020: 62b4 87bb 2422 b9bd cea1 2e3e 89d4 4dbd
00000030: bc4f ebbd a549 e13d 40c7 b93d ac02 2f3e
00000040: 288e 153d 33d2 9bbc c62e ff3a 2168 f53d
00000050: 1287 513e 601e b1ba ac09 1b3e 1ece cd3c
00000060: fd86 833a c21a 88bd 735b 283d 40a1 a0bc
00000070: 63b6 57bd 640b df3d 9b98 013d 5d53 3c3d
00000080: 97f9 5a3c 65b3 393e 85cf a33c 2d1e 9fbd
00000090: 7423 4abe d289 823d cfd9 1cbb 554e 29be
000000a0: a03e f7bb 18cc e13d 910b 4bbc 17f1 c9b8
000000b0: 37c7 8c3d 818d 323d b5df bb3c e94b 623d
000000c0: 55d3 3d3d 1027 893d 7dfc e33d 5ddf 11bd
000000d0: 72dc d63c 1b8a 353e e928 27be 8155 873c
000000e0: eb82 283d e0b8 f9ba 161e 0ebe b855 ca3b
000000f0: 289a 0ebd 817b 0a3d 4d4d 9dbd dab7 2bba
00000100: 4e14 703c 8871 1cbc 56ef 6c3d f452 4bbd
00000110: dd74 c8bd 4a75 843d 5490 50bd 8879 bb3d
00000120: d314 1e3e 9650 9cbc 2a47 b23b 6544 2d3d
00000130: 949e 373e ba18 babc 8a97 813d 671b 07bd
00000140: a265 683e a8b4 4b3d 9897 d8bd 4bb8 6fbd
00000150: 8032 92bc d3fb 123e 15e7 53be 2df6 523d
00000160: 15a7 83bd 82e0 cc3d a656 c83d 0c6d 3cbd
00000170: 21ae 053e 8c20 e9bd 1108 20be 9320 023e
00000180: 61b7 473d 0b19 a2bc 0778 ec3c 7fb5 c4bd
00000190: 6401 56bd 960a c23d 88d2 19be d7e2 8d3c
000001a0: 6df8 de3a 4d33 683b d5d3 fc3d 45bd 8fbd
000001b0: 8e30 e83b e9d7 1dbd 1cd9 4cbd 9c00 9abd
000001c0: c61a 7f3d 48be 903d dbd2 4ebe c9db 913d
000001d0: a38f 723a 9a74 f1bc aaca f8bd 5d4b c9bd
000001e0: 8dd9 0abc 5bf5 4ebd 0bf2 b13b 9b70 353d
000001f0: 4fd4 93ba ea05 263d 0acf 68bd 33d4 a13d
00000200: ee45 2ebd 18d3 da3d 874f 363c bcfc 39bd
00000210: 2eed 063d 74c7 87bd 7651 be3c 8cdb d3b8
00000220: aafc 04be c237 883c 8480 393b 70cd 72bd
00000230: 23ef 6e3d 2521 cbbd b936 73bb 4dc0 c0bc
00000240: 537d b73c 72fa 453d d98c d0bd 3136 c23d
00000250: 20ac 233e 8653 1abc e537 313e 6be2 753e
00000260: eea6 4fbd 6783 423c e104 25be 6461 a03d
00000270: 0320 a73d 26f9 0e3d 0876 493d 43dc a13d
00000280: 4c7b 783d 3cc5 863d 1de0 ce3b e5c2 d9bb
00000290: 77de 913c 32db 653e 10f5 a7bb 5da9 21bd
000002a0: 0572 1fbe 11a7 8b3d a606 3bbc e4de 99bc
000002b0: 4c52 f63d 57a8 f03b be81 81be 2348 963d
000002c0: 4d03 263d 42b7 b7bc 1d67 9e3d 2739 9fbd
000002d0: ef9c a43d f9b1 153c 4d40 25bb 2fef ac3d
000002e0: b189 25bd 7f06 06bd 3d22 6c3c d086 c0bd
000002f0: 9748 8fb8 2618 1e3d 99ad 463c bd9d 8fbd
00000300: 54d6 893c 5cca 03bd 4660 263d 529b 92bc
00000310: 8a61 b13d 9186 843d 9cea c4bd ec63 dd3d
00000320: 8a88 323d 643e f83c 85ce 5d3d cd1e d0bc
00000330: 2418 0f3e 04f1 15be 1a23 b53d 3001 ed3d
00000340: ebc7 263d 782c 45bb 306b dbbd 129a 1fbc
00000350: 3406 08bd 409d 1b3e a1f2 033e cea3 b03d
00000360: ba92 4e3d 1b43 bebd 0669 cdbd df11 31bc
00000370: 57ed fb3c 83fa d63d 7125 913d 0678 083e
00000380: 1a76 85bd 5439 1c3e 2a81 d23c a5dd 3b3e
00000390: a0ba 2e3e 6e4d 0bbe f166 1d3c 93a7 e93c
000003a0: ece7 54bb 5be3 ab3c 772a b13c 09a1 8bbd
000003b0: b13a 1bbe 935d b6bd d1ab d3bd 5745 253d
000003c0: 0b97 8b3d 8b31 80bd 4c7b 0ebc 8909 753d
000003d0: 6800 ebbd 8764 9b3c ca3d 133e 6436 b2bd
000003e0: 6d44 243d b377 0ebd 2518 ffbd 302e 9cbb
000003f0: f257 86bd 1f61 c03d 8588 eb3d 11ef d7bd

action_model._continuous_distribution.log_sigma f4 [1, 51]
0.0 0.0 0.0 0.0 0.0 0.0 0.0 0.0
0.0 0.0 0.0 0.0 0.0 0.0 0.0 0.0
0.0 0.0 0.0 0.0 0.0 0.0 0.0 0.0
0.0 0.0 0.0 0.0 0.0 0.0 0.0 0.0
0.0 0.0 0.0 0.0 0.0 0.0 0.0 0.0
0.0 0.0 0.0 0.0 0.0 0.0 0.0 0.0
0.0 0.0 0.0
00000000: 0000 0000 0000 0000 0000 0000 0000 0000
00000010: 0000 0000 0000 0000 0000 0000 0000 0000
00000020: 0000 0000 0000 0000 0000 0000 0000 0000
00000030: 0000 0000 0000 0000 0000 0000 0000 0000
00000040: 0000 0000 0000 0000 0000 0000 0000 0000
00000050: 0000 0000 0000 0000 0000 0000 0000 0000
00000060: 0000 0000 0000 0000 0000 0000 0000 0000
00000070: 0000 0000 0000 0000 0000 0000 0000 0000
00000080: 0000 0000 0000 0000 0000 0000 0000 0000
00000090: 0000 0000 0000 0000 0000 0000 0000 0000
000000a0: 0000 0000 0000 0000 0000 0000 0000 0000
000000b0: 0000 0000 0000 0000 0000 0000 0000 0000
000000c0: 0000 0000 0000 0000 0000 0000

action_model._continuous_distribution.mu.weight f4 [51, 128]
0.021301007 -0.0073653995 0.006794389 0.0046794564 -0.018336866 0.015909059 -0.012228515 -0.0004709344
-0.0019779091 0.015028298 -0.0003507902 0.022794036 -0.004521727 -0.015455482 0.008175656 0.033011075
-0.019791728 -0.0071513862 -0.0013388192 0.020046428 0.001402473 0.0035094216 -0.02132962 -0.036673408
0.013846389 0.020790858 -0.026364345 0.023354743 0.015420039 0.0031952441 -0.015990518 -0.00013685029
-0.012240817 -0.0070027225 0.002420276 -0.011173462 -0.026562968 0.0073143356 -0.027019773 0.031588603
0.017487844 0.020694194 -0.011815219 -0.0198816 0.020052444 0.0005910931 -0.00813489 -0.008165119
-0.003097044 -0.017777223 0.026227742 0.016787805 0.00023640016 0.013137089 0.0097770495 0.025487995
0.011778515 -0.008153751 0.007013295 0.009994389 0.034387942 0.016841946 0.020342536 -0.0025549415
-0.0082429275 0.028195132 -0.006548684 0.031267796 -0.012407174 0.02454318 -0.026929915 -0.02940937
0.01204894 -0.0045853853 -0.009338232 -0.003021062 -0.023989722 -0.018686377 0.008586945 0.015804645
0.003978539 -0.0030543045 0.007822846 0.016309224 0.018835796 0.015703408 -0.026360933 -0.0080580255
-0.0039364086 -0.032453362 -0.02450754 -0.002775808 -0.018441796 0.027618576 -0.004603463 -0.03361039
0.022167688 -0.011423505 -0.015540123 0.0025609236 -0.012457094 -0.009939776 -0.0017634996 0.023874449
-0.016301654 0.00827609 0.006725253 -0.010506816 -0.026098464 0.00027113903 -0.013489815 0.001438544
-0.00604453 -0.020470897 0.01640907 0.01841424 -0.035266772 -0.022642067 0.00083555805 0.00015300761
-0.02785396 -0.021710096 -0.0036866039 -0.0062815296 0.0016543724 0.027379671 0.051562455 0.010110816
-0.020672435 0.009447924 -0.0074433186 0.036044236 -0.01266729 -0.005791316 -0.023382394 0.0016718472
0.008198518 0.019035446 0.026855921 -0.015545418 -0.018514557 0.01930412 0.00798249 0.006016378
0.0106951315 -0.0070086517 -0.017611763 -0.010337016 -0.011841563 -0.0111858575 0.020411046 0.02240484
0.0039344775 0.0041027847 -0.018881345 0.022112783 -0.032259338 -0.019473167 0.033614777 -0.0018291958
0.013675607 0.0146506205 -0.0016581506 0.013483629 -0.004196243 -0.005348505 -0.01155433 0.021251773
-0.03175613 -0.01618435 0.014330466 0.010303123 -0.011670015 -0.02354768 0.012667211 -0.02914222
-0.017958878 -0.010467297 -0.0095884735 -0.008634358 -0.0372446 -0.017079648 0.0040842975 -0.03102803
0.0054877456 0.015393491 -0.00079998496 0.0011887441 -0.0005878241 0.026218286 -0.0008366244 -0.009420934
0.006071288 0.038745772 -0.017024493 0.01169188 -0.031782728 -0.013865379 0.015544738 -0.004525965
-0.021310572 -0.014387905 -0.018925896 0.020080982 0.02403373 -0.0034972185 0.024387244 -0.021219471
-0.048429783 -0.006955858 1.255985e-05 0.017640267 -0.02134632 0.009046406 0.0357372 -0.017229903
0.02203245 -0.018513707 -0.010284906 0.01105721 -0.010211111 0.004450435 0.023593644 -0.03850045
-0.036267094 -0.014473324 0.030330095 0.02038311 0.017009148 0.009428382 0.029872859 0.02019515
0.009590129 0.011799419 0.009602956 0.010278249 -0.023270724 0.036350414 -0.0040536146 0.010168163
-0.009917904 -0.0057343785 -0.021025013 -0.008724944 0.01718715 0.022657799 -0.0062186564 0.0033023802
0.012771745 -0.0043507707 -0.0076227807 -0.0073723965 -0.016624486 -0.010754696 0.018470416 -0.024898494
00000000: 737f ae3c 7359 f1bb 77a3 de3b 2056 993b
00000010: 3237 96bc b753 823c 1c5a 48bc bfe7 f6b9
00000020: cf9f 01bb 4039 763c 43ea b7b9 8fba ba3c
00000030: ff2a 94bb fd38 7dbc 30f3 053c 9f36 073d
00000040: 4322 a2bc 2d56 eabb 517b afba 6838 a43c
00000050: 2fd3 b73a 53fe 653b 75bb aebc db36 16bd
00000060: f7db 623c 9751 aa3c 0afa d7bc 7252 bf3c
00000070: 55a4 7c3c 4d67 513b 8cfe 82bc 787f 0fb9
00000080: b58d 48bc 1877 e5bb 7e9d 1e3b e510 37bc
00000090: 959a d9bc 18ad ef3b 9258 ddbc 0d63 013d
000000a0: ab42 8f3c df86 a93c 9f94 41bc bdde a2bc
000000b0: 0645 a43c 96f3 1a3a 3448 05bc fec6 05bc
000000c0: c7f7 4abb 8aa1 91bc 90db d63c 9486 893c
000000d0: 2fe2 7739 f23c 573c eb2f 203c 33cc d03c
000000e0: acfa 403c 4f97 05bc c8cf e53b 81bf 233c
000000f0: 5fda 0c3d 1ff8 893c 64a5 a63c ce70 27bb
00000100: 580d 07bc 7af9 e63c 5896 d6bb a912 003d
00000110: 7647 4bbc c70e c93c 209c dcbc ebeb f0bc
00000120: eb68 453c 0041 96bb 62ff 18bc 02fd 45bb
00000130: 1886 c4bc 2c14 99bc 42b0 0c3c be78 813c
00000140: 675e 823b ba2a 48bb 652b 003c ec9a 853c
00000150: 874d 9a3c 6fa4 803c e2f2 d7bc cf05 04bc
00000160: fdfc 80bb d1ed 04bd 09c4 c8bc 55ea 35bb
00000170: 4013 97bc 5a40 e23c a6d8 96bb 0cab 09bd
00000180: 0399 b53c a729 3bbc 009c 7ebc 2bd5 273b
00000190: d718 4cbc 71da 22bc 3a25 e7ba 5994 c33c
000001a0: 0c8b 85bc 7098 073c 835f dc3b c824 2cbc
000001b0: 72cc d5bc aa27 8e39 6304 5dbc 878d bc3a
000001c0: 3111 c6bb 95b2 a7bc 506c 863c 76d9 963c
000001d0: e473 10bd db7b b9bc 5a09 5b3a ab70 2039
000001e0: fd2d e4bc 5fd9 b1bc f39a 71bb 4ad5 cdbb
000001f0: 87d7 d83a 554b e03c 2733 533d d6a7 253c
00000200: 3d59 a9bc 77cb 1a3c 15e7 f3bb 1fa3 133d
00000210: 778a 4fbc 14c5 bdbb 6f8c bfbc e221 db3a
00000220: 1453 063c 39f0 9b3c f300 dc3c 35b2 7ebc
00000230: d7ab 97bc ad23 9e3c fdc8 023c 0925 c53b
00000240: a23a 2f3c d5a8 e5bb 8b46 90bc 965c 29bc
00000250: 1d03 42bc e344 37bc 1135 a73c 5b8a b73c
00000260: caec 803b a770 863b 0dad 9abc de25 b53c
00000270: 5e22 04bd 3186 9fbc a6af 093d a0c1 efba
00000280: a70f 603c 2809 703c 4d56 d9ba 70ea 5c3c
00000290: a380 89bb 8342 afbb 5f4e 3dbc 3318 ae3c
000002a0: b712 02bd 0b95 84bc 55ca 6a3c 6ece 283c
000002b0: 9733 3fbc 10e7 c0bc 228a 4f3c aabb eebc
000002c0: 7f1e 93bc 077f 2bbc f918 1dbc 1f77 0dbc
000002d0: cb8d 18bd 9eea 8bbc 92d5 853b 7f2e febc
000002e0: 8cd2 b33b fb34 7c3c 15b6 51ba a2cf 9b3a
000002f0: 3518 1aba bbc7 d63c ea50 5bba 435a 1abc
00000300: a8f1 c63b e3b3 1e3d f376 8bbc 4d8f 3f3c
00000310: 9b2e 02bd 9d2b 63bc 5baf 7e3c 8c4e 94bb
00000320: 8293 aebc 3fbb 6bbc 7b0a 9bbc df80 a43c
00000330: 63e2 c43c 9731 65bb c2c7 c73c 75d4 adbc
00000340: 4f5e 46bd f7ed e3bb 25b8 5237 5282 903c
00000350: 7ade aebc 6037 143c 2c61 123d ba25 8dbc
00000360: 667d b43c 0faa 97bc 0682 28bc 4d29 353c
00000370: 814c 27bc f4d4 913b 7547 c13c a6b2 1dbd
00000380: ce8c 14bd 8521 6dbc d276 f83c 7bfa a63c
00000390: c556 8b3c 8079 1a3c edb7 f43c 4d70 a53c
000003a0: eb1f 1d3c 5a52 413c b755 1d3c 1a66 283c
000003b0: 3fa2 bebc 2ce4 143d 2fd4 84bb 5e98 263c
000003c0: b47e 22bc 74e7 bbbb a63c acbc 11f3 0ebc
000003d0: 11cc 8c3c d99c b93c dfc5 cbbb bf6c 583b
000003e0: 9540 513c e990 8ebb 85c8 f9bb 2594 f1bb
000003f0: 1330 88bc 7734 30bc 454f 973c edf7 cbbc

action_model._continuous_distribution.mu.bias f4 [51]
0.0 0.0 0.0 0.0 0.0 0.0 0.0 0.0
0.0 0.0 0.0 0.0 0.0 0.0 0.0 0.0
0.0 0.0 0.0 0.0 0.0 0.0 0.0 0.0
0.0 0.0 0.0 0.0 0.0 0.0 0.0 0.0
0.0 0.0 0.0 0.0 0.0 0.0 0.0 0.0
0.0 0.0 0.0 0.0 0.0 0.0 0.0 0.0
0.0 0.0 0.0
00000000: 0000 0000 0000 0000 0000 0000 0000 0000
00000010: 0000 0000 0000 0000 0000 0000 0000 0000
00000020: 0000 0000 0000 0000 0000 0000 0000 0000
00000030: 0000 0000 0000 0000 0000 0000 0000 0000
00000040: 0000 0000 0000 0000 0000 0000 0000 0000
00000050: 0000 0000 0000 0000 0000 0000 0000 0000
00000060: 0000 0000 0000 0000 0000 0000 0000 0000
00000070: 0000 0000 0000 0000 0000 0000 0000 0000
00000080: 0000 0000 0000 0000 0000 0000 0000 0000
00000090: 0000 0000 0000 0000 0000 0000 0000 0000
000000a0: 0000 0000 0000 0000 0000 0000 0000 0000
000000b0: 0000 0000 0000 0000 0000 0000 0000 0000
000000c0: 0000 0000 0000 0000 0000 0000

action_model._discrete_distribution.branches.0.weight f4 [1, 128]
-0.01096685 0.0024704365 -0.005915069 -0.009268732 -0.0071400143 0.0007794643 0.006654318 -0.007671228
-0.012411228 -0.006757857 0.009010333 -0.009869714 0.0020328714 0.0018868704 0.0017386716 0.010991904
0.0051678675 -0.0038506326 0.014514453 0.003270875 0.0017863986 0.00035040334 0.003328162 0.007262975
-0.00041678507 -0.0067801485 0.009719718 0.004128776 0.006887939 0.0019040977 -0.013299021 -0.0066583166
0.010431195 0.00039571972 0.0026595462 -0.005473572 -0.0007640619 0.0111187985 -0.0137241995 -0.0098577915
0.008945047 0.0014301183 0.0076436438 0.0012206001 0.0049672495 -0.0074202376 0.0145903295 -0.0058752643
0.016649919 -0.0015474062 0.00746061 -0.001834001 0.0051411437 0.009854916 0.018870188 -0.01485297
0.0042921747 -0.0026368909 0.009450179 -0.011070269 0.004055795 -0.01271133 0.0019308551 0.004236744
-0.005397554 -0.00010778396 0.00022833941 -0.0019637502 0.00029813644 -0.007834553 -0.00094908493 -0.008675576
-0.0013421008 -0.004575036 -0.011687772 0.021078708 -0.009898304 0.010028973 0.012499489 -0.010590184
-0.006797574 0.0021896788 0.008816954 -6.6962464e-05 0.0048493324 -0.0029885853 0.012132409 0.0047798953
-0.009519727 -0.009467006 -0.010172436 -0.009342578 -0.006144792 -0.0032015888 0.009547323 -0.015036832
0.0026567432 0.009556312 0.0061983364 0.012586499 0.003129523 0.010699898 -0.016672956 -0.006952796
0.0041556335 -0.005489296 0.0041524945 -0.008113096 -0.006382994 -0.004025072 0.0058088517 0.010135003
0.007115456 0.006572809 0.00018179834 0.014580123 0.004344264 -0.011376949 -0.0026328627 0.008216235
0.00039979172 0.014254557 0.0062745563 0.0073744073 0.0008777836 0.004102056 -0.008589457 0.02488601
00000000: 4eae 33bc 0ce7 213b 32d3 c1bb e1db 17bc
00000010: c8f6 e9bb f754 4c3a 770c da3b ed5e fbbb
00000020: 7758 4bbc 0371 ddbb 13a0 133c 95b4 21bc
00000030: ec39 053b dd50 f73a 23e4 e33a 6317 343c
00000040: 3757 a93b e55a 7cbb 07ce 6d3c 2d5c 563b
00000050: 9725 ea3a 57b6 b739 4b1d 5a3b 40fe ed3b
00000060: f283 dab9 022c debb 743f 1f3c af4a 873b
00000070: 38b4 e13b eb92 f93a 23e4 59bc 022e dabb
00000080: 9ae7 2a3c 9a78 cf39 c84b 2e3b a65b b3bb
00000090: 534b 48ba 9f2b 363c 77db 60bc 9382 21bc
000000a0: 3f8e 123c cf72 bb3a 8877 fa3b 8bfc 9f3a
000000b0: 4fc4 a23b 7725 f3bb 470c 6f3c 4a85 c0bb
000000c0: 6965 883c 56d2 caba 2278 f43b dd62 f0ba
000000d0: 0a77 a83b 8376 213c a795 9a3c df59 73bc
000000e0: 5fa5 8c3b b0cf 2cbb ecd4 1a3c 1360 35bc
000000f0: 79e6 843b 2f43 50bc bf14 fd3a 62d4 8a3b
00000100: f7dd b0bb 130a e2b8 656e 6f39 43b2 00bb
00000110: 324f 9c39 7f5c 00bc 03cc 78ba 0124 0ebc
00000120: 6ee9 afba 2fea 95bb 127e 3fbc 41ad ac3c
00000130: 7f2c 22bc 9050 243c a8ca 4c3c 7382 2dbc
00000140: 2fbe debb b780 0f3b fc74 103c 336e 8cb8
00000150: 26e7 9e3b 24dc 43bb 03c7 463c aba0 9c3b
00000160: a1f8 1bbc 801b 1bbc 4aaa 26bc 9d11 19bc
00000170: 405a c9bb bfd1 51bb 606c 1c3c 0b5d 76bc
00000180: c11c 2e3b 1492 1c3c 6a1b cb3b 9a37 4e3c
00000190: af18 4d3b a04e 2f3c b995 88bc 48d4 e3bb
000001a0: fb2b 883b 8ddf b3bb a611 883b caec 04bc
000001b0: 6f28 d1bb c0e4 83bb 2e58 be3b 490d 263c
000001c0: c528 e93b b860 d73b 1fa1 3e39 78e1 6e3c
000001d0: 545a 8e3b 6266 3abc 1b8c 2cbb 639d 063c
000001e0: 239b d139 f28b 693c cb9a cd3b 03a5 f13b
000001f0: 0f1b 663a 8a6a 863b cbba 0cbc bfdd cb3c

onnx::LSTM_116 f4 [1, 512, 128]
0.13130964 0.0985692 -0.11541881 0.12688808 -0.027745768 0.0003206432 -0.024916604 0.034070253
0.05426468 -0.09599814 0.08636086 0.14527439 0.029268816 0.1485535 -0.10599497 -0.008052051
0.106394246 -0.07091795 0.038979262 -0.08663521 -0.0874974 0.0029393286 -0.08958504 -0.043705538
-0.14387266 -0.14016289 0.011580527 0.13079838 -0.07587901 0.14790876 0.043689713 0.09566632
0.028263122 0.099510714 -0.07749841 -0.062392473 0.03246081 0.1369857 -0.14091542 0.07287572
0.0036106706 -0.08677458 0.10097344 -0.054997563 -0.038414553 -0.04685299 0.016748458 -0.10882524
0.027472839 -0.12632915 0.065669626 0.14540337 0.0064192414 -0.08034461 0.10362573 0.09964846
-0.07938719 -0.0840098 -0.10471606 0.031436056 0.13631217 -0.061729208 -0.047943838 0.10479961
0.06445278 0.06731591 0.105497375 0.063048035 0.075083315 0.012280777 -0.010484517 0.10149445
0.10151665 -0.013822094 -0.02202861 0.06845392 -0.022537917 0.13614039 0.13140534 0.08994329
0.06735785 0.10427825 0.07088274 0.13436632 -0.0863034 0.0062574 0.015276581 0.07061699
-0.12967752 0.074372664 -0.116778016 -0.0993762 0.14188154 0.12958501 0.050942257 -0.06920061
0.1308616 0.14043228 0.05076559 -0.06399502 0.06939939 0.05363375 0.011192307 -0.14792463
-0.14143728 0.0944888 -0.15233965 -0.01608792 0.084540665 0.14584224 -0.023265302 -0.046080478
-0.039263494 -0.097886875 -0.054121062 -0.047917955 -0.031251542 -0.12750135 -0.02567926 0.039369658
-0.12043962 -0.081861995 -0.13435115 -0.04647693 0.059578136 -0.083520345 0.012039363 -0.12072639
0.12870581 0.10238461 -0.10039891 0.03637588 -0.070938386 0.09779616 0.03719279 -0.049343802
0.024959192 0.05711527 0.14935894 0.108221844 -0.020702124 0.11095233 0.007032454 0.007830545
0.05700384 0.1337945 -0.14984289 -0.06792422 0.0479182 0.120915934 0.10972513 0.11684336
0.1473415 0.051177472 0.15062605 -0.059462182 -0.12718347 0.0029925108 -0.007158816 -0.019851133
-0.01065053 -0.11856358 0.005081743 0.11856161 0.060903013 -0.11176615 -0.05217412 -0.062263355
0.10771982 0.10993366 -0.046027318 0.12563293 -0.14896803 0.12647672 0.14373218 -0.102062255
-0.096789 0.067669675 -0.00389494 0.135522 0.008922413 0.088888615 0.02863942 -0.12152803
0.10359354 0.15240504 -0.021363541 0.14978836 -0.021637455 -0.010991663 -0.017525986 0.095361814
0.079739094 0.004621044 0.054038808 0.14652516 0.13826649 -0.04401575 -0.120487645 0.060325652
0.11255692 -0.061406076 0.003379181 0.107060954 -0.07983995 0.15189804 -0.05912707 -0.1494355
-0.0038067698 0.13397162 0.070604 0.05500534 0.048036784 -0.12770163 -0.14575337 0.018051848
0.0036161095 0.11174877 0.017520666 -0.03820628 0.07461475 0.062362 0.14934056 0.057054922
-0.04310903 -0.08824248 0.14355893 -0.13596907 -0.020137966 -0.0034055114 0.010528117 0.05330819
-0.12732191 0.0731968 0.0068058223 0.043850005 -0.053256266 -0.040500432 0.074342474 -0.13459079
0.11623259 -0.012729108 0.14990257 -0.105814666 0.11454956 -0.08254796 0.1526273 0.05355847
-0.078891136 0.047896564 -0.10537952 0.12816338 0.015898764 -0.07430276 -0.014647901 -0.11087193
00000000: 0976 063e a6de c93d b260 ecbd f3ee 013e
00000010: 184b e3bc 001c a839 e81d ccbc 408d 0b3d
00000020: a444 5e3d ac9a c4bd f6dd b03d cfc2 143e
00000030: 28c5 ef3c 691e 183e e413 d9bd c0ec 03bc
00000040: 3ae5 d93d 6e3d 91bd b8a8 1f3d cd6d b1bd
00000050: d631 b3bd c0a1 403b 5d78 b7bd 9404 33bd
00000060: 5b53 13be dc86 0fbe 40bc 3d3c 03f0 053e
00000070: 7466 9bbd 6575 173e fcf3 323d b4ec c33d
00000080: 1088 e73c 46cc cb3d 7db7 9ebd 408f 7fbd
00000090: a0f5 043d fb45 0c3e 224c 10be de3f 953d
000000a0: 00a1 6c3b dfb6 b1bd 2acb ce3d 2045 61bd
000000b0: 9458 1dbd ece8 3fbd 1034 893c c4df debd
000000c0: b80e e13c 6e5c 01be cc7d 863d 9fe4 143e
000000d0: 8058 d23b b78b a4bd ba39 d43d 7e14 cc3d
000000e0: c095 a2bd 540d acbd 6075 d6bd 18c3 003d
000000f0: 6b95 0b3e c4d7 7cbd c260 44bd 2ea1 d63d
00000100: d2ff 833d ecdc 893d 020f d83d 541f 813d
00000110: 48c5 993d 5035 493c 40c7 2bbc 52dc cf3d
00000120: f6e7 cf3d 1076 62bc 5875 b4bc 9231 8c3d
00000130: 70a1 b8bc 6368 0b3e 1f8f 063e 3034 b83d
00000140: eaf2 893d d68f d53d f82a 913d 5397 093e
00000150: d6bf b0bd e00a cd3b a04a 7a3c a49f 903d
00000160: 2fca 04be b250 983d 5029 efbd c085 cbbd
00000170: 6549 113e efb1 043e d4a8 503d 0db9 8dbd
00000180: 9500 063e 7bcd 0f3e 94ef 4f3d d20f 83bd
00000190: 4421 8e3d 10af 5b3d f05f 373c 8e79 17be
000001a0: efd4 10be 5883 c13d edfe 1bbe d0ca 83bc
000001b0: a823 ad3d ab57 153e e096 bebc e2be 3cbd
000001c0: c2d2 20bd ea78 c8bd 0cae 5dbd 9e45 44bd
000001d0: 9e01 00bd b78f 02be 505d d2bc 1442 213d
000001e0: 0ca9 f6bd 43a7 a7bd 5993 09be 985e 3ebd
000001f0: 3408 743d b70c abbd c040 453c 663f f7bd
00000200: 75cb 033e 06af d13d f29d cdbd e0fe 143d
00000210: 2548 91bd 5a49 c83d 7857 183d ba1c 4abd
00000220: 3877 cc3c b4f1 693d 8df1 183e 6aa3 dd3d
00000230: 8097 a9bc fa3a e33d 8070 e63b b04b 003c
00000240: dc7c 693d 6d01 093e 6a70 19be da1b 8bbd
00000250: e045 443d c6a2 f73d 92b7 e03d 924b ef3d
00000260: b1e0 163e 789f 513d b73d 1a3e 9e8e 73bd
00000270: 623c 02be 001e 443b 8094 eabb d89e a2bc
00000280: 907f 2ebc 76d1 f2bd c084 a63b 6ed0 f23d
00000290: 7075 793d a7e5 e4bd 88b4 55bd dc07 7fbd
000002a0: 369c dc3d e624 e13d 2487 3cbd eba5 003e
000002b0: 138b 18be 1d83 013e 872e 133e 0406 d1bd
000002c0: 5039 c6bd 6696 8a3d 4042 7fbb 47c6 0a3e
000002d0: 502f 123c 3c0b b63d 389d ea3c b0e3 f8bd
000002e0: da28 d43d 1110 1c3e 9802 afbc 1f62 193e
000002f0: 0841 b1bc 6016 34bc a892 8fbc 0e4d c33d
00000300: 404e a33d 206c 973b cc57 5d3d b10a 163e
00000310: bb95 0d3e dc49 34bd 3ac2 f6bd 0818 773d
00000320: 3e84 e63d f084 7bbd 4075 5d3b c642 db3d
00000330: 2183 a3bd 298b 1b3e 3a2f 72bd 9f05 19be
00000340: 007b 79bb db2f 093e d498 903d 484d 613d
00000350: 38c2 443d 37c4 02be 5f40 15be 78e1 933c
00000360: 40fc 6c3b 8adc e43d 8087 8f3c 307e 1cbd
00000370: 9ecf 983d 4c6f 7f3d bbec 183e 6cb2 693d
00000380: 1893 30bd 79b8 b4bd 1d01 133e 7a3b 0bbe
00000390: 60f8 a4bc 002f 5fbb 207e 2c3c b059 5a3d
000003a0: ad60 02be 34e8 953d 6003 df3b 109c 333d
000003b0: 3e23 5abd c8e3 25bd de40 983d 2bd2 09be
000003c0: 5a0b ee3d c08d 50bc 0f80 193e 5cb5 d8bd
000003d0: f698 ea3d e80e a9bd 554a 1c3e 2060 5b3d
000003e0: ad91 a1bd 302f 443d 38d1 d7bd 433d 033e
000003f0: 203e 823c 0c2c 98bd c0fd 6fbc d310 e3bd

onnx::LSTM_117 f4 [1, 512, 128]
-0.14087075 0.14943512 -0.1383357 0.04792604 0.06855743 -0.0036272854 -0.08232527 -0.10556261
-0.016611755 -0.11261678 0.07054724 0.09719245 0.09391418 -0.020522282 0.03154242 -0.009531274
-0.04744059 0.023298144 0.123861924 0.078368545 -0.05580405 -0.020496577 -0.13075763 -0.13257673
0.11724548 -0.004470274 -0.11639834 0.030530259 -0.04436685 -0.014013872 0.07449712 -0.058330126
0.12974845 -0.03905002 -0.121053234 -0.08272572 -0.13552581 0.096998945 0.02325511 -0.06623535
-0.1013263 0.05545813 -0.109531626 0.1164795 -0.12018897 0.035510406 0.12168269 0.121104345
0.05890259 -0.07163653 -0.14315651 0.010066062 0.044702902 0.049742326 0.0235143 -0.080309786
0.060005322 -0.11515148 0.008150756 -0.06310279 -0.04416365 0.03564544 0.032029107 0.01631406
-0.13514961 -0.14572622 0.14980261 -0.15225275 0.03963104 0.05669011 -0.03033933 0.09938811
-0.022872001 0.033484325 0.1424589 -0.084230386 0.036885053 -0.05378165 0.059507877 -0.03585866
0.1259873 0.090255484 0.020391554 -0.10286809 0.14164491 -0.12487084 0.10466458 -0.12124853
-0.0022939146 0.06387256 -0.006219238 -0.1102547 -0.018053383 -0.013781056 0.008035779 0.1331373
-0.024364099 0.07277961 0.044947013 -0.087775216 -0.12827924 -0.030293249 0.08821759 0.13456057
0.06442338 -0.041831814 0.12574165 0.12482257 0.11634661 -0.11161879 -0.053937398 -0.014470145
0.027424306 -0.04107579 -0.026815385 0.034714863 0.024187043 0.08835116 0.07177472 -0.030680075
-0.14766316 -0.096806474 -0.042135276 -0.0653548 -0.023753151 -0.068748534 -0.06579687 -0.05101508
0.13283397 0.120836124 0.050049752 0.15075041 -0.047812544 -0.13848723 -0.006470725 -0.12819995
-0.10596316 0.043885157 -0.0567151 0.03716448 -0.08793777 -0.1376939 -0.11092499 -0.12769413
-0.05745998 -0.11314574 0.12110104 -0.08768455 0.06673199 -0.15039554 0.029810622 0.09939714
0.06460911 0.0935657 -0.089080706 0.085886165 -0.1348995 -0.028758705 -0.13153513 0.12327118
-0.14627932 -0.11013447 -0.053190835 0.022235349 -0.10381709 -0.030748695 -0.007044345 -0.055619985
0.09919931 -0.076401174 -0.008171678 0.10612573 -0.051656604 -0.048141062 -0.0034650117 -0.085568234
0.11276843 -0.13554588 -0.046063766 -0.12478822 -0.004507065 -0.014243871 0.08503954 -0.0068764985
-0.08496439 0.11310418 0.062525004 0.057586446 -0.058202595 0.0713402 -0.12282348 0.023263454
0.07207066 0.039589494 -0.019823477 -0.08179973 -0.09312836 -0.07995212 -0.10642861 -0.043846756
0.04256299 0.08094405 -0.08997622 0.094598904 7.44015e-05 -0.075528674 0.1330417 -0.064406835
-0.09241016 -0.09377898 -0.05004639 0.010998279 0.14590372 -0.05636692 0.1389956 -0.038155876
0.13393606 0.13056763 -0.14417768 -0.11455689 -0.008229688 0.009085655 -0.003236279 -0.02900751
0.11922626 -0.10002671 0.14524724 -0.05123643 0.09650655 0.023938984 -0.059171565 -0.012403205
0.14469193 0.10419543 0.0037847161 0.1290908 0.064331606 0.11882712 0.09530619 -0.15165348
0.13683842 0.037190184 0.05974336 -0.02383919 -0.13880084 -0.09980834 0.095017105 0.015396237
-0.07519988 -0.09026782 -0.073265515 0.11637141 0.11865036 -0.14629759 -0.08715196 -0.15035614
00000000: 6c40 10be 8505 193e e0a7 0dbe 184e 443d
00000010: d667 8c3d c0b7 6dbb 279a a8bd 3631 d8bd
00000020: 6015 88bc a0a3 e6bd 127b 903d d60c c73d
00000030: 1456 c03d 581e a8bc a032 013d 1029 1cbc
00000040: 1051 42bd c0db be3c 52ab fd3d b07f a03d
00000050: ca92 64bd 70e8 a7bc 54e5 05be 32c2 07be
00000060: 661e f03d 607b 92bb 4162 eebd 981a fa3c
00000070: 04ba 35bd 709a 65bc f291 983d 92eb 6ebd
00000080: c7dc 043e eaf2 1fbd c2ea f7bd 1a6c a9bd
00000090: 47c7 0abe 62a7 c63d 8081 be3c 66a6 87bd
000000a0: 2a84 cfbd 1028 633d 1e52 e0bd ce8c ee3d
000000b0: a225 f6bd 5c73 113d c634 f93d 8e05 f83d
000000c0: d843 713d 2cb6 92bd 9f97 12be 20ec 243c
000000d0: 641a 373d 9cbe 4b3d 10a1 c03c 7579 a4bd
000000e0: 24c8 753d 8ad4 ebbd c08a 053c 093c 81bd
000000f0: f2e4 34bd f400 123d f430 033d 10a5 853c
00000100: a964 0abe 4139 15be db65 193e 25e8 1bbe
00000110: 2854 223d e433 683d 308a f8bc fe8b cb3d
00000120: 105e bbbc dc26 093d bfe0 113e fb80 acbd
00000130: c814 173d 264a 5cbd 88be 733d 88e0 12bd
00000140: d102 013e ded7 b83d 300c a73c 81ac d2bd
00000150: 5d0b 113e 48bc ffbd 625a d63d 2651 f8bd
00000160: 8055 16bb 9ecf 823d c0ca cbbb 37cd e1bd
00000170: b0e4 93bc f0c9 61bc 80a8 033c 2555 083e
00000180: 3897 c7bc 7a0d 953d 5c1a 383d 7ec3 b3bd
00000190: a25b 03be 8c29 f8bc 6cab b43d 3fca 093e
000001a0: 68f0 833d d657 2bbd 6bc2 003e faa2 ff3d
000001b0: 2247 ee3d 6498 e4bd 76ed 5cbd 3014 6dbc
000001c0: f0a8 e03c 163f 28bd f0ab dbbc 2c31 0e3d
000001d0: e823 c63c 74f1 b43d a0fe 923d c854 fbbc
000001e0: 0335 17be 7942 c6bd 0a96 2cbd bdd8 85bd
000001f0: f895 c2bc 08cc 8cbd 82c0 86bd 30f5 50bd
00000200: a105 083e ee78 f73d f800 4d3d 515e 1a3e
00000210: 16d7 43bd 99cf 0dbe 6008 d4bb d946 03be
00000220: 3703 d9bd ecc0 333d 184e 68bd c839 183d
00000230: b818 b4bd a1ff 0cbe a42c e3bd 40c2 02be
00000240: 285b 6bbd f4b8 e7bd d203 f83d f593 b3bd
00000250: c8aa 883d 4a01 1abe 6835 f43c ba90 cb3d
00000260: c851 843d 609f bf3d f26f b6bd 16e5 af3d
00000270: 1823 0abe 6097 ebbc 25b1 06be 9a75 fc3d
00000280: 3fca 15be 2e8e e1bd a2de 59bd e826 b63c
00000290: 0e9e d4bd b0e4 fbbc 40d4 e6bb c8d1 63bd
000002a0: 0229 cb3d 3878 9cbd 80e2 05bc 7258 d93d
000002b0: e095 53bd 902f 45bd 4015 63bb 663e afbd
000002c0: 22f3 e63d 8acc 0abe 5cad 3cbd f790 ffbd
000002d0: 00b0 93bb 205f 69bc 3629 ae3d 4054 e1bb
000002e0: cf01 aebd 2aa3 e73d 1c0d 803d c4df 6b3d
000002f0: d865 6ebd d01a 923d e08a fbbd 0093 be3c
00000300: c899 933d 9828 223d d864 a2bc 9e86 a7bd
00000310: 15ba bebd f0bd a3bd 3ef7 d9bd a898 33bd
00000320: 8856 2e3d fec5 a53d 7445 b8bd 12bd c13d
00000330: 0008 9c38 c7ae 9abd 153c 083e bbe7 83bd
00000340: 8a41 bdbd 320f c0bd 72fd 4cbd 2032 343c
00000350: c967 153e 00e1 66bd dd54 0e3e 5649 1cbd
00000360: 8926 093e 85b3 053e 50a3 13be ce9c eabd
00000370: d0d5 06bc 00dc 143c c017 54bb 28a1 edbc
00000380: e62c f43d ceda ccbd b1bb 143e 4add 51bd
00000390: 3aa5 c53d b01b c43c e25d 72bd d036 4bbc
000003a0: 1f2a 143e 6a64 d53d 0009 783b 6130 043e
000003b0: 4ac0 833d a25b f33d e42f c33d 0d4b 1bbe
000003c0: 5f1f 0c3e bc54 183d 74b5 743d 684a c3bc
000003d0: cf21 0ebe 5168 ccbd 5498 c23d 8040 7c3c
000003e0: 6502 9abd 56de b8bd 3b0c 96bd 2254 ee3d
000003f0: f6fe f23d 09cf 15be ba7c b2bd f6f6 19be

onnx::LSTM_118 f4 [1, 1024]
0.0 0.0 0.0 0.0 0.0 0.0 0.0 0.0
0.0 0.0 0.0 0.0 0.0 0.0 0.0 0.0
0.0 0.0 0.0 0.0 0.0 0.0 0.0 0.0
0.0 0.0 0.0 0.0 0.0 0.0 0.0 0.0
0.0 0.0 0.0 0.0 0.0 0.0 0.0 0.0
0.0 0.0 0.0 0.0 0.0 0.0 0.0 0.0
0.0 0.0 0.0 0.0 0.0 0.0 0.0 0.0
0.0 0.0 0.0 0.0 0.0 0.0 0.0 0.0
0.0 0.0 0.0 0.0 0.0 0.0 0.0 0.0
0.0 0.0 0.0 0.0 0.0 0.0 0.0 0.0
0.0 0.0 0.0 0.0 0.0 0.0 0.0 0.0
0.0 0.0 0.0 0.0 0.0 0.0 0.0 0.0
0.0 0.0 0.0 0.0 0.0 0.0 0.0 0.0
0.0 0.0 0.0 0.0 0.0 0.0 0.0 0.0
0.0 0.0 0.0 0.0 0.0 0.0 0.0 0.0
0.0 0.0 0.0 0.0 0.0 0.0 0.0 0.0
0.0 0.0 0.0 0.0 0.0 0.0 0.0 0.0
0.0 0.0 0.0 0.0 0.0 0.0 0.0 0.0
0.0 0.0 0.0 0.0 0.0 0.0 0.0 0.0
0.0 0.0 0.0 0.0 0.0 0.0 0.0 0.0
0.0 0.0 0.0 0.0 0.0 0.0 0.0 0.0
0.0 0.0 0.0 0.0 0.0 0.0 0.0 0.0
0.0 0.0 0.0 0.0 0.0 0.0 0.0 0.0
0.0 0.0 0.0 0.0 0.0 0.0 0.0 0.0
0.0 0.0 0.0 0.0 0.0 0.0 0.0 0.0
0.0 0.0 0.0 0.0 0.0 0.0 0.0 0.0
0.0 0.0 0.0 0.0 0.0 0.0 0.0 0.0
0.0 0.0 0.0 0.0 0.0 0.0 0.0 0.0
0.0 0.0 0.0 0.0 0.0 0.0 0.0 0.0
0.0 0.0 0.0 0.0 0.0 0.0 0.0 0.0
0.0 0.0 0.0 0.0 0.0 0.0 0.0 0.0
0.0 0.0 0.0 0.0 0.0 0.0 0.0 0.0
00000000: 0000 0000 0000 0000 0000 0000 0000 0000
00000010: 0000 0000 0000 0000 0000 0000 0000 0000
00000020: 0000 0000 0000 0000 0000 0000 0000 0000
00000030: 0000 0000 0000 0000 0000 0000 0000 0000
00000040: 0000 0000 0000 0000 0000 0000 0000 0000
00000050: 0000 0000 0000 0000 0000 0000 0000 0000
00000060: 0000 0000 0000 0000 0000 0000 0000 0000
00000070: 0000 0000 0000 0000 0000 0000 0000 0000
00000080: 0000 0000 0000 0000 0000 0000 0000 0000
00000090: 0000 0000 0000 0000 0000 0000 0000 0000
000000a0: 0000 0000 0000 0000 0000 0000 0000 0000
000000b0: 0000 0000 0000 0000 0000 0000 0000 0000
000000c0: 0000 0000 0000 0000 0000 0000 0000 0000
000000d0: 0000 0000 0000 0000 0000 0000 0000 0000
000000e0: 0000 0000 0000 0000 0000 0000 0000 0000
000000f0: 0000 0000 0000 0000 0000 0000 0000 0000
00000100: 0000 0000 0000 0000 0000 0000 0000 0000
00000110: 0000 0000 0000 0000 0000 0000 0000 0000
00000120: 0000 0000 0000 0000 0000 0000 0000 0000
00000130: 0000 0000 0000 0000 0000 0000 0000 0000
00000140: 0000 0000 0000 0000 0000 0000 0000 0000
00000150: 0000 0000 0000 0000 0000 0000 0000 0000
00000160: 0000 0000 0000 0000 0000 0000 0000 0000
00000170: 0000 0000 0000 0000 0000 0000 0000 0000
00000180: 0000 0000 0000 0000 0000 0000 0000 0000
00000190: 0000 0000 0000 0000 0000 0000 0000 0000
000001a0: 0000 0000 0000 0000 0000 0000 0000 0000
000001b0: 0000 0000 0000 0000 0000 0000 0000 0000
000001c0: 0000 0000 0000 0000 0000 0000 0000 0000
000001d0: 0000 0000 0000 0000 0000 0000 0000 0000
000001e0: 0000 0000 0000 0000 0000 0000 0000 0000
000001f0: 0000 0000 0000 0000 0000 0000 0000 0000
00000200: 0000 0000 0000 0000 0000 0000 0000 0000
00000210: 0000 0000 0000 0000 0000 0000 0000 0000
00000220: 0000 0000 0000 0000 0000 0000 0000 0000
00000230: 0000 0000 0000 0000 0000 0000 0000 0000
00000240: 0000 0000 0000 0000 0000 0000 0000 0000
00000250: 0000 0000 0000 0000 0000 0000 0000 0000
00000260: 0000 0000 0000 0000 0000 0000 0000 0000
00000270: 0000 0000 0000 0000 0000 0000 0000 0000
00000280: 0000 0000 0000 0000 0000 0000 0000 0000
00000290: 0000 0000 0000 0000 0000 0000 0000 0000
000002a0: 0000 0000 0000 0000 0000 0000 0000 0000
000002b0: 0000 0000 0000 0000 0000 0000 0000 0000
000002c0: 0000 0000 0000 0000 0000 0000 0000 0000
000002d0: 0000 0000 0000 0000 0000 0000 0000 0000
000002e0: 0000 0000 0000 0000 0000 0000 0000 0000
000002f0: 0000 0000 0000 0000 0000 0000 0000 0000
00000300: 0000 0000 0000 0000 0000 0000 0000 0000
00000310: 0000 0000 0000 0000 0000 0000 0000 0000
00000320: 0000 0000 0000 0000 0000 0000 0000 0000
00000330: 0000 0000 0000 0000 0000 0000 0000 0000
00000340: 0000 0000 0000 0000 0000 0000 0000 0000
00000350: 0000 0000 0000 0000 0000 0000 0000 0000
00000360: 0000 0000 0000 0000 0000 0000 0000 0000
00000370: 0000 0000 0000 0000 0000 0000 0000 0000
00000380: 0000 0000 0000 0000 0000 0000 0000 0000
00000390: 0000 0000 0000 0000 0000 0000 0000 0000
000003a0: 0000 0000 0000 0000 0000 0000 0000 0000
000003b0: 0000 0000 0000 0000 0000 0000 0000 0000
000003c0: 0000 0000 0000 0000 0000 0000 0000 0000
000003d0: 0000 0000 0000 0000 0000 0000 0000 0000
000003e0: 0000 0000 0000 0000 0000 0000 0000 0000
000003f0: 0000 0000 0000 0000 0000 0000 0000 0000
