results/try-11/My Behavior/My Behavior-10368.onnx (onnx, 693209 bytes, 10 tensors)

network_body._body_endoder.seq_layers.0.weight f4 [128, 122]
00000000: 1f0f 94bd 50c7 a93d 57eb 83bb 574c 31be
00000010: 3ad6 1e3e d534 b53a 51b1 a8bd dfbb efbd
00000020: 14c8 a03d af06 b03a 0583 e2bd c1dc 803d
00000030: 7912 a13d 6190 bfbd 030e 13bd dd43 31bd
00000040: 01cf 203d fe37 a23c 5c8e 62bd 0441 c33d
00000050: 53a7 81bd 8ff2 573d 77f8 08be e9d0 efbd
00000060: c0f2 ff3c e20f a33d af62 873d 3e6a ac3d
00000070: 84a1 9ebd c209 00bd 2817 ce3d e569 b13d
00000080: 9a91 dd3d 44c9 463d b765 22be a0e8 fd3d
00000090: fb47 afbc 76ff aebd b64c d53d 2853 033d
000000a0: df73 493d 2416 c83d 99a9 183d 1121 bc3b
000000b0: 3d53 54bd 395d bcbc 9af1 e6bc b72b 58be
000000c0: 7c22 20bd 38a2 243e 5f6b 813d b44d 353d
000000d0: dbb4 24bd c7ec 6c3d 2e0c 3f3d be6b 5ebd
000000e0: a3a2 b73d 2576 14bd 625f f7bd 41bd 53bc
000000f0: e2af 033e dfca 4abd 27f8 c23c ceb4 df3c
00000100: f04d cfbd 05b7 ac3c 851a 063e 8f6d 6e3d
00000110: 3f08 e1bc 8aba 3abd 440d 8a3d 1d35 143d
00000120: 3dfc 3cbe 9edb 8abd 3c26 d63d 7b62 80bc
00000130: 4cd8 21be a1a3 283b b077 103e 6d8a 573e
00000140: 95f9 4abd 1f4b afbd 17c9 29bd 7d7d cc3d
00000150: 2453 813d 2d34 79be 2a15 6abd 54a3 efbc
00000160: 8591 dbbc 1154 fdbd 20e4 0d3d af09 8a3d
00000170: 3f15 2b3d 1254 433d bfff 4dbd ea13 cabb
00000180: 596c 8fbc a865 9abd eef5 52bd 597c 55bd
00000190: e5a4 923c 1d69 943d 9482 833e d3d0 85bc
000001a0: 6faa df3d 3595 a43d 1455 083e e32f c1bd
000001b0: 3fcb 26be ef10 ca3d 0a35 49bd 882c 323d
000001c0: 3237 463e 338b 123c 0392 0f3c 65a8 0abd
000001d0: 19dc bcbd 51d9 05bc 0df1 393d 016b 0c3e
000001e0: 7053 72bd d642 21be 1359 0e3e 7108 683d
000001f0: c3a2 57bd f0ec 1abd f870 f5bd 764c 443c
00000200: 92b7 253d 3b44 2dbd aa06 dfbd 87bb 0fbd
00000210: d62b 9ebd ed46 ba3d e836 b23d 1e27 3dbd
00000220: 53fa 8c3c 72ea a1bd ecb8 06be 782f a8bc
00000230: 4c6a 00bd 2738 643a 0fb0 25be 30fd d53d
00000240: 5893 0a3d abdb 363c b246 8c3b e72e 3d3d
00000250: e5f0 b1bc df0a aa3c 56bc d9bd ab6a 163c
00000260: f5e6 393e def8 a23c 1109 ca3d 9a60 61be
00000270: 8ae6 1e3d 985c 7e3d 3815 0f3d acba 1fbe
00000280: 72e6 e93d 2286 5fbe 1751 2dbd 10dc 713e
00000290: f5bb 0ebe 8944 a83d 088f a7bc f217 1fbd
000002a0: 74b4 853d 280c 5e3d 7fa4 4b3c d9df 323b
000002b0: 04a7 9cba 8c33 c93b 90ae 6f3b 265e c83c
000002c0: 4caf 923d a3f9 4f3c 4d27 00be afd5 113e
000002d0: 2d7c df3d ddfc 08bd 3bb0 693c e69f e5bd
000002e0: 7e9e 153e 94f7 4d3c a1be 0ebe fd21 403e
000002f0: b333 803b 9c1e 533d 50fe 723d fbfe 5fbd
00000300: 9272 c0bd 579a c0bd b17b 66be 1b11 c33c
00000310: afee 1b3d 3a08 32be ba32 bb3d 4f8d c8bd
00000320: dccf 5a3d f6fa 673c 2b26 dbbc e4fd 8b3d
00000330: a98c 9bbc 7b09 ba3d 993b 5abd 8de1 44bd
00000340: 5539 023c 9d20 d4bb 039a 043e e540 1abd
00000350: 8c3b 30be 3070 2fbd a3ae dbbc 3d72 79bd
00000360: df1e a6bc bcac c6bd f756 d03b bb0b f3bb
00000370: 3377 493d b3b9 5a3b 454a c3bd e35f 6d3d
00000380: 992a 4d3e 233a 1fbd 1fb7 cf3d 1ad3 14be
00000390: a9e1 84bd b6c3 a6bd 5332 07be 309a 3dbe
000003a0: 6a0b eabc 1a05 2d3e a3c6 293d bf70 a63d
000003b0: d529 65bd fa4f 0dbd eec3 dc3d c4e0 cbbc
000003c0: aa0c 9238 4056 dfbc 9f17 1cbd 1b4c 36bd
000003d0: 0109 063e 7581 9abd 50e7 6f3c 8e82 1e3d
000003e0: 43b5 4ebd c7a9 82bd 43b2 9abc 0ca4 08bd
000003f0: 4a03 b5bd 5dde c43d bb68 933e ceb6 bb3b
-0.072294466 0.08289969 -0.0040258574 -0.17314278 0.15511408 0.0013824949 -0.082369454 -0.117057554
0.07850662 0.0013429726 -0.11060146 0.062921055 0.078648515 -0.0935371 -0.035902034 -0.04327761
0.039259914 0.01980209 -0.055311546 0.09533885 -0.06330743 0.052721556 -0.13376032 -0.11709768
0.031243682 0.07962014 0.06610619 0.084187016 -0.077456504 -0.031259306 0.100630105 0.08662776
0.10818787 0.048531786 -0.15859114 0.12397885 -0.021396628 -0.08544819 0.10415022 0.032061726
0.04918277 0.09769848 0.037271116 0.0057412465 -0.051837195 -0.02299367 -0.028191376 -0.21110426
-0.039095387 0.16077507 0.063193075 0.044263557 -0.04021154 0.057842996 0.046642475 -0.05430197
0.08966567 -0.036245484 -0.1207874 -0.01292354 0.12860063 -0.04950988 0.023799969 0.027307894
-0.10122287 0.021083364 0.13096054 0.058209952 -0.027469752 -0.045588054 0.067408115 0.036183465
-0.18455596 -0.0678017 0.104565114 -0.01567196 -0.15805167 0.0025732296 0.14108157 0.21048899
-0.049554426 -0.0855925 -0.04145154 0.099848725 0.06314686 -0.2433631 -0.05714909 -0.029252686
-0.026802788 -0.1236955 0.034641385 0.06740128 0.04176831 0.047687598 -0.050292727 -0.0061669247
-0.017507719 -0.07538921 -0.051504068 -0.05212054 0.017900893 0.07246611 0.2568556 -0.016334927
0.109211795 0.080362715 0.13313705 -0.09432962 -0.1628847 0.09866511 -0.049122848 0.0434995
0.19356993 0.0089443205 0.008762839 -0.033852 -0.09221668 -0.008169488 0.0453959 0.13712694
-0.059161603 -0.15748152 0.13901167 0.056648675 -0.052645456 -0.037823617 -0.11984438 0.01198112
0.04045827 -0.042301398 -0.10889943 -0.03509095 -0.07723205 0.09095559 0.08701879 -0.046179883
0.017209208 -0.07906045 -0.1315648 -0.020530447 -0.031351373 0.0008705877 -0.16180442 0.10448682
0.033831924 0.011160771 0.0042808885 0.046187308 -0.021721313 0.020757137 -0.10631625 0.009180705
0.1815451 0.01989406 0.098650105 -0.22009507 0.038794078 0.062100023 0.034932345 -0.15598553
0.11420907 -0.21828511 -0.04231366 0.23619103 -0.13938887 0.08216197 -0.020453945 -0.038841195
0.06528559 0.05421081 0.012429356 0.0027294068 -0.001195163 0.006140178 0.0036572553 0.024458956
0.071623415 0.012693795 -0.12514992 0.1424167 0.109123565 -0.033444274 0.014263208 -0.11212139
0.14611241 0.012571234 -0.13939907 0.18762966 0.003912413 0.051542863 0.059324563 -0.054686528
-0.093968526 -0.09404438 -0.22508122 0.023811867 0.038069423 -0.1738595 0.09140535 -0.097925775
0.053420886 0.014158955 -0.026751598 0.06835535 -0.01898797 0.090838395 -0.053279493 -0.048066664
0.007948239 -0.0064736144 0.12949376 -0.037659544 -0.17210215 -0.0428316 -0.026816672 -0.06089996
-0.020278392 -0.09700915 0.0063580233 -0.00741717 0.049185943 0.0033374846 -0.0953565 0.057952773
0.20035781 -0.038873803 0.101423495 -0.14533654 -0.06488354 -0.08142798 -0.13202791 -0.18515849
-0.028569896 0.16896477 0.0414492 0.08126973 -0.055948097 -0.0345001 0.10779558 -0.02488745
6.9641814e-05 -0.027262807 -0.038108464 -0.044506174 0.13089372 -0.07544223 0.014642552 0.038698725
-0.050465833 -0.06380039 -0.01888383 -0.033359572 -0.08838518 0.09612725 0.2879084 0.005728579

network_body._body_endoder.seq_layers.0.bias f4 [128]
00000000: 0000 0000 0000 0000 0000 0000 0000 0000
00000010: 0000 0000 0000 0000 0000 0000 0000 0000
00000020: 0000 0000 0000 0000 0000 0000 0000 0000
00000030: 0000 0000 0000 0000 0000 0000 0000 0000
00000040: 0000 0000 0000 0000 0000 0000 0000 0000
00000050: 0000 0000 0000 0000 0000 0000 0000 0000
00000060: 0000 0000 0000 0000 0000 0000 0000 0000
00000070: 0000 0000 0000 0000 0000 0000 0000 0000
00000080: 0000 0000 0000 0000 0000 0000 0000 0000
00000090: 0000 0000 0000 0000 0000 0000 0000 0000
000000a0: 0000 0000 0000 0000 0000 0000 0000 0000
000000b0: 0000 0000 0000 0000 0000 0000 0000 0000
000000c0: 0000 0000 0000 0000 0000 0000 0000 0000
000000d0: 0000 0000 0000 0000 0000 0000 0000 0000
000000e0: 0000 0000 0000 0000 0000 0000 0000 0000
000000f0: 0000 0000 0000 0000 0000 0000 0000 0000
00000100: 0000 0000 0000 0000 0000 0000 0000 0000
00000110: 0000 0000 0000 0000 0000 0000 0000 0000
00000120: 0000 0000 0000 0000 0000 0000 0000 0000
00000130: 0000 0000 0000 0000 0000 0000 0000 0000
00000140: 0000 0000 0000 0000 0000 0000 0000 0000
00000150: 0000 0000 0000 0000 0000 0000 0000 0000
00000160: 0000 0000 0000 0000 0000 0000 0000 0000
00000170: 0000 0000 0000 0000 0000 0000 0000 0000
00000180: 0000 0000 0000 0000 0000 0000 0000 0000
00000190: 0000 0000 0000 0000 0000 0000 0000 0000
000001a0: 0000 0000 0000 0000 0000 0000 0000 0000
000001b0: 0000 0000 0000 0000 0000 0000 0000 0000
000001c0: 0000 0000 0000 0000 0000 0000 0000 0000
000001d0: 0000 0000 0000 0000 0000 0000 0000 0000
000001e0: 0000 0000 0000 0000 0000 0000 0000 0000
000001f0: 0000 0000 0000 0000 0000 0000 0000 0000
0.0 0.0 0.0 0.0 0.0 0.0 0.0 0.0
0.0 0.0 0.0 0.0 0.0 0.0 0.0 0.0
0.0 0.0 0.0 0.0 0.0 0.0 0.0 0.0
0.0 0.0 0.0 0.0 0.0 0.0 0.0 0.0
0.0 0.0 0.0 0.0 0.0 0.0 0.0 0.0
0.0 0.0 0.0 0.0 0.0 0.0 0.0 0.0
0.0 0.0 0.0 0.0 0.0 0.0 0.0 0.0
0.0 0.0 0.0 0.0 0.0 0.0 0.0 0.0
0.0 0.0 0.0 0.0 0.0 0.0 0.0 0.0
0.0 0.0 0.0 0.0 0.0 0.0 0.0 0.0
0.0 0.0 0.0 0.0 0.0 0.0 0.0 0.0
0.0 0.0 0.0 0.0 0.0 0.0 0.0 0.0
0.0 0.0 0.0 0.0 0.0 0.0 0.0 0.0
0.0 0.0 0.0 0.0 0.0 0.0 0.0 0.0
0.0 0.0 0.0 0.0 0.0 0.0 0.0 0.0
0.0 0.0 0.0 0.0 0.0 0.0 0.0 0.0

network_body._body_endoder.seq_layers.2.weight f4 [128, 128]
00000000: 191c 1b3e 20d4 12be c168 7b3d 98a8 183d
00000010: 9306 a0bd adf8 dfbd f666 b13d 13ec f9bd
00000020: 5ec9 253d 4c5d 6abd ee37 ab3d 3e4c a53d
00000030: 88b1 59bd 5888 a83d 798c 83bd 92f2 13bd
00000040: 4309 05bd 7e09 82bd d400 f1bd 4308 25bc
00000050: ee96 a73d 61a9 ee3d 9ac5 9cbd 5ad3 8cbd
00000060: 04d0 c63d 7cb1 963d 4eeb ccbd ceaa b23d
00000070: f467 123e d37d 47bd 0190 c73c 7c33 d2bd
00000080: 37a6 83bd d1ed bf3b 1279 f23d 735e b03c
00000090: 5872 abbd 37ce 6d3d d1ea 5f3e b776 cb3d
000000a0: 31f9 123e 957e d53d 4b80 d23b df05 88bd
000000b0: 4150 3cbe 4c70 083d f1a6 20be e8aa bd3d
000000c0: aa83 213c d79d 26bd dee6 9fbd 7364 313c
000000d0: 6bc6 7bbd edae 023e ea7f 603d 5577 a43d
000000e0: 067d cb3d 2b90 1b3e cbc8 9cbc 7d03 9d3d
000000f0: 2134 d33d 0018 84bc af14 f83d 0d2c 0c3d
00000100: 5d9c 2abd 729c 55bd eb1d 8d3c ce53 073e
00000110: cd36 30bd 3aca 95bd 4577 e7bd 660b e43b
00000120: c35a aabd cc8f 133e 6641 4dbe 94e2 123e
00000130: 711a 9dbd 0472 133c a4b7 8c3d 462c 26bd
00000140: f480 a63c 74cc 13bc b73e 26bb d8c4 af3b
00000150: bb20 483d 14f7 643d b12b 1a3d 949b 1f3d
00000160: 75c3 d83c 1d0d 8ebd 38b5 e1bd 64f3 063e
00000170: 8c44 7f3c 127c 7cbb 1d47 063e 414a ea3c
00000180: 04e2 3fbd 5fe8 473c 48de 883e 71d7 713d
00000190: e6d0 aa3d a654 1cbb 243a ac3d 17ae 203d
000001a0: 5289 3dbe d6d0 9f3d 3041 cdbc e23e b33d
000001b0: 6172 0f3e 6ba1 de3d 41a1 153b ad85 c3bd
000001c0: c6fb 1cbd cad0 753d 784f 8f3d 2b1c 13bc
000001d0: 5d59 97bd b07f c5bc 3eab 5fbd 950b 1fbd
000001e0: 66ce b2bd abee a53d 8709 a73c 7f15 cd3c
000001f0: 347e 823a 19fe e83b 30f5 c03d 21bf 95bd
00000200: 6ebc 98bd 3253 30bd 35e6 cabd 0403 893d
00000210: 3afc 8abd 4acf e83c 6db5 693d ccf1 e43d
00000220: 17d4 bcbd 08ae 62bc e239 02be 6a0c c93c
00000230: 39e8 fdbb 850a adbd 6ec0 6bbd bc4b 093d
00000240: 08de 823c 75cc de3d e0bb 953d 8638 cc3d
00000250: ddb4 a63d dc7e 30bd 38e3 72bc ebc8 af3d
00000260: a803 e33d 47b7 4d3e 7c02 56be ea5e 383d
00000270: b2e6 cb3d b4fe ab3c 4c76 f3bc ef29 a53d
00000280: a98b 40bd 7b01 4bbe a564 f2bc 6167 69bc
00000290: f2ed 8c3d 549c a53b ba92 cf3c 4abf 8dbd
000002a0: 37c6 843d 830e dd3d 58f6 88bd 46d3 09be
000002b0: 45ca d43b f46b 9a3d 86a2 14be 869e b13d
000002c0: 7cbd babd c9f4 013e ccba 10bc 3835 90bd
000002d0: 76f6 82bd 6a5d f6bc cd2c 2d3d 48de 3bbe
000002e0: e1fe 153d 5598 353c 19d8 d63d 6670 8ebd
000002f0: f96f 543c e1de f7bd 5d6e 47bd 2dbc 18bc
00000300: ca0b f63d 6c0e 7ebc 7213 2d3d 16f9 be3c
00000310: 4252 e9bb 62d5 59be 6f5e 573c 19a3 c83d
00000320: 5beb b03d 2634 ee3c 30e2 553e 094b 483a
00000330: d066 123d c98d d9bd 5485 9ebd 621b 2bbe
00000340: 714c f5bb 4be8 8c3d 2275 5fbd 98e2 f83c
00000350: 5389 a9bc 6ecf 063e 9dcb e43c 6184 953d
00000360: c3e9 d63d d678 c73c 92d4 91bd 7426 c33d
00000370: 867c b33d 1a20 29be 29be 103e fc58 9d3d
00000380: 3ab8 093d 0277 d5bd 25c2 0b3e bf56 24be
00000390: 94aa a13d 3340 b7bd 3f72 5a3d 711f c63d
000003a0: 6c33 0d3c 8ee6 f1bd 2fa8 4ebd fbab 0e3d
000003b0: 32c9 1a3d 4309 0bbe e286 453d 6a64 d9bd
000003c0: 7e57 8dbd 8223 cabc 2e87 7bbd c9da 97bd
000003d0: cdcb a5bd 25c3 a73d 4ecb 183d 0f7e 263d
000003e0: 3a8a a1bd 41b1 7ebb 8c82 68bd 0980 24bd
000003f0: f5ef 563d ab4a 143e f9f0 ae3d b74f 20bc
0.15147437 -0.14338732 0.061379198 0.03727016 -0.07813754 -0.10936103 0.08662216 -0.12203231
0.04047524 -0.05721788 0.08360277 0.08071183 -0.053147823 0.082291305 -0.064232774 -0.036120005
-0.032479536 -0.06349467 -0.11767736 -0.0100727705 0.081830844 0.116534 -0.07654877 -0.068762496
0.097076446 0.07358071 -0.10005818 0.08723985 0.14297467 -0.04870398 0.024360659 -0.10263726
-0.06428187 0.0058572073 0.118394986 0.021529412 -0.08371419 0.05805799 0.21866919 0.099347524
0.14352871 0.10424534 0.006423985 -0.06641745 -0.1838999 0.03331022 -0.15688683 0.092611134
0.009858051 -0.04067787 -0.07807706 0.010827172 -0.061468523 0.12762041 0.05480949 0.08030573
0.09935956 0.15191714 -0.019138714 0.07666681 0.10312677 -0.016124725 0.1211332 0.034221698
-0.041653026 -0.05215115 0.01722618 0.13215563 -0.043021012 -0.07313962 -0.11302046 0.0069593666
-0.08318093 0.14410323 -0.20044479 0.14344245 -0.07671059 0.008999351 0.06870964 -0.040569566
0.020325162 -0.009020913 -0.002536697 0.005364042 0.04885934 0.055899695 0.037639324 0.03896673
0.026460389 -0.06936095 -0.11020893 0.13178784 0.015580308 -0.00385261 0.13113065 0.02859986
-0.046846405 0.012201398 0.26732087 0.05904335 0.083406255 -0.0023854165 0.08409527 0.039228525
-0.18509415 0.07803504 -0.025055498 0.08752228 0.14008476 0.10870632 0.002283171 -0.09546981
-0.038326047 0.06001357 0.06997579 -0.008978884 -0.073900916 -0.024108738 -0.05460667 -0.038829405
-0.08730774 0.08102163 0.020390285 0.025034664 0.0009955824 0.007110369 0.09421766 -0.073118456
-0.07457815 -0.04304809 -0.0990719 0.06690028 -0.0678639 0.028419156 0.057057787 0.111789316
-0.092201404 -0.013835438 -0.12717393 0.024542052 -0.0077486304 -0.08449272 -0.057556562 0.03351949
0.015975013 0.10878841 0.07311225 0.099717185 0.08139966 -0.043089733 -0.014824681 0.08583244
0.11084682 0.20089446 -0.20899385 0.045012392 0.09956111 0.020995475 -0.029719494 0.08064639
-0.04700819 -0.19824784 -0.029589007 -0.014245839 0.06881322 0.005054036 0.02533852 -0.06921251
0.06483119 0.107937835 -0.06687611 -0.134595 0.006493839 0.07540122 -0.14515123 0.08672814
-0.091181725 0.12691034 -0.008833598 -0.07041401 -0.06394665 -0.03007384 0.042279053 -0.18346512
0.036620025 0.011083682 0.10490436 -0.06955032 0.0129661495 -0.12103058 -0.048689235 -0.009322208
0.12013967 -0.015506368 0.042254873 0.023312133 -0.0071204016 -0.21272805 0.013145073 0.097967334
0.086386405 0.0290776 0.20887065 0.00076405756 0.03574258 -0.106227465 -0.07740274 -0.16709664
-0.007485919 0.06880244 -0.054555066 0.030381486 -0.020695364 0.13165066 0.027929122 0.0730064
0.10493805 0.024349611 -0.07120623 0.09528819 0.08763985 -0.16516152 0.1413504 0.07682988
0.033622958 -0.104230896 0.13648279 -0.16048716 0.07893863 -0.08947792 0.05333161 0.09673966
0.008618217 -0.11811553 -0.05045336 0.034831982 0.03778953 -0.13577752 0.048224337 -0.106148556
-0.069014534 -0.024675135 -0.061408214 -0.07414777 -0.080955125 0.08191518 0.03730326 0.040647563
-0.07887693 -0.0038862976 -0.056765124 -0.040161166 0.052474935 0.14481609 0.08542056 -0.0097846305

action_model._continuous_distribution.log_sigma f4 [1, 51]
00000000: 0000 0000 0000 0000 0000 0000 0000 0000
00000010: 0000 0000 0000 0000 0000 0000 0000 0000
00000020: 0000 0000 0000 0000 0000 0000 0000 0000
00000030: 0000 0000 0000 0000 0000 0000 0000 0000
00000040: 0000 0000 0000 0000 0000 0000 0000 0000
00000050: 0000 0000 0000 0000 0000 0000 0000 0000
00000060: 0000 0000 0000 0000 0000 0000 0000 0000
00000070: 0000 0000 0000 0000 0000 0000 0000 0000
00000080: 0000 0000 0000 0000 0000 0000 0000 0000
00000090: 0000 0000 0000 0000 0000 0000 0000 0000
000000a0: 0000 0000 0000 0000 0000 0000 0000 0000
000000b0: 0000 0000 0000 0000 0000 0000 0000 0000
000000c0: 0000 0000 0000 0000 0000 0000
0.0 0.0 0.0 0.0 0.0 0.0 0.0 0.0
0.0 0.0 0.0 0.0 0.0 0.0 0.0 0.0
0.0 0.0 0.0 0.0 0.0 0.0 0.0 0.0
0.0 0.0 0.0 0.0 0.0 0.0 0.0 0.0
0.0 0.0 0.0 0.0 0.0 0.0 0.0 0.0
0.0 0.0 0.0 0.0 0.0 0.0 0.0 0.0
0.0 0.0 0.0

action_model._continuous_distribution.mu.weight f4 [51, 128]
00000000: f78e 003d 3309 26bc 8f9c a53b 629c e5bc
00000010: 9316 8cbc 892b 003c aa7f febc 0849 62bc
00000020: 7ff9 2abb dd11 44bb 721c da3c 7713 af3c
00000030: efd4 e83c 04db 8fbc f39d b4bc 2341 5f3c
00000040: 1b95 9d3c 7636 873c 8b12 953c c22d 96bb
00000050: e886 b03c 252e 23bc 74d6 c83b e0c1 f8bb
00000060: 8be7 f4bb fbb8 07bd 1b30 44bc 5b97 4f3c
00000070: ab4d cdbc 56dc aebc 9ff9 4d3c c191 a43c
00000080: 98ba f53c d75a 64bc 7746 bd3c 7afd 6fbc
00000090: a734 333b 3333 f0ba cf87 f43b bfae 823c
000000a0: 6a41 b03c edfb 803c c836 583c 98eb ccbb
000000b0: ba36 163c 1501 64bb 4f3c 233d d2b3 b83c
000000c0: 4308 b2bb e78f 61bc f393 c73a f734 16bd
000000d0: f9ea a93c df94 15bc 819f b2bc 47ad ec3b
000000e0: 2b34 2c3c e6e6 a0bc 992c 0dbd 5978 b2bc
000000f0: 29d6 203c a56e c93b 1746 fe3b 2464 acb9
00000100: 4b68 af3c b3e8 bbbc ddde 1e3c f292 b73a
00000110: 023c 4cbb 8cbc 993c 83d0 e2bb 6445 193d
00000120: e5f9 f4bb 25e9 1e3c 9c15 b23c 3c17 88bc
00000130: 48f9 e8bc cddb 4cbd 1afc 1cbc 91d0 8e3c
00000140: 8f68 243c c8ce 3cbb 02e8 07bc 17f2 673b
00000150: 7646 90bb 1844 a9bc 52df 1d3c af43 173c
00000160: 6a3e 6d3d 5b28 ccbc 99dd 3bbc c7b6 a73b
00000170: 491e b03c cbda c7bb e3a1 31bd e3fe 11bc
00000180: a294 46bc dddb 29bb 63c8 e53a 5807 e3bc
00000190: 3fed 66bb 77eb c33b ec96 1cbb 67db c23c
000001a0: ba8d 463c 4c5a 20bd fa28 b83c 0683 14bc
000001b0: c1b7 173c 06db a93b cea2 aebb 6366 53ba
000001c0: 78cf aa3c 73ce 6bbb 1ded b63c 7c18 a83c
000001d0: 1a85 103c 42e6 bd3c ef51 573b 2999 8fba
000001e0: 6359 1bbd fba4 593c a424 b1bb 470e 06bb
000001f0: a9f4 2fba f781 2ebc 8f1a 2c3c 2e60 88bc
00000200: 9175 9a3b 4f1d 9e3c 4403 003d adac 533b
00000210: 5227 f13c c1fb b4bc 154a 02bb 93ce e6bc
00000220: 7d5c 28bd 03aa bfba 3894 7cbc e720 9e3c
00000230: 9eab 3fbc b71b f13a aaa6 70bc 84a6 803b
00000240: 3ee9 99bc a7d1 3bbd e7fa 273c ab9e 133c
00000250: 3f84 19bd aa53 cf3b d71a a0bc bfb2 d63c
00000260: c9de 1cbc d780 343c fc67 94bb 3250 cd3c
00000270: 2749 a0bc a1fc 2a3c 4976 c13b 7193 b6bc
00000280: 97e0 a13b afda 47bb dca8 bbbc 5010 b9ba
00000290: c498 a53b 2081 c03c 9760 d03b ecef 23bd
000002a0: 56f2 29bd e757 29bb cb37 2dbd fd7c 5a3c
000002b0: f5d5 eb3c 6bc1 96bc 3565 213d d57d 223c
000002c0: 6867 423c 3d88 d73c a138 893c 255d 4b3b
000002d0: a835 01bc 3f0a ca3c bba9 8dbc 4024 ea3c
000002e0: 83a8 72bc a192 c73c 2215 4cbc 13dc 033c
000002f0: e8eb 463c 40da beba 575d e3bb 43bf 0abd
00000300: a404 20bc cf25 da3a 4d80 16bc 0bbf 8ebc
00000310: 1bf7 7e3c 1000 56bb 723e f6bc 341d 4bbc
00000320: 0268 34bd 736a 713b 0ad9 8d3a bd84 593b
00000330: 3a2a 8f3c bf47 4c3c 3f03 6a3c c956 19bd
00000340: 7c14 10bc 968a a03c d533 dfb9 1d02 39bc
00000350: 6f96 4b3c 2b8b 27ba d844 c7ba a887 33bc
00000360: 5103 983b 0515 f63b 0590 86bc 221e 31bc
00000370: 740d bbbb 8ef6 09bd 4edf 123c 7376 cfbc
00000380: 4fdc 7a3c cb9c 42bc 726c e03a 42d7 573c
00000390: 3eac c2bb ec98 a43b 46ca 093b 7616 86bc
000003a0: 9246 0abb c7fd 34bc 0b46 d7bb 3a5a 403c
000003b0: 4adc 27bc 7b49 993c 5a1f 7939 ea76 9f3c
000003c0: e85c 7b3a bcf5 173c b23f 6d3c ef50 d83b
000003d0: 1d57 24bc 0717 853a 8f13 69bb f73b 3b3a
000003e0: cb47 a9bc a83d 5c3c 0147 8a3c 87ef 333c
000003f0: 3bfd a1bb e56d f83c 7bea 2fbd 3745 9d3b
0.031386342 -0.010134029 0.0050540636 -0.02802867 -0.017100608 0.00782288 -0.031066734 -0.013811357
-0.0026088653 -0.0029917874 0.026624892 0.021371586 0.028421847 -0.01756049 -0.022047972 0.01362637
0.019236138 0.016505461 0.018197319 -0.0045830915 0.021548703 -0.009959732 0.0061290804 -0.007591471
-0.007473891 -0.033135395 -0.01197436 0.012670363 -0.025061449 -0.021345299 0.012571721 0.020089032
0.029996201 -0.0139376735 0.02310489 -0.014647836 0.0027344616 -0.0018325805 0.0074624787 0.015952466
0.021515567 0.015745128 0.013196655 -0.006253671 0.009168321 -0.0034790684 0.039852437 0.022546683
-0.005433114 -0.013767219 0.0015226587 -0.036671605 0.020741927 -0.009129732 -0.021804573 0.0072228047
0.010510485 -0.019641351 -0.03446636 -0.021785902 0.009816685 0.006147223 0.00775982 -0.00032881007
0.021412035 -0.022938108 0.009696689 0.0014005585 -0.0031163697 0.018766664 -0.006921829 0.03741969
-0.007476079 0.009699141 0.02173882 -0.016612642 -0.028439179 -0.050014306 -0.00958159 0.017433437
0.010034694 -0.0028809775 -0.008295061 0.00353921 -0.004402931 -0.020662352 0.009635763 0.009232446
0.05792085 -0.024921587 -0.011466407 0.0051182243 0.021498816 -0.00609908 -0.043367278 -0.008910867
-0.012120398 -0.0025918402 0.0017531033 -0.027713463 -0.0035236625 0.0059789973 -0.0023893667 0.02378626
0.012118751 -0.039148614 0.022480477 -0.009064442 0.009260119 0.0051835803 -0.0053294664 -0.0008064268
0.020850882 -0.0035981208 0.022329861 0.020519488 0.008820796 0.023181085 0.0032855233 -0.001095568
-0.037927043 0.013283963 -0.005405979 -0.0020455287 -0.00067121774 -0.010651103 0.010504379 -0.016647425
0.004713722 0.019301085 0.031253114 0.0032298968 0.029437695 -0.022092702 -0.0019880582 -0.028174674
-0.04110383 -0.0014622811 -0.0154161975 0.019302798 -0.011698632 0.00183951 -0.014688173 0.0039261
-0.018787976 -0.045854237 0.010252691 0.009009997 -0.037479635 0.006327112 -0.019544048 0.02620828
-0.0095746005 0.011017046 -0.0045289975 0.025062654 -0.019566132 0.010436208 0.0059039933 -0.022287102
0.0049401033 -0.0030495336 -0.022907667 -0.0014119241 0.0050536115 0.023499072 0.0063591707 -0.04002373
-0.041490875 -0.0025839747 -0.042289536 0.013335464 0.028788546 -0.018402776 0.03940316 0.009917696
0.011865474 0.02631008 0.016750636 0.003103086 -0.007886328 0.024663089 -0.017292848 0.028581738
-0.014810684 0.02436191 -0.01245621 0.008048075 0.012141205 -0.0014560893 -0.006938617 -0.033873808
-0.009766731 0.0016643348 -0.009185863 -0.01742508 0.015561844 -0.0032653846 -0.030059073 -0.012397099
-0.044044502 0.003683713 0.0010822129 0.003319069 0.01747619 0.0124682775 0.0142830005 -0.03743628
-0.008793946 0.019597333 -0.00042572492 -0.011292008 0.012426003 -0.0006391282 -0.0015203012 -0.010957636
0.004639067 0.00750983 -0.016426096 -0.010810407 -0.005708391 -0.0336824 0.008964373 -0.025325036
0.015311315 -0.011878203 0.0017122163 0.01317388 -0.005940943 0.0050231125 0.0021025105 -0.016368132
-0.0021099192 -0.011046833 -0.006569629 0.011740262 -0.010245392 0.018711796 0.0002375817 0.019465882
0.0009588734 0.009274896 0.014480518 0.006601445 -0.010030535 0.0010153957 -0.0035564636 0.00071424193
-0.020664116 0.013442434 0.01687956 0.010982401 -0.0049435175 0.03032584 -0.042948227 0.004799511

action_model._continuous_distribution.mu.bias f4 [51]
00000000: 0000 0000 0000 0000 0000 0000 0000 0000
00000010: 0000 0000 0000 0000 0000 0000 0000 0000
00000020: 0000 0000 0000 0000 0000 0000 0000 0000
00000030: 0000 0000 0000 0000 0000 0000 0000 0000
00000040: 0000 0000 0000 0000 0000 0000 0000 0000
00000050: 0000 0000 0000 0000 0000 0000 0000 0000
00000060: 0000 0000 0000 0000 0000 0000 0000 0000
00000070: 0000 0000 0000 0000 0000 0000 0000 0000
00000080: 0000 0000 0000 0000 0000 0000 0000 0000
00000090: 0000 0000 0000 0000 0000 0000 0000 0000
000000a0: 0000 0000 0000 0000 0000 0000 0000 0000
000000b0: 0000 0000 0000 0000 0000 0000 0000 0000
000000c0: 0000 0000 0000 0000 0000 0000
0.0 0.0 0.0 0.0 0.0 0.0 0.0 0.0
0.0 0.0 0.0 0.0 0.0 0.0 0.0 0.0
0.0 0.0 0.0 0.0 0.0 0.0 0.0 0.0
0.0 0.0 0.0 0.0 0.0 0.0 0.0 0.0
0.0 0.0 0.0 0.0 0.0 0.0 0.0 0.0
0.0 0.0 0.0 0.0 0.0 0.0 0.0 0.0
0.0 0.0 0.0

action_model._discrete_distribution.branches.0.weight f4 [1, 128]
00000000: b7b8 0bbc 627d 813b 8b6a 9a3b 0f26 dc3b
00000010: 03b3 7fbb 2794 643c 4eb2 09bc c8cf 9c3b
00000020: 0baa c0bb a281 d63a 713b 26bc 85f7 80bb
00000030: 7a7e 6a3c 6b91 c1bb 8368 0a3c 6285 c03a
00000040: 6ef1 363b d1f6 853b d392 3f3c b822 843b
00000050: bf77 14bc a704 dbbb e543 203b 06af cbbb
00000060: 2b24 453b 1bef 4fba 3f28 bfbb 900d 4ebc
00000070: c363 8f38 963d 113c eae6 123c f51b aabc
00000080: 3a1a 663b 39f2 85bb a0ed 363c c1ea 053c
00000090: a4ba b1ba 692c 373b a319 2abc 8db4 a6bb
000000a0: 5fe7 353b d405 4c3c d9ad 0ebc 0f11 05bc
000000b0: 6335 92bb 0e93 13bc d0b2 e53b 872a c9ba
000000c0: ffcc 623a 6b16 6c3c 0e3d 34bb 8350 883c
000000d0: aac9 b0bc ac7f 403a 0bf4 d8bb 5b79 6e3c
000000e0: 08cf 0dbc 7e9e a93b ef56 ad3b f91e 83bb
000000f0: 27e6 103b 7f8d 16bc e2f9 573b f7b8 df3a
00000100: e5c7 eebb a42f b93b 1d11 6bbc 3f43 38bc
00000110: 126e b6bb 567b 093b 2fa4 033c 2895 fc3b
00000120: ce39 b7ba 9ad7 6e3b 0a42 33ba c7d8 b33c
00000130: adec d53b c50e fabb bc9a 4b3c 4ca8 173b
00000140: 7828 e1ba 4765 ab3b c60a c73a 034e 4dbb
00000150: 8f62 6fbb 58c2 7c3b ec59 853c f5b6 103c
00000160: 6591 073c 4f4b 83bb 5199 12bc 9930 82ba
00000170: 43a5 ee3a 737b 8439 6f24 e1bb 6b87 4ab8
00000180: dba2 4abb f2f9 d43a a723 3fbb 8513 eeba
00000190: faed 63bc 0c50 ad3a 66de b73b 616d c9ba
000001a0: c8cc 123a 8e08 333b 23ec 993b 7b26 ec3a
000001b0: 2d6e 973c dd6d 3d3a 0ef6 89bc 4b28 8d3b
000001c0: e2a4 84bc bead 903b 0f39 0b3c 74b9 9dbc
000001d0: e9e0 1ebc f13c 933b 5d7c 15bc 1fe1 503c
000001e0: fa77 92bb 0b06 dab8 20dc 6b3a 8d78 19bb
000001f0: 72a8 13bc a0c2 31bc abc1 9dbc 17cf 0bbb
-0.008527926 0.0039517144 0.004712408 0.006718404 -0.0039016611 0.013951338 -0.008404328 0.0047855116
-0.0058796457 0.0016365538 -0.010146008 -0.0039357566 0.014312381 -0.0059072278 0.008447769 0.0014688189
0.00279149 0.0040882607 0.01169272 0.004032459 -0.009061753 -0.006683904 0.002445453 -0.006215933
0.0030081372 -0.0007932053 -0.005833655 -0.012576476 6.8373534e-05 0.008864781 0.008966187 -0.020765284
0.0035110847 -0.004087713 0.011165053 0.0081736455 -0.0013559652 0.0027950055 -0.010382089 -0.0050874413
0.0027756316 0.012452561 -0.008708441 -0.008121743 -0.0044619306 -0.009007229 0.0070098415 -0.0015347757
0.00086517626 0.014409642 -0.0027502212 0.016639953 -0.021580536 0.00073432433 -0.006620889 0.014555301
-0.008655317 0.0051763644 0.0052899043 -0.004001495 0.0022109838 -0.009189009 0.0032955338 0.0017068674
-0.007287013 0.005651431 -0.014347342 -0.0112465015 -0.0055673206 0.0020978055 0.00803475 0.0077082105
-0.0013979019 0.0036444427 -0.00068381487 0.021953953 0.006528458 -0.007631155 0.012427028 0.0023141084
-0.0017178198 0.005230579 0.0015185706 -0.0031327016 -0.0036527251 0.0038567986 0.01627823 0.008832683
0.008274411 -0.00400678 -0.008947686 -0.0009932696 0.0018207211 0.0002526898 -0.0068707983 -4.828667e-05
-0.0030919823 0.0016248806 -0.0029165538 -0.0018163776 -0.0139117185 0.0013222708 0.0056112288 -0.001536768
0.0005599973 0.0027318331 0.004697339 0.0018016839 0.018485153 0.0007226149 -0.01684096 0.004307782
-0.016191904 0.004415243 0.008497491 -0.01925347 -0.009697177 0.0044933488 -0.009123889 0.012748986
-0.0044698687 -0.00010396176 0.000899734 -0.00234178 -0.009012328 -0.010849625 -0.019257387 -0.0021333152

onnx::LSTM_116 f4 [1, 512, 128]
00000000: 79b3 05be e304 163e dcf9 933d ceaf d83d
00000010: ffe9 133e 58fa eabd e04f debd 8073 3ebc
00000020: f5f2 bebd 9b83 083e 9c52 863d 74f0 423d
00000030: 0882 02be 80f8 643d 0cf5 833d 8097 cd3a
00000040: ae9c 903d c2e3 fd3d 30e3 51bc b0e1 b7bc
00000050: 6b35 bdbd e05b efbd b061 853d 605d 7a3d
00000060: eaeb f03d 0000 3537 d04c 86bc e16c 083e
00000070: 005a 6dbb 50b2 443d 5444 943d 84da 01be
00000080: 9040 883d 3c0a 02be e039 83bb 0004 3939
00000090: b686 ea3d d561 07be b097 773c b2bd 79bd
000000a0: 1482 c23d 6fb3 00be 88e8 0d3d 4a1b cd3d
000000b0: 0fbf 1a3e ee07 22bd bc0c f3bd 8a7a ee3d
000000c0: aadc 63bd c0a7 173c d7ec 123e 84cd 2c3d
000000d0: d4ac bc3d 0685 b2bd 804b 003c 5864 c13d
000000e0: d023 233c fefc b5bd 36a1 ef3d 7649 b73d
000000f0: 3a8c 16be 8466 05bd c059 303d 37d5 013e
00000100: 8450 07be 30a5 893d 8441 043d 9a14 c0bd
00000110: 6534 16be 74b1 92bd 3861 ea3c e894 963d
00000120: 1cea 663d 3102 92bd f956 a1bd da60 e13d
00000130: 92d6 cd3d c4b4 ccbd d6da 803d bd59 043e
00000140: a042 9fbc 6af0 ee3d 0030 f83a 3c35 1c3d
00000150: e080 7cbc 452c b7bd 47a8 acbd a04d 8b3d
00000160: 69a8 d6bd e4e8 a2bd a283 ce3d d41f 6c3d
00000170: 32ac f73d b109 1a3e a12e 04be 10e6 9d3d
00000180: 24e7 8bbd 34a6 e4bd c0eb aa3d 1343 033e
00000190: a5da 0b3e f6f0 81bd 2057 9d3b c272 8abd
000001a0: a28f b13d b49e 01bd edd8 acbd b6b1 d9bd
000001b0: 7272 dabd 9366 123e a0d2 f7bc 4ab3 21bd
000001c0: f60d ff3d ded3 4cbd a0d9 353d bc28 863d
000001d0: 70d7 413c 9293 09bd 40e3 d1bc 4268 b03d
000001e0: b8e3 51bd c029 0fbe 583b d23c 19f4 133e
000001f0: 582c 33bd 1c3c 2b3d 003d 3dbb 3cdd 713d
00000200: 6239 e6bd e1eb 0c3e 005f 0f3a ba15 a73d
00000210: 04db 06bd 02d7 8fbd c0fa 70bb 4600 903d
00000220: 226b 05be a6fd e03d 00e2 24bb 6846 cd3c
00000230: ee13 8a3d abb6 8dbd 504e 8c3d 1c43 a33d
00000240: a08f 52bd 0078 423d cde6 f9bd f00d 053c
00000250: dc01 0f3d d0f4 f03c 6d99 a4bd 5638 03be
00000260: 3a7d 19bd f027 ef3c 6e1d 8d3d 2099 bb3d
00000270: 1482 9d3d c289 95bd dc90 8c3d f6ce ab3d
00000280: e0f7 b03c 8004 103c e617 1bbe 0432 603d
00000290: e0c2 0b3c 489e fabd d04d 2c3c cde2 143e
000002a0: cd22 a8bd 14d5 843d 23bf 1b3e c093 38bc
000002b0: 38cd 10bd f9fe b5bd a010 9ebb e1af cabd
000002c0: 60c5 1a3d 0048 fb3a 1036 07bd 3c01 c43d
000002d0: f082 9bbc 56ac 8c3d 5ed5 b1bd 001c 5039
000002e0: 9082 aa3d 77b5 dfbd 95d4 adbd 78f0 46bd
000002f0: 3164 0f3e cf21 173e 7e37 e43d b606 cc3d
00000300: eefd ef3d 58b7 e43c 4aa9 6dbd 6302 12be
00000310: f629 823d 52b7 c0bd 20e3 a33c 2372 8abd
00000320: 78af 5f3d 1417 c03d 4684 c73d 307f 87bc
00000330: a818 bcbc 7cca 96bd 963f ef3d 98a9 6f3d
00000340: ea3b d93d 802f 523c 5cc2 413d a844 5b3d
00000350: 9585 153e c07c 9fbb 48df 01be 6eb9 53bd
00000360: d8ac e33c 2071 473d dc58 ba3d 1101 11be
00000370: b995 193e 20ef a9bb e2b7 3cbd 1015 203c
00000380: 731c 11be d8f1 82bc 8c8f cabd 8861 b83c
00000390: 80d1 a7bb 9b66 103e 4953 b4bd 51e2 bbbd
000003a0: 2ff7 0b3e 40aa 79bc 5805 dbbc 0160 b5bd
000003b0: 90f1 123c 0ae1 36bd 5aae ecbd 8abb 933d
000003c0: bc8f 633d 88aa f83c 2052 4e3c ac58 00be
000003d0: 34a4 473d d0ef cc3c c733 cbbd 7b0b 023e
000003e0: a9d3 173e 76ab 19be f628 28bd 40ea d0bd
000003f0: 264f fc3d 28a3 b13c f815 1abd da71 cf3d
-0.13056745 0.14650302 0.07225391 0.10580407 0.14444731 -0.114735305 -0.10855079 -0.011624217
-0.09323684 0.13331454 0.06558725 0.047592595 -0.12744915 0.05590105 0.06443223 0.0015685409
0.07061134 0.12396957 -0.012810513 -0.022446483 -0.09238704 -0.11687446 0.06512773 0.061124206
0.11763747 1.0788441e-05 -0.016394049 0.13322784 -0.0036216974 0.048021615 0.07239595 -0.12681013
0.06652939 -0.12699217 -0.004004702 0.00017644465 0.11451475 -0.13220914 0.015111849 -0.060971923
0.09497467 -0.12568448 0.034645587 0.100149706 0.15111946 -0.039558344 -0.11867663 0.11644466
-0.055630364 0.009256303 0.1434816 0.042188182 0.09212652 -0.087167785 0.007830501 0.09442967
0.009957269 -0.08886145 0.117006704 0.089495584 -0.1470193 -0.03256847 0.043054342 0.12678991
-0.13214308 0.0672096 0.032289043 -0.093789294 -0.14668424 -0.07162753 0.02861081 0.0735262
0.056375608 -0.07129324 -0.07877917 0.11004801 0.10050692 -0.09995416 0.0629174 0.12924857
-0.019440949 0.11666949 0.0018935204 0.038136706 -0.015411586 -0.089439906 -0.08430534 0.06801915
-0.104813404 -0.079545766 0.10083701 0.05764754 0.120933905 0.1504276 -0.12908413 0.077098966
-0.06831196 -0.11164513 0.08345747 0.12818556 0.13657625 -0.06344788 0.004801646 -0.067601696
0.08669974 -0.03164549 -0.08439813 -0.10629599 -0.1066636 0.14296941 -0.030251801 -0.039477624
0.12453835 -0.05000674 0.044396996 0.06550738 0.011831149 -0.033588 -0.025621057 0.086136356
-0.05124256 -0.1398077 0.025663063 0.14448585 -0.04374346 0.04180537 -0.002887547 0.059048876
-0.11241414 0.13761856 0.0005469173 0.08158441 -0.032923713 -0.07023431 -0.0036770552 0.07031302
-0.13029149 0.109858796 -0.002515912 0.025057986 0.067420825 -0.06919607 0.068508744 0.079717845
-0.051406503 0.047477722 -0.12202225 0.008120999 0.034913883 0.02941361 -0.08037076 -0.12814459
-0.03747294 0.029193848 0.06890379 0.09160066 0.07690826 -0.07301666 0.06863567 0.08389084
0.021602571 0.008790135 -0.15145835 0.0547352 0.008530349 -0.12237221 0.010516599 0.14539643
-0.08209763 0.06485954 0.15209632 -0.011265695 -0.03535196 -0.08886523 -0.004823759 -0.098968275
0.037785888 0.0019171238 -0.033010542 0.09570548 -0.018983334 0.06868808 -0.08683275 0.00019846857
0.08325684 -0.109232835 -0.084878124 -0.048569173 0.14003064 0.1475899 0.11143397 0.099622175
0.11718355 0.027919456 -0.058022775 -0.14258723 0.0635566 -0.094099656 0.020005763 -0.06760051
0.0546107 0.09379402 0.09742026 -0.01654014 -0.022960976 -0.073628396 0.1168205 0.058511347
0.10607131 0.012828708 0.047304496 0.053532273 0.14601739 -0.0048671663 -0.12682831 -0.05169051
0.02779238 0.04869187 0.0909898 -0.14160563 0.14998521 -0.0051859766 -0.0460738 0.009770647
-0.14171009 -0.01598446 -0.09890661 0.022507444 -0.00512141 0.14101641 -0.08804948 -0.09174026
0.13668512 -0.015238345 -0.026735947 -0.08856202 0.008968726 -0.044648208 -0.115566924 0.072135046
0.055556998 0.030354753 0.012592822 -0.12533826 0.04874058 0.025016695 -0.09921985 0.12699692
0.14826836 -0.15006813 -0.04105469 -0.1020093 0.12319784 0.021684244 -0.037618607 0.10129137

onnx::LSTM_117 f4 [1, 512, 128]
00000000: 0c0d 1cbe 98a8 70bd 00ca 653c 8423 42bd
00000010: 1156 103e 3a2d d33d 85fd 08be 565a cd3d
00000020: 829f 37bd 7a2d d0bd f095 6bbc 821d eebd
00000030: 9620 a2bd c0fd 46bb da9f eabd 9566 10be
00000040: 0041 e3bd 44d3 3c3d c61d a2bd 5512 dabd
00000050: 22fd 4bbd 06b1 d13d 545b 58bd a869 4c3d
00000060: 66a6 bb3d 8049 2b3b c08e 6fbd 2419 703d
00000070: 4abc 0bbe add4 07be 142d 04be aa80 f7bd
00000080: a436 65bd de16 48bd 0095 fb3b ac49 eabc
00000090: e0e9 413c 4abe db3d 949d 053d c6f5 82bd
000000a0: a578 073e be9e b93d 4e45 c8bd e16a aebd
000000b0: d069 6f3d 90c5 77bc d5f4 05be 0b5e 053e
000000c0: bea6 d1bd 408f 6a3d 7c6f 77bd cae7 b93d
000000d0: 91e7 b8bd 5566 a6bd 6421 043d 22df d63d
000000e0: b07c afbc 53de 023e a5fe 95bd 4fc8 17be
000000f0: 60cb 46bc 308c 583c be37 dd3d 36fb 863d
00000100: 8afc 9a3d 50b8 f5bc 6e56 69bd 3eba 08be
00000110: 9413 673d 60f2 6fbc 934a 123e 8834 cdbd
00000120: f0ef 883d 10ee 523d 5630 e63d 397e 0f3e
00000130: 5cb1 fabd 4069 f3bd 88f8 18be d405 15be
00000140: 6abe e8bd 87dc 103e f015 edbd 1a44 bd3d
00000150: 5c71 10be aa8c a43d 62f6 b13d d199 b6bd
00000160: b8a8 09be fb23 b8bd 4417 17bd cc7f dcbd
00000170: 3878 e23c 16a1 e6bd 60e7 c73b 8825 133d
00000180: 9837 cebd 30a1 9d3c d33d 16be b0fd c53c
00000190: e6be bebd 60d7 ac3d db2d 07be 5875 8bbc
000001a0: 8041 06bb 40cd 86bc 1c65 4f3d fae4 58bd
000001b0: 19fb 12be 78f1 803d c0b7 3e3d a661 d73d
000001c0: 7fee a4bd 9643 a0bd ebda 0d3e 2064 1ebd
000001d0: 826d c0bd 0db9 0c3e 30fa 21bd 69f6 8abd
000001e0: 84f5 79bd a291 5bbd c043 aabc 3283 b63d
000001f0: 64a4 d1bd b880 a23d eadd 56bd a48e 4b3d
00000200: b89b 9a3d d37d acbd cc5d c5bd 42fd 8b3d
00000210: 5c2e c8bd a224 bfbd 70f1 713d 8cfa 24bd
00000220: d00d 533d a06e dbbc 1a63 e93d bdb7 02be
00000230: 0841 ffbd 00ec dd39 c0a0 2f3c 2aec c83d
00000240: 000a fdbb a801 883c 5763 b3bd 90ae 353d
00000250: e070 d63b 1543 0bbe 7a08 f43d 6167 b2bd
00000260: acc5 f7bd c022 a9bb 560a 8f3d c0a0 163b
00000270: 66b3 b1bd 8a3d f13d c719 1cbe a07f 4d3c
00000280: f8bb f23c 0514 fabd d0a0 e1bc 7b2f fbbd
00000290: e51c 003e 69c1 00be b4d1 943d 6f38 abbd
000002a0: 28f6 3e3d 2c2b 543d 4813 abbd 5fea 11be
000002b0: 839f 0c3e bea9 d03d 26e7 00be f995 bfbd
000002c0: 6e3c f63d b900 173e e259 f1bd 34a2 8b3d
000002d0: 30dc 6ebd d6f9 ce3d 47f7 b5bd 9806 953d
000002e0: 09e5 a4bd 2852 cabc 2266 91bd 6d6f fabd
000002f0: 4a30 4ebd d172 043e fc66 17bd da90 d13d
00000300: 5d00 14be 1711 91bd 8b91 193e a463 c03d
00000310: 74fb b73d 0976 0abe 2808 a5bc 4858 173d
00000320: e029 1c3c 7cfc a23d 70c7 bc3d 4fb0 9cbd
00000330: 8068 cebd 0c5c 973d fe5d c73d 269a 59bd
00000340: ec91 423d 80ae a93b da3a 0cbe 7ae5 3bbd
00000350: 9632 45bd 3aec a03d 700e 4c3d 31dc 85bd
00000360: d05a 43bd 032a 003e 5819 5c3d d3a4 1b3e
00000370: 8066 893b e8a7 353d 8b47 c7bd fcf2 423d
00000380: a953 10be ea2d d83d 90e9 2bbd 7081 333d
00000390: 8077 613b 6ff4 96bd 8284 bf3d d161 15be
000003a0: 376b 0ebe 6f88 f1bd 94fb 0d3d eac8 ef3d
000003b0: 40d3 e4bb e210 b53d 30e9 c5bd e653 f33d
000003c0: dc3c e8bd bded 0d3e 70a8 943c b0df 523d
000003d0: 10a1 973d 3ad0 fe3d 10f4 933d c713 003e
000003e0: 2879 d3bc 591e d5bd 80e3 6e3c 0059 e03b
000003f0: fa03 a53d 6565 06be ce35 15bd 2661 5ebd
-0.15239352 -0.058754534 0.014025211 -0.04739715 0.14095332 0.10311361 -0.1337796 0.10026996
-0.044829853 -0.10164924 -0.01437901 -0.11626722 -0.079163715 -0.003036365 -0.114562705 -0.14101632
-0.11096382 0.046099916 -0.07915835 -0.10648028 -0.049801953 0.10238843 -0.052821472 0.04990545
0.09162597 0.0026136339 -0.058485746 0.058617726 -0.13646045 -0.13264723 -0.12907821 -0.120850876
-0.055960312 -0.048849933 0.0076776743 -0.028599583 0.011835545 0.10729654 0.03262098 -0.06394534
0.13229616 0.09063481 -0.09778844 -0.08516479 0.05845052 -0.015122786 -0.13081677 0.13024156
-0.10236882 0.05726552 -0.060409054 0.090774134 -0.09028543 -0.08124987 0.032258406 0.10491778
-0.02142176 0.12780122 -0.0732396 -0.14822505 -0.012133449 0.013217017 0.108016476 0.065908834
0.07567699 -0.029995114 -0.05696719 -0.13352296 0.056415156 -0.014645189 0.1428626 -0.10019785
0.066863894 0.051496565 0.11239688 0.14012994 -0.1224086 -0.11885309 -0.14938557 -0.14553005
-0.113644436 0.14146625 -0.1157645 0.09241505 -0.14105743 0.08034642 0.08689572 -0.08916057
-0.13443267 -0.08991238 -0.036887422 -0.10766563 0.027645215 -0.112611935 0.00610058 0.035924464
-0.100691974 0.0192419 -0.14672022 0.02416882 -0.09313755 0.08439517 -0.13201086 -0.017023727
-0.0020485818 -0.016455293 0.050633535 -0.052952744 -0.14353599 0.062960565 0.046561956 0.10516672
-0.08053302 -0.07825391 0.13853042 -0.038669705 -0.09395887 0.13742466 -0.039545238 -0.0678528
-0.061025158 -0.053605683 -0.020784259 0.08911742 -0.10236433 0.079347074 -0.052457727 0.04969658
0.07549232 -0.084224366 -0.09637031 0.068354145 -0.09774467 -0.09333159 0.059068143 -0.040278003
0.051526845 -0.026786149 0.11395855 -0.12765403 -0.124635756 0.00042328238 0.010719478 0.0981067
-0.0077221394 0.016602352 -0.08759182 0.04435593 0.0065442175 -0.13599809 0.11915679 -0.08711124
-0.1209825 -0.005161613 0.06984393 0.0022983998 -0.08676796 0.11779316 -0.15244208 0.012542635
0.029630646 -0.1221085 -0.027542502 -0.122649156 0.12511022 -0.1257378 0.0726656 -0.08360373
0.04662147 0.051798984 -0.08353287 -0.14249562 0.13732724 0.10188626 -0.12588176 -0.09354777
0.12023245 0.1474637 -0.11784722 0.06818047 -0.058315456 0.10106246 -0.08885055 0.07276648
-0.080514975 -0.024697378 -0.070995584 -0.12228284 -0.05033902 0.12934424 -0.036963448 0.10232706
-0.14453264 -0.07083338 0.14996926 0.09394005 0.08983508 -0.1352159 -0.02014549 0.036949426
0.009531468 0.07958314 0.09217727 -0.07650816 -0.100785255 0.073906034 0.097347245 -0.053125523
0.047502443 0.0051782727 -0.13694325 -0.045873143 -0.048143946 0.07857557 0.049818456 -0.06536139
-0.047694027 0.12516026 0.053735107 0.15199594 0.004193127 0.04434958 -0.097304426 0.04759501
-0.14094414 0.105556324 -0.04197079 0.043824613 0.0034403503 -0.07370841 0.09351446 -0.14588095
-0.13908087 -0.11793601 0.03466375 0.11708243 -0.006983191 0.08841111 -0.096636176 0.11881237
-0.11339733 0.13860221 0.018146724 0.051482856 0.07403767 0.1244206 0.072242856 0.12507544
-0.025814608 -0.10406179 0.014580607 0.006846547 0.08057399 -0.13124616 -0.036428265 -0.054291867

onnx::LSTM_118 f4 [1, 1024]
00000000: 0000 0000 0000 0000 0000 0000 0000 0000
00000010: 0000 0000 0000 0000 0000 0000 0000 0000
00000020: 0000 0000 0000 0000 0000 0000 0000 0000
00000030: 0000 0000 0000 0000 0000 0000 0000 0000
00000040: 0000 0000 0000 0000 0000 0000 0000 0000
00000050: 0000 0000 0000 0000 0000 0000 0000 0000
00000060: 0000 0000 0000 0000 0000 0000 0000 0000
00000070: 0000 0000 0000 0000 0000 0000 0000 0000
00000080: 0000 0000 0000 0000 0000 0000 0000 0000
00000090: 0000 0000 0000 0000 0000 0000 0000 0000
000000a0: 0000 0000 0000 0000 0000 0000 0000 0000
000000b0: 0000 0000 0000 0000 0000 0000 0000 0000
000000c0: 0000 0000 0000 0000 0000 0000 0000 0000
000000d0: 0000 0000 0000 0000 0000 0000 0000 0000
000000e0: 0000 0000 0000 0000 0000 0000 0000 0000
000000f0: 0000 0000 0000 0000 0000 0000 0000 0000
00000100: 0000 0000 0000 0000 0000 0000 0000 0000
00000110: 0000 0000 0000 0000 0000 0000 0000 0000
00000120: 0000 0000 0000 0000 0000 0000 0000 0000
00000130: 0000 0000 0000 0000 0000 0000 0000 0000
00000140: 0000 0000 0000 0000 0000 0000 0000 0000
00000150: 0000 0000 0000 0000 0000 0000 0000 0000
00000160: 0000 0000 0000 0000 0000 0000 0000 0000
00000170: 0000 0000 0000 0000 0000 0000 0000 0000
00000180: 0000 0000 0000 0000 0000 0000 0000 0000
00000190: 0000 0000 0000 0000 0000 0000 0000 0000
000001a0: 0000 0000 0000 0000 0000 0000 0000 0000
000001b0: 0000 0000 0000 0000 0000 0000 0000 0000
000001c0: 0000 0000 0000 0000 0000 0000 0000 0000
000001d0: 0000 0000 0000 0000 0000 0000 0000 0000
000001e0: 0000 0000 0000 0000 0000 0000 0000 0000
000001f0: 0000 0000 0000 0000 0000 0000 0000 0000
00000200: 0000 0000 0000 0000 0000 0000 0000 0000
00000210: 0000 0000 0000 0000 0000 0000 0000 0000
00000220: 0000 0000 0000 0000 0000 0000 0000 0000
00000230: 0000 0000 0000 0000 0000 0000 0000 0000
00000240: 0000 0000 0000 0000 0000 0000 0000 0000
00000250: 0000 0000 0000 0000 0000 0000 0000 0000
00000260: 0000 0000 0000 0000 0000 0000 0000 0000
00000270: 0000 0000 0000 0000 0000 0000 0000 0000
00000280: 0000 0000 0000 0000 0000 0000 0000 0000
00000290: 0000 0000 0000 0000 0000 0000 0000 0000
000002a0: 0000 0000 0000 0000 0000 0000 0000 0000
000002b0: 0000 0000 0000 0000 0000 0000 0000 0000
000002c0: 0000 0000 0000 0000 0000 0000 0000 0000
000002d0: 0000 0000 0000 0000 0000 0000 0000 0000
000002e0: 0000 0000 0000 0000 0000 0000 0000 0000
000002f0: 0000 0000 0000 0000 0000 0000 0000 0000
00000300: 0000 0000 0000 0000 0000 0000 0000 0000
00000310: 0000 0000 0000 0000 0000 0000 0000 0000
00000320: 0000 0000 0000 0000 0000 0000 0000 0000
00000330: 0000 0000 0000 0000 0000 0000 0000 0000
00000340: 0000 0000 0000 0000 0000 0000 0000 0000
00000350: 0000 0000 0000 0000 0000 0000 0000 0000
00000360: 0000 0000 0000 0000 0000 0000 0000 0000
00000370: 0000 0000 0000 0000 0000 0000 0000 0000
00000380: 0000 0000 0000 0000 0000 0000 0000 0000
00000390: 0000 0000 0000 0000 0000 0000 0000 0000
000003a0: 0000 0000 0000 0000 0000 0000 0000 0000
000003b0: 0000 0000 0000 0000 0000 0000 0000 0000
000003c0: 0000 0000 0000 0000 0000 0000 0000 0000
000003d0: 0000 0000 0000 0000 0000 0000 0000 0000
000003e0: 0000 0000 0000 0000 0000 0000 0000 0000
000003f0: 0000 0000 0000 0000 0000 0000 0000 0000
0.0 0.0 0.0 0.0 0.0 0.0 0.0 0.0
0.0 0.0 0.0 0.0 0.0 0.0 0.0 0.0
0.0 0.0 0.0 0.0 0.0 0.0 0.0 0.0
0.0 0.0 0.0 0.0 0.0 0.0 0.0 0.0
0.0 0.0 0.0 0.0 0.0 0.0 0.0 0.0
0.0 0.0 0.0 0.0 0.0 0.0 0.0 0.0
0.0 0.0 0.0 0.0 0.0 0.0 0.0 0.0
0.0 0.0 0.0 0.0 0.0 0.0 0.0 0.0
0.0 0.0 0.0 0.0 0.0 0.0 0.0 0.0
0.0 0.0 0.0 0.0 0.0 0.0 0.0 0.0
0.0 0.0 0.0 0.0 0.0 0.0 0.0 0.0
0.0 0.0 0.0 0.0 0.0 0.0 0.0 0.0
0.0 0.0 0.0 0.0 0.0 0.0 0.0 0.0
0.0 0.0 0.0 0.0 0.0 0.0 0.0 0.0
0.0 0.0 0.0 0.0 0.0 0.0 0.0 0.0
0.0 0.0 0.0 0.0 0.0 0.0 0.0 0.0
0.0 0.0 0.0 0.0 0.0 0.0 0.0 0.0
0.0 0.0 0.0 0.0 0.0 0.0 0.0 0.0
0.0 0.0 0.0 0.0 0.0 0.0 0.0 0.0
0.0 0.0 0.0 0.0 0.0 0.0 0.0 0.0
0.0 0.0 0.0 0.0 0.0 0.0 0.0 0.0
0.0 0.0 0.0 0.0 0.0 0.0 0.0 0.0
0.0 0.0 0.0 0.0 0.0 0.0 0.0 0.0
0.0 0.0 0.0 0.0 0.0 0.0 0.0 0.0
0.0 0.0 0.0 0.0 0.0 0.0 0.0 0.0
0.0 0.0 0.0 0.0 0.0 0.0 0.0 0.0
0.0 0.0 0.0 0.0 0.0 0.0 0.0 0.0
0.0 0.0 0.0 0.0 0.0 0.0 0.0 0.0
0.0 0.0 0.0 0.0 0.0 0.0 0.0 0.0
0.0 0.0 0.0 0.0 0.0 0.0 0.0 0.0
0.0 0.0 0.0 0.0 0.0 0.0 0.0 0.0
0.0 0.0 0.0 0.0 0.0 0.0 0.0 0.0
