results/try-23/My Behavior.onnx (onnx, 693209 bytes, 10 tensors)

network_body._body_endoder.seq_layers.0.weight f4 [128, 122]
000000 67 59 5f 3e 88 39 a8 3d 04 1f 81 be a2 60 9b bd
       0.21811448 0.08214098 -0.25218976 -0.075867906
000010 14 c0 27 be 2f ba a2 3d 9c d5 60 bd 59 7a 34 3d
       -0.16381866 0.07945668 -0.054891214 0.044061992
000020 29 5a d0 bd f3 6c b0 3d fa 20 b9 bd 9f f9 e2 bd
       -0.10173447 0.086145304 -0.09039493 -0.11082768
000030 08 a8 05 3d 68 ad 16 3e f1 1c 21 be 1a 1d 03 3d
       0.03263095 0.14714587 -0.15733697 0.032010175
000040 c8 ab 74 3c 41 e5 97 bd ee da 99 bd a3 6d 86 b9
       0.014933534 -0.074167736 -0.07512461 -0.00025640157
000050 e3 7f 4f bd e5 01 8e 3d 9c 5a 27 bd 01 36 0f bc
       -0.05065907 0.06933955 -0.040857896 -0.008740903
000060 da e1 8b bd d9 1b be bc 09 aa 2c 3d d3 22 02 3e
       -0.06830187 -0.023206638 0.042154346 0.12708597
000070 c4 02 11 3b d7 ba d4 bd 3c bb fe 3d 09 5c 0c bc
       0.0022126893 -0.10387199 0.12438056 -0.008566865
000080 48 7a 9d 3c 81 36 5b 3d 88 a4 d7 bb 01 ce 93 3d
       0.019223347 0.053518776 -0.006580893 0.072170265
000090 24 9f 71 3d 12 b7 48 3d 4c 4f b7 bd 54 04 91 ba
       0.05898966 0.049002714 -0.089506716 -0.0011063912
0000a0 46 8d 5b bd 0f 7f e8 3b 73 1b 92 bd b8 41 0a 3e
       -0.053601526 0.0070952247 -0.07134142 0.13501632
0000b0 ef ac 5e 3d b9 ac 96 3d 50 43 11 3e 56 09 1e be
       0.05436414 0.07357163 0.14185834 -0.15433249
0000c0 d3 00 df 3c 9b 62 1c bd ea 93 38 be 46 17 0f 3e
       0.027222073 -0.038179975 -0.18025175 0.13973722
0000d0 06 2f b5 bd 0a 1b 80 bd 40 38 01 3e 57 33 33 be
       -0.0884686 -0.06255157 0.12619114 -0.17500053
0000e0 b8 74 62 3d 4a c2 e6 3c 13 49 89 3c 2a ac 1c 3e
       0.055287093 0.028168816 0.016758477 0.1530005
0000f0 f4 fd 23 be 93 3e b4 3c d0 3b c9 bb a3 e1 bb 3d
       -0.16014844 0.022002494 -0.0061411634 0.09173896
000100 09 20 13 be 0b 91 73 3d ae a7 89 bd f5 27 a2 bd
       -0.14367689 0.059464496 -0.067214355 -0.079177774
000110 55 83 45 bd ee 2f a6 bc 63 99 1e bc 26 03 e2 3c
       -0.04822095 -0.020286527 -0.009680125 0.027589392
000120 8f 65 a5 3d ff 4d d7 bd 51 1e a4 3d d1 50 9e bd
       0.080760114 -0.105129234 0.08013595 -0.07730258
000130 ba 1e 34 bd bf 10 2f bd 75 4e 87 3d 1a d8 79 3a
       -0.043974616 -0.04274058 0.06606761 0.0009530798
000140 8e 42 80 3d cf 52 10 be 0f 51 db bd 7d b1 34 bd
       0.06262694 -0.14094089 -0.1070882 -0.04411458
000150 71 3a ba bd bc 4e 81 3d 9b f8 b2 3c a4 67 42 bd
       -0.09093178 0.063138455 0.02184706 -0.04746212
000160 74 e7 10 3d ca ca 23 be 60 24 ce bd ba 1f 65 be
       0.03537698 -0.15995327 -0.10065532 -0.22375384
000170 3e 7b 7d 3c 8f 97 de bd 8a 19 8b bc cb 5f 6f bd
       0.015471278 -0.10868751 -0.016979951 -0.058440965
000180 70 74 95 bd 5c 8e 21 3d 20 b4 6d 3d 2c c6 4c be
       -0.07297599 0.039442405 0.05803311 -0.19997472
000190 29 14 28 3c 48 d8 00 3d da 2a f8 bd 7b 0c cb 3c
       0.010258713 0.031456262 -0.12117548 0.024786225
0001a0 d8 7d b4 3d 78 17 95 bc 32 8f 23 be 99 a5 e8 3d
       0.08813065 -0.018199667 -0.15972593 0.1135971
0001b0 28 cc 6e 3d 60 28 f7 3d 27 8e da bd 8f e7 d8 3b
       0.058300167 0.12068248 -0.10671645 0.006619401
0001c0 c8 31 c2 bd e4 c8 0f 3e 5c 12 08 3e 0d 97 2b 3e
       -0.09482151 0.14041477 0.13288254 0.1675684
0001d0 73 05 9f 3d e3 45 b7 bd 9e cc db 3c 6a b1 e2 3d
       0.07764711 -0.08948877 0.026830968 0.11068995
0001e0 51 6d b5 bd 0e 3c 2c 3d 8c c8 ca 3d 6f 12 8e 3d
       -0.08858741 0.04204946 0.099015325 0.0693711
0001f0 79 6d 9f 3d b3 a6 50 bd bb 62 8b bd 4a cb 67 bd
       0.07784552 -0.050940227 -0.06805941 -0.056590356
000200 02 06 e5 bd c1 e1 49 3d 2c a8 a7 bc d4 d3 dd 3b
       -0.111827865 0.04928756 -0.020465933 0.0067696366
000210 7f 25 d8 bb 32 00 23 be 88 f6 16 3e 6d e8 b5 bd
       -0.0065962668 -0.15918043 0.14742482 -0.08882222
000220 5a 54 f9 3d e5 84 74 bd cb bf 19 3d e0 4c a7 3c
       0.12174292 -0.05969705 0.037536424 0.020422399
000230 31 6c a2 3d 6c b9 04 bd 1d aa 80 3d b4 3b b0 bc
       0.07930792 -0.032403395 0.062824465 -0.021512844
000240 3f 14 08 bd 0d ce bc 3d e2 88 02 bd d3 c0 4c 3d
       -0.033222433 0.092189886 -0.031868823 0.04998858
000250 07 cd d5 3c 52 5c a4 3c 93 4a d7 3d e1 27 4e 3d
       0.026098741 0.020063553 0.10512271 0.050331
000260 00 78 6b bd 69 a6 d6 bd bc e5 92 bd 8f db 7e 3d
       -0.057487488 -0.10480959 -0.071727246 0.062221106
000270 cf e8 e0 bc 7a f6 0e bd 94 37 a2 3d 98 71 05 3d
       -0.027454762 -0.034903027 0.07920757 0.032579035
000280 54 ce 52 bc e0 7a 87 3c 2c 84 24 3e 35 80 5e bd
       -0.012866575 0.016538084 0.16066045 -0.054321487
000290 d5 3b 85 3c 92 65 c2 3d b8 46 94 3b 8d 59 86 bd
       0.016263882 0.09492029 0.004525032 -0.06560049
0002a0 73 ef 64 3d c5 8f 92 3c 2c 7c 3f bd 9e 3b 24 3e
       0.05589242 0.01789082 -0.04674928 0.16038367
0002b0 6f 11 05 3d 84 a2 2b bc 6c e8 c2 bd 5a a7 23 3e
       0.03248733 -0.010475758 -0.09516987 0.15981808
0002c0 b9 7f dc 3a 67 2e 05 be d8 c2 bd bd 28 dc e3 bd
       0.0016822732 -0.13005982 -0.09265679 -0.11125976
0002d0 f6 e4 b7 3c ae 04 05 3d d0 2a 56 3e cf a2 98 bd
       0.022448044 0.032475166 0.20914769 -0.07452928
0002e0 8b 35 08 bd f2 8f 2d 3d 21 b2 13 3d 37 32 5e 3d
       -0.033254188 0.042373605 0.03605855 0.054247107
0002f0 44 da 11 3d 11 a5 c4 bd 48 e3 6c 3d 2e 47 79 3d
       0.035608545 -0.096017964 0.05783394 0.060858898
000300 4c d2 ed bd 74 be 98 3c 39 13 06 3e 7d e9 8a 3c
       -0.116123766 0.018645503 0.1309327 0.016957039
000310 c0 54 2e 3d 0e 06 e0 bc d3 53 54 3d ea 65 b1 3d
       0.042561293 -0.027346637 0.051837754 0.08662017
000320 0a a2 a1 3d d6 e6 18 3d 86 be aa 3c 80 2e ea 3c
       0.078922346 0.037329517 0.020842802 0.028586626
000330 32 6a 5c bd b9 57 90 bc bd f5 05 bd dc 08 de bb
       -0.053812213 -0.017619954 -0.032705057 -0.0067759585
000340 f6 df 3a 3c f8 ed 87 3c f4 d5 e7 bc 8f a4 cc 3d
       0.0114059355 0.016592965 -0.028300263 0.099923246
000350 37 0a 65 3d fe 58 33 3e 26 65 95 3c 78 9d 59 bc
       0.055917945 0.17514417 0.018236708 -0.013282172
000360 b6 bc d8 3a 9d a5 e5 3c 4c 22 1c 3b 7e c1 d5 3d
       0.0016535732 0.028033072 0.0023824153 0.10437296
000370 2d 71 3d bd 3f 58 2d be 7c 9f 43 3b 85 67 32 3e
       -0.04625051 -0.16928194 0.0029849699 0.17422302
000380 f5 89 e9 bd bf 34 b5 bc bd 55 83 bd 0d c1 80 3d
       -0.11403266 -0.022119878 -0.06412838 0.062868215
000390 3b 63 dd 3a cf f6 a2 bd 71 e0 de bd ed c0 09 bc
       0.0016890535 -0.07957231 -0.108826526 -0.0084078135
0003a0 a5 d6 40 3d a7 94 a4 bc 32 4f e6 bd 8b d2 36 be
       0.0470797 -0.020090414 -0.11245574 -0.17853753
0003b0 74 a0 3f be 34 82 80 bd 52 9f da 3b ff bb 4c 3d
       -0.18713552 -0.06274834 0.0066718245 0.049983975
0003c0 c0 08 a5 bc 12 68 b2 bd 03 c6 c6 bd 85 ea cf bd
       -0.020145774 -0.08711256 -0.097057365 -0.10152153
0003d0 31 b0 0a 3d 0c 08 ce 3d 43 1d 13 3e 54 af 32 3d
       0.033859435 0.100601286 0.14366631 0.043624237
0003e0 30 e4 b0 3d 0b 98 cb 3d f6 38 58 3d a0 1a 18 3c
       0.08637273 0.09941109 0.052788697 0.009283692
0003f0 2f cb da bc b6 7a 7b 3d e7 e8 42 bd 4f ff 06 bd
       -0.026708214 0.061396323 -0.047585394 -0.032958325

network_body._body_endoder.seq_layers.0.bias f4 [128]
000000 00 00 00 00 00 00 00 00 00 00 00 00 00 00 00 00
       0.0 0.0 0.0 0.0
000010 00 00 00 00 00 00 00 00 00 00 00 00 00 00 00 00
       0.0 0.0 0.0 0.0
000020 00 00 00 00 00 00 00 00 00 00 00 00 00 00 00 00
       0.0 0.0 0.0 0.0
000030 00 00 00 00 00 00 00 00 00 00 00 00 00 00 00 00
       0.0 0.0 0.0 0.0
000040 00 00 00 00 00 00 00 00 00 00 00 00 00 00 00 00
       0.0 0.0 0.0 0.0
000050 00 00 00 00 00 00 00 00 00 00 00 00 00 00 00 00
       0.0 0.0 0.0 0.0
000060 00 00 00 00 00 00 00 00 00 00 00 00 00 00 00 00
       0.0 0.0 0.0 0.0
000070 00 00 00 00 00 00 00 00 00 00 00 00 00 00 00 00
       0.0 0.0 0.0 0.0
000080 00 00 00 00 00 00 00 00 00 00 00 00 00 00 00 00
       0.0 0.0 0.0 0.0
000090 00 00 00 00 00 00 00 00 00 00 00 00 00 00 00 00
       0.0 0.0 0.0 0.0
0000a0 00 00 00 00 00 00 00 00 00 00 00 00 00 00 00 00
       0.0 0.0 0.0 0.0
0000b0 00 00 00 00 00 00 00 00 00 00 00 00 00 00 00 00
       0.0 0.0 0.0 0.0
0000c0 00 00 00 00 00 00 00 00 00 00 00 00 00 00 00 00
       0.0 0.0 0.0 0.0
0000d0 00 00 00 00 00 00 00 00 00 00 00 00 00 00 00 00
       0.0 0.0 0.0 0.0
0000e0 00 00 00 00 00 00 00 00 00 00 00 00 00 00 00 00
       0.0 0.0 0.0 0.0
0000f0 00 00 00 00 00 00 00 00 00 00 00 00 00 00 00 00
       0.0 0.0 0.0 0.0
000100 00 00 00 00 00 00 00 00 00 00 00 00 00 00 00 00
       0.0 0.0 0.0 0.0
000110 00 00 00 00 00 00 00 00 00 00 00 00 00 00 00 00
       0.0 0.0 0.0 0.0
000120 00 00 00 00 00 00 00 00 00 00 00 00 00 00 00 00
       0.0 0.0 0.0 0.0
000130 00 00 00 00 00 00 00 00 00 00 00 00 00 00 00 00
       0.0 0.0 0.0 0.0
000140 00 00 00 00 00 00 00 00 00 00 00 00 00 00 00 00
       0.0 0.0 0.0 0.0
000150 00 00 00 00 00 00 00 00 00 00 00 00 00 00 00 00
       0.0 0.0 0.0 0.0
000160 00 00 00 00 00 00 00 00 00 00 00 00 00 00 00 00
       0.0 0.0 0.0 0.0
000170 00 00 00 00 00 00 00 00 00 00 00 00 00 00 00 00
       0.0 0.0 0.0 0.0
000180 00 00 00 00 00 00 00 00 00 00 00 00 00 00 00 00
       0.0 0.0 0.0 0.0
000190 00 00 00 00 00 00 00 00 00 00 00 00 00 00 00 00
       0.0 0.0 0.0 0.0
0001a0 00 00 00 00 00 00 00 00 00 00 00 00 00 00 00 00
       0.0 0.0 0.0 0.0
0001b0 00 00 00 00 00 00 00 00 00 00 00 00 00 00 00 00
       0.0 0.0 0.0 0.0
0001c0 00 00 00 00 00 00 00 00 00 00 00 00 00 00 00 00
       0.0 0.0 0.0 0.0
0001d0 00 00 00 00 00 00 00 00 00 00 00 00 00 00 00 00
       0.0 0.0 0.0 0.0
0001e0 00 00 00 00 00 00 00 00 00 00 00 00 00 00 00 00
       0.0 0.0 0.0 0.0
0001f0 00 00 00 00 00 00 00 00 00 00 00 00 00 00 00 00
       0.0 0.0 0.0 0.0

network_body._body_endoder.seq_layers.2.weight f4 [128, 128]
000000 4f 77 32 bd fd 02 b0 b9 f8 01 88 3d 76 fb 50 bd
       -0.043570813 -0.00033571562 0.066410005 -0.05102106
000010 57 ea 66 bd fa 8d 13 bc 24 8a f5 3d 2c b7 8c 3d
       -0.056375828 -0.009006018 0.11989239 0.06870875
000020 ed 39 c1 3c 05 7a de bc ad d6 b1 bd 6d a2 04 be
       0.023587191 -0.027157793 -0.08683524 -0.12952586
000030 8d bf a6 3d 17 a1 a8 bd 8b fd 7b bc c0 ff 8b bd
       0.08142004 -0.082338504 -0.015380274 -0.0683589
000040 68 a8 42 3d c9 48 12 3d 6b 18 a7 3c b8 8b 35 be
       0.047523886 0.035713945 0.020397386 -0.1772908
000050 55 30 24 bd fc ca 63 3d f7 a3 af bb d0 a6 86 3d
       -0.040085156 0.055613503 -0.0053601223 0.06574786
000060 e0 b3 71 3c 3c b5 5d bd c2 e3 eb bd c9 61 5a 3d
       0.014752358 -0.054127917 -0.11518051 0.05331591
000070 63 45 ba 3c e1 21 84 bc ea d2 34 3e db 31 13 3e
       0.022738164 -0.016129436 0.17658582 0.14374487
000080 18 96 f1 3c 2d c3 5a 3e be 5b 79 bd c0 cd fc 3c
       0.029490516 0.21363516 -0.060878508 0.030859828
000090 99 11 6a bc a1 c0 9d 3d 47 bf 45 bd 46 32 e8 3c
       -0.014286422 0.07702757 -0.04827812 0.028344285
0000a0 8f df 3b 3d ad 4a 35 3e 59 56 99 bc 55 00 02 bd
       0.0458675 0.17704268 -0.018717932 -0.031738598
0000b0 dc 9f 7a bd 2c be 8e bd 57 af 23 bd 9b 8a 42 3c
       -0.06118761 -0.06969866 -0.03996214 0.011873866
0000c0 af 23 d6 3d 3b ca 06 3e 02 94 a1 3c 9e 76 8d 3d
       0.10456025 0.13163082 0.019723896 0.0690739
0000d0 17 f6 8f bd 17 f6 31 3d 90 43 fc 3c 0d 68 d2 bd
       -0.0702936 0.04344758 0.030793935 -0.10273752
0000e0 70 4d 5f 3c 34 ac 8f 3d a5 c0 82 be 1e ce 19 bd
       0.013629302 0.07015267 -0.255376 -0.037550084
0000f0 71 9b f9 bc d3 8b e1 bd 1a ff ce bd dc 5e d4 bc
       -0.030469628 -0.110129975 -0.101072505 -0.025924139
000100 48 03 0b be 13 91 66 3d 26 e4 a9 3d 4d 19 37 3d
       -0.1357547 0.056290697 0.08295469 0.044701863
000110 4b 84 5b 3c f5 bf 31 be f7 c9 c8 3d e6 eb e2 3c
       0.01339824 -0.17358382 0.09804147 0.027700376
000120 0a 69 2a bc 98 ba d1 bb 8e 18 cf 3d 9c 87 98 3c
       -0.01040102 -0.0064004175 0.10112105 0.018619351
000130 7b 74 2a bd fd 82 7f 3d 84 0e 0e 3e 6c e9 d7 3c
       -0.04161499 0.06238078 0.13872725 0.026356421
000140 34 43 b9 bd 6e 13 0b be 1c 5b a4 3d 7f c6 15 be
       -0.09046021 -0.1358163 0.0802519 -0.14626502
000150 c1 21 54 3d 48 3a 0a 3e e6 25 ad bd 1b b6 ef 3d
       0.051790003 0.13498795 -0.08454494 0.11704656
000160 d0 7d 0c 3c 04 04 d8 3c 22 92 76 3d 8a 26 7c bd
       0.008574918 0.026369102 0.060197957 -0.06156019
000170 64 70 c5 bd d5 94 2c 3d 7c 81 98 bd fa 75 16 be
       -0.096405774 0.042134125 -0.07446572 -0.14693442
000180 d2 c7 1f 3e 8e f4 0c be 7d 99 1c bd 68 3c 29 3e
       0.15603569 -0.13765165 -0.038232315 0.1652695
000190 67 aa cf 3b ac f1 a4 bd 5c f8 8f 3e 58 e4 06 bd
       0.006337452 -0.08053908 0.2811917 -0.03293261
0001a0 58 a6 d3 bd 27 03 59 3d a9 8c b4 3d cb c2 63 bd
       -0.10334462 0.052981522 0.08815891 -0.05560569
0001b0 43 90 96 bd 10 6f 6f 3d 24 3b b2 bd e4 7d 31 3d
       -0.073517345 0.058455527 -0.087026864 0.04333295
0001c0 bf f0 1f be c2 c6 0f 3e 65 fa 10 be ac 41 62 3c
       -0.15619181 0.14040664 -0.14158018 0.013809603
0001d0 8f 8a e9 bd f0 d7 c3 bd e3 af e3 bd e3 d9 91 3d
       -0.11403381 -0.09562671 -0.11117532 0.07121637
0001e0 ba 87 3a be 9f 61 63 bd 47 42 09 bc ae 1e 48 3d
       -0.18215838 -0.05551302 -0.008377618 0.048857383
0001f0 46 5f ce 3d 14 14 94 3d 91 79 98 bd e6 25 38 3d
       0.10076766 0.07230392 -0.07445062 0.044958018
000200 e6 f3 cb 3c 9f 24 60 3d 88 15 43 bd 17 60 92 3d
       0.024896573 0.054722425 -0.047627956 0.07147234
000210 96 3f a5 bc fd 8c 7f bd 86 fd 2b 3e 15 74 00 3e
       -0.020171922 -0.062390316 0.1679593 0.12544282
000220 5d 9d d9 bd 28 d8 9c bd 21 49 f2 3c 5a 64 e6 3b
       -0.10625718 -0.07658416 0.029575886 0.007031006
000230 91 ad 96 3d fc 3a a3 3d 76 0f 6c 3d ab 4d a8 bd
       0.07357324 0.07970235 0.057631932 -0.08217939
000240 3c bd e3 3d 7e 09 65 be 3c 1f 02 3d df da a2 3c
       0.11120078 -0.22366902 0.03176807 0.019879756
000250 69 a6 12 be 61 bc 24 3e 96 fc d1 bd c4 44 9c 3d
       -0.14321293 0.16087486 -0.10253255 0.076303035
000260 f2 64 23 3d 3a e4 81 3c 9b e2 c8 bd 9a 78 f4 3b
       0.03989119 0.015855897 -0.098088466 0.007460666
000270 5b 0e b2 bd f7 ec 90 3d a0 fe 96 3d 91 49 5a 3d
       -0.08694144 0.070764475 0.073727846 0.053292815
000280 17 8d 00 3e 63 2b 9c bc 59 85 53 3d 77 e6 65 bc
       0.12553822 -0.019063657 0.051640842 -0.014031998
000290 ad 96 91 3d 03 75 a8 3d 25 d9 31 be ec f6 81 bd
       0.07108817 0.08225443 -0.1736799 -0.06345925
0002a0 9f 54 9a bd b6 68 0f bd 8a a3 0d be 21 16 9c 3c
       -0.075356714 -0.03501197 -0.13831916 0.01905352
0002b0 16 3a 5d bc 9a 6c 97 3d c3 f9 01 3e e8 f3 1d be
       -0.013502618 0.07393761 0.12692933 -0.15425074
0002c0 23 26 19 be 63 e4 4d bd 19 cf 87 bd 09 e8 c6 3b
       -0.14955954 -0.050266635 -0.066312976 0.006070141
0002d0 36 cd d0 3d f0 48 2a bd a1 18 7b 3d 06 e7 d9 3c
       0.10195391 -0.041573465 0.061302785 0.026599418
0002e0 d3 bd 49 bd 9f 19 5f 3d 35 62 2f be c7 cc 93 bd
       -0.049253296 0.054467794 -0.17127307 -0.072167926
0002f0 c7 64 19 3c dc 45 8c 3d 03 34 7d 3d f8 60 e5 3d
       0.009362406 0.06849262 0.06181718 0.11200136
000300 85 7c c1 3d 0c ee 80 3d d9 1a 19 3d 33 8f 34 3d
       0.09447578 0.06295404 0.03737912 0.044081878
000310 ac f2 76 3c 21 b7 09 3e a8 bf d0 3d 27 eb d1 bc
       0.015072506 0.13448764 0.101928055 -0.025624825
000320 14 56 45 3d b2 56 81 bd a4 20 dc bd d8 57 9f 3d
       0.048177794 -0.06315364 -0.10748413 0.07780427
000330 65 14 c8 3d fd c6 e8 3b cd 6a 34 bd 46 e1 8a bc
       0.09769515 0.0071037994 -0.044047166 -0.016953122
000340 c5 a2 1f 3d 00 d9 05 bd 69 5c 39 bd b3 b3 9b 3d
       0.03897359 -0.03267765 -0.045254145 0.07602634
000350 d8 b0 b0 bd db 86 11 bd 07 0f a2 3d e9 87 e6 bc
       -0.0862748 -0.035529 0.079130225 -0.028140979
000360 3b 49 2a b8 28 d8 54 bd e0 18 1a 3e b5 9a 4e 3d
       -4.059936e-05 -0.051963955 0.15048552 0.05044051
000370 58 e0 e7 bd e4 1f c9 3d ca 71 fa 3c b7 26 3d bd
       -0.11322087 0.09820536 0.030571837 -0.0461795
000380 b6 f1 bf 3d 52 09 10 bd 55 aa 19 be 39 48 4c 3c
       0.093722746 -0.03516514 -0.15006383 0.012468391
000390 54 22 83 bd fd 7e e2 3c a6 54 2d 3b 7e 76 4e 3e
       -0.06403032 0.027648443 0.002644816 0.20162389
0003a0 68 da cc 3d 0e 9f 1e 3d eb 77 01 3c 47 c7 07 be
       0.10002595 0.038725905 0.007902126 -0.13259612
0003b0 26 0e 70 bb 33 48 13 bc e5 73 7a 3d 7a 9e d2 bb
       -0.0036629527 -0.008989382 0.061145682 -0.0064275833
0003c0 d6 1c 9b 3d 6c c3 90 3d 66 60 05 be df 29 42 bb
       0.075738594 0.07068524 -0.13025054 -0.0029627008
0003d0 e4 d4 17 bd 78 4b 0e be 54 79 24 bc 0e a6 e4 3d
       -0.037068263 -0.13895977 -0.0100386925 0.11164485
0003e0 b8 f8 de 3d df d1 6e 3d b5 64 4a 3e 11 72 7a 3d
       0.10887283 0.058305617 0.19764979 0.06114394
0003f0 14 32 90 bd ec 55 c2 3c c2 ce 01 3e 89 6e f8 3d
       -0.07040802 0.023722611 0.12676528 0.12130458

action_model._continuous_distribution.log_sigma f4 [1, 51]
000000 00 00 00 00 00 00 00 00 00 00 00 00 00 00 00 00
       0.0 0.0 0.0 0.0
000010 00 00 00 00 00 00 00 00 00 00 00 00 00 00 00 00
       0.0 0.0 0.0 0.0
000020 00 00 00 00 00 00 00 00 00 00 00 00 00 00 00 00
       0.0 0.0 0.0 0.0
000030 00 00 00 00 00 00 00 00 00 00 00 00 00 00 00 00
       0.0 0.0 0.0 0.0
000040 00 00 00 00 00 00 00 00 00 00 00 00 00 00 00 00
       0.0 0.0 0.0 0.0
000050 00 00 00 00 00 00 00 00 00 00 00 00 00 00 00 00
       0.0 0.0 0.0 0.0
000060 00 00 00 00 00 00 00 00 00 00 00 00 00 00 00 00
       0.0 0.0 0.0 0.0
000070 00 00 00 00 00 00 00 00 00 00 00 00 00 00 00 00
       0.0 0.0 0.0 0.0
000080 00 00 00 00 00 00 00 00 00 00 00 00 00 00 00 00
       0.0 0.0 0.0 0.0
000090 00 00 00 00 00 00 00 00 00 00 00 00 00 00 00 00
       0.0 0.0 0.0 0.0
0000a0 00 00 00 00 00 00 00 00 00 00 00 00 00 00 00 00
       0.0 0.0 0.0 0.0
0000b0 00 00 00 00 00 00 00 00 00 00 00 00 00 00 00 00
       0.0 0.0 0.0 0.0
0000c0 00 00 00 00 00 00 00 00 00 00 00 00
       0.0 0.0 0.0

action_model._continuous_distribution.mu.weight f4 [51, 128]
000000 05 ca 8e bc 29 a7 af bb 1b 27 88 bc d0 12 d3 3b
       -0.017430315 -0.005360503 -0.01662021 0.0064414516
000010 6c c2 9c bc 47 40 ce bc 99 89 95 bb 3b 07 6c bc
       -0.019135676 -0.025177134 -0.004563522 -0.014406021
000020 bb 14 75 bc 43 c4 cf bc eb 67 04 bd d2 5f 5b 3c
       -0.014958556 -0.02536214 -0.032325666 0.013389545
000030 53 cf ef 3b 8d d2 d4 bc 8d e5 03 bd b6 f1 31 3c
       0.007318416 -0.025979305 -0.03220134 0.010860851
000040 02 38 8e bc 6b 7f 6b 3c ca b6 ee 3b 4a 76 09 bb
       -0.017360691 0.0143736405 0.0072849737 -0.0020975047
000050 cb c3 37 bc f7 cd 23 bd 08 5a 41 3b b8 7e 3e 3a
       -0.011216114 -0.039991345 0.0029503126 0.00072668074
000060 ba 35 85 bc 63 97 89 3c bc 36 38 3c 65 c1 cd bc
       -0.01626097 0.01679582 0.011243518 -0.025116632
000070 fb 2a db bb fb 89 53 3d 70 87 a4 3c 5a b1 72 bb
       -0.0066884733 0.05164526 0.020084113 -0.003703198
000080 a5 7b 98 3b f4 3c 23 bb 6d d0 7a 3c 9d 27 e8 bc
       0.0046534115 -0.0024908157 0.015308482 -0.028339202
000090 ae a7 2f bc 6a 0c 5f bc 7f a7 64 bb 64 43 20 bc
       -0.01072113 -0.0136138 -0.0034889875 -0.009781692
0000a0 dd 30 03 3a 50 1b 1a bb d5 44 c2 bb c2 f7 d9 3b
       0.00050045346 -0.0023514815 -0.0059286156 0.0066518495
0000b0 42 d4 f0 bc 33 df f0 3c 0d 81 a2 bc 23 f1 38 bd
       -0.029398087 0.029403305 -0.019836927 -0.04515184
0000c0 32 c6 d8 3c df 1d 47 3c ae d6 18 3c f7 53 2a bc
       0.026461694 0.012153118 0.009328527 -0.010395995
0000d0 3b d0 9b 3b e3 9c c1 3c 08 ad 20 bc 9f 11 11 bc
       0.0047550476 0.02363438 -0.009806879 -0.008854299
0000e0 24 a5 ba 3c e7 00 09 bd 15 f7 84 bc cc 20 1e 3c
       0.022783823 -0.033448126 -0.0162311 0.009651374
0000f0 53 be 69 3c 3b ac 03 bd 1a 1e cd bb d7 de 54 b7
       0.014266568 -0.032146674 -0.006259692 -1.2688069e-05
000100 f7 9c ce 3a 52 3d f3 bc db a3 a7 bc f5 ee f9 3b
       0.0015763332 -0.029692326 -0.020463875 0.007627363
000110 8e 47 b7 bc 2e 65 8e 3c 50 87 f3 3a 78 3b b7 3b
       -0.022372987 0.01738223 0.0018579755 0.005591806
000120 85 0d f2 3c 30 a5 a7 3c 4a 48 e2 3c 19 01 86 3c
       0.029547462 0.02046451 0.02762236 0.016357945
000130 9f b3 4d 3c dd 76 10 3b 66 5c 94 3c 7d e8 c3 bb
       0.012555032 0.0022043504 0.018110465 -0.0059786425
000140 92 8d ea 3c 9a f1 f5 bc b8 af 00 bd 4a d2 90 3c
       0.02863196 -0.030022431 -0.03141758 0.017678399
000150 c1 84 06 3c cf 2c e8 3c ca fa c6 3c 47 4c fc 3c
       0.008210362 0.028341679 0.024289507 0.03079809
000160 db 39 89 bc 47 cc 94 3c 33 3c ba 3c b8 f0 42 3c
       -0.01675122 0.018163813 0.022733783 0.011898212
000170 27 dd 58 bb 1f 52 29 bb ce d1 cb bb 8d 4c 17 3c
       -0.0033090801 -0.0025836302 -0.006220079 0.00923456
000180 9b 38 31 bc 2a 96 14 bb 1a 64 d1 b9 86 dc c6 3c
       -0.010816718 -0.0022672513 -0.00039938168 0.024275076
000190 e3 59 d8 bc 38 39 a8 bb 90 38 cb bc fb e6 42 3c
       -0.026410049 -0.005133774 -0.024807245 0.01189589
0001a0 d7 8c 04 bd a7 30 06 3c 47 63 a2 3b 13 3c 4a bc
       -0.032360878 0.008190311 0.0049556824 -0.012343424
0001b0 8c 62 96 3c 90 2c 66 3b 02 f0 f0 ba 98 9f 8d bc
       0.018357538 0.0035121776 -0.0018382075 -0.017288014
0001c0 5b b0 b8 3c 7a ff fc 3b 83 ad 98 ba ac 72 0a 3d
       0.02254503 0.007720885 -0.001164839 0.033800766
0001d0 00 c5 39 3c d0 01 6a bc bf f0 12 bb 62 77 14 3d
       0.011338472 -0.014282659 -0.0022421328 0.036246665
0001e0 37 52 36 b9 05 9c e8 3a 00 e1 eb bc ed 59 b7 3b
       -0.000173875 0.0017746693 -0.028793812 0.005595437
0001f0 b3 c0 42 bc 70 0d d9 bc 07 b8 29 bc a7 b9 c5 3c
       -0.011886763 -0.026495665 -0.010358817 0.024136377
000200 8a f0 05 3c a8 c5 31 bd a3 42 a3 3c 9d c5 ab 3c
       0.008175025 -0.04340139 0.019929236 0.020968253
000210 0f 74 05 bc 4e 73 08 bc bf 37 10 bc cd c0 53 3c
       -0.008145346 -0.008328272 -0.008802353 0.012924385
000220 df 60 b0 bb 20 e0 52 3b e1 76 0e 3d c9 5f ad bc
       -0.0053826417 0.0032177046 0.03478134 -0.021163838
000230 f2 4b dc bc 20 99 55 3c 5f a4 af bb 7e 27 02 3c
       -0.026891682 0.013036996 -0.0053601707 0.007943986
000240 7a b5 39 3d 0d c7 30 3c ad e4 07 bc 95 75 da bb
       0.045339085 0.010789645 -0.008294267 -0.006666849
000250 47 4a df bb e9 9d 84 ba 5d 40 6f 3c 98 8a 33 3b
       -0.0068142745 -0.0010117862 0.014602748 0.002739584
000260 d2 36 fe 3c e9 75 9a 3c d8 d5 9d bb ff 04 28 3c
       0.031032 0.018855052 -0.004816752 0.010255097
000270 88 11 17 3a 07 6d 63 3c 0a d1 aa 3b 29 3c 02 3c
       0.0005762805 0.013880975 0.0052129077 0.007948914
000280 57 ce 29 3d 59 41 2e bc 0d 10 9a 3c 08 42 9a ba
       0.041456547 -0.010635697 0.018806482 -0.0011768946
000290 18 1f f0 3c 5f 52 3c 3d 85 78 56 3c 3d 9b ca 3c
       0.029311702 0.045976993 0.0130902575 0.024732227
0002a0 f2 e6 ff 3b 55 07 a4 bc 2d 27 6e 3b af 4b 40 3c
       0.0078095132 -0.020023027 0.0036339269 0.011736794
0002b0 ae 26 87 bc 1f c5 93 bc 3f 43 cf 3c 6a 63 db ba
       -0.016497936 -0.01803833 0.02530062 -0.0016738002
0002c0 ef 75 37 3c cb 69 e6 3b 5e 9b be 3a e0 1a 9e 3c
       0.011197551 0.0070316545 0.0014542153 0.019299924
0002d0 ad 0a 28 3c 99 dc 1e 3c 44 e5 24 3c ff 3a 84 bc
       0.010256452 0.009696149 0.010064427 -0.016141413
0002e0 57 00 ad bc 94 5b 30 bb f9 5f 94 3c 57 bf 6c 3c
       -0.021118326 -0.0026910054 0.01811217 0.014449916
0002f0 c3 99 cd bc 03 7a 47 3c f3 94 18 bc bb 93 12 3b
       -0.025097733 0.012175086 -0.009312856 0.0022365886
000300 13 5a ad 3c b7 d2 a1 3c ad 07 a6 bc 6a fc e9 3c
       0.021161115 0.019753797 -0.020267332 0.028562743
000310 70 cc d2 3c a4 75 10 bc 4f 86 66 bb 03 e1 83 ba
       0.025732249 -0.00881711 -0.003517527 -0.0010061566
000320 ce 45 0b 3c 71 d8 bf bc be d6 1f ba 50 e4 42 bc
       0.008500529 -0.023418637 -0.0006097368 -0.011895254
000330 36 83 87 bc fd 43 57 3b 1b db 5a bc 9b 03 c1 bc
       -0.016542058 0.003284692 -0.013357903 -0.02356129
000340 d0 7a 59 ba 95 f1 cd bb 51 c6 87 3b 32 71 fc 3c
       -0.00082961936 -0.0062849023 0.004143514 0.030815694
000350 52 c2 2d bd c3 02 16 bd d5 16 84 bb b1 10 20 bc
       -0.042421646 -0.036623728 -0.004031042 -0.009769605
000360 03 42 a5 bb c3 f7 58 3c f1 d7 cb bc a6 b1 4b bc
       -0.0050432696 0.013242665 -0.024883242 -0.012432491
000370 83 53 da 3c 07 bb c3 bc 7e 81 19 bc ca 26 4a 3c
       0.02665115 -0.023892893 -0.009369252 0.01233835
000380 56 73 b3 3a c7 6d c1 3b 68 c7 c8 3c c2 8e 1b 37
       0.0013690989 0.005902979 0.024509147 9.271958e-06
000390 27 07 ea 3c d4 06 3a bc 7f c3 70 bc 55 b1 32 bb
       0.028567864 -0.011354167 -0.014695047 -0.0027266343
0003a0 13 60 d5 3b 6f f1 03 bc e8 76 ff 3b fa b2 d0 bb
       0.006511697 -0.008053168 0.007796157 -0.006368992
0003b0 2f 33 06 3b ab 6d db bb 22 68 c5 bc e0 8d 64 bb
       0.0020477285 -0.006696423 -0.024097506 -0.0034874603
0003c0 cc 52 40 3c c5 cc 63 3c 1c f4 9b bc fa 48 f0 39
       0.01173849 0.013903801 -0.019037299 0.0004583074
0003d0 b6 7c b3 bc 7f 42 57 3c 0f 05 f1 3c b7 91 44 3c
       -0.021910053 0.0131384125 0.029421357 0.011997632
0003e0 af bc 69 bc 38 13 2f 3c 9f 33 45 3c 00 e2 ab bc
       -0.014266177 0.010685734 0.012036233 -0.020981789
0003f0 5a 17 a2 bc 2a 3f 2a bd 64 1a 4b bd b5 56 a4 3c
       -0.019786526 -0.041564144 -0.049585715 0.020060876

action_model._continuous_distribution.mu.bias f4 [51]
000000 00 00 00 00 00 00 00 00 00 00 00 00 00 00 00 00
       0.0 0.0 0.0 0.0
000010 00 00 00 00 00 00 00 00 00 00 00 00 00 00 00 00
       0.0 0.0 0.0 0.0
000020 00 00 00 00 00 00 00 00 00 00 00 00 00 00 00 00
       0.0 0.0 0.0 0.0
000030 00 00 00 00 00 00 00 00 00 00 00 00 00 00 00 00
       0.0 0.0 0.0 0.0
000040 00 00 00 00 00 00 00 00 00 00 00 00 00 00 00 00
       0.0 0.0 0.0 0.0
000050 00 00 00 00 00 00 00 00 00 00 00 00 00 00 00 00
       0.0 0.0 0.0 0.0
000060 00 00 00 00 00 00 00 00 00 00 00 00 00 00 00 00
       0.0 0.0 0.0 0.0
000070 00 00 00 00 00 00 00 00 00 00 00 00 00 00 00 00
       0.0 0.0 0.0 0.0
000080 00 00 00 00 00 00 00 00 00 00 00 00 00 00 00 00
       0.0 0.0 0.0 0.0
000090 00 00 00 00 00 00 00 00 00 00 00 00 00 00 00 00
       0.0 0.0 0.0 0.0
0000a0 00 00 00 00 00 00 00 00 00 00 00 00 00 00 00 00
       0.0 0.0 0.0 0.0
0000b0 00 00 00 00 00 00 00 00 00 00 00 00 00 00 00 00
       0.0 0.0 0.0 0.0
0000c0 00 00 00 00 00 00 00 00 00 00 00 00
       0.0 0.0 0.0

action_model._discrete_distribution.branches.0.weight f4 [1, 128]
000000 d2 d5 e1 3a 33 47 8d ba 9a 03 85 ba 0a 7c 8f 3c
       0.0017229861 -0.0010778665 -0.0010148168 0.017515201
000010 da e6 55 bc 2b a0 b3 bb 57 f2 0d 3b 4a 19 0c ba
       -0.013055528 -0.00548174 0.0021659338 -0.00053443445
000020 10 e1 de bb 5f 6e 3d 3b 6f b2 f1 3b a5 04 bc ba
       -0.006801732 0.0028904898 0.0073760073 -0.0014344646
000030 0b f2 60 bb 54 94 9f 3b 75 11 65 3b 21 d1 8f bc
       -0.0034323956 0.004869977 0.0034953032 -0.017555775
000040 be 29 9a bb 84 bf a0 bb bf 2e 6f bc 77 6b 2b 3c
       -0.004704683 -0.004905643 -0.0145985475 0.010462633
000050 cb 69 a4 bb a6 c3 a6 39 2d 20 68 3c 2a b6 12 bc
       -0.0050174943 0.00031807757 0.014167828 -0.008954564
000060 0f 4e df bb 33 a3 cb 39 0d 7d 90 bb 03 92 07 bb
       -0.006814725 0.0003884077 -0.0044094385 -0.0020686395
000070 f5 14 bb 3b c0 1c 37 3c fa 25 67 3c d7 3c 2f 3a
       0.0057092854 0.011176288 0.014108175 0.0006684786
000080 be fb c9 bb e7 85 90 bb ad 56 08 3c a7 38 2c 3b
       -0.006164043 -0.0044104937 0.008321446 0.0026278885
000090 a7 d9 9f 3c 74 01 92 bb 12 50 a7 bb a8 8c ed 3b
       0.019512964 -0.0044557396 -0.0051059807 0.0072494335
0000a0 0b a4 ac 3c 74 99 3c 3b c5 21 cb 3a a2 fd 14 3c
       0.021074316 0.0028777989 0.0015497735 0.009093674
0000b0 ef f5 80 bc 6a 5c 12 bc 0f 2a d2 ba be 58 3b bc
       -0.01574227 -0.008933166 -0.0016034263 -0.011434732
0000c0 de 67 c9 ba 5d b6 e8 3b b7 33 04 bb 00 41 cd bb
       -0.0015366038 0.0071018175 -0.0020172426 -0.006263852
0000d0 6a d3 65 3c 6f b6 e6 bb ab df e0 b9 c7 40 5f 3b
       0.014027456 -0.0070407907 -0.00042891255 0.003406571
0000e0 17 33 a6 bb 6d 9d af 3b 76 d3 3c 3c 58 0c 43 bb
       -0.0050720084 0.005359343 0.011525026 -0.0029761996
0000f0 6a ad bb 3b 78 a9 75 bb 34 78 97 3c 58 87 7f 3c
       0.0057274597 -0.0037485044 0.018489935 0.015596233
000100 e4 08 12 3c 43 1f 61 3c 3e b3 46 bb c5 66 14 3c
       0.0089132525 0.0137403635 -0.003031924 0.009057705
000110 9c d2 09 3c 21 29 00 3a 0f a2 80 3c d7 d6 a4 3b
       0.00841203 0.0004888941 0.015702276 0.0050304937
000120 f0 9c 56 3b 1f 61 fc 3b 4d 73 6a ba e5 d5 c0 ba
       0.003274735 0.0077020074 -0.0008943573 -0.0014712183
000130 0b 7b 54 bc 7f 24 4a bb 9d 7e 4a 3c a0 33 74 3b
       -0.012968789 -0.0030844507 0.0123592885 0.0037262216
000140 67 3b 84 b8 48 18 bf 39 50 19 b6 bb 1d 02 e6 bb
       -6.305315e-05 0.0003644845 -0.0055572167 -0.007019295
000150 fc 7d 19 3c 14 e5 81 bb 28 91 15 3c f2 03 75 ba
       0.009368416 -0.003964076 0.009128846 -0.0009346596
000160 47 98 44 bc 2a 3e 72 3b e3 a4 4d 3b e8 5c 7b 3c
       -0.011999196 0.0036963322 0.0031378798 0.015341975
000170 7f d1 93 3a 60 ba bb bb 06 f7 18 3c 20 8e 1f 3c
       0.0011277645 -0.0057290047 0.009336239 0.009738475
000180 37 46 08 3c e7 cd 80 3b 73 3e 06 bb 18 fc 2a 3c
       0.008317522 0.0039307955 -0.0020484 0.01043608
000190 10 52 cb 39 eb 62 44 bc 5a 58 0f bc f3 31 3d 3c
       0.0003878032 -0.0119864745 -0.008749092 0.011547553
0001a0 3c 80 a4 3a ef 9f cd ba 2b 04 2f bc 40 09 66 3c
       0.0012550424 -0.0015687923 -0.010682146 0.014040291
0001b0 b7 e8 bc bb 63 96 9b 3b 63 09 d1 3b 62 f3 46 bc
       -0.0057650465 0.004748152 0.006379293 -0.012142988
0001c0 92 89 f0 3b 5b 6a e1 bb 7d c9 f7 3b 97 ec 19 bc
       0.0073406184 -0.0068791336 0.007561861 -0.009394786
0001d0 1b cb aa bb eb 34 23 bb a4 76 82 3c f2 5f 30 bc
       -0.0052122003 -0.0024903368 0.015925713 -0.010765063
0001e0 b2 5f 57 3c 38 de 21 3b cd 15 31 bc d5 d4 e4 3b
       0.013145374 0.0024699103 -0.01080842 0.0069833794
0001f0 7d 72 8e 3c 57 a7 f7 3a 08 03 df bb 04 f2 14 3c
       0.017388577 0.0018894476 -0.0068057813 0.009090904

onnx::LSTM_116 f4 [1, 512, 128]
000000 de a7 29 bd 5a 0f 84 bd ca 14 c3 3d 0c 70 10 3d
       -0.041419856 -0.064482406 0.095254496 0.035263106
000010 4c 52 73 3d 7e 32 5a bd 0b ff 19 3e 24 2f 00 3d
       0.059404656 -0.05327081 0.15038697 0.031294957
000020 06 ac f9 3d b6 09 13 be 18 21 9a 3d 84 a0 13 3d
       0.12191014 -0.14359173 0.075258434 0.03604175
000030 62 67 a6 bd 78 fa 52 bd a8 4c 7d bd d0 fd a5 3c
       -0.081251875 -0.051508397 -0.061840683 0.020262629
000040 b8 ba 37 3d d0 25 1f 3d 64 f3 00 3d fa 9f e0 3d
       0.044855803 0.03885442 0.031482115 0.10968013
000050 1d 4b 0f 3e fd 7b c6 bd 6e 17 de 3d 28 fc 0b 3d
       0.13993497 -0.09691618 0.108443126 0.03417602
000060 8e b5 db 3d 54 07 5f 3d 84 51 2c bd 6c 4f be 3d
       0.10727988 0.054450348 -0.042069927 0.09292492
000070 8c 66 27 3d f8 1f ac bd 3f fc 16 3e 80 32 91 3a
       0.04086928 -0.08404535 0.14744662 0.0011077672
000080 60 f9 3d bc 7c ff 8b 3d 7a de fa 3d f2 13 31 bd
       -0.0115951 0.06835839 0.12249465 -0.043231912
000090 6a 41 08 be 09 d1 01 3e 93 ae 13 be c8 40 9e bd
       -0.13306203 0.12677397 -0.14422064 -0.077272
0000a0 58 6d d7 bc da 1b 9e 3d f0 f9 44 3d 64 6a 80 3d
       -0.026297256 0.07720156 0.04808992 0.062702924
0000b0 2f 0a fb bd 5a 35 e0 3d 33 29 8a bd 4a 06 fb bd
       -0.12257802 0.10947676 -0.067461394 -0.12257059
0000c0 32 e2 cc 3d cf f3 0c be 0e 71 15 be 94 5e 33 3d
       0.10004081 -0.1376488 -0.14593908 0.04379137
0000d0 e1 17 03 3e e8 8c 59 3d 62 5b d3 bd 94 bf ac 3d
       0.12802078 0.053112894 -0.10320164 0.08434978
0000e0 52 fe e3 3d 26 6a c2 3d 74 0c 11 3d 8c 09 da bd
       0.11132492 0.094929025 0.035412267 -0.10646352
0000f0 76 9a 39 bd 90 23 9f bd 4e ee f3 3d 40 d9 a0 3b
       -0.04531332 -0.07770455 0.119106874 0.0049087107
000100 9e 72 a9 bd e0 b2 40 3d fc a5 49 3d 1a 06 8d bd
       -0.082738146 0.04704559 0.04923056 -0.068859294
000110 80 b3 4a bb a4 b6 af 3d ab c4 12 3e 80 3f 9f 3a
       -0.0030929744 0.08579758 0.14332835 0.0012149662
000120 4e d0 b6 3d c2 26 1e bd d1 d1 11 3e 52 4a e2 bd
       0.0892645 -0.03861118 0.14240195 -0.11049332
000130 2e 97 84 3d 7c e4 10 be 6c ed 9b bd 44 49 b5 3d
       0.06474148 -0.1414966 -0.07613644 0.08851865
000140 7d 70 9f bd 88 64 18 3d 64 3b 2a 3d 02 05 e3 3d
       -0.07785127 0.03720525 0.041560546 0.110849395
000150 97 5d 17 3e e0 0e f5 3c 70 3a 63 3c cc bb 02 be
       0.14781795 0.02991432 0.013868913 -0.12766951
000160 38 3c 55 3d f2 f4 b9 3d 07 2b a8 bd d0 0f 28 3d
       0.052059382 0.09079923 -0.08211332 0.041030705
000170 e7 82 07 3e 16 36 88 bd a6 31 c7 3d 8c 6f de bd
       0.13233529 -0.06650941 0.097262666 -0.1086112
000180 94 5a 71 3d 0c a7 a0 3d bf 2d 95 bd 10 f6 77 bc
       0.058924273 0.07844362 -0.07284116 -0.015134349
000190 34 e2 75 3d 48 d0 d4 3c c0 32 03 bb 7b e8 8c bd
       0.060030177 0.025978222 -0.0020019263 -0.0688028
0001a0 9f 67 89 bd 84 ae 77 bd 32 f1 17 be 88 5c a5 bd
       -0.06709217 -0.060469165 -0.14838102 -0.080742896
0001b0 50 bc f7 bd 40 1f 08 3d b0 93 f4 bd 30 29 eb 3c
       -0.12096465 0.033232927 -0.11942232 0.028706163
0001c0 aa a0 ac 3d ca 0f d6 3d b1 4a 19 3e e1 75 b7 bd
       0.08429082 0.1045223 0.14969899 -0.089580305
0001d0 bc fa 7e bd 70 45 17 bc 34 cf c8 bd 12 33 eb 3d
       -0.062250838 -0.009232864 -0.09805146 0.1148435
0001e0 f7 48 1b 3e 54 8d ad 3d 36 c8 12 be 57 de 01 3e
       0.15164553 0.08474222 -0.14334187 0.12682472
0001f0 24 50 10 3d 70 15 f9 bd 74 6e e5 bd a8 52 da bc
       0.035232678 -0.12162292 -0.11202708 -0.026650742
000200 20 17 f2 3b 18 ff bf 3c 54 0a fd bd e0 7d 3f 3c
       0.0073880106 0.023437068 -0.123554856 0.011687726
000210 aa 78 aa bd ab 9e 0e be f0 7a 5d 3d 98 a3 81 3c
       -0.08323796 -0.13927715 0.05407232 0.015825078
000220 b2 64 ff 3d 2a 72 bc 3d 2f 56 94 bd 97 9a 02 3e
       0.12470378 0.092014626 -0.07243001 0.12754284
000230 60 aa 9f 3b dc c7 1a be a3 dd 8d bd 4a a3 e5 3d
       0.004872605 -0.15115303 -0.069270395 0.112127855
000240 d6 1c e1 3d cf 73 05 be 80 1c 59 3d ee f6 2c bd
       0.10991828 -0.13032459 0.053005695 -0.042227678
000250 fc cb 07 be 84 94 68 3d a0 25 16 be 16 71 ff 3d
       -0.13261408 0.05678226 -0.1466279 0.12472741
000260 b4 69 15 bd c2 0f e6 3d fd ff 0f 3e 1e 0c bb bd
       -0.03647776 0.11233474 0.14062496 -0.091331705
000270 3d b7 fd bd 40 5d 09 3c b0 68 16 3c cc da be bd
       -0.123884656 0.008384049 0.009180233 -0.09319076
000280 50 57 63 3c 5e c4 35 bd 5a 0c f0 3d ae e7 21 bd
       0.013875797 -0.044376723 0.11721106 -0.039527588
000290 dd ad 07 3e d4 20 97 3d f4 c6 bc 3d 93 27 1c 3e
       0.13249917 0.07379308 0.09217635 0.15249471
0002a0 b8 ec 07 be 0a 99 dd bd f1 a4 f9 bd 40 df 45 bb
       -0.13273895 -0.108202055 -0.12189663 -0.0030192882
0002b0 ee 07 c2 bd c8 d1 e6 bd d0 da eb bd 90 41 61 bc
       -0.09474169 -0.11270481 -0.115163445 -0.0137485415
0002c0 c9 02 0b 3e 06 2a e9 3d 73 65 0d be 52 bc b6 bd
       0.13575281 0.113849685 -0.13808231 -0.08922638
0002d0 54 8a 09 3d 00 1c 7f 3c 59 27 19 be 66 f2 f6 3d
       0.033579186 0.015570641 -0.14956416 0.120579526
0002e0 76 c8 85 bd f4 5a ff bc ca dc e3 3d 16 1b ad 3d
       -0.065323755 -0.0311713 0.111260965 0.08452432
0002f0 e0 cb d7 3c 4e 2a 51 bd 70 db df bc be fb a6 3d
       0.026342332 -0.051065736 -0.027326316 0.08153485
000300 49 89 00 be f0 74 0e 3d e3 8e ff bd cb 32 16 3e
       -0.1255237 0.03477949 -0.12478425 0.14667813
000310 3e c0 9b bd db af 10 3e 00 59 8d 3a 14 f8 02 3d
       -0.07605027 0.14129584 0.001078397 0.031974867
000320 40 2a 9d bd 73 44 a6 bd 0a be f9 bd 2a 32 f9 3d
       -0.07674074 -0.081185244 -0.1219445 0.12167771
000330 a2 33 2d bd 0e f7 a6 3d 4c f4 21 bd 53 c6 fb bd
       -0.04228557 0.08152591 -0.03953962 -0.12293687
000340 d8 b3 48 3d 90 6f 7d bc 89 b9 ff bd a0 66 63 3d
       0.048999637 -0.015468493 -0.1248656 0.055517793
000350 1a ae ca 3d 40 a8 e0 3c 0d 9a c3 bd da e1 d4 3d
       0.098964885 0.027423978 -0.09550867 0.1039464
000360 ba ca 9a bd f3 d8 0b 3e 4e a2 0f bd 91 7a 17 3e
       -0.07558198 0.13656978 -0.035066895 0.14792849
000370 ee 2d db bd 70 ac 03 be 6c 51 4f bd 18 ce f8 3c
       -0.1070212 -0.12858748 -0.05061476 0.03037171
000380 46 6a 8d bd 5f ea 9b bd ee 87 cf 3d a0 45 3e bc
       -0.06905036 -0.07613062 0.101333484 -0.01161328
000390 30 32 02 3c b0 f0 d7 bc 6a 0b 89 3d 62 8e b2 3d
       0.007946536 -0.026359886 0.0669163 0.087185636
0003a0 b6 47 11 be b0 55 82 3c 68 ac b2 bd a6 4c d8 bd
       -0.14187512 0.01591 -0.0872429 -0.105614945
0003b0 a2 9c f7 3d 16 9b ec 3d 11 3b 12 be 58 2d ad bd
       0.12090422 0.11553018 -0.14280345 -0.08455914
0003c0 98 b1 d9 3c 5a 5e 12 be b8 98 89 3d bc 47 39 3d
       0.026573941 -0.14293805 0.06718582 0.045234427
0003d0 00 e6 a7 3c f6 7e f4 bd c0 9c 43 bb e8 7a 5a bd
       0.020495415 -0.119382784 -0.002984807 -0.05333987
0003e0 32 ba d7 bd e9 7d a9 bd 42 81 bb bd c0 e9 12 3d
       -0.10533561 -0.082759686 -0.09155513 0.035867453
0003f0 18 5e 30 3d 48 2e b6 3c 46 35 8e 3d d0 25 a6 bd
       0.043058485 0.022238865 0.06943755 -0.08112681

onnx::LSTM_117 f4 [1, 512, 128]
000000 40 34 68 3d 52 ae e1 3d 8a bc f3 3d d2 90 ce 3d
       0.056690454 0.11019577 0.11901195 0.10086216
000010 d6 13 34 bd 5e 62 ba bd 68 16 dd 3c d3 77 05 be
       -0.04396423 -0.09100793 0.026988223 -0.1303399
000020 40 20 76 bb b0 3f cc bc df 37 0e be 78 a3 ad bc
       -0.0037555844 -0.024932712 -0.138885 -0.021196112
000030 0f 32 87 bd e0 5a 25 3c 88 a2 b6 3d 0e 0c 68 bd
       -0.06601345 0.010092467 0.08917719 -0.05665212
000040 30 ca 54 bc 7b be e5 bd 9e 98 ae 3d ce cd 8b 3d
       -0.012987658 -0.11217972 0.08525203 0.068263635
000050 90 70 62 3c 50 d9 4f bd 2c 6b 10 3d cc d9 e7 bd
       0.013820782 -0.050744355 0.035258457 -0.11320838
000060 50 8d 11 3c 8e c7 d3 bd 5c 5a 9f 3d 04 8d 3a bd
       0.008883789 -0.103407964 0.077809066 -0.04554464
000070 e5 e7 0a be 30 e5 1c 3d 4a 41 b7 3d c8 fd 1a 3d
       -0.13565023 0.038304508 0.08948 0.03783968
000080 c4 d8 18 3d 00 f3 10 3a 17 99 0f 3e 51 10 04 3e
       0.0373161 0.0005529374 0.14023243 0.12896849
000090 aa 99 0e be 56 7b 02 be 53 ee 07 be e0 8e 9f 3b
       -0.13925806 -0.12742361 -0.13274507 0.004869327
0000a0 b2 54 bd bd 50 09 5b 3d 60 f6 e2 bd 00 0f ce bb
       -0.0924467 0.053475678 -0.110821486 -0.0062884092
0000b0 12 55 ef bd 66 41 04 be 5c 6e 74 3d 00 39 88 3a
       -0.11686148 -0.12915573 0.05967556 0.0010392964
0000c0 9c b6 62 3d 66 55 ce 3d e6 6f f1 3d da f1 f6 3d
       0.05534993 0.10074882 0.11788921 0.12057848
0000d0 bf 1b 90 bd c0 bd f5 bd e1 8a 05 be 80 9d ae ba
       -0.07036542 -0.119990826 -0.1304126 -0.0013322085
0000e0 f2 18 fa 3d a6 fd a6 3d ad f8 e8 bd 0c 30 a5 3d
       0.12211789 0.08153848 -0.11375556 0.08065805
0000f0 87 47 e6 bd 16 57 0a bd da 07 ec 3d 2a 1c 38 bd
       -0.112441115 -0.033774458 0.11524935 -0.044948734
000100 00 d7 c6 bb 26 4d 5a bd fc e0 57 bd 35 73 15 be
       -0.0060681105 -0.05329623 -0.052704796 -0.14594729
000110 6b 99 c2 bd 34 f4 55 3d a8 1d 41 3d 02 18 17 be
       -0.095019184 0.052234843 0.047147423 -0.14755252
000120 01 b2 08 be 8d 3c 94 bd 22 d2 d0 3d 6e ef c6 3d
       -0.13349153 -0.07238112 0.1019633 0.09713636
000130 ae 88 de 3d d8 5e 9e 3d 1b c3 0c be ae b9 7b bd
       0.10865913 0.07732934 -0.13746302 -0.061456375
000140 f8 41 03 be d2 45 17 be 20 19 a9 bd d6 03 c6 3d
       -0.12818134 -0.14772728 -0.08256745 0.096687004
000150 32 eb ce bd 60 f7 ef 3b aa f1 b6 3d 02 7d c8 3d
       -0.10103454 0.0073231906 0.089328125 0.09789468
000160 b4 c8 47 3d 1e 2d f5 3d 50 78 30 bc 81 d0 98 bd
       0.04877539 0.11971496 -0.010770872 -0.07461644
000170 36 2c 6f bd 00 00 ac 38 70 06 c0 bd 0b e5 d1 bd
       -0.058391772 8.201599e-05 -0.09376228 -0.102487646
000180 09 ce aa bd e4 b5 94 3d 12 26 8c bd 8b 21 1a 3e
       -0.08340079 0.072612554 -0.06843199 0.15051858
000190 68 b0 a3 bd 6c 7e 28 bd fe e8 ed 3d 32 66 9f bd
       -0.07992631 -0.04113619 0.11616705 -0.07783164
0001a0 c7 b4 16 be 14 7f 02 3d 10 d0 41 bd 88 3a e5 bc
       -0.14717399 0.031859472 -0.047317564 -0.027982011
0001b0 fc 9f e2 bd 5f d3 bb bd 02 c5 59 bd 4e 09 56 bd
       -0.11065671 -0.09171175 -0.053166397 -0.052254967
0001c0 6c 3e 02 be 7c f3 f0 bd 70 1a 06 be ee 93 39 bd
       -0.12719125 -0.11765191 -0.13096023 -0.045307092
0001d0 65 92 0a 3e 62 3e 0e be f4 cc 49 3d 0a 22 cd 3d
       0.13532408 -0.13890985 0.049267724 0.10016258
0001e0 40 67 c5 bb cc 45 a6 3d ef ef 17 3e 86 7f e6 bd
       -0.0060242712 0.081187814 0.14837621 -0.11254792
0001f0 93 93 94 bd ea b0 ec 3d a4 2f e1 bd 16 02 c5 3d
       -0.0725471 0.11557181 -0.10995415 0.096195385
000200 02 6f ba bd 2a cf ab 3d 2e 37 ec 3d ca e7 98 3d
       -0.09103204 0.08389123 0.11533962 0.07466085
000210 30 cc ad bd 7c 83 06 be 08 e9 26 bd c8 39 9d 3d
       -0.08486211 -0.13136095 -0.04074958 0.076770365
000220 d4 d5 57 3d 28 db dc bc d0 46 56 3c 28 b3 e0 bd
       0.052694157 -0.02695997 0.013078406 -0.10971671
000230 95 71 11 be ba 76 80 bd c8 dc aa bc 80 39 b3 bd
       -0.14203484 -0.06272645 -0.02085723 -0.08751202
000240 60 ee 24 bc 48 57 27 bd d4 df 09 3d 7f 4d b1 bd
       -0.010066599 -0.040854722 0.033660725 -0.08657359
000250 03 6d f1 bd 2e fe 1b be 13 40 87 bd 5a 69 c5 3d
       -0.117883705 -0.1523368 -0.06604018 0.09639235
000260 7e e5 a6 3d 22 ec 07 be fd df 9a bd 8a 72 e5 bd
       0.08149241 -0.13273671 -0.075622536 -0.11203487
000270 1c f2 bf 3d ec 5a 10 be e9 54 03 3e b8 14 1b 3d
       0.093723506 -0.14097184 0.1282536 0.037861556
000280 2e 38 b3 bd e0 3b 32 bd c6 6d ec 3d e7 55 11 3e
       -0.0875095 -0.043514132 0.11544375 0.14192925
000290 0f 8a d5 bd 6f 45 1b 3e a3 8c f7 bd e0 23 53 bc
       -0.10426723 0.15163206 -0.12087371 -0.012886971
0002a0 15 aa 18 be a0 b3 28 3c 4c a1 94 3d bc ef 49 3d
       -0.14908631 0.010296732 0.072573274 0.049300894
0002b0 7c 37 35 bd fb d6 8f bd e0 d0 b9 3c 12 44 c1 bd
       -0.044242367 -0.07023426 0.022682607 -0.094368115
0002c0 13 c9 0c 3e 2a a7 f5 3d ca 77 ed 3d 60 5c a3 3c
       0.13748579 0.11994775 0.115951136 0.019941509
0002d0 60 ee 72 bc a0 db 83 bd ab f2 09 3e 06 87 d6 3d
       -0.014827341 -0.064383745 0.13471477 0.104749724
0002e0 56 02 b5 3d 04 db 74 bd d4 34 c2 3d b0 7a 97 bd
       0.08838336 -0.059779182 0.094827324 -0.07396448
0002f0 8b 84 94 bd f9 e4 e3 bd bc f7 13 3d 27 2d 00 3e
       -0.07251843 -0.111276574 0.03612493 0.12517224
000300 30 81 64 3d 34 69 5e bd 9a ec a4 bd 30 05 45 bc
       0.055787265 -0.05429955 -0.08052941 -0.012025163
000310 4e c7 83 3d eb 2b 07 3e 17 bd 07 3e 49 64 01 3e
       0.06434499 0.13200347 0.13255726 0.12635912
000320 e2 4c c5 3d 00 54 40 3b 00 71 32 3c 78 3f b5 bc
       0.09633805 0.0029346943 0.010891199 -0.02212499
000330 b8 1c 8b 3c d0 a8 7a 3d f4 bb 62 3d e0 9c 0d be
       0.016981468 0.06119615 0.055355027 -0.13829374
000340 56 83 f7 bd d0 89 57 bc 41 98 03 3e 92 84 df bd
       -0.12085597 -0.013155416 0.12851049 -0.10913958
000350 90 6e b3 3c 8e b4 95 bd e8 ed 5f bd 50 80 98 bc
       0.021903306 -0.07309829 -0.054670244 -0.018615872
000360 c6 fb aa 3d 80 de eb bb 16 8b ea 3d e0 9b f2 bd
       0.08348803 -0.007198155 0.1145231 -0.11846137
000370 d4 1b 18 bd fe 32 da 3d 40 80 10 3c 44 da 2c bd
       -0.037135914 0.10654257 0.00881964 -0.04220034
000380 12 95 af 3d 60 d2 11 be bd 5b bc bd 00 6e 2d bc
       0.08573355 -0.14240408 -0.09197185 -0.010585308
000390 80 48 f4 3a 6c 35 09 be d1 95 89 bd 60 c3 6b bc
       0.0018637329 -0.13399285 -0.06718028 -0.014389843
0003a0 f6 24 0c be 6a f2 f8 bd 6e d0 f6 3d b8 63 d7 bd
       -0.13685974 -0.12155612 0.120514736 -0.10517067
0003b0 46 fa 16 be b0 78 21 3c 80 34 a4 bb e6 41 e7 3d
       -0.14743909 0.009855434 -0.0050111413 0.11291866
0003c0 fa c4 06 be 44 55 42 3d 7a 14 5d bd 6d f0 12 3e
       -0.13161078 0.047444597 -0.053974606 0.14349528
0003d0 fc cb b8 bd 40 1c bf 3c 08 ca 97 3c df cb 10 be
       -0.09023282 0.0233289 0.018528953 -0.1414027
0003e0 80 c4 c9 3b 20 ff 71 bc 71 4b b9 bd 00 ad a6 bb
       0.006157458 -0.014770299 -0.090475924 -0.005086541
0003f0 a3 cb ff bd 5c 3c 80 bd e5 06 10 3e 00 38 2c 3a
       -0.124900125 -0.06261513 0.1406513 0.0006569624

onnx::LSTM_118 f4 [1, 1024]
000000 00 00 00 00 00 00 00 00 00 00 00 00 00 00 00 00
       0.0 0.0 0.0 0.0
000010 00 00 00 00 00 00 00 00 00 00 00 00 00 00 00 00
       0.0 0.0 0.0 0.0
000020 00 00 00 00 00 00 00 00 00 00 00 00 00 00 00 00
       0.0 0.0 0.0 0.0
000030 00 00 00 00 00 00 00 00 00 00 00 00 00 00 00 00
       0.0 0.0 0.0 0.0
000040 00 00 00 00 00 00 00 00 00 00 00 00 00 00 00 00
       0.0 0.0 0.0 0.0
000050 00 00 00 00 00 00 00 00 00 00 00 00 00 00 00 00
       0.0 0.0 0.0 0.0
000060 00 00 00 00 00 00 00 00 00 00 00 00 00 00 00 00
       0.0 0.0 0.0 0.0
000070 00 00 00 00 00 00 00 00 00 00 00 00 00 00 00 00
       0.0 0.0 0.0 0.0
000080 00 00 00 00 00 00 00 00 00 00 00 00 00 00 00 00
       0.0 0.0 0.0 0.0
000090 00 00 00 00 00 00 00 00 00 00 00 00 00 00 00 00
       0.0 0.0 0.0 0.0
0000a0 00 00 00 00 00 00 00 00 00 00 00 00 00 00 00 00
       0.0 0.0 0.0 0.0
0000b0 00 00 00 00 00 00 00 00 00 00 00 00 00 00 00 00
       0.0 0.0 0.0 0.0
0000c0 00 00 00 00 00 00 00 00 00 00 00 00 00 00 00 00
       0.0 0.0 0.0 0.0
0000d0 00 00 00 00 00 00 00 00 00 00 00 00 00 00 00 00
       0.0 0.0 0.0 0.0
0000e0 00 00 00 00 00 00 00 00 00 00 00 00 00 00 00 00
       0.0 0.0 0.0 0.0
0000f0 00 00 00 00 00 00 00 00 00 00 00 00 00 00 00 00
       0.0 0.0 0.0 0.0
000100 00 00 00 00 00 00 00 00 00 00 00 00 00 00 00 00
       0.0 0.0 0.0 0.0
000110 00 00 00 00 00 00 00 00 00 00 00 00 00 00 00 00
       0.0 0.0 0.0 0.0
000120 00 00 00 00 00 00 00 00 00 00 00 00 00 00 00 00
       0.0 0.0 0.0 0.0
000130 00 00 00 00 00 00 00 00 00 00 00 00 00 00 00 00
       0.0 0.0 0.0 0.0
000140 00 00 00 00 00 00 00 00 00 00 00 00 00 00 00 00
       0.0 0.0 0.0 0.0
000150 00 00 00 00 00 00 00 00 00 00 00 00 00 00 00 00
       0.0 0.0 0.0 0.0
000160 00 00 00 00 00 00 00 00 00 00 00 00 00 00 00 00
       0.0 0.0 0.0 0.0
000170 00 00 00 00 00 00 00 00 00 00 00 00 00 00 00 00
       0.0 0.0 0.0 0.0
000180 00 00 00 00 00 00 00 00 00 00 00 00 00 00 00 00
       0.0 0.0 0.0 0.0
000190 00 00 00 00 00 00 00 00 00 00 00 00 00 00 00 00
       0.0 0.0 0.0 0.0
0001a0 00 00 00 00 00 00 00 00 00 00 00 00 00 00 00 00
       0.0 0.0 0.0 0.0
0001b0 00 00 00 00 00 00 00 00 00 00 00 00 00 00 00 00
       0.0 0.0 0.0 0.0
0001c0 00 00 00 00 00 00 00 00 00 00 00 00 00 00 00 00
       0.0 0.0 0.0 0.0
0001d0 00 00 00 00 00 00 00 00 00 00 00 00 00 00 00 00
       0.0 0.0 0.0 0.0
0001e0 00 00 00 00 00 00 00 00 00 00 00 00 00 00 00 00
       0.0 0.0 0.0 0.0
0001f0 00 00 00 00 00 00 00 00 00 00 00 00 00 00 00 00
       0.0 0.0 0.0 0.0
000200 00 00 00 00 00 00 00 00 00 00 00 00 00 00 00 00
       0.0 0.0 0.0 0.0
000210 00 00 00 00 00 00 00 00 00 00 00 00 00 00 00 00
       0.0 0.0 0.0 0.0
000220 00 00 00 00 00 00 00 00 00 00 00 00 00 00 00 00
       0.0 0.0 0.0 0.0
000230 00 00 00 00 00 00 00 00 00 00 00 00 00 00 00 00
       0.0 0.0 0.0 0.0
000240 00 00 00 00 00 00 00 00 00 00 00 00 00 00 00 00
       0.0 0.0 0.0 0.0
000250 00 00 00 00 00 00 00 00 00 00 00 00 00 00 00 00
       0.0 0.0 0.0 0.0
000260 00 00 00 00 00 00 00 00 00 00 00 00 00 00 00 00
       0.0 0.0 0.0 0.0
000270 00 00 00 00 00 00 00 00 00 00 00 00 00 00 00 00
       0.0 0.0 0.0 0.0
000280 00 00 00 00 00 00 00 00 00 00 00 00 00 00 00 00
       0.0 0.0 0.0 0.0
000290 00 00 00 00 00 00 00 00 00 00 00 00 00 00 00 00
       0.0 0.0 0.0 0.0
0002a0 00 00 00 00 00 00 00 00 00 00 00 00 00 00 00 00
       0.0 0.0 0.0 0.0
0002b0 00 00 00 00 00 00 00 00 00 00 00 00 00 00 00 00
       0.0 0.0 0.0 0.0
0002c0 00 00 00 00 00 00 00 00 00 00 00 00 00 00 00 00
       0.0 0.0 0.0 0.0
0002d0 00 00 00 00 00 00 00 00 00 00 00 00 00 00 00 00
       0.0 0.0 0.0 0.0
0002e0 00 00 00 00 00 00 00 00 00 00 00 00 00 00 00 00
       0.0 0.0 0.0 0.0
0002f0 00 00 00 00 00 00 00 00 00 00 00 00 00 00 00 00
       0.0 0.0 0.0 0.0
000300 00 00 00 00 00 00 00 00 00 00 00 00 00 00 00 00
       0.0 0.0 0.0 0.0
000310 00 00 00 00 00 00 00 00 00 00 00 00 00 00 00 00
       0.0 0.0 0.0 0.0
000320 00 00 00 00 00 00 00 00 00 00 00 00 00 00 00 00
       0.0 0.0 0.0 0.0
000330 00 00 00 00 00 00 00 00 00 00 00 00 00 00 00 00
       0.0 0.0 0.0 0.0
000340 00 00 00 00 00 00 00 00 00 00 00 00 00 00 00 00
       0.0 0.0 0.0 0.0
000350 00 00 00 00 00 00 00 00 00 00 00 00 00 00 00 00
       0.0 0.0 0.0 0.0
000360 00 00 00 00 00 00 00 00 00 00 00 00 00 00 00 00
       0.0 0.0 0.0 0.0
000370 00 00 00 00 00 00 00 00 00 00 00 00 00 00 00 00
       0.0 0.0 0.0 0.0
000380 00 00 00 00 00 00 00 00 00 00 00 00 00 00 00 00
       0.0 0.0 0.0 0.0
000390 00 00 00 00 00 00 00 00 00 00 00 00 00 00 00 00
       0.0 0.0 0.0 0.0
0003a0 00 00 00 00 00 00 00 00 00 00 00 00 00 00 00 00
       0.0 0.0 0.0 0.0
0003b0 00 00 00 00 00 00 00 00 00 00 00 00 00 00 00 00
       0.0 0.0 0.0 0.0
0003c0 00 00 00 00 00 00 00 00 00 00 00 00 00 00 00 00
       0.0 0.0 0.0 0.0
0003d0 00 00 00 00 00 00 00 00 00 00 00 00 00 00 00 00
       0.0 0.0 0.0 0.0
0003e0 00 00 00 00 00 00 00 00 00 00 00 00 00 00 00 00
       0.0 0.0 0.0 0.0
0003f0 00 00 00 00 00 00 00 00 00 00 00 00 00 00 00 00
       0.0 0.0 0.0 0.0
