results/try-18/My Behavior/My Behavior-2257.onnx (onnx, 693209 bytes, 10 tensors)

network_body._body_endoder.seq_layers.0.weight f4 [128, 122]
0	0xbc627df0	-0.013823971
1	0xbe08ec99	-0.13371505
2	0xbe414d23	-0.18877082
3	0x3c6a39a0	0.014295965
4	0x3de7c627	0.113170914
5	0x3d7d8543	0.061894666
6	0xbd9d8deb	-0.07693084
7	0x3e3d15ca	0.18465343
8	0x3d865013	0.06558242
9	0x3b48f294	0.0030662166
10	0x3c1606ef	0.009156927
11	0x3cb0753f	0.021540282
12	0xbdfeffe8	-0.12451154
13	0xbe1e9bce	-0.15489122
14	0xbce91f09	-0.028457182
15	0xbd9bae89	-0.07601649
16	0xbd951cd1	-0.07280887
17	0x3c2647a8	0.01014892
18	0xbd666258	-0.05624613
19	0x3d7b12db	0.06129728
20	0xbd931cc3	-0.0718322
21	0xbb89a8c9	-0.004201029
22	0xbcf10bbd	-0.029424543
23	0xbd4a5b0c	-0.049403235
24	0x3d9f2e53	0.077725075
25	0xbd256dce	-0.04038792
26	0xbe03ab39	-0.12858285
27	0xbd88d5c5	-0.06681398
28	0xbd6fc60b	-0.058538478
29	0xbd82dcb4	-0.06389752
30	0x3d20701b	0.039169412
31	0x3d40b710	0.047049582
32	0x3e558989	0.20853247
33	0x3ce4ef90	0.027946264
34	0x3e377379	0.17915143
35	0x3ae54c4b	0.001749405
36	0x3d61ff07	0.055174854
37	0x3e56748e	0.209429
38	0xbe5f1fee	-0.21789524
39	0x3d707ed3	0.0587147
40	0x3d522dc9	0.051313195
41	0x3dbc3503	0.09189799
42	0xbd934d76	-0.07192509
43	0x3d46f701	0.048575405
44	0x3d96f532	0.07370986
45	0xbdc3e800	-0.09565735
46	0xbd508c64	-0.050915137
47	0xbdead5de	-0.11466573
48	0xbd9fa071	-0.07794274
49	0x3d274e6f	0.040846284
50	0xbe4ba5ab	-0.19887416
51	0x3df00e3b	0.11721464
52	0xbbed20bd	-0.0072365687
53	0xbd07b1d2	-0.033128567
54	0xbdadc20e	-0.084842786
55	0xbdfba13f	-0.122866146
56	0x3dedc525	0.11609868
57	0xbe14315b	-0.14471953
58	0xbe09ab5d	-0.13444276
59	0x3ce91e58	0.028456852
60	0x3de3b4df	0.11118483
61	0x3d39303e	0.045212023
62	0xbdd6af51	-0.10482658
63	0xbe16b1b7	-0.1471623
64	0x3d5dd9a8	0.05416265
65	0xbddc351d	-0.10752318
66	0x3bdb4223	0.0066912337
67	0x3d5827c2	0.05277229
68	0x3d03d39d	0.032184232
69	0x3b23cbff	0.0024993417
70	0xbe185b2a	-0.14878526
71	0xbbccef5d	-0.0062541203
72	0xbe0ff88e	-0.1405966
73	0xbd0e993f	-0.034814116
74	0x3b3e6a2a	0.0029054978
75	0xbcd63f19	-0.026153134
76	0xbde46a21	-0.11153055
77	0x3d8bb9fb	0.06822582
78	0x3daefe47	0.08544593
79	0x3d122a28	0.035684735
80	0x3e71edbe	0.23625848
81	0xbdad8870	-0.08473289
82	0xbcbe25e2	-0.023211423
83	0x3cacf255	0.021111647
84	0xbcb69b53	-0.022290861
85	0x3e171716	0.147549
86	0x3ce0ec54	0.02745644
87	0xbdb0e9af	-0.086383216
88	0xbdd9b5e2	-0.106303945
89	0x3d8f1838	0.06987041
90	0x3c9ce653	0.019152796
91	0xbe29a91a	-0.16568413
92	0x3d366fe6	0.04454031
93	0x3e3b77b4	0.18307382
94	0xbd01e3a0	-0.03171122
95	0x3cef2530	0.029192537
96	0xbd4349fe	-0.047677986
97	0x3bbbf58c	0.0057360586
98	0xbcbb4ae0	-0.022862852
99	0xbe0431ae	-0.12909576
100	0xbd4e3f62	-0.050353415
101	0xbd30488a	-0.04303793
102	0xbe32005b	-0.17382948
103	0xbdd627ac	-0.104567856
104	0xbc7a76a3	-0.015287074
105	0xbda3fbeb	-0.08007034
106	0xbdbe18ab	-0.09282049
107	0xbcdc645b	-0.026903322
108	0x3cbb0aa1	0.022832217
109	0xbc703e32	-0.014663266
110	0x3d8cd9d3	0.06877484
111	0xbc022153	-0.007942515
112	0x3dbbda93	0.09172549
113	0xbd86c0d3	-0.06579747
114	0x3d11df59	0.03561339
115	0x3d5d0821	0.05396283
116	0xbd97625c	-0.073918074
117	0xbe0d6826	-0.1380926
118	0x3d16805c	0.036743507
119	0xbe33aa99	-0.17545547
120	0x3e338738	0.1753205
121	0xbdee372e	-0.116316184
122	0x3e0b4e31	0.13604046
123	0xbd8eb794	-0.069686085
124	0x3e741b40	0.2383852
125	0x3e0a9d71	0.13536622
126	0xbe26a6fa	-0.16274634
127	0x3e2eb152	0.1705983
128	0xbd9ad98b	-0.07561024
129	0x3ddc8204	0.10766986
130	0xbde42a1a	-0.11140843
131	0x3b610221	0.0034333544
132	0xbe0daf09	-0.13836302
133	0xbd6dc9bc	-0.058053717
134	0xbdfd1364	-0.12357214
135	0xbbeabc14	-0.007163534
136	0xbe4806fc	-0.19533914
137	0xbd7f09ac	-0.062265083
138	0x3df693af	0.12039887
139	0x3e0e6099	0.13904037
140	0xbd661d4a	-0.056180276
141	0xbdcdefd7	-0.100555114
142	0x3d709f81	0.058745865
143	0x3cf53e76	0.02993701
144	0xbd345973	-0.044030618
145	0x3dbc568d	0.09196196
146	0x3c4adebb	0.012382205
147	0x3d0c838c	0.03430514
148	0xbdb0d00b	-0.08633431
149	0xbb51950e	-0.0031979713
150	0x3e11ce0a	0.14238754
151	0xbdb13f74	-0.08654681
152	0xbd037035	-0.03208943
153	0xbd6e59a7	-0.058190968
154	0x3d855af9	0.06511492
155	0x3dbaabdb	0.0911481
156	0x3d8a05fe	0.06739424
157	0x3ea132fc	0.3148421
158	0xbe4f5302	-0.20246509
159	0xbd02a8c2	-0.03189922
160	0xbccf8cbe	-0.025335666
161	0xbd83cc78	-0.06435484
162	0x3e0e26a7	0.13881932
163	0xbe1e7b57	-0.15476738
164	0x3d360e6a	0.04444734
165	0x3c8a3d77	0.016875012
166	0x3db069d6	0.086139366
167	0x3d20e436	0.03928014
168	0x3cf1e24c	0.029526852
169	0x3cc1a192	0.023636613
170	0xbe055f78	-0.130247
171	0xbc5b213d	-0.013374624
172	0x3e591dea	0.21202818
173	0x3e285382	0.16438106
174	0x3d12bc7f	0.035824295
175	0xbe28e48b	-0.16493432
176	0x3e1d821f	0.15381669
177	0xbc532ad8	-0.012888633
178	0x3dc83069	0.097748585
179	0xbdbdc572	-0.09266175
180	0xbde49a10	-0.111621976
181	0xbce09196	-0.02741317
182	0xbd801ded	-0.06255708
183	0x3c83f234	0.016106702
184	0xbcd71da0	-0.026259243
185	0x3c6ba09f	0.014381557
186	0x3d6055bb	0.05476926
187	0xbcf29108	-0.029610172
188	0x3df036cc	0.11729202
189	0x3d93ca40	0.072163105
190	0xbd34e236	-0.044161044
191	0xbd55d73f	-0.052207228
192	0x3c207ff6	0.009796133
193	0xbdbef3d3	-0.093238495
194	0x3e0ae4a5	0.13563783
195	0x3e281051	0.16412474
196	0x3d62d172	0.055375524
197	0x3d93f914	0.07225242
198	0xbd164116	-0.036683165
199	0xbe075978	-0.13217723
200	0x3cce1f34	0.025161363
201	0xbc2b8fcc	-0.010471296
202	0x3dcc9a00	0.09990311
203	0x3cb5cc9a	0.022192288
204	0x3d631109	0.055436168
205	0x3d5438a8	0.051811844
206	0x3dce7fbb	0.100829564
207	0x3d625515	0.05525692
208	0x3d17eb64	0.03708972
209	0xbd52b3b7	-0.05144092
210	0x3d25f75c	0.040519103
211	0x3cce19ca	0.025158782
212	0x3cd1d379	0.025613533
213	0xbd7ec8f5	-0.062203366
214	0x3d8a677b	0.067580186
215	0xbdc2b6a3	-0.095074914
216	0x3dd40777	0.10352986
217	0xbd85d2e7	-0.06534367
218	0xbb04dd0e	-0.002027336
219	0x3d7bd364	0.061480895
220	0x3d3afb33	0.04564972
221	0x3e256a17	0.16153751
222	0xbc367d46	-0.011138266
223	0x3c9035b1	0.017603727
224	0x3cf4a9f4	0.029866196
225	0x3b6bdb76	0.0035988963
226	0x3cafb5a6	0.021448921
227	0x3de7026d	0.112797596
228	0xbd93798b	-0.07200917
229	0xbd57903c	-0.052627787
230	0xbd5b2801	-0.053504948
231	0x3e2b4ab8	0.16727722
232	0xbcf31b54	-0.029676117
233	0xbc8ce427	-0.017198635
234	0xbcafc090	-0.021454126
235	0xbdf3e3c8	-0.1190868
236	0x3d6ce908	0.057839423
237	0xbc1553f4	-0.009114254
238	0x3d6a6c6f	0.057232317
239	0x3d4c1f40	0.04983449
240	0xbd88689f	-0.0666058
241	0x3d88ef55	0.06686274
242	0x3cf34d4e	0.029699948
243	0x3e1a2c7c	0.15056032
244	0xbd7fb6d8	-0.062430233
245	0x3cafd375	0.021463135
246	0x3da7acd4	0.08187261
247	0x3d45ad65	0.048261065
248	0xba7d8672	-0.0009671218
249	0x3de093a1	0.10965658
250	0x3da161b6	0.07879965
251	0x3dc1fb95	0.094718136
252	0x3c321242	0.010868611
253	0xbe02b1a6	-0.1276308
254	0x3c94b587	0.018152965
255	0xbdcf862d	-0.10133014

network_body._body_endoder.seq_layers.0.bias f4 [128]
0	0x00000000	0.0
1	0x00000000	0.0
2	0x00000000	0.0
3	0x00000000	0.0
4	0x00000000	0.0
5	0x00000000	0.0
6	0x00000000	0.0
7	0x00000000	0.0
8	0x00000000	0.0
9	0x00000000	0.0
10	0x00000000	0.0
11	0x00000000	0.0
12	0x00000000	0.0
13	0x00000000	0.0
14	0x00000000	0.0
15	0x00000000	0.0
16	0x00000000	0.0
17	0x00000000	0.0
18	0x00000000	0.0
19	0x00000000	0.0
20	0x00000000	0.0
21	0x00000000	0.0
22	0x00000000	0.0
23	0x00000000	0.0
24	0x00000000	0.0
25	0x00000000	0.0
26	0x00000000	0.0
27	0x00000000	0.0
28	0x00000000	0.0
29	0x00000000	0.0
30	0x00000000	0.0
31	0x00000000	0.0
32	0x00000000	0.0
33	0x00000000	0.0
34	0x00000000	0.0
35	0x00000000	0.0
36	0x00000000	0.0
37	0x00000000	0.0
38	0x00000000	0.0
39	0x00000000	0.0
40	0x00000000	0.0
41	0x00000000	0.0
42	0x00000000	0.0
43	0x00000000	0.0
44	0x00000000	0.0
45	0x00000000	0.0
46	0x00000000	0.0
47	0x00000000	0.0
48	0x00000000	0.0
49	0x00000000	0.0
50	0x00000000	0.0
51	0x00000000	0.0
52	0x00000000	0.0
53	0x00000000	0.0
54	0x00000000	0.0
55	0x00000000	0.0
56	0x00000000	0.0
57	0x00000000	0.0
58	0x00000000	0.0
59	0x00000000	0.0
60	0x00000000	0.0
61	0x00000000	0.0
62	0x00000000	0.0
63	0x00000000	0.0
64	0x00000000	0.0
65	0x00000000	0.0
66	0x00000000	0.0
67	0x00000000	0.0
68	0x00000000	0.0
69	0x00000000	0.0
70	0x00000000	0.0
71	0x00000000	0.0
72	0x00000000	0.0
73	0x00000000	0.0
74	0x00000000	0.0
75	0x00000000	0.0
76	0x00000000	0.0
77	0x00000000	0.0
78	0x00000000	0.0
79	0x00000000	0.0
80	0x00000000	0.0
81	0x00000000	0.0
82	0x00000000	0.0
83	0x00000000	0.0
84	0x00000000	0.0
85	0x00000000	0.0
86	0x00000000	0.0
87	0x00000000	0.0
88	0x00000000	0.0
89	0x00000000	0.0
90	0x00000000	0.0
91	0x00000000	0.0
92	0x00000000	0.0
93	0x00000000	0.0
94	0x00000000	0.0
95	0x00000000	0.0
96	0x00000000	0.0
97	0x00000000	0.0
98	0x00000000	0.0
99	0x00000000	0.0
100	0x00000000	0.0
101	0x00000000	0.0
102	0x00000000	0.0
103	0x00000000	0.0
104	0x00000000	0.0
105	0x00000000	0.0
106	0x00000000	0.0
107	0x00000000	0.0
108	0x00000000	0.0
109	0x00000000	0.0
110	0x00000000	0.0
111	0x00000000	0.0
112	0x00000000	0.0
113	0x00000000	0.0
114	0x00000000	0.0
115	0x00000000	0.0
116	0x00000000	0.0
117	0x00000000	0.0
118	0x00000000	0.0
119	0x00000000	0.0
120	0x00000000	0.0
121	0x00000000	0.0
122	0x00000000	0.0
123	0x00000000	0.0
124	0x00000000	0.0
125	0x00000000	0.0
126	0x00000000	0.0
127	0x00000000	0.0

network_body._body_endoder.seq_layers.2.weight f4 [128, 128]
0	0xbe039f1c	-0.12853664
1	0x3db84b7f	0.08998775
2	0xbcc26556	-0.023729961
3	0x3e0a74bc	0.13521093
4	0xbd9f612f	-0.07782208
5	0x3e12cf74	0.1433695
6	0x3c7d15e2	0.015447112
7	0xbda5bf26	-0.08093099
8	0xbe703720	-0.23458529
9	0xbd20cea7	-0.03925958
10	0xbd4edb22	-0.05050195
11	0x3cc43d1e	0.023954924
12	0x3df96d22	0.121790186
13	0x39f243ad	0.0004620826
14	0x3d92d8e4	0.07170275
15	0xbe32ea48	-0.17472184
16	0x3e15c00d	0.14624043
17	0xbd4c28d9	-0.049843643
18	0xbdee133c	-0.116247624
19	0xbce673ef	-0.028131453
20	0x3d0286e3	0.03186692
21	0xbdd39979	-0.10332007
22	0x3caa2bd4	0.020772852
23	0xbd08a0ee	-0.0333566
24	0x3d8db875	0.06919948
25	0x3e0a96e5	0.13534124
26	0x3e2b6ee7	0.16741525
27	0x3c45b5fb	0.012067313
28	0x3e1f0fb7	0.15533338
29	0x3d1ec47f	0.038761612
30	0xbc8855f8	-0.016642556
31	0xbd247cd2	-0.0401581
32	0x3e05f7d0	0.13082814
33	0xba734d4c	-0.00092812325
34	0xbdedd9ce	-0.116138086
35	0xbd013989	-0.03154901
36	0x3d28a15b	0.041169506
37	0xbdb16979	-0.086626954
38	0x3d05e8a3	0.032692563
39	0xbda399fe	-0.07988356
40	0xbd114122	-0.035462506
41	0xbd7a4ba5	-0.061107296
42	0x3cf2b603	0.029627806
43	0xbca5bf9e	-0.020232972
44	0x3d9919cc	0.074756235
45	0x3d2c3525	0.04204287
46	0xbda4c388	-0.08045107
47	0xbca98287	-0.020692123
48	0x3c9aca24	0.018895216
49	0xbd0c6f77	-0.03428599
50	0xbd05c4ae	-0.03265827
51	0x3da87d2e	0.08227001
52	0xbe1e6cef	-0.15471242
53	0x3da7ff13	0.082029484
54	0x3ba85c02	0.0051379213
55	0x3da1067f	0.07862567
56	0x3e001856	0.12509283
57	0x3e3c7603	0.18404393
58	0xbcc04ebc	-0.023475043
59	0x3e0ad289	0.13556875
60	0x3d2630cd	0.040573884
61	0x3dbbb57c	0.09165475
62	0x3e2de6e6	0.16982612
63	0xbcf54a4c	-0.029942654
64	0xbdb5062e	-0.08839069
65	0x3c901e2a	0.017592508
66	0x3bab3d90	0.0052258447
67	0xbce94bdb	-0.028478554
68	0xbc70c9b3	-0.014696526
69	0xbdecae13	-0.115566395
70	0xbd80812e	-0.06274639
71	0xbd9f922f	-0.07791554
72	0xbd2735ef	-0.04082292
73	0x3d5f7756	0.054557167
74	0xbdc175aa	-0.09446271
75	0xbd3d9eb5	-0.046293933
76	0x3e2107cb	0.15725629
77	0x3e861b02	0.2619248
78	0x3c198506	0.009370094
79	0x3c204a41	0.0097833285
80	0x3d65d58b	0.056111854
81	0x3d8367c9	0.0641628
82	0xbe192bfb	-0.14958183
83	0x3d18d964	0.037316695
84	0x3cdfc4e0	0.027315557
85	0x3dceee2d	0.10104022
86	0x3d542720	0.051795125
87	0x3b0d43fb	0.0021555412
88	0xbd863565	-0.06553153
89	0x3cc73d8b	0.024321338
90	0xbc725270	-0.014790162
91	0xbde96331	-0.113958724
92	0x3cbe7b73	0.023252225
93	0xbe209db6	-0.15685162
94	0x3b24de0c	0.0025156764
95	0xbd033c57	-0.032039966
96	0xbd31508e	-0.043289714
97	0x3d94e934	0.072710425
98	0x3db4f290	0.088353276
99	0xbd0120f3	-0.031525563
100	0x3cd2f184	0.02574993
101	0xbbe4bf50	-0.006980814
102	0x3c2d0968	0.010561325
103	0x3d441a45	0.047876615
104	0x3bbd0484	0.0057683606
105	0x3e3f5e2f	0.18688272
106	0xbbdb9b13	-0.006701836
107	0x3c591477	0.013249508
108	0xbd8bf209	-0.06833274
109	0x3da60a6d	0.08107457
110	0xbe1680fe	-0.14697644
111	0x3d31702c	0.043319866
112	0xbd140b7f	-0.036143776
113	0xbb608db7	-0.0034264156
114	0xbd9fe512	-0.078073636
115	0xbdc10516	-0.09424798
116	0xbde3688c	-0.11103925
117	0x3c0833da	0.008313144
118	0xbb0f0308	-0.0021821875
119	0x3d9420de	0.072328314
120	0xb5d66531	-1.5973693e-06
121	0xbe1b8cfd	-0.15190502
122	0xbe49b1b1	-0.1969669
123	0xbd01a036	-0.03164693
124	0xbdb3a674	-0.08771983
125	0xbde979fc	-0.1140022
126	0x3dc3a89c	0.09553644
127	0xbc79552e	-0.015218062
128	0x3d54536f	0.05183738
129	0xbdba80e6	-0.09106617
130	0x3d9ae18d	0.07562552
131	0x3d9daba1	0.07698751
132	0xbde00e5a	-0.10940237
133	0x3e003e59	0.12523784
134	0x3d74c68e	0.05975967
135	0xbc92499d	-0.017857367
136	0x3d860fb9	0.065459676
137	0xbdfef127	-0.1244834
138	0xbe1b4100	-0.15161514
139	0xbd934440	-0.07190752
140	0x3e707153	0.2348073
141	0x3c75fc24	0.015013728
142	0x3df337e4	0.11875895
143	0xbc557e78	-0.013030641
144	0x3d4f9236	0.050676547
145	0xbbc4e15f	-0.0060083116
146	0xbcb09920	-0.02155739
147	0xbddc156f	-0.10746276
148	0xbd8742d6	-0.06604545
149	0xbdb574dc	-0.0886018
150	0xbe13a0b0	-0.14416766
151	0xbc4b3c6b	-0.0124045415
152	0x3c297e37	0.010345033
153	0xbdd1a00a	-0.10235603
154	0xbac48689	-0.0014993708
155	0xbe2eb757	-0.17062126
156	0x3db1fdf7	0.08691018
157	0xbdac3040	-0.084076405
158	0xbdee5475	-0.11637203
159	0xbe0780a6	-0.13232669
160	0xbd520ca1	-0.051281575
161	0xbd9d0ebf	-0.07668828
162	0x3cbeffe3	0.023315376
163	0x3dcbc6ec	0.09950051
164	0xbd613c4c	-0.054989144
165	0xbca270ef	-0.019829242
166	0xbe2e94f0	-0.17049003
167	0x3d141983	0.036157142
168	0xbd93ba7a	-0.07213302
169	0xbd55ea99	-0.052225683
170	0x3e48a74c	0.19595069
171	0xbdbeb389	-0.09311587
172	0xbc2e1c8e	-0.010626925
173	0x3d550e0a	0.05201534
174	0xbe394b3f	-0.1809511
175	0xbcffe69d	-0.031237895
176	0x3dd421fe	0.10358046
177	0x3da195b3	0.07889881
178	0xbb866bc4	-0.004102202
179	0x3d94c665	0.07264403
180	0xbd4e3b33	-0.050349426
181	0x3b45bada	0.0030171187
182	0x3c8f85cc	0.017519854
183	0x3d8fb9e3	0.07017877
184	0x3d4e2f44	0.050338045
185	0xbe138b0b	-0.1440851
186	0x3d00e7ac	0.03147094
187	0xbda2d578	-0.07950872
188	0xbd4cee1e	-0.050031774
189	0x3d4c4107	0.049866702
190	0xbd8c7842	-0.06858875
191	0x3cc1dc8e	0.023664739
192	0xbb8c6fc1	-0.004285783
193	0xbe417e45	-0.18895824
194	0x3dc3698b	0.09541615
195	0xbce4e8e0	-0.027943075
196	0x3da2057f	0.079112045
197	0x3e1d93d3	0.15388422
198	0x3c7ba737	0.015359691
199	0x3ca2bec7	0.01986636
200	0x3d2021b7	0.039094653
201	0xbdb3fb97	-0.08788221
202	0x3c924ef3	0.017859912
203	0x3dadcc69	0.08486254
204	0x3d9fbfd4	0.0780026
205	0xbcf26dcd	-0.029593373
206	0x3da68c0d	0.08132181
207	0xbd8624e8	-0.06550008
208	0x3e176672	0.14785174
209	0x3e28f61b	0.16500132
210	0x3c90076e	0.017581668
211	0x3d28ce6d	0.041212488
212	0xbbbf88ef	-0.005845181
213	0x3d1d327b	0.03837822
214	0x3deb759d	0.11497042
215	0xbc50edcb	-0.012752007
216	0x3bd97e24	0.0066373516
217	0xbd94153e	-0.07230614
218	0x3e3b49a7	0.18289815
219	0x3dad4150	0.08459723
220	0xbd4b3822	-0.04961408
221	0xbd1c0a8a	-0.03809599
222	0xbd6ec3d0	-0.05829221
223	0xbd643027	-0.055709984
224	0xbd517fa5	-0.051147122
225	0x3d17a951	0.037026707
226	0xbd3030fa	-0.043015458
227	0x3d9501e6	0.07275753
228	0xbd0e8720	-0.034796834
229	0xbd80d4fb	-0.06290623
230	0x3cabf626	0.020991396
231	0x3daac2d4	0.08337942
232	0x3dd11a20	0.10210061
233	0xbd05640b	-0.03256611
234	0x3caf472e	0.021396246
235	0xbe050988	-0.12991917
236	0x3e1b50a0	0.15167475
237	0xbda26954	-0.07930246
238	0xbcee3167	-0.029076291
239	0x3de4203b	0.1113896
240	0x3d07628e	0.033052973
241	0xbbf406f9	-0.0074471203
242	0xbe19cb54	-0.1501897
243	0xbcbb615c	-0.022873573
244	0xbdedffc6	-0.116210505
245	0x3c8c1f13	0.017104661
246	0xbcb11211	-0.02161506
247	0xbc19fdd7	-0.009398899
248	0x3df601f1	0.12012089
249	0x3de9d4a9	0.11417515
250	0x3be20e7b	0.006898699
251	0x3cef1efc	0.02918958
252	0x3beb4454	0.007179776
253	0x3da1ecdc	0.079065055
254	0xbd4665a7	-0.048436787
255	0xbe0bb82c	-0.13644475

action_model._continuous_distribution.log_sigma f4 [1, 51]
0	0x00000000	0.0
1	0x00000000	0.0
2	0x00000000	0.0
3	0x00000000	0.0
4	0x00000000	0.0
5	0x00000000	0.0
6	0x00000000	0.0
7	0x00000000	0.0
8	0x00000000	0.0
9	0x00000000	0.0
10	0x00000000	0.0
11	0x00000000	0.0
12	0x00000000	0.0
13	0x00000000	0.0
14	0x00000000	0.0
15	0x00000000	0.0
16	0x00000000	0.0
17	0x00000000	0.0
18	0x00000000	0.0
19	0x00000000	0.0
20	0x00000000	0.0
21	0x00000000	0.0
22	0x00000000	0.0
23	0x00000000	0.0
24	0x00000000	0.0
25	0x00000000	0.0
26	0x00000000	0.0
27	0x00000000	0.0
28	0x00000000	0.0
29	0x00000000	0.0
30	0x00000000	0.0
31	0x00000000	0.0
32	0x00000000	0.0
33	0x00000000	0.0
34	0x00000000	0.0
35	0x00000000	0.0
36	0x00000000	0.0
37	0x00000000	0.0
38	0x00000000	0.0
39	0x00000000	0.0
40	0x00000000	0.0
41	0x00000000	0.0
42	0x00000000	0.0
43	0x00000000	0.0
44	0x00000000	0.0
45	0x00000000	0.0
46	0x00000000	0.0
47	0x00000000	0.0
48	0x00000000	0.0
49	0x00000000	0.0
50	0x00000000	0.0

action_model._continuous_distribution.mu.weight f4 [51, 128]
0	0xbc02291c	-0.007944372
1	0x3bd4e70b	0.006497269
2	0xb9cf9667	-0.00039594175
3	0xbc80e595	-0.015734473
4	0xbb4d8e5d	-0.0031365373
5	0x3d4cf18b	0.05003504
6	0xbb95ac8c	-0.0045676883
7	0x3ad8d5f5	0.0016543256
8	0xbc8019f0	-0.015637368
9	0x3c253b1f	0.010084896
10	0x3ce6131f	0.02808529
11	0x3c36c127	0.01115445
12	0x3c324f24	0.010883126
13	0xbc160f9f	-0.009158998
14	0xbca46aa9	-0.02007039
15	0xbc247be5	-0.010039304
16	0xbce67c5d	-0.028135473
17	0x39964fd7	0.00028669715
18	0x3acc9c73	0.001561059
19	0x3c40f71c	0.0117776655
20	0xbc6b94e8	-0.014378764
21	0x3bfd9a02	0.0077393064
22	0xbcd0b2a5	-0.02547581
23	0xbbbb5f2b	-0.005718132
24	0x3c4f043b	0.012635286
25	0x3cfb2f5f	0.030662237
26	0xbb1d322d	-0.0023986206
27	0xb98d9be4	-0.00027009763
28	0x3c4df5b7	0.01257079
29	0x3ca9a85f	0.020710168
30	0x3c255a80	0.010092378
31	0x3c0ca108	0.008583315
32	0xbce169cf	-0.027516274
33	0x3c0abd98	0.008468054
34	0x3c748e92	0.01492657
35	0xba8ab4b7	-0.0010582422
36	0xbb7afd65	-0.0038298008
37	0x3c7b357f	0.015332579
38	0x3c23125d	0.009953109
39	0x3cea5b57	0.028608007
40	0x3cabd667	0.020976258
41	0xbc9b9dec	-0.018996201
42	0x3b80fb6f	0.003936223
43	0xbd0b53a0	-0.034015298
44	0xbcb12da3	-0.021628207
45	0xbd8d0d71	-0.06887329
46	0x3a81e437	0.0009909932
47	0xbcd7c072	-0.026336882
48	0x3caa23b1	0.020768972
49	0xbc146551	-0.009057359
50	0xbcfc2507	-0.030779375
51	0xbbc8311e	-0.006109371
52	0xbbcc8e9c	-0.0062425863
53	0xbbf0675a	-0.007336539
54	0x3c163c8b	0.009169708
55	0xbbd129c2	-0.0063831517
56	0xbced1d33	-0.028944587
57	0x3bd60973	0.006531888
58	0x3a547962	0.00081052457
59	0x3b5fabea	0.0034129568
60	0x3ae9c270	0.0017834436
61	0x3c477823	0.012174639
62	0x3c839e5d	0.016066724
63	0xbcc9135f	-0.02454537
64	0xbcac0802	-0.020999912
65	0xbcd070a0	-0.025444329
66	0x3b753425	0.0037415114
67	0xbc9ad0d0	-0.018898398
68	0xb9dc4b7b	-0.00042017907
69	0x3c5b4472	0.013383018
70	0x3c55bcd3	0.0130455075
71	0xbbc6a296	-0.006061862
72	0x3bfa8632	0.007645392
73	0xbc22ec07	-0.009943969
74	0x3c0a06db	0.008424486
75	0xbcc79067	-0.024360849
76	0x3a4921b7	0.00076725654
77	0xba3ff221	-0.0007322152
78	0xbba4e3b6	-0.005032028
79	0xbc434e22	-0.011920484
80	0xbcb645ce	-0.022250082
81	0x3cb170b4	0.021660186
82	0x3ce06978	0.027394041
83	0x3d0a0a83	0.03370143
84	0x3cc1d7f4	0.023662545
85	0xbc58c4bd	-0.0132305
86	0xbc616a80	-0.013758302
87	0x3be90aff	0.0071119065
88	0x3cc91b7a	0.024549235
89	0xbc97f681	-0.01855016
90	0x3c3877bd	0.011259017
91	0x3b31393a	0.0027042166
92	0xbca9d891	-0.02073315
93	0xbcc30c1e	-0.023809489
94	0x3ab54956	0.001383106
95	0x3cc5d726	0.024150442
96	0x3c55c8d5	0.01304837
97	0xbc7a1ea3	-0.015266093
98	0xbc3d15f3	-0.011540878
99	0x3cc9bb83	0.024625545
100	0xbb7827f5	-0.0037865613
101	0x3ce0fd6d	0.027464593
102	0x3bc021d0	0.0058634058
103	0x3c270529	0.010194101
104	0x3cc169fe	0.023610111
105	0xbca3ce56	-0.01999585
106	0x3c7644da	0.015031064
107	0xbb30552f	-0.0026906242
108	0x3d1d0695	0.038336355
109	0xbc98188d	-0.018566394
110	0x3c4247db	0.011857952
111	0x3b577085	0.0032873463
112	0x3abaf4cd	0.001426363
113	0x3d0d871f	0.03455269
114	0x3cdd3680	0.027003527
115	0x3c091ef7	0.008369199
116	0xbb3f1bbd	-0.002916082
117	0xbc282beb	-0.010264377
118	0xbd0582c3	-0.032595407
119	0x3c217b47	0.009856052
120	0x3ca1325a	0.01967733
121	0xbc904e09	-0.017615335
122	0x3d0f3165	0.034959216
123	0xbaea3e27	-0.0017871306
124	0x3ba595b5	0.005053247
125	0xbc1806e2	-0.009278985
126	0x3c48715f	0.012234061
127	0xbd513027	-0.051071312
128	0xbca816f3	-0.020518756
129	0x3cb8798e	0.0225189
130	0xbc263433	-0.010144281
131	0x3c544f50	0.012958363
132	0xbc84c79b	-0.01620846
133	0xba38a29c	-0.00070432737
134	0x3c075d81	0.008262039
135	0xbcbe5e1c	-0.023238234
136	0xbadeecf5	-0.0017007875
137	0xbc43face	-0.011961652
138	0xbc6a3888	-0.014295705
139	0x3c5a87bf	0.013338028
140	0xbbcb93c8	-0.0062126853
141	0xbcf104db	-0.02942126
142	0x3c5fdb30	0.013663098
143	0x3c04066f	0.0080581745
144	0xbae616b7	-0.0017554377
145	0xbc9c73a7	-0.019098116
146	0x3a00576d	0.000489584
147	0x3c1fc183	0.009750727
148	0xbc85032e	-0.016236868
149	0xbc6a086f	-0.014284237
150	0x3c0a8e5d	0.008456794
151	0xbb95cb0f	-0.0045713256
152	0xbcf2109a	-0.029548932
153	0xbb193264	-0.0023375982
154	0xbce0fa22	-0.027463023
155	0xba6263d7	-0.0008636093
156	0xbb6f0afd	-0.0036475055
157	0xbc358089	-0.011078008
158	0x3c9b41b7	0.018952234
159	0xbb713160	-0.0036803111
160	0xbb82830a	-0.003982906
161	0xbd35d3e1	-0.044391517
162	0x3b523878	0.0032077115
163	0xbc1657ba	-0.009176189
164	0xbc504b6b	-0.012713294
165	0x3c462212	0.012093084
166	0xbc0208a1	-0.007936628
167	0xbc9da877	-0.01924537
168	0x3d1ca5af	0.038243946
169	0x3cba0d2b	0.022711357
170	0xbbbfc71b	-0.0058525926
171	0x3d022bbf	0.03178
172	0x3cc8d714	0.02451662
173	0x3bbd9887	0.005786005
174	0x3bb49627	0.0055110636
175	0x3ce787c5	0.028262982
176	0x3aed04f7	0.0018083145
177	0xbc8eac23	-0.017416066
178	0x3d03ca3c	0.032175288
179	0xbd091a4e	-0.03347235
180	0xbb71fb33	-0.0036923408
181	0x3abe59ee	0.0014522651
182	0x3cd5b71f	0.026088296
183	0xbbaa59c8	-0.005198691
184	0x3c49fefd	0.01232886
185	0xbc4fddaa	-0.012687126
186	0x3bcc33e4	0.006231772
187	0xbc90123b	-0.017586818
188	0xbc53de23	-0.0129313795
189	0xbb8bddb3	-0.004268372
190	0xbba00e20	-0.0048844963
191	0x3d0c6dbb	0.034284335
192	0x3c02ad73	0.007975924
193	0x3c8cb877	0.017177803
194	0xbc4d09df	-0.0125145605
195	0xbba4a103	-0.005024077
196	0x3a3f5717	0.0007299049
197	0x3caceb77	0.021108372
198	0x3b5b6ada	0.0033480437
199	0x3b0940cc	0.0020943163
200	0x3d140e3a	0.03614638
201	0xbc839f85	-0.016067276
202	0xbc847c75	-0.016172627
203	0x3c397b7f	0.011320948
204	0xbba5fe7d	-0.0050657378
205	0x39ca3aee	0.00038572348
206	0xbc90db58	-0.017682716
207	0x3cc5d474	0.024149157
208	0x3badf250	0.005308427
209	0x3c6967bb	0.014245923
210	0x3cac278f	0.021014957
211	0x3c2efd2c	0.010680478
212	0xbc0be64d	-0.008538795
213	0xbd143726	-0.036185406
214	0x3c82ba90	0.0159581
215	0x3c943d1b	0.018095544
216	0xbc8355dd	-0.016032154
217	0xbbb4dbb1	-0.0055193533
218	0xbcbc8b82	-0.023015741
219	0xbc98da8c	-0.018658899
220	0x3ccf1890	0.025280267
221	0x3c9536dc	0.018214636
222	0x3b885a50	0.0041611567
223	0x3bc230d4	0.005926231
224	0x3ca08ea4	0.019599266
225	0x3cde5827	0.027141644
226	0xbd01c9e5	-0.031686682
227	0x3cbec99f	0.0232895
228	0x3c102941	0.008798898
229	0xbb7c0b9b	-0.0038459066
230	0xbc49971b	-0.012304093
231	0x3c4f658f	0.012658491
232	0xbcf5e727	-0.030017449
233	0xbd03cef7	-0.0321798
234	0xbc0bfae7	-0.0085437065
235	0xbceb07e2	-0.028690282
236	0xbc6f4b1f	-0.014605313
237	0xbcd0b0ba	-0.025474895
238	0xbc9d448a	-0.019197721
239	0xbd23cad3	-0.03998835
240	0xbc101f82	-0.008796575
241	0x3c42081b	0.011842753
242	0x391d73d3	0.00015015835
243	0x3d06e05d	0.032928813
244	0xbc4fd59d	-0.012685207
245	0xbd27574b	-0.040854733
246	0xbcd4d85a	-0.02598207
247	0xbc344c5f	-0.011004536
248	0xbc2e7ec1	-0.010650338
249	0x3c8c3b8e	0.017118242
250	0x3d3fe138	0.046845645
251	0x3c88f036	0.016716104
252	0xbb3f083b	-0.0029149193
253	0xbd1a7f07	-0.0377188
254	0xbced7fe8	-0.028991655
255	0x3ce2ef30	0.027701944

action_model._continuous_distribution.mu.bias f4 [51]
0	0x00000000	0.0
1	0x00000000	0.0
2	0x00000000	0.0
3	0x00000000	0.0
4	0x00000000	0.0
5	0x00000000	0.0
6	0x00000000	0.0
7	0x00000000	0.0
8	0x00000000	0.0
9	0x00000000	0.0
10	0x00000000	0.0
11	0x00000000	0.0
12	0x00000000	0.0
13	0x00000000	0.0
14	0x00000000	0.0
15	0x00000000	0.0
16	0x00000000	0.0
17	0x00000000	0.0
18	0x00000000	0.0
19	0x00000000	0.0
20	0x00000000	0.0
21	0x00000000	0.0
22	0x00000000	0.0
23	0x00000000	0.0
24	0x00000000	0.0
25	0x00000000	0.0
26	0x00000000	0.0
27	0x00000000	0.0
28	0x00000000	0.0
29	0x00000000	0.0
30	0x00000000	0.0
31	0x00000000	0.0
32	0x00000000	0.0
33	0x00000000	0.0
34	0x00000000	0.0
35	0x00000000	0.0
36	0x00000000	0.0
37	0x00000000	0.0
38	0x00000000	0.0
39	0x00000000	0.0
40	0x00000000	0.0
41	0x00000000	0.0
42	0x00000000	0.0
43	0x00000000	0.0
44	0x00000000	0.0
45	0x00000000	0.0
46	0x00000000	0.0
47	0x00000000	0.0
48	0x00000000	0.0
49	0x00000000	0.0
50	0x00000000	0.0

action_model._discrete_distribution.branches.0.weight f4 [1, 128]
0	0xbaa23131	-0.0012374279
1	0x3c74391f	0.014906197
2	0x3c4c1ffb	0.012458797
3	0x3a87d078	0.0010361811
4	0xbc5ec655	-0.013597091
5	0x392dc5a5	0.00016572194
6	0xbbaf71a7	-0.0053541246
7	0x3bac2bf6	0.005254264
8	0x3c27fd5f	0.0102532795
9	0xb8b3a932	-8.5669e-05
10	0x39370d67	0.00017457233
11	0x3b68c798	0.0035519358
12	0xbbe6a9ea	-0.0070392983
13	0xbca8b648	-0.020594731
14	0xbbd885cd	-0.006607747
15	0xbc084a8e	-0.0083185565
16	0xbc1dd0a0	-0.00963226
17	0xbc2eb470	-0.010663137
18	0xb915666e	-0.00014247905
19	0xbae82a57	-0.0017712814
20	0x3bf74783	0.0075463667
21	0xbb1a7628	-0.0023568962
22	0x3c847ca2	0.01617271
23	0xbb9a0233	-0.004699969
24	0x3b6cae8a	0.0036114776
25	0x3b290a71	0.0025793577
26	0xba2d968b	-0.0006621859
27	0xbbf8d468	-0.00759368
28	0xbc7eca93	-0.015551227
29	0xbc9d9bf4	-0.019239403
30	0xbc81a007	-0.015823377
31	0x3bde58d7	0.006785493
32	0x3ae3ba0b	0.0017374171
33	0x3babf482	0.0052476535
34	0xbc8701bc	-0.01648032
35	0xbbb266ad	-0.005444369
36	0xbb0282ca	-0.0019914382
37	0xbc6f8c2f	-0.014620825
38	0x3c0042e3	0.007828447
39	0xba128a2e	-0.00055900484
40	0xbac3909d	-0.0014920417
41	0x3c3b4184	0.011429194
42	0xbc49d6ab	-0.012319247
43	0xbbeda877	-0.0072527486
44	0xbb8b823f	-0.00425747
45	0xbc1c7ed0	-0.009551719
46	0x3c56a42b	0.013100664
47	0x3b9e5c99	0.004832816
48	0xbbab7be6	-0.0052332757
49	0x3b59d9dd	0.003324143
50	0x3b6aff2d	0.0035857663
51	0xba1b218b	-0.0005917779
52	0xbb849b20	-0.0040468127
53	0x3b8fc788	0.0043877997
54	0x3a235ceb	0.00062318024
55	0xbc9a778d	-0.018855834
56	0xbc09b7ba	-0.00840562
57	0xbc0eda0c	-0.008718979
58	0xba024d53	-0.00049706287
59	0xba971062	-0.0011525268
60	0xbb9527d3	-0.0045518666
61	0xbba3a550	-0.004994072
62	0x3b94da36	0.0045426143
63	0x3aae9bf9	0.001332163
64	0xbc54179f	-0.012945085
65	0xbc38c90b	-0.011278401
66	0x3c700348	0.01464922
67	0xbc2bcdf5	-0.010486116
68	0xb8ba110a	-8.872345e-05
69	0x3b574965	0.0032850143
70	0x3a924683	0.001115993
71	0xbba6684f	-0.0050783525
72	0xbbdd0a7b	-0.006745634
73	0x3c0fb14c	0.008770298
74	0x3c681e53	0.014167386
75	0xbb58b63b	-0.0033067602
76	0xbc37770c	-0.011197817
77	0xbb2137c3	-0.0024599887
78	0xbb756feb	-0.0037450742
79	0xbbbadd3b	-0.0057026423
80	0x3ba2d38f	0.0049690674
81	0xbc4b582a	-0.012411157
82	0x3ac2eb2a	0.001487111
83	0x3acc6793	0.0015594832
84	0xbb83d1af	-0.004022799
85	0x391ac118	0.00014758518
86	0xbc6bf450	-0.01440151
87	0x3beefc52	0.0072932625
88	0x3c0e4364	0.008683059
89	0xbb95f7eb	-0.0045766733
90	0xbbe7fd22	-0.0070797363
91	0xbb39ad5b	-0.0028332088
92	0x3c00ab2f	0.007853313
93	0xbbb8e985	-0.005643072
94	0xbbeaa805	-0.007161143
95	0xbc8109d5	-0.015751759
96	0x3b879833	0.0041380166
97	0xbb7a7ff5	-0.003822324
98	0xbac876c0	-0.0015294179
99	0xbbd32e3a	-0.0064447196
100	0xbc0a531f	-0.008442669
101	0xbbc6ea87	-0.0060704383
102	0xbb80ac26	-0.0039267717
103	0x3b84a881	0.0040484075
104	0x3b48201a	0.0030536712
105	0x3aa4241d	0.001252297
106	0xbbab11b5	-0.0052206167
107	0xbacd4247	-0.0015660011
108	0x3a12b021	0.0005595703
109	0xbac7ee6c	-0.001525355
110	0x3c15bc30	0.009139106
111	0xbc5551c3	-0.013019982
112	0xbc46eabc	-0.012140926
113	0xbc7628ba	-0.015024358
114	0x3c58d5d7	0.013234577
115	0xbb99a679	-0.0046890345
116	0xbc20c316	-0.009812137
117	0x3b701618	0.0036634263
118	0xbc5277a3	-0.012845906
119	0x3b925032	0.0044651264
120	0xbb839aea	-0.00401627
121	0x3c641c6b	0.013922791
122	0x3c891e7e	0.016738173
123	0x3b1a6ee3	0.0023564629
124	0x3c58a528	0.01322297
125	0xbbc2595a	-0.0059310617
126	0x3bec8fa0	0.00721927
127	0xbbc5e75c	-0.006039543

onnx::LSTM_116 f4 [1, 512, 128]
0	0xbdbc58cd	-0.09196625
1	0xbc768430	-0.015046164
2	0xbc375e60	-0.011191934
3	0x3c0c49e0	0.008562535
4	0x3e1a41ef	0.15064214
5	0x3db334d2	0.08750309
6	0xbdaa0e27	-0.083034806
7	0x3dfb7246	0.12277655
8	0xbe16c159	-0.14722194
9	0xbe05717b	-0.1303157
10	0x3e125a71	0.14292313
11	0x3d9ae16e	0.075625286
12	0xbddf3680	-0.10899067
13	0x3cb774a8	0.022394493
14	0x3c5c1530	0.013432786
15	0x3dcba956	0.09944408
16	0x3da51294	0.08060184
17	0xbd553758	-0.052054733
18	0xbdb00b83	-0.08595946
19	0xbdca7a16	-0.09886567
20	0xbd4f75cc	-0.05064945
21	0xbc057640	-0.008145869
22	0x3dfbcece	0.12295304
23	0x3dd34c56	0.10317294
24	0x3e0096a7	0.1255747
25	0xbcd543f0	-0.026033372
26	0xbcc3a5a0	-0.023882687
27	0x3d99304c	0.07479915
28	0x3e052f1b	0.1300625
29	0x3de90d6a	0.11379512
30	0x3cd559b0	0.026043743
31	0xbd957563	-0.0729778
32	0xbd2ee260	-0.042696357
33	0x3d4f807c	0.05065964
34	0xbdb88258	-0.09009236
35	0x3e118d7f	0.14214133
36	0xbd952a24	-0.07283428
37	0xbd61f358	-0.05516371
38	0x3deffad6	0.11717765
39	0x3d9f007c	0.07763764
40	0xbaa67700	-0.001270026
41	0x3d245ca4	0.04012741
42	0xbc15c700	-0.009141684
43	0xbd63f75c	-0.055655822
44	0x3d8ea214	0.06964508
45	0x3df50bae	0.11965118
46	0x3e19a6ad	0.15004988
47	0x3e157835	0.14596637
48	0x3cb532f0	0.022119015
49	0xbd23ef9c	-0.04002343
50	0x3daaac3e	0.08333634
51	0xbdeff315	-0.11716286
52	0xbd431d28	-0.047635227
53	0xbd3a5652	-0.045492478
54	0xbc8b5ae0	-0.017011106
55	0xbe0c9ccb	-0.13731687
56	0x3de32886	0.110917136
57	0x3d4a3d7c	0.049375042
58	0xbd082ed8	-0.0332478
59	0xbd96e54c	-0.07367954
60	0x3dc97e2a	0.09838517
61	0xbe11e600	-0.14247894
62	0x3b652800	0.0034966469
63	0xbdcc2d40	-0.09969568
64	0xbd73ca48	-0.059519082
65	0xbe0ba915	-0.13638718
66	0xbd470a70	-0.04859394
67	0x3ddf1c1a	0.10894032
68	0xbdc4ecfa	-0.09615512
69	0xbd1123e0	-0.035434604
70	0x3dcca436	0.09992258
71	0x3e073a1b	0.13205759
72	0xbdf1ba3f	-0.11803102
73	0x3de0a60e	0.109691724
74	0x3cf32370	0.029679984
75	0xbcfde980	-0.03099513
76	0xbda82ba1	-0.082114466
77	0x3dfa933e	0.122351155
78	0xbe1569c7	-0.14591132
79	0xbd350122	-0.044190533
80	0x3c084900	0.008318186
81	0x3cadace8	0.021200612
82	0x3bbf4cc0	0.0058380067
83	0xbc6866b0	-0.014184639
84	0xbe187f08	-0.14892209
85	0x3dfa7582	0.12229444
86	0xbddfc156	-0.10925548
87	0xbdad9bd0	-0.084769845
88	0xbdeb9a13	-0.11503997
89	0xbd1b88fa	-0.037972428
90	0x3de3ab96	0.11116712
91	0x3b2c1840	0.0026259571
92	0x3d23e97c	0.04001759
93	0x3e02d03f	0.12774752
94	0x3dd4f5de	0.10398458
95	0x3b9ba4a0	0.0047498494
96	0x3c9b6788	0.018970266
97	0xbd08bb36	-0.033381663
98	0x3cb84770	0.022495002
99	0xbd8dbc32	-0.06920661
100	0xbd25d7a2	-0.040488847
101	0xbdf4eee4	-0.11959627
102	0x3cec4e80	0.028846025
103	0x3b1b62c0	0.0023709983
104	0xbdd668d4	-0.10469213
105	0x3ce6b898	0.028164193
106	0x3cdae258	0.026719257
107	0x3d8e39a0	0.06944585
108	0x3deeacf6	0.116540834
109	0xbd7b9268	-0.06141892
110	0x3ddd328e	0.10800658
111	0xbd7743c6	-0.06036737
112	0x3decd51e	0.115640864
113	0xbd4f5302	-0.05061627
114	0x3e02f83f	0.12790011
115	0x3d2a56e4	0.04158677
116	0xbe16b810	-0.14718652
117	0xbdf3669e	-0.11884807
118	0xbe12e3c8	-0.14344704
119	0xbdbf5644	-0.09342626
120	0xbc97d480	-0.018533945
121	0x3d839d3e	0.06426476
122	0x3c3ddfe0	0.0115890205
123	0x3d52e5a4	0.051488534
124	0x3c8bbb80	0.01705718
125	0xbdefe8df	-0.117143385
126	0x3c4bb1c0	0.012432516
127	0x3dfa2586	0.12214188
128	0xbdaa866f	-0.083264224
129	0xbdf4a1f4	-0.119449526
130	0xbe1253da	-0.142898
131	0x3d7e7aec	0.062128946
132	0xbdf384e2	-0.1189058
133	0xbc3ec250	-0.011643007
134	0x3dd12b46	0.10213332
135	0xbe06e220	-0.13172197
136	0xbac8ce00	-0.0015320182
137	0x3d9d2396	0.07672803
138	0xbdddf59a	-0.108378604
139	0x3deeaff2	0.11654653
140	0xbdb72e02	-0.08944322
141	0xbcf82c80	-0.030294657
142	0xbdc0c70a	-0.09412964
143	0x3d922e04	0.07137683
144	0xbd9497a1	-0.072554834
145	0x3c7b5140	0.015339196
146	0x3e1a7477	0.1508349
147	0xbcbd8d40	-0.023138642
148	0x3e11733d	0.14204116
149	0xbd8f6084	-0.07000831
150	0x3e197c0f	0.14988731
151	0x3d89ca6a	0.067280605
152	0xbd7ac642	-0.06122423
153	0x3df8f1be	0.12155484
154	0x3da8081a	0.0820467
155	0xbd2f75f6	-0.042837106
156	0x3d93e82a	0.07222016
157	0x3c00c3b0	0.007859156
158	0x3d8f0e0a	0.069850996
159	0x3d05ee14	0.032697752
160	0xbd700642	-0.058599718
161	0x3e145f39	0.1448945
162	0xbde1dfd0	-0.11029017
163	0xbdbb2f8d	-0.09139929
164	0x3b2608c0	0.0025334805
165	0x3e172245	0.14759167
166	0xbe1847d7	-0.14871155
167	0x3d5f1848	0.054466516
168	0xbdd0977e	-0.10185145
169	0xbda36989	-0.079791136
170	0xbdc32030	-0.09527624
171	0x3dda85c6	0.106700465
172	0x3db79c88	0.08965403
173	0xbe143827	-0.14474545
174	0xbe024b38	-0.12724006
175	0xbe08cea6	-0.1336008
176	0x3e07318d	0.13202496
177	0xbd9c2282	-0.07623769
178	0xbc2511c0	-0.010075033
179	0x3e04b0e9	0.12958111
180	0xbe1c7bb3	-0.15281563
181	0x3de1c7c2	0.11024429
182	0x3cacb330	0.021081537
183	0x3dcf9c62	0.101372495
184	0x3cabf9b8	0.020993099
185	0x3e17f74d	0.14840432
186	0x3b4d7800	0.0031352043
187	0x3cecf140	0.02892363
188	0x3decdf22	0.11565997
189	0xbdc90b35	-0.09816591
190	0xbcd93388	-0.02651383
191	0x3c883118	0.016624972
192	0xbddaa267	-0.10675507
193	0x3df89aca	0.12138899
194	0x3d780d00	0.060559273
195	0xbda47178	-0.08029455
196	0x3d4b6b60	0.049662948
197	0x3d7220e4	0.0591134
198	0x3d30a658	0.043127388
199	0xbd4f9368	-0.050677687
200	0xbc094630	-0.00837855
201	0x3e0021a7	0.12512837
202	0x3c15a760	0.009134144
203	0x3de67d1e	0.11254333
204	0xbdf0d8aa	-0.117600754
205	0x3d924f84	0.07144073
206	0xbc024180	-0.007950187
207	0xbc556cf0	-0.013026461
208	0xbdc2b3d8	-0.09506959
209	0xbdb75e6f	-0.08953559
210	0x3d847c0e	0.06468974
211	0xbe165423	-0.14680533
212	0xbdedc5d8	-0.11610001
213	0x3e10d89b	0.14145128
214	0xbd833d96	-0.06408231
215	0x3d7bdfdc	0.061492786
216	0xbdd35d00	-0.10320473
217	0x3d857098	0.06515616
218	0x3d5841d8	0.05279717
219	0x3c803920	0.01565224
220	0xbcad9eb8	-0.021193847
221	0xbdd1666a	-0.10224612
222	0xbe031f1f	-0.1280484
223	0xbd6be158	-0.05758795
224	0x3e03341d	0.12812848
225	0x3bcb2bc0	0.0062002838
226	0x3d8694b4	0.065713316
227	0x3df06bbe	0.117393
228	0x3c322ae0	0.01087448
229	0xbde1f5c2	-0.11033203
230	0xbcd07128	-0.025444582
231	0x3aba3280	0.0014205724
232	0xbdd2a0e3	-0.10284593
233	0x3cbca9e8	0.023030236
234	0x3e18b639	0.14913262
235	0xbdb994da	-0.09061594
236	0x3dea7ac6	0.114491984
237	0xbd20bfc2	-0.039245375
238	0x3dbfe3f2	0.09369649
239	0xbdad9063	-0.08474805
240	0xbbecd360	-0.0072273463
241	0x3e0979f1	0.13425423
242	0xbddfd258	-0.10928792
243	0xbc0ffb00	-0.00878787
244	0x3ca1c530	0.019747347
245	0xbdac917f	-0.08426189
246	0x3e15ac1d	0.14616437
247	0xbd860c4a	-0.06545313
248	0x3d1ba588	0.03799966
249	0xbd161bf6	-0.03664776
250	0x3d54860c	0.05188565
251	0xbd9a0e65	-0.07522277
252	0x3daf1d9e	0.08550571
253	0x3c8cd750	0.017192513
254	0xbe02ea90	-0.12784791
255	0x3d22c69c	0.03974019

onnx::LSTM_117 f4 [1, 512, 128]
0	0xbd06a502	-0.032872207
1	0x3de70866	0.11280899
2	0x3dd41a26	0.1035655
3	0x3e008e31	0.12554242
4	0x3dfa93b6	0.12235205
5	0xbdad3e57	-0.08459156
6	0x3d8afde0	0.06786704
7	0x3de9f7a6	0.11424188
8	0xbe17b51f	-0.14815186
9	0xbd9bcabf	-0.0760703
10	0x3d0ce5c4	0.03439881
11	0x3bbffe20	0.0058591515
12	0xbd0d1544	-0.03444411
13	0xbd0b13de	-0.033954494
14	0x3c1c8600	0.009553432
15	0x3d8ca8ee	0.06868158
16	0xbe17d633	-0.14827804
17	0xbb30c500	-0.002697289
18	0xbdc6c233	-0.09705009
19	0xbd62d01a	-0.055374242
20	0xbd7729b0	-0.06034249
21	0xbbd76da0	-0.0065743476
22	0xbdcb4f70	-0.09927261
23	0xbd73d840	-0.059532404
24	0x3ddfa0d2	0.10919346
25	0x3df38cfa	0.118921235
26	0x3d99a0ee	0.07501398
27	0x3d4abe08	0.049497634
28	0x3d5ffa94	0.05468233
29	0x3b890940	0.004182011
30	0xbe1b16c2	-0.151454
31	0xbcfb0eac	-0.030646645
32	0xbd81125d	-0.06302331
33	0xbe0b6ec9	-0.1361648
34	0x3e114bb5	0.14189036
35	0x3d983c32	0.07433356
36	0x3d8bebd6	0.068320915
37	0x3d7fad04	0.06242086
38	0x3dda9866	0.10673599
39	0x3ddc7992	0.10765375
40	0xbce11810	-0.027477294
41	0xbda21a39	-0.07915158
42	0xbcbe68a0	-0.023243248
43	0x3e133591	0.14375903
44	0x3e12e6a9	0.14345802
45	0x3c990260	0.01867789
46	0xbe10cd2f	-0.14140771
47	0x3ce36450	0.027757794
48	0x3d8929f4	0.06697455
49	0xbd79c692	-0.060980387
50	0x3e009c29	0.1255957
51	0x3d1b0640	0.037847757
52	0x3dd3e7c6	0.10346942
53	0xbca8a430	-0.020586103
54	0xbd5af390	-0.053454936
55	0x3dcff87a	0.10154815
56	0xbe1779d1	-0.14792563
57	0xbe0b576c	-0.13607568
58	0x3d804c7c	0.06264588
59	0x3de1c14e	0.11023198
60	0x3c4f1500	0.012639284
61	0xbdacfd66	-0.084467694
62	0xbd8676b1	-0.06565607
63	0x3d4c1c3c	0.049831614
64	0xbdf8dad4	-0.12151113
65	0xbdf779ee	-0.12083803
66	0x3d341808	0.04396823
67	0x3d840c0c	0.0644761
68	0xbcb4dd70	-0.022078246
69	0xbc8b2b18	-0.016988322
70	0xbdba6b69	-0.09102518
71	0x3daa52f2	0.08316602
72	0xbd69c4ac	-0.057072327
73	0xbc9cd158	-0.019142792
74	0xbe04b517	-0.12959705
75	0x3e1ada6b	0.15122382
76	0xbccd9be8	-0.025098756
77	0xbd4148dc	-0.047188625
78	0xbd860525	-0.0654395
79	0xbe0ff6ff	-0.14059065
80	0x3dc6f7de	0.09715246
81	0xbe12de0e	-0.1434252
82	0x3c52b560	0.012860626
83	0xbcaf6f20	-0.021415293
84	0xbd99ac71	-0.07503594
85	0x3e1224e7	0.1427189
86	0xbda6fa3f	-0.081531994
87	0xbbc4e920	-0.006009236
88	0x3ddae976	0.106890604
89	0xbdbcf6b2	-0.09226741
90	0x3e0472ff	0.12934493
91	0x3e0eae9b	0.13933794
92	0x3dd5ea0e	0.10445033
93	0xbd5eee6a	-0.054426588
94	0xbd98026a	-0.074223354
95	0x3d628c44	0.05530955
96	0xb9d28000	-0.0004014969
97	0xbd6382d8	-0.055544704
98	0x3dc34632	0.09534873
99	0x3dcf30c6	0.10116725
100	0xbdc9c8d2	-0.098527566
101	0xbccdbb48	-0.025113717
102	0xbd15c392	-0.036563464
103	0xbe197632	-0.14986494
104	0x3df353c2	0.1188121
105	0xbe1ca4f9	-0.15297307
106	0xbcb5cc38	-0.022192106
107	0x3d29e2b0	0.04147595
108	0x3d9bb204	0.07602313
109	0x3e0986f7	0.13430391
110	0x3cdb2bf0	0.02675435
111	0xbcd06a18	-0.025441214
112	0x3b22f6c0	0.0024866313
113	0x3e065a59	0.13120402
114	0x3e13c43f	0.1443033
115	0xbe105e24	-0.14098412
116	0xbcd57a88	-0.026059404
117	0x3b58c480	0.0033076108
118	0x3cd7f230	0.026360601
119	0xbcbfd7d0	-0.023418337
120	0x3e029b09	0.12754454
121	0xbdc27b3e	-0.09496163
122	0x3c20b830	0.009809539
123	0x3c95ba78	0.018277392
124	0xbe14f8a3	-0.14547972
125	0x3dda5246	0.10660224
126	0xbd9c5f13	-0.076353215
127	0xbd4eb8b6	-0.050469123
128	0x3c8056d8	0.01566641
129	0x3c80f2e8	0.015740827
130	0xbd31aabe	-0.043375723
131	0x3d0b17ec	0.03395836
132	0xbe1c5374	-0.1526621
133	0x3e15ef5d	0.14642091
134	0xbd41688e	-0.04721885
135	0x3e175495	0.14778359
136	0xbe10f390	-0.14155412
137	0x3cb81240	0.02246964
138	0xbd887c56	-0.0666434
139	0x3e19747f	0.14985846
140	0xbd89cad1	-0.06728137
141	0x3e1a00ff	0.15039442
142	0x3e03788f	0.12838958
143	0xbc004b40	-0.007830441
144	0x3d689240	0.0567801
145	0xbc8dfef0	-0.017333478
146	0xbe15334e	-0.14570352
147	0xbde2bb92	-0.110709324
148	0xbd86ccf8	-0.065820634
149	0xbcf20448	-0.029543057
150	0xbd79c6c8	-0.06098059
151	0x3dd464a2	0.10370757
152	0x3df26f92	0.118376866
153	0xbe0ac5fd	-0.13552089
154	0xbcf04720	-0.02933079
155	0x3de6da2e	0.11272083
156	0xbe01066c	-0.12600106
157	0xbdd891ba	-0.1057467
158	0xbd8be91c	-0.068315715
159	0x3e08b499	0.13350143
160	0x3d24b258	0.040209144
161	0x3d9043c8	0.07044178
162	0x3d951f0c	0.07281312
163	0x3dec1f8a	0.11529453
164	0xbd96b6e1	-0.073591
165	0x3e16a4ed	0.14711352
166	0x3c10d3f0	0.008839592
167	0xbc8d9870	-0.017284602
168	0xbcb1b2b0	-0.02169165
169	0xbda7c5cb	-0.08192023
170	0x3d815494	0.0631496
171	0xbe1000cf	-0.14062808
172	0xbd76662c	-0.060156032
173	0x3deeb092	0.11654772
174	0x3c6cdcb0	0.014456913
175	0x3da441a8	0.080203354
176	0x3d7561a4	0.05990757
177	0x3d09baa4	0.03362526
178	0x3cd9ab20	0.026570857
179	0xbd25fd9e	-0.04052507
180	0x3c122f10	0.008922353
181	0xbcb150b8	-0.021644935
182	0x3dcee962	0.10103108
183	0xbdbf4394	-0.093390614
184	0xbd0267e8	-0.031837374
185	0x3cc96010	0.024581939
186	0xbbb2a120	-0.0054513365
187	0x3e15d92f	0.1463363
188	0x3d1281ac	0.035768196
189	0x3df58822	0.11988856
190	0xbd4e5290	-0.050371706
191	0xbd01eb54	-0.031718567
192	0x3e0df477	0.13862787
193	0xbcba8330	-0.022767633
194	0x3c1e39c0	0.009657323
195	0xbbe74300	-0.0070575476
196	0x3e13b5a3	0.14424758
197	0xbe00e220	-0.1258626
198	0xbc60fbf0	-0.013731942
199	0xbde93d3e	-0.11388634
200	0xbe14e63b	-0.14540951
201	0x3df3b9b6	0.11900656
202	0xbdc9c9aa	-0.098529175
203	0xbe10a790	-0.1412642
204	0xbc7f5710	-0.015584722
205	0xbdd3b7d5	-0.103377976
206	0x3d24a0b8	0.040192336
207	0x3dbda42c	0.09259829
208	0xbda66ba7	-0.08126002
209	0x3c5d32a0	0.0135008395
210	0x3de0bec6	0.10973887
211	0x3e1b82cd	0.15186615
212	0xbd304bc6	-0.043041013
213	0x3cf29038	0.029609784
214	0x3c129050	0.00894554
215	0xbd1e5096	-0.03865107
216	0x3e05a733	0.13052063
217	0xbda8e6df	-0.0824716
218	0xbdce8106	-0.10083203
219	0xbdb7c3a4	-0.08972862
220	0xbcb527b0	-0.022113651
221	0xbd38eeb0	-0.045149505
222	0x3b709f80	0.0036716163
223	0xbd479602	-0.048727043
224	0xbd740fca	-0.05958537
225	0xbce49d48	-0.027907029
226	0x3cc295f0	0.023753136
227	0xbdd61184	-0.104525596
228	0x3d1e30f8	0.03862092
229	0xbe18973a	-0.14901438
230	0xbddfe634	-0.1093258
231	0x3e1c0267	0.15235291
232	0xbd9af9a9	-0.0756715
233	0xbd30b33e	-0.04313969
234	0x3df1afd2	0.11801113
235	0xbd426006	-0.047454856
236	0x3cccad78	0.02498506
237	0x3cfee250	0.031113774
238	0xbdd7b213	-0.10532012
239	0x3dbd33d2	0.092383996
240	0x3dd76396	0.105170414
241	0x3be9cf60	0.0071353167
242	0x3da0e220	0.0785563
243	0xbd4c5146	-0.049882196
244	0xbdd4277c	-0.103590935
245	0x3d16527c	0.036699757
246	0xbd647084	-0.055771366
247	0x3de2f59e	0.11082004
248	0x3c921470	0.017832011
249	0x3dcf6f8a	0.10128696
250	0x3a913880	0.001107946
251	0xbdb949d1	-0.090472825
252	0x38082000	3.245473e-05
253	0x3e0cd8e5	0.13754614
254	0x3a5ca600	0.000841707
255	0x3d75d9c0	0.060022116

onnx::LSTM_118 f4 [1, 1024]
0	0x00000000	0.0
1	0x00000000	0.0
2	0x00000000	0.0
3	0x00000000	0.0
4	0x00000000	0.0
5	0x00000000	0.0
6	0x00000000	0.0
7	0x00000000	0.0
8	0x00000000	0.0
9	0x00000000	0.0
10	0x00000000	0.0
11	0x00000000	0.0
12	0x00000000	0.0
13	0x00000000	0.0
14	0x00000000	0.0
15	0x00000000	0.0
16	0x00000000	0.0
17	0x00000000	0.0
18	0x00000000	0.0
19	0x00000000	0.0
20	0x00000000	0.0
21	0x00000000	0.0
22	0x00000000	0.0
23	0x00000000	0.0
24	0x00000000	0.0
25	0x00000000	0.0
26	0x00000000	0.0
27	0x00000000	0.0
28	0x00000000	0.0
29	0x00000000	0.0
30	0x00000000	0.0
31	0x00000000	0.0
32	0x00000000	0.0
33	0x00000000	0.0
34	0x00000000	0.0
35	0x00000000	0.0
36	0x00000000	0.0
37	0x00000000	0.0
38	0x00000000	0.0
39	0x00000000	0.0
40	0x00000000	0.0
41	0x00000000	0.0
42	0x00000000	0.0
43	0x00000000	0.0
44	0x00000000	0.0
45	0x00000000	0.0
46	0x00000000	0.0
47	0x00000000	0.0
48	0x00000000	0.0
49	0x00000000	0.0
50	0x00000000	0.0
51	0x00000000	0.0
52	0x00000000	0.0
53	0x00000000	0.0
54	0x00000000	0.0
55	0x00000000	0.0
56	0x00000000	0.0
57	0x00000000	0.0
58	0x00000000	0.0
59	0x00000000	0.0
60	0x00000000	0.0
61	0x00000000	0.0
62	0x00000000	0.0
63	0x00000000	0.0
64	0x00000000	0.0
65	0x00000000	0.0
66	0x00000000	0.0
67	0x00000000	0.0
68	0x00000000	0.0
69	0x00000000	0.0
70	0x00000000	0.0
71	0x00000000	0.0
72	0x00000000	0.0
73	0x00000000	0.0
74	0x00000000	0.0
75	0x00000000	0.0
76	0x00000000	0.0
77	0x00000000	0.0
78	0x00000000	0.0
79	0x00000000	0.0
80	0x00000000	0.0
81	0x00000000	0.0
82	0x00000000	0.0
83	0x00000000	0.0
84	0x00000000	0.0
85	0x00000000	0.0
86	0x00000000	0.0
87	0x00000000	0.0
88	0x00000000	0.0
89	0x00000000	0.0
90	0x00000000	0.0
91	0x00000000	0.0
92	0x00000000	0.0
93	0x00000000	0.0
94	0x00000000	0.0
95	0x00000000	0.0
96	0x00000000	0.0
97	0x00000000	0.0
98	0x00000000	0.0
99	0x00000000	0.0
100	0x00000000	0.0
101	0x00000000	0.0
102	0x00000000	0.0
103	0x00000000	0.0
104	0x00000000	0.0
105	0x00000000	0.0
106	0x00000000	0.0
107	0x00000000	0.0
108	0x00000000	0.0
109	0x00000000	0.0
110	0x00000000	0.0
111	0x00000000	0.0
112	0x00000000	0.0
113	0x00000000	0.0
114	0x00000000	0.0
115	0x00000000	0.0
116	0x00000000	0.0
117	0x00000000	0.0
118	0x00000000	0.0
119	0x00000000	0.0
120	0x00000000	0.0
121	0x00000000	0.0
122	0x00000000	0.0
123	0x00000000	0.0
124	0x00000000	0.0
125	0x00000000	0.0
126	0x00000000	0.0
127	0x00000000	0.0
128	0x00000000	0.0
129	0x00000000	0.0
130	0x00000000	0.0
131	0x00000000	0.0
132	0x00000000	0.0
133	0x00000000	0.0
134	0x00000000	0.0
135	0x00000000	0.0
136	0x00000000	0.0
137	0x00000000	0.0
138	0x00000000	0.0
139	0x00000000	0.0
140	0x00000000	0.0
141	0x00000000	0.0
142	0x00000000	0.0
143	0x00000000	0.0
144	0x00000000	0.0
145	0x00000000	0.0
146	0x00000000	0.0
147	0x00000000	0.0
148	0x00000000	0.0
149	0x00000000	0.0
150	0x00000000	0.0
151	0x00000000	0.0
152	0x00000000	0.0
153	0x00000000	0.0
154	0x00000000	0.0
155	0x00000000	0.0
156	0x00000000	0.0
157	0x00000000	0.0
158	0x00000000	0.0
159	0x00000000	0.0
160	0x00000000	0.0
161	0x00000000	0.0
162	0x00000000	0.0
163	0x00000000	0.0
164	0x00000000	0.0
165	0x00000000	0.0
166	0x00000000	0.0
167	0x00000000	0.0
168	0x00000000	0.0
169	0x00000000	0.0
170	0x00000000	0.0
171	0x00000000	0.0
172	0x00000000	0.0
173	0x00000000	0.0
174	0x00000000	0.0
175	0x00000000	0.0
176	0x00000000	0.0
177	0x00000000	0.0
178	0x00000000	0.0
179	0x00000000	0.0
180	0x00000000	0.0
181	0x00000000	0.0
182	0x00000000	0.0
183	0x00000000	0.0
184	0x00000000	0.0
185	0x00000000	0.0
186	0x00000000	0.0
187	0x00000000	0.0
188	0x00000000	0.0
189	0x00000000	0.0
190	0x00000000	0.0
191	0x00000000	0.0
192	0x00000000	0.0
193	0x00000000	0.0
194	0x00000000	0.0
195	0x00000000	0.0
196	0x00000000	0.0
197	0x00000000	0.0
198	0x00000000	0.0
199	0x00000000	0.0
200	0x00000000	0.0
201	0x00000000	0.0
202	0x00000000	0.0
203	0x00000000	0.0
204	0x00000000	0.0
205	0x00000000	0.0
206	0x00000000	0.0
207	0x00000000	0.0
208	0x00000000	0.0
209	0x00000000	0.0
210	0x00000000	0.0
211	0x00000000	0.0
212	0x00000000	0.0
213	0x00000000	0.0
214	0x00000000	0.0
215	0x00000000	0.0
216	0x00000000	0.0
217	0x00000000	0.0
218	0x00000000	0.0
219	0x00000000	0.0
220	0x00000000	0.0
221	0x00000000	0.0
222	0x00000000	0.0
223	0x00000000	0.0
224	0x00000000	0.0
225	0x00000000	0.0
226	0x00000000	0.0
227	0x00000000	0.0
228	0x00000000	0.0
229	0x00000000	0.0
230	0x00000000	0.0
231	0x00000000	0.0
232	0x00000000	0.0
233	0x00000000	0.0
234	0x00000000	0.0
235	0x00000000	0.0
236	0x00000000	0.0
237	0x00000000	0.0
238	0x00000000	0.0
239	0x00000000	0.0
240	0x00000000	0.0
241	0x00000000	0.0
242	0x00000000	0.0
243	0x00000000	0.0
244	0x00000000	0.0
245	0x00000000	0.0
246	0x00000000	0.0
247	0x00000000	0.0
248	0x00000000	0.0
249	0x00000000	0.0
250	0x00000000	0.0
251	0x00000000	0.0
252	0x00000000	0.0
253	0x00000000	0.0
254	0x00000000	0.0
255	0x00000000	0.0
