results/try-17/My Behavior/My Behavior-2000.onnx (onnx, 693209 bytes, 10 tensors)

network_body._body_endoder.seq_layers.0.weight f4 [128, 122]
0.049027834 0.09481145 -0.068804085 0.13189723 0.12966834 -0.07069528 0.08203485 0.114689335
-0.118592754 0.049142502 -0.04235162 -0.06492069 -0.008730085 -0.051550772 0.15418895 -0.032485694
0.11559589 0.06649014 -0.030515315 -0.060132395 0.04436636 0.071282685 -0.118965775 -0.025794819
0.07767147 -0.15959735 0.07882467 0.080019645 -0.16312917 -0.051895726 0.07158418 -0.076452225
0.087841436 -0.0787311 0.023047999 -0.03691429 0.01843612 0.025274571 0.08063878 0.22902448
0.094174184 0.045782685 -0.039068427 -0.0030107955 0.024654778 -0.012110198 0.0050164806 0.005471104
0.0013950837 -0.03947022 -0.044921525 0.04054719 0.041014068 -0.029990569 -0.022763826 -0.027118169
0.10210205 -0.10630877 -0.06630953 -0.08776191 -0.14831182 -0.06501776 -0.091826744 0.12978105
-0.1278777 0.004049926 0.12761457 -0.14245969 -0.093949765 0.022036863 0.22491339 0.11468383
0.17573318 0.04262873 0.07621432 -0.03862227 0.0054031103 0.0044652005 -0.1858815 -0.06415781
0.05833444 0.071025126 0.06092136 -0.08525074 0.03979461 -0.025879022 -0.024104057 -0.113198236
0.0165293 0.054006 0.026376706 0.0762653 0.19532 0.05743108 0.0048436443 0.084106006
-0.023029592 0.08639809 -0.024346784 -0.0823938 -0.103667215 -0.09444422 0.02204022 0.059449386
-0.051575057 0.05743277 -0.009901562 -0.06470961 0.014208528 0.07329595 0.06519262 0.036332633
0.19094217 0.07145357 -0.16254197 0.01573431 -0.0906216 0.1867569 0.026969878 0.06712725
0.12557708 -0.14581804 0.019155899 0.0336894 0.18223365 -0.0292802 0.05277395 -0.15347026
-0.017232113 0.035301566 0.0044409707 -0.03539272 0.04485853 0.14707756 -0.08579723 -0.033003002
-0.019356076 0.05766676 -0.2189539 0.06756591 -0.08964134 0.03135382 0.06360963 0.0117316125
0.038410712 -0.12259299 -0.030148674 0.03529402 0.12895179 0.04758969 -0.023171632 -0.12324647
-0.06114528 -0.058417853 -0.027447553 -0.10634853 0.08329466 -0.087046824 -0.045552984 -0.0053267507
-0.09348377 0.07981949 -0.11908029 0.079653114 -0.15613565 -0.09669814 0.16478656 0.08169496
0.040987656 -0.03426644 0.0336351 -0.051978838 -0.1339926 -0.015015546 -0.16227196 0.10569835
0.08651223 0.10572044 -0.014909218 -0.053677034 -0.026525887 0.056318305 0.12088141 -0.10769721
0.034409713 -0.0013921736 -0.2143646 0.045859057 0.024907792 -0.018682515 0.15021572 0.04225751
0.17513256 0.12704737 0.14719178 0.052302487 -0.07972816 0.1444147 -0.07849759 0.05523382
0.16999528 0.043490075 0.06358532 0.056908205 0.14345102 -0.09627923 -0.07430255 0.14177613
0.00201692 0.080093615 -0.037557565 -0.09855761 0.12990718 0.030685004 -0.084348276 0.1995927
-0.08430979 -0.007854993 -0.03641555 0.059918053 -0.21818022 -0.048666984 -0.07636527 0.12526944
0.005663923 0.031090695 -0.07763249 -0.015176785 0.17353898 0.22458825 0.013880115 0.01089482
-0.029100442 0.014588436 0.048441384 0.09050383 -0.16406219 -0.0217211 -0.042196613 0.03493314
0.012642225 0.13170955 0.10235066 -0.043989193 0.07667003 -0.057643145 -0.044228226 0.028079715
0.012999842 -0.010178338 0.0077734427 -0.0668142 -0.015680233 0.22760336 -0.104948856 0.024851266
00000000: 69d1 483d 812c c23d 28e9 8cbd 1110 073e
00000010: c7c7 043e b0c8 90bd e301 a83d 3ee2 ea3d
00000020: c2e0 f2bd a649 493d e478 2dbd 24f5 84bd
00000030: a108 0fbc e726 53bd b5e3 1d3e b80f 05bd
00000040: 8abd ec3d fc2b 883d 41fb f9bc 634d 76bd
00000050: 80b9 353d a8fc 913d 54a4 f3bd a84f d3bc
00000060: 3812 9f3d 7d6d 23be d46e a13d 57e1 a33d
00000070: 550b 27be 9d90 54bd ba9a 923d fc92 9cbd
00000080: 36e6 b33d c53d a1bd 28cf bc3c 7033 17bd
00000090: 5907 973c 9e0c cf3c f225 a53d 6585 6a3e
000000a0: 65de c03d a086 3b3d 3706 20bd c450 45bb
000000b0: d1f8 c93c da69 46bc 4a61 a43b f246 b33b
000000c0: 3edb b63a 87ab 21bd a2ff 37bd cf14 263d
000000d0: 5efe 273d c8ae f5bc 347b babc ec26 debc
000000e0: e11a d13d 6ab8 d9bd 4acd 87bd 84bc b3bd
000000f0: 0edf 17be 0828 85bd a90f bcbd 53e5 043e
00000100: 5ff2 02be 3eb5 843b 65ad 023e f4e0 11be
00000110: bc68 c0bd a786 b43c b24f 663e 5bdf ea3d
00000120: 66f3 333e 779b 2e3d 4116 9c3d 6332 1ebd
00000130: 930c b13b d150 923b b857 3ebe 2b65 83bd
00000140: 18f0 6e3d 9f75 913d ad88 793d f197 aebd
00000150: acff 223d 3e00 d4bc df75 c5bc 7ad4 e7bd
00000160: 7468 873c 6535 5d3d f613 d83c fb30 9c3d
00000170: f701 483e da3c 6b3d 6fb7 9e3b c53f ac3d
00000180: 8ea8 bcbc 7bf1 b03d e872 c7bc 15be a8bd
00000190: 7a4f d4bd f96b c1bd b18d b43c 3381 733d
000001a0: 5e40 53bd a03e 6b3d 293a 22bc 7986 84bd
000001b0: e3ca 683c 301c 963d b583 853d 87d1 143d
000001c0: 5886 433e 4056 923d 6771 26be 3de5 803c
000001d0: d197 b9bd 333d 3f3e efef dc3c 037a 893d
000001e0: 4797 003e 5351 15be d5ec 9c3c e5fd 093d
000001f0: 759b 3a3e 08dd efbc 7f29 583d 4f27 1dbe
00000200: 5c2a 8dbc 6098 103d 9085 913b f5f7 10bd
00000210: 94bd 373d 809b 163e 75b6 afbd 282e 07bd
00000220: a290 9ebc fb33 6c3d 7335 60be ff5f 8a3d
00000230: e195 b7bd dd6c 003d c445 823d f335 403c
00000240: 8d54 1d3d 0912 fbbd 5afa f6bc 7690 103d
00000250: f00b 043e 68ed 423d 6fd2 bdbc a568 fcbd
00000260: 7973 7abd 8f47 6fbd b1d9 e0bc 42cd d9bd
00000270: 6496 aa3d 9b45 b2bd c495 3abd 068c aebb
00000280: 6b74 bfbd 6778 a33d 5ee0 f3bd 2c21 a33d
00000290: 06e2 1fbe ad09 c6bd cfbd 283e b04f a73d
000002a0: ace2 273d f75a 0cbd f5c4 093d c3e7 54bd
000002b0: 5b35 09be c403 76bc 9f2a 26be 6078 d83d
000002c0: 532d b13d f583 d83d cb45 74bc 73dc 5bbd
000002d0: d14c d9bc 06ae 663d ac90 f73d 5b90 dcbd
000002e0: 33f1 0c3d 9879 b6ba 6582 5bbe b5d6 3b3d
000002f0: 6d0b cc3c 130c 99bc 26d2 193e 3616 2d3d
00000300: f355 333e b518 023e 71b9 163e 223b 563d
00000310: 8448 a3bd 72e1 133e 58c3 a0bd dc3c 623d
00000320: 3e13 2e3e a622 323d 0539 823d 9418 693d
00000330: d3e4 123e 0c2e c5bd ef2b 98bd c32d 113e
00000340: 4d2e 043b 1f08 a43d f6d5 19bd 92d8 c9bd
00000350: 6306 053e 1e5f fb3c cabe acbd 0762 4c3e
00000360: 9caa acbd 3bb2 00bc 7928 15bd a26c 753d
00000370: a36a 5fbe 0857 47bd 6565 9cbd a246 003e
00000380: 6e98 b93b eab1 fe3c c8fd 9ebd 0da8 78bc
00000390: 34b4 313e 76fa 653e 6c69 633c 3080 323c
000003a0: 0d64 eebc 5604 6f3c 796a 463d 125a b93d
000003b0: ebff 27be 73f0 b1bc 5bd6 2cbd 0d16 0f3d
000003c0: 5621 4f3c dede 063e 399d d13d 032e 34bd
000003d0: 2d05 9d3d 381b 6cbd a828 35bd 6e07 e63c
000003e0: 4afd 543c 0bc3 26bc 5db8 fe3b e2d5 88bd
000003f0: d573 80bc db10 693e 6def d6bd e294 cb3c

network_body._body_endoder.seq_layers.0.bias f4 [128]
0.0 0.0 0.0 0.0 0.0 0.0 0.0 0.0
0.0 0.0 0.0 0.0 0.0 0.0 0.0 0.0
0.0 0.0 0.0 0.0 0.0 0.0 0.0 0.0
0.0 0.0 0.0 0.0 0.0 0.0 0.0 0.0
0.0 0.0 0.0 0.0 0.0 0.0 0.0 0.0
0.0 0.0 0.0 0.0 0.0 0.0 0.0 0.0
0.0 0.0 0.0 0.0 0.0 0.0 0.0 0.0
0.0 0.0 0.0 0.0 0.0 0.0 0.0 0.0
0.0 0.0 0.0 0.0 0.0 0.0 0.0 0.0
0.0 0.0 0.0 0.0 0.0 0.0 0.0 0.0
0.0 0.0 0.0 0.0 0.0 0.0 0.0 0.0
0.0 0.0 0.0 0.0 0.0 0.0 0.0 0.0
0.0 0.0 0.0 0.0 0.0 0.0 0.0 0.0
0.0 0.0 0.0 0.0 0.0 0.0 0.0 0.0
0.0 0.0 0.0 0.0 0.0 0.0 0.0 0.0
0.0 0.0 0.0 0.0 0.0 0.0 0.0 0.0
00000000: 0000 0000 0000 0000 0000 0000 0000 0000
00000010: 0000 0000 0000 0000 0000 0000 0000 0000
00000020: 0000 0000 0000 0000 0000 0000 0000 0000
00000030: 0000 0000 0000 0000 0000 0000 0000 0000
00000040: 0000 0000 0000 0000 0000 0000 0000 0000
00000050: 0000 0000 0000 0000 0000 0000 0000 0000
00000060: 0000 0000 0000 0000 0000 0000 0000 0000
00000070: 0000 0000 0000 0000 0000 0000 0000 0000
00000080: 0000 0000 0000 0000 0000 0000 0000 0000
00000090: 0000 0000 0000 0000 0000 0000 0000 0000
000000a0: 0000 0000 0000 0000 0000 0000 0000 0000
000000b0: 0000 0000 0000 0000 0000 0000 0000 0000
000000c0: 0000 0000 0000 0000 0000 0000 0000 0000
000000d0: 0000 0000 0000 0000 0000 0000 0000 0000
000000e0: 0000 0000 0000 0000 0000 0000 0000 0000
000000f0: 0000 0000 0000 0000 0000 0000 0000 0000
00000100: 0000 0000 0000 0000 0000 0000 0000 0000
00000110: 0000 0000 0000 0000 0000 0000 0000 0000
00000120: 0000 0000 0000 0000 0000 0000 0000 0000
00000130: 0000 0000 0000 0000 0000 0000 0000 0000
00000140: 0000 0000 0000 0000 0000 0000 0000 0000
00000150: 0000 0000 0000 0000 0000 0000 0000 0000
00000160: 0000 0000 0000 0000 0000 0000 0000 0000
00000170: 0000 0000 0000 0000 0000 0000 0000 0000
00000180: 0000 0000 0000 0000 0000 0000 0000 0000
00000190: 0000 0000 0000 0000 0000 0000 0000 0000
000001a0: 0000 0000 0000 0000 0000 0000 0000 0000
000001b0: 0000 0000 0000 0000 0000 0000 0000 0000
000001c0: 0000 0000 0000 0000 0000 0000 0000 0000
000001d0: 0000 0000 0000 0000 0000 0000 0000 0000
000001e0: 0000 0000 0000 0000 0000 0000 0000 0000
000001f0: 0000 0000 0000 0000 0000 0000 0000 0000

network_body._body_endoder.seq_layers.2.weight f4 [128, 128]
-0.033447687 -0.065569445 -0.14043064 0.011346984 0.103197366 -0.05413264 -0.06820029 0.049370263
-0.16855522 -0.0029906165 0.16570936 -0.07456305 0.083119005 -0.13110463 0.08299402 -0.12088833
-0.17608702 0.08674509 -0.059548642 -0.11194736 -0.022966541 0.04020901 -0.13897058 -0.14300805
-0.0044949995 0.093819074 0.05077433 0.06378379 -0.05835712 -0.19520743 -0.0048535084 -0.019808715
-0.046802487 0.08693094 -0.10070562 -0.07795797 -0.11559586 0.14593425 -0.08272705 -0.065577015
0.20506513 -0.04701854 -0.040685177 0.11427049 -0.026903242 -0.18609805 -0.18432453 0.064568214
0.018490627 -0.020898294 -0.04854182 -0.0398133 -0.01592884 -0.04496713 -0.059505284 0.0784105
-0.020374041 -0.048660733 0.01458469 0.08171266 -0.09848698 0.10436382 -0.062318496 0.05506394
-0.023371741 -0.0598034 0.053235557 0.055579856 0.15888381 -0.04378867 -0.15618885 -0.029182503
0.09124929 -0.0422572 -0.042354748 -0.055707924 -0.027634567 -0.07641242 0.09502066 -0.075215586
0.020721795 0.16245778 -0.0056212475 -0.05975587 0.17239942 -0.009716083 -0.030778041 -0.079733
0.1427219 0.16640957 -0.09632112 -0.15678413 -0.043605328 0.0102992365 0.028243158 0.12798825
-0.095702015 0.08229029 0.08078559 0.05822998 0.024129312 -0.06872123 0.007415519 0.12591134
-0.020514416 0.020669086 -0.12520967 -0.07906315 -0.0070473957 -0.002600388 -0.028637404 -0.036314026
-0.02415101 -0.018120598 0.058661357 -0.022263737 0.04353934 0.002237039 0.0014752962 0.13744462
0.06506605 -0.045553572 0.055152368 0.034898862 0.091382176 -0.21151678 0.010141398 0.15826364
0.08356564 0.14820276 -0.075225845 0.10683693 -0.03881771 -0.008752296 0.052680805 -0.12526791
-0.03565571 -0.09593683 -0.004103293 0.027739262 -0.067752026 -0.09347727 -0.18523005 0.105722226
0.17696376 0.21247865 -0.00552267 -0.08301136 -0.058480594 0.16745202 0.07011376 -0.09433081
0.027295845 -0.0068089175 0.22135267 0.18541834 0.05384953 -0.10933712 0.022517147 0.09822898
-0.19052278 -0.0712106 0.13762145 -0.018899074 0.08423707 -0.01922575 -0.0065743737 -0.07986225
0.10696649 0.11574437 0.08516193 0.061130263 0.124492064 -0.048801977 -0.05816767 -0.047333032
-0.03486173 -0.020592546 -0.13956587 0.029017992 0.014860337 0.17760506 0.18618368 -0.1291218
0.022399949 0.12284196 -0.008767561 0.020428404 -0.090481654 -0.23813018 -0.052305512 -0.03817187
0.004233858 -0.008577845 0.0026679626 0.0112653915 -0.108511835 -0.03822657 0.05565531 -0.10676221
-0.03273299 0.07613817 -0.0326082 0.22403221 0.055948928 0.018667532 0.14240016 0.05856582
0.10502064 0.1529708 0.0018636272 -0.10652624 -0.016799312 -0.003363151 0.0184092 -0.1889635
0.06508058 0.016372511 0.06931226 0.13058664 -0.07675914 -0.016609631 0.043258272 0.114164256
0.05599278 -0.12501529 -0.011840821 0.1560763 0.072377704 0.09151583 0.0036331988 0.02018945
0.03769562 0.006552892 0.0058714813 0.07660665 0.03869997 0.042200904 0.023532566 0.027011203
-0.15342003 -0.016800322 -0.030738592 0.015096107 0.075250044 -0.12837921 0.05703554 -0.06335609
-0.0041479287 -0.03152489 -0.09335214 -0.013825233 0.07475572 0.0924447 -0.022363542 0.06938804
00000000: 7100 09bd 4649 86bd 0dcd 0fbe b3e8 393c
00000010: 2459 d33d 30ba 5dbd 98ac 8bbd 7938 4a3d
00000020: bd99 2cbe 38fe 43bb b7af 293e 83b4 98bd
00000030: 4c3a aa3d 4b40 06be c5f8 a93d 4d94 f7bd
00000040: 2850 34be 69a7 b13d 47e9 73bd a844 e5bd
00000050: 5424 bcbc 34b2 243d 4e4e 0ebe b470 12be
00000060: ca4a 93bb 3724 c03d bef8 4f3d 13a1 823d
00000070: e007 6fbd 75e4 47be 2e0a 9fbb e345 a2bc
00000080: f7b3 3fbd d908 b23d c03e cebd 6ea8 9fbd
00000090: 86bd ecbd ca6f 153e cd6c a9bd 3e4d 86bd
000000a0: 98fc 513e 8396 40bd 80a5 26bd a606 ea3d
000000b0: 3064 dcbc 7d90 3ebe 92bf 3cbe 573c 843d
000000c0: a879 973c e632 abbc cad3 46bd 4513 23bd
000000d0: 337d 82bc 742f 38bd d0bb 73bd af95 a03d
000000e0: 76e7 a6bc 7a50 47bd a0f4 6e3c f858 a73d
000000f0: 8bb3 c9bd b3bc d53d ae41 7fbd ba8a 613d
00000100: 1876 bfbc 69f4 74bd 870d 5a3d b4a7 633d
00000110: 70b2 223e c05b 33bd f8ef 1fbe 2510 efbc
00000120: e8e0 ba3d e315 2dbd 2c7c 2dbd fe2d 64bd
00000130: e361 e2bc 1d7e 9cbd 319a c23d a10a 9abd
00000140: c1c0 a93c 555b 263e 7132 b8bb 92c2 74bd
00000150: 7989 303e 3530 1fbc 3b22 fcbc 0e4b a3bd
00000160: b125 123e 4567 2a3e 0244 c5bd 058c 20be
00000170: 809b 32bd 21be 283c 325e e73c 5a0f 033e
00000180: 6bff c3bd d087 a83d ea72 a53d 8f82 6e3d
00000190: d6aa c53c b7bd 8cbd e2fd f23b e7ee 003e
000001a0: d90d a8bc 3752 a93c f736 00be dceb a1bd
000001b0: d7ed e6bb 456b 2abb fd98 eabc 04be 14bd
000001c0: 57d8 c5bc a671 94bc e446 703d 7162 b6bc
000001d0: 4f56 323d 499b 123b ba5e c13a 48be 0c3e
000001e0: 5941 853d 6296 3abd 73e7 613d 1cf2 0e3d
000001f0: 9426 bb3d db97 58be 1b28 263c dd0f 223e
00000200: 7624 ab3d 77c2 173e 0210 9abd 52cd da3d
00000210: 52ff 1ebd ca65 0fbc d4c7 573d 3b46 00be
00000220: b90b 12bd 877a c4bd eb74 86bb 733d e33c
00000230: 93c1 8abd 0371 bfbd f2ac 3dbe e584 d83d
00000240: fd35 353e 0194 593e 84f7 b4bb dc01 aabd
00000250: 5989 6fbd 8b78 2b3e ce97 8f3d 8330 c1bd
00000260: 899b df3c 571d dfbb 46aa 623e 4ede 3d3e
00000270: 5391 5c3d 24ec dfbd e175 b83c 472c c93d
00000280: 6718 43be ddd6 91bd a3ec 0c3e 3bd2 9abc
00000290: 7c84 ac3d 527f 9dbc d86d d7bb d28e a3bd
000002a0: 3f11 db3d 620b ed3d 6169 ae3d ba63 7a3d
000002b0: b2f5 fe3d 95e4 47bd 3941 6ebd 48e0 41bd
000002c0: 2ccb 0ebd b3b1 a8bc 5bea 0ebe 24b7 ed3c
000002d0: c578 733c 1ade 353e efa6 3e3e 8138 04be
000002e0: 1980 b73c 9194 fb3d d1a5 0fbc 7859 a73c
000002f0: 724e b9bd 66d8 73be 4e3e 56bd 1b5a 1cbd
00000300: 2dbc 8a3b 178a 0cbc fcd8 2e3b 7a92 383c
00000310: 743b debd 7793 1cbd d3f6 633d 25a6 dabd
00000320: 0713 06bd 54ee 9b3d 2d90 05bd b368 653e
00000330: b42a 653d a7ec 983c 59d1 113e b7e2 6f3d
00000340: 1015 d73d 61a4 1c3e f444 f43a 6e2a dabd
00000350: b69e 89bc 5068 5cbb e4ce 963c a67f 41be
00000360: f848 853d a51f 863c 96f3 8d3d 81b8 053e
00000370: e533 9dbd ec10 88bc 962f 313d f3ce e93d
00000380: af58 653d 0204 00be 0100 42bc 77d2 1f3e
00000390: c33a 943d a76c bb3d f61a 6e3b 5864 a53c
000003a0: b966 1a3d a4b9 d63b 8e65 c03b f3e3 9c3d
000003b0: dc83 1e3d dbda 2c3d 5ec7 c03c 9946 dd3c
000003c0: 241a 1dbe d4a0 89bc 80cf fbbc a955 773c
000003d0: b21c 9a3d d775 03be 199e 693d d6c0 81bd
000003e0: 59eb 87bb 3e20 01bd 682f bfbd 3b83 62bc
000003f0: 8719 993d a653 bd3d bf33 b7bc 511b 8e3d

action_model._continuous_distribution.log_sigma f4 [1, 51]
0.0 0.0 0.0 0.0 0.0 0.0 0.0 0.0
0.0 0.0 0.0 0.0 0.0 0.0 0.0 0.0
0.0 0.0 0.0 0.0 0.0 0.0 0.0 0.0
0.0 0.0 0.0 0.0 0.0 0.0 0.0 0.0
0.0 0.0 0.0 0.0 0.0 0.0 0.0 0.0
0.0 0.0 0.0 0.0 0.0 0.0 0.0 0.0
0.0 0.0 0.0
00000000: 0000 0000 0000 0000 0000 0000 0000 0000
00000010: 0000 0000 0000 0000 0000 0000 0000 0000
00000020: 0000 0000 0000 0000 0000 0000 0000 0000
00000030: 0000 0000 0000 0000 0000 0000 0000 0000
00000040: 0000 0000 0000 0000 0000 0000 0000 0000
00000050: 0000 0000 0000 0000 0000 0000 0000 0000
00000060: 0000 0000 0000 0000 0000 0000 0000 0000
00000070: 0000 0000 0000 0000 0000 0000 0000 0000
00000080: 0000 0000 0000 0000 0000 0000 0000 0000
00000090: 0000 0000 0000 0000 0000 0000 0000 0000
000000a0: 0000 0000 0000 0000 0000 0000 0000 0000
000000b0: 0000 0000 0000 0000 0000 0000 0000 0000
000000c0: 0000 0000 0000 0000 0000 0000

action_model._continuous_distribution.mu.weight f4 [51, 128]
-0.011866397 -0.0048784576 -0.016212188 0.029514348 -0.021737156 -0.0046292124 -0.0045967977 0.001673663
0.009142484 -0.008125799 0.0051698624 -0.0038812147 0.00760163 -0.008028285 -0.012246378 -0.03059338
-0.013168466 0.013502297 0.020337267 -0.013368279 -0.03977326 -0.012587753 -0.039772186 0.0014492768
0.008163466 -0.013422317 0.010101544 0.0010104345 -0.0124882925 0.012455124 -0.0067813112 0.014643582
0.009318276 -0.012189102 0.0084785735 0.016350036 0.015760576 0.004305954 -0.0047581275 -0.0027634355
-0.010813536 -0.016155085 0.022795372 0.006194663 0.020987527 0.005919011 0.02810487 0.03341263
-0.017372908 -0.0028220087 0.003660641 0.005239944 0.009406912 0.0147485165 0.008778291 -0.000636335
0.0025498245 -0.00047700462 -0.008152721 -0.0049777026 0.0128413215 0.011900758 -0.017461838 0.034291316
0.014933963 0.0053858007 0.030259667 -0.0013809167 0.058402847 -0.017842842 0.0048209056 0.019526804
-0.0140031455 -0.02237339 0.03493708 -0.014472512 0.0028543489 0.013227097 0.016688399 0.021641668
-0.0038806032 0.0056678304 0.011080804 0.003320811 -0.02986232 0.0051669343 0.0150988465 -0.026154632
-0.0008801892 0.00601709 0.0077258884 -0.006054576 0.010374522 -0.030202264 0.026335103 0.037940633
0.0028673091 -0.0215805 0.023102893 -0.008939834 0.008925853 -0.032954972 -0.02821199 -0.0069085956
-0.027874282 -0.013718309 -0.030726185 -0.01050284 -0.043845788 0.012208379 -0.014302989 0.026658107
0.008446435 -0.0078107305 0.015288286 0.005048411 -0.0034809445 0.0046585156 0.0038942941 -0.0020291223
-0.030502392 0.016146222 -0.03574107 -0.043521363 -0.035951555 0.015549483 -0.0056960974 0.008427586
-0.036194034 -0.045900397 0.0055331304 0.00691218 0.0010747825 -0.013512013 -0.005511304 -0.029327555
-0.008376677 -0.0070781647 0.0057790857 -0.0063554407 -0.0121199945 0.023660986 -0.03086563 0.0055550816
0.023788983 0.0034568522 0.016923921 0.014929846 0.033554945 -0.031135544 0.0030231094 0.012936468
0.005068513 0.0005176509 0.008095914 -0.0017407112 0.0043181637 0.021199932 -0.017903766 -0.0013919761
0.024318501 0.03246072 0.02703533 -0.019591318 -0.013398007 -0.010571274 -0.000652136 -0.034027155
0.017054912 -0.0035168715 0.014334942 0.008079974 0.0014608199 -0.030084943 -0.011750469 -0.0010853152
0.0040067416 0.016862521 -0.018570973 -0.029156936 -0.009536787 0.016649058 0.033786777 0.033110343
0.0025306935 0.00638359 0.004409926 0.0026367425 0.014839679 0.039559346 0.016043114 -0.008638161
0.00093085424 0.0042463974 -0.0028633724 -0.00861761 -0.008806587 -0.00013542511 -0.013241142 0.0045713186
0.01077951 0.023795951 -0.0039916434 -1.5848487e-06 0.00092416425 -0.0018930124 -0.0011092325 0.003964135
-0.020929134 -0.010434853 0.00368082 -0.0035923098 0.010941076 0.0041363635 0.00053066126 -0.0027885437
-0.028909279 0.036123976 0.007077952 0.007722144 0.020832052 -0.01690945 0.02281517 -0.008542096
-0.02430333 -0.013859016 0.014560183 0.0015986896 0.0086384 0.015652534 -0.015247836 0.011686787
0.023079917 0.022018703 -0.016308738 0.013192902 -0.024216034 0.0063539185 -0.0045241034 0.0074985228
0.009892634 -0.009118765 0.0042701005 -0.016288383 0.011218143 -0.008850078 -0.004602199 0.02848571
0.004824113 0.011843055 -0.009278463 0.0038833518 0.010894306 -0.016151419 0.013738781 -0.007134651
00000000: 476b 42bc 78db 9fbb 6ccf 84bc 13c8 f13c
00000010: 1f12 b2bc a6b0 97bb bca0 96bb d05e db3a
00000020: 5bca 153c 1222 05bc f367 a93b fa5b 7ebb
00000030: 1817 f93b 1189 03bc 08a5 48bc f89e fabc
00000040: 8dc0 57bc bd38 5d3c 579a a63c a006 5bbc
00000050: 49e9 22bd dd3c 4ebc 29e8 22bd a9f5 bd3a
00000060: 0fc0 053c 47e9 5bbc f280 253c 8e70 843a
00000070: b29b 4cbc 9410 4c3c c335 debb a2eb 6f3c
00000080: afab 183c cdb4 47bc b7e9 0a3c 83f0 853c
00000090: 531c 813c f618 8d3b 11ea 9bbb c11a 35bb
000000a0: 422b 31bc ab57 84bc 5cbd ba3c 99fc ca3b
000000b0: 09ee ab3c 43f4 c13b 2f3c e63c afdb 083d
000000c0: a151 8ebc 73f1 38bb 5de7 6f3b d6b3 ab3b
000000d0: 731f 1a3c c3a3 713c d2d2 0f3c b8cf 26ba
000000e0: f51a 273b 7a16 fab9 fe92 05bc ff1b a3bb
000000f0: 6864 523c 66fb 423c 210c 8fbc 0d75 0c3d
00000100: 95ad 743c 5f7b b03b 1fe3 f73c e0ff b4ba
00000110: d337 6f3d 272b 92bc b0f8 9d3b adf6 9f3c
00000120: 736d 65bc 6648 b7bc 2f1a 0f3d 1d1e 6dbc
00000130: 0710 3b3b 77b6 583c 1cb6 883c de49 b13c
00000140: b851 7ebb 35b9 b93b 438c 353c f7a1 593b
00000150: d3a1 f4bc 634f a93b 2761 773c 3d42 d6bc
00000160: 7fbc 66ba 022b c53b 7329 fd3b 7765 c6bb
00000170: e6f9 293c bd6a f7bc b7bc d73c a367 1b3d
00000180: 77e9 3b3b 97c9 b0bc 4742 bd3c 6278 12bc
00000190: be3d 123c cbfb 06bd d51c e7bc 8061 e2bb
000001a0: 9b58 e4bc c2c2 60bc 7bb5 fbbc 1b14 2cbc
000001b0: a497 33bd a705 483c 1557 6abc 1a62 da3c
000001c0: eb62 0a3c 28f1 ffbb b87b 7a3c 246d a53b
000001d0: 8f20 64bb 76a6 983b 6a37 7f3b 06fb 04bb
000001e0: 27e0 f9bc 1545 843c 3a65 12bd 7543 32bd
000001f0: f041 13bd 42c3 7e3c 54a6 babb dc13 0a3c
00000200: 3240 14bd 0e02 3cbd 434f b53b 927f e23b
00000210: b7df 8c3a 7d61 5dbc 2b98 b4bb 5740 f0bc
00000220: 543e 09bc f3ef e7bb 7c5e bd3b 4d41 d0bb
00000230: f192 46bc afd4 c13c ebd9 fcbc 6707 b63b
00000240: 1de1 c23c 5b8c 623b 09a4 8a3c 509c 743c
00000250: e970 093d f80f ffbc 5c1f 463b 7bf3 533c
00000260: c515 a63b f7b2 073a b9a4 043c 9328 e4ba
00000270: 627f 8d3b 7bab ad3c ebaa 92bc f872 b6ba
00000280: 9837 c73c 88f5 043d 3279 dd3c f97d a0bc
00000290: 5083 5bbc 2333 2dbc 1bf4 2aba 0f60 0bbd
000002a0: beb6 8b3c 507b 66bb 1bdd 6a3c de61 043c
000002b0: fb78 bf3a b374 f6bc 0a85 40bc 2341 8eba
000002c0: fc4a 833b 4523 8a3c 2722 98bc 87da eebc
000002d0: 2f40 1cbc 9b63 883c 0164 0a3d b69e 073d
000002e0: fed9 253b 6f2d d13b 2481 903b 33cd 2c3b
000002f0: 2022 733c fb08 223d d96c 833c 1387 0dbc
00000300: 9204 743a 5d25 8b3b 6ba7 3bbb e030 0dbc
00000310: 8149 10bc e700 0eb9 60f1 58bc 00cb 953b
00000320: 8b9c 303c baef c23c 55cc 82bb fdb6 d4b5
00000330: 9d43 723a f51e f8ba ab63 91ba 93e5 813b
00000340: 9373 abbc f2f6 2abc ea39 713b f56c 6bbb
00000350: 3342 333c 558a 873b 131c 0b3a 00c0 36bb
00000360: 27d3 ecbc bcf6 133d 2aee e73b 0a0a fd3b
00000370: fba7 aa3c b085 8abc e1e6 ba3c 26f4 0bbc
00000380: c717 c7bc ed10 63bc d58d 6e3c 1f8b d13a
00000390: 1388 0d3c be39 803c 0fd2 79bc f079 3f3c
000003a0: 1812 bd3c 9160 b43c e799 85bc 0b27 583c
000003b0: b460 c6bc 8834 d03b ee3e 94bb 2bb6 f53b
000003c0: b714 223c df66 15bc 33ec 8b3b 376f 85bc
000003d0: 4dcc 373c ebff 10bc 0bce 96bb dd5a e93c
000003e0: 9813 9e3b 5f09 423c b204 18bc d57f 7e3b
000003f0: 087e 323c fb4f 84bc a018 613c cac9 e9bb

action_model._continuous_distribution.mu.bias f4 [51]
0.0 0.0 0.0 0.0 0.0 0.0 0.0 0.0
0.0 0.0 0.0 0.0 0.0 0.0 0.0 0.0
0.0 0.0 0.0 0.0 0.0 0.0 0.0 0.0
0.0 0.0 0.0 0.0 0.0 0.0 0.0 0.0
0.0 0.0 0.0 0.0 0.0 0.0 0.0 0.0
0.0 0.0 0.0 0.0 0.0 0.0 0.0 0.0
0.0 0.0 0.0
00000000: 0000 0000 0000 0000 0000 0000 0000 0000
00000010: 0000 0000 0000 0000 0000 0000 0000 0000
00000020: 0000 0000 0000 0000 0000 0000 0000 0000
00000030: 0000 0000 0000 0000 0000 0000 0000 0000
00000040: 0000 0000 0000 0000 0000 0000 0000 0000
00000050: 0000 0000 0000 0000 0000 0000 0000 0000
00000060: 0000 0000 0000 0000 0000 0000 0000 0000
00000070: 0000 0000 0000 0000 0000 0000 0000 0000
00000080: 0000 0000 0000 0000 0000 0000 0000 0000
00000090: 0000 0000 0000 0000 0000 0000 0000 0000
000000a0: 0000 0000 0000 0000 0000 0000 0000 0000
000000b0: 0000 0000 0000 0000 0000 0000 0000 0000
000000c0: 0000 0000 0000 0000 0000 0000

action_model._discrete_distribution.branches.0.weight f4 [1, 128]
0.001262878 -0.0106264595 0.0071060234 0.0117506785 -0.004684582 -0.010900592 -0.0018627709 -0.010972548
-0.008429784 -0.021064015 -0.01780404 0.0056857723 0.010731998 -0.00058616034 -0.0012585483 -2.1648879e-05
0.0004017055 0.00626902 0.016522236 0.0064099887 0.0045817303 -0.003764751 -0.009310334 0.0016539876
0.016392006 0.0039114514 -0.016132265 0.0049484214 -0.006338311 -0.0010236962 0.005772809 -0.012510933
0.013440798 -0.016945854 -0.010248714 -0.01252632 -0.010270972 -0.000116124975 0.003912035 0.0076377103
0.022199227 -0.008273887 -0.013930372 -0.0009760125 -0.009011748 -0.006786547 -0.0019792954 0.00066652446
0.016832313 0.01761384 0.007023225 0.002995659 -0.0066145407 0.0017752618 -0.005467187 0.002937179
-0.008526013 -0.014632061 0.012454634 0.004141835 -0.008782494 0.006966977 0.02292882 0.005658209
0.0013682444 0.0011161288 0.0026825012 0.009227962 0.002430082 -0.0064881356 0.01196523 -0.0005690974
0.005680623 0.005251996 -0.0058887424 0.01002059 0.013889784 0.0036621068 -0.008018214 -0.006017909
-0.0022945001 0.016716106 0.003285857 0.015405021 -0.00318335 -0.005209009 0.00967064 0.016454823
-0.0026673677 0.01318564 0.004431808 0.006560027 0.010001354 -0.0035876592 0.012655141 0.00024001971
-0.0042678462 -0.01880384 0.022669531 -0.007130345 -0.0051176557 -0.0015277797 0.0103425495 -0.015795976
-0.0068088435 0.008482001 -0.0008611519 0.012203151 -0.003239241 -0.00022432728 0.0040789503 0.016023021
-0.004069911 -0.0070286165 0.0059736953 0.004034064 -0.003923479 0.0035605964 0.002212919 -0.0010452364
0.00787107 0.0063192337 -0.0029844877 0.004147077 -0.0025402948 -0.0020879114 0.024708753 -0.003024661
00000000: 2787 a53a 9a1a 2ebc a5d9 e83b eb85 403c
00000010: 1f81 99bb 6698 32bc 3828 f4ba 34c6 33bc
00000020: 141d 0abc 718e acbc c7d9 91bc b74f ba3b
00000030: 43d5 2f3c 8ea8 19ba e0f5 a4ba 9d9a b5b7
00000040: 009c d239 5a6c cd3b a459 873c e20a d23b
00000050: 5722 963b 0aba 76bb 5f8a 18bc 9dca d83a
00000060: 8748 863c a22b 803b d027 84bc 5e26 a23b
00000070: 9bb1 cfbb 8b2d 86ba d529 bd3b a8fa 4cbc
00000080: cb36 5c3c 08d2 8abc 39ea 27bc 323b 4dbc
00000090: 9447 28bc 1f88 f3b8 8730 803b c245 fa3b
000000a0: 27db b53c 338f 07bc 373c 64bc 17db 7fba
000000b0: 03a6 13bc af61 debb 11b7 01bb b3b9 2e3a
000000c0: ebe3 893c e64a 903c 1523 e63b d152 443b
000000d0: cabe d8bb e7af e83a 1726 b3bb b07d 403b
000000e0: b1b0 0bbc 50bb 6fbc 850e 4c3c 3bb8 873b
000000f0: 73e4 0fbc 3d4b e43b 39d5 bb3c 7f68 b93b
00000100: aa56 b33a 114b 923a e7cc 2f3b e130 173c
00000110: 0342 1f3b 6d9a d4bb d009 443c 7b2f 15ba
00000120: 8524 ba3b f018 ac3b 5af6 c0bb 672d 243c
00000130: fa91 633c f5ff 6f3b d45e 03bc e131 c5bb
00000140: 535f 16bb 37f0 883c 8857 573b 5765 7c3c
00000150: c09f 50bb 56b0 aabb 9b71 1e3c 44cc 863c
00000160: 01cf 2ebb 9508 583c b338 913b 7ff5 d63b
00000170: b8dc 233c ef1e 6bbb 8257 4f3c cdad 7b39
00000180: 4ad9 8bbb 830a 9abc 74b5 b93c aba5 e9bb
00000190: 02b2 a7bb c83f c8ba cc73 293c 9066 81bc
000001a0: b81c dfbb 17f8 0a3c edbe 61ba baef 473c
000001b0: 7249 54bb 6539 6bb9 b7a8 853b b642 833c
000001c0: e35c 85bb 4f50 e6bb fdbe c33b 2e30 843b
000001d0: 8790 80bb e558 693b 9f06 113b 5000 89ba
000001e0: a9f5 003c 9311 cf3b 6597 43bb 34e4 873b
000001f0: 137b 26bb 57d5 08bb 036a ca3c 6439 46bb

onnx::LSTM_116 f4 [1, 512, 128]
-0.07358945 0.092075855 -0.037663832 -0.030554041 -0.092201784 -0.03975922 0.08033167 -0.057498522
0.12082644 0.03214228 -0.014341846 -0.13107106 -0.006916389 0.06225419 0.080012664 0.07610762
0.13471936 -0.047827967 0.040387496 -0.11858325 -0.08462061 -0.050165698 -0.02653195 0.13142844
-0.080803454 0.012265161 0.02261734 0.14605124 -0.13102347 0.034490705 0.020169377 0.11427547
-0.02129595 -0.054196015 0.12412761 -0.07946064 0.1472088 0.08562374 -0.0069952905 -0.105400786
0.04445502 0.10663502 0.068453744 0.057929173 0.055914357 0.084691554 -0.14142178 0.040839
0.06242667 -0.090612344 -0.013099074 -0.039971255 -0.031598605 0.0025467426 0.018792644 -0.047728755
0.0152026415 -0.0605312 0.10067056 -0.10479276 0.12077032 -0.026970327 0.05677019 -0.02387327
0.058477312 -0.15121089 0.05587533 -0.033967912 -0.024266586 -0.09364048 -0.019448712 -0.024529785
0.13789539 -0.09272896 -0.13650692 0.067897275 0.10315929 0.05088076 -0.012765929 0.08567773
0.13328429 -0.109302774 -0.060382865 -0.026879624 0.08960351 -0.063187465 -0.089080706 -0.016336635
-0.13066489 0.04408914 -0.039360218 0.008841753 0.12686558 0.10427813 -0.05160229 -0.1509323
0.057546243 0.025773808 0.10025813 0.14386715 0.040928885 -0.12187509 0.06836097 -0.15229648
-0.04418444 -0.05093824 -0.077507734 -0.047866896 0.025651455 -0.021496102 -0.106963485 0.06879893
0.045706227 0.072506085 -0.09346311 -0.028637908 -0.056776986 -0.036603957 0.1335785 -0.03648398
-0.08752671 0.06262991 -0.063735195 -0.13658376 -0.14068592 -0.034723483 0.011359274 -0.12578222
0.13659142 -0.10194708 -0.0044779927 -0.13264763 0.13301213 0.012502253 0.11239682 -0.13535166
-0.09858955 0.09632237 -0.13890953 -0.091568835 0.0526914 0.10835631 -0.11163579 0.0194062
0.08876543 0.1092944 0.08944635 0.10604437 0.06663011 0.096573755 -0.13120258 0.15023436
-0.14356838 -0.07357867 -0.04385499 -0.02186434 0.082889915 0.13866664 0.07216428 0.031152159
-0.11552586 0.14782368 0.109076366 -0.14202757 -0.1050248 -0.070049405 0.020961553 0.1250204
0.076003686 -0.063381575 0.074949384 -0.12892543 -0.09907119 0.11101036 -0.11523138 -0.0085005015
-0.08731272 0.034661695 -0.01103045 0.12868704 -0.14427333 0.10298397 0.0013495237 -0.035157345
0.06222309 0.12362604 0.01049678 -0.012524113 -0.10659085 0.12734084 -0.12514605 0.04686956
-0.023106873 0.025811836 -0.120364405 0.06560643 0.054156214 -0.10854265 -0.12460086 0.0040459186
-0.083698615 0.102331534 0.08482258 0.12771313 0.11183371 -0.04781189 0.09885074 -0.11962927
-0.08673927 0.033098012 -0.046767704 -0.06594428 -0.0493109 0.07705 0.12078066 0.14101575
-0.087978125 -0.022289202 0.004140511 -0.09142019 0.0996723 -0.08507385 0.040584296 0.117648795
0.095422566 0.13820349 0.03370276 0.102284 0.017296389 -0.15172076 0.070733845 -2.8163195e-06
0.14113466 -0.14045306 0.11977817 0.10553385 0.05929075 0.007022038 -0.13376664 -0.0058666468
0.018538386 -0.082088426 -0.06712942 0.09962483 -0.11292325 0.120894834 -0.059880525 -0.056743093
-0.13620691 -0.13537286 -0.09176641 -0.014229193 -0.032302275 0.1264977 -0.14852402 0.08276354
00000000: 11b6 96bd 4492 bc3d 6445 1abd 784c fabc
00000010: 4ad4 bcbd 90da 22bd ee84 a43d 9283 6bbd
00000020: da73 f73d a0a7 033d 10fa 6abc 7e37 06be
00000030: e0a2 e2bb 40fe 7e3d aedd a33d 50de 9b3d
00000040: dff3 093e 42e7 43bd 5c6d 253d c6db f2bd
00000050: 924d adbd 8c7a 4dbd 8859 d9bc 2d95 063e
00000060: 487c a5bd d0f3 483c 0048 b93c 758e 153e
00000070: 042b 06be 2046 0d3d 403a a53c 4209 ea3d
00000080: d874 aebc a4fc 5dbd 9e36 fe3d 43bc a2bd
00000090: e7bd 163e 805b af3d c038 e5bb 5edc d7bd
000000a0: 7816 363d 7663 da3d 7a31 8c3d 2447 6d3d
000000b0: 7406 653d c472 ad3d dfd0 10be cc46 273d
000000c0: 1cb3 7f3d f792 b9bd 809d 56bc e6b8 23bd
000000d0: 8a6d 01bd 40e7 263b 08f3 993c 3a7f 43bd
000000e0: 8014 793c 90ef 77bd 5e2c ce3d 969d d6bd
000000f0: 6e56 f73d e0f0 dcbc dc87 683d e091 c3bc
00000100: e885 6f3d 07d7 1abe 88dd 643d f021 0bbd
00000110: b8ca c6bc 94c6 bfbd e852 9fbc b0f2 c8bc
00000120: 7334 0d3e aee8 bdbd 78c8 0bbe ba0d 8b3d
00000130: 2e45 d33d 5868 503d 3028 51bc ce77 af3d
00000140: ad7b 083e 22da dfbd 0654 77bd a832 dcbc
00000150: 0c82 b73d 6e68 81bd f26f b6bd 68d4 85bc
00000160: 04cd 05be d096 343d 2e38 21bd 00dd 103c
00000170: 0de9 013e c68f d53d ec5c 53bd ff8d 1abe
00000180: 9cb5 6b3d 9823 d33c 2254 cd3d e951 133e
00000190: 0ca5 273d a699 f9bd d600 8c3d 9cf3 1bbe
000001a0: befa 34bd 9ea4 50bd 60bc 9ebd 1410 44bd
000001b0: 0023 d23c 9818 b0bc ac0f dbbd 74e6 8c3d
000001c0: 7436 3b3d 127e 943d 9669 bfbd 0c9a eabc
000001d0: fc8e 68bd 08ee 15bd cdc8 083e 3a70 15bd
000001e0: 3441 b3bd 1c44 803d 9987 82bd 9ddc 0bbe
000001f0: f80f 10be 363a 0ebd 401c 3a3c 0ecd 00be
00000200: 9fde 0b3e a1c9 d0bd 20bc 92bb c8d4 07be
00000210: 5534 083e 40d6 4c3c 4e30 e63d a099 0abe
00000220: 51e9 c9bd aa44 c53d 4d3e 0ebe 7188 bbbd
00000230: f0d2 573d eae9 dd3d 4ea1 e4bd c0f9 9e3c
00000240: a6ca b53d bed5 df3d a62f b73d ca2d d93d
00000250: 5e75 883d 76c8 c53d f859 06be 09d7 193e
00000260: 9703 13be 6ab0 96bd 4aa1 33bd d81c b3bc
00000270: 30c2 a93d a1fe 0d3e deca 933d d032 ff3c
00000280: d298 ecbd 175f 173e 6e63 df3d ad6f 11be
00000290: 3e17 d7bd 1076 8fbd 90b7 ab3c 5905 003e
000002a0: d2a7 9b3d 33ce 81bd 107f 993d 0705 04be
000002b0: d6e5 cabd 6659 e33d 6efe ebbd b045 0bbc
000002c0: 03d1 b2bd 6cf9 0d3d 10b9 34bc 89c6 033e
000002d0: 63bc 13be 42e9 d23d 80e2 b03a 2601 10bd
000002e0: a4dd 7e3d a62f fd3d b0fa 2b3c f031 4dbc
000002f0: 4e4c dabd a365 023e 4926 00be 4cfa 3f3d
00000300: a04a bdbc 5873 d33c 9d81 f6bd aa5c 863d
00000310: e8d2 5d3d 9c4b debd bc2e ffbd a093 843b
00000320: 2e6a abbd 3293 d13d 76b7 ad3d 3bc7 023e
00000330: 1209 e53d 66d6 43bd 4272 ca3d 3100 f5bd
00000340: 5ca4 b1bd c891 073d 7e8f 3fbd cb0d 87bd
00000350: 3afa 49bd 64cc 9d3d da5b f73d 6f66 103e
00000360: e02d b4bd d897 b6bc 20ad 873b 823a bbbd
00000370: fe20 cc3d 333b aebd b83b 263d daf1 f03d
00000380: e86c c33d 3785 0d3e e80b 0a3d 467a d13d
00000390: 28b1 8d3c b05c 1bbe e8dc 903d 0000 3db6
000003a0: 9b85 103e edd2 0fbe 424e f53d 2222 d83d
000003b0: dcda 723d 2019 e63b 1ffa 08be 003d c0bb
000003c0: d0dd 973c fa1d a8bd 267b 89bd 1a08 cc3d
000003d0: 4e44 e7bd b697 f73d 4845 75bd 726b 68bd
000003e0: d379 0bbe 2f9f 0abe 07f0 bbbd 9021 69bc
000003f0: 644f 04bd 9d88 013e ae16 18be ee7f a93d

onnx::LSTM_117 f4 [1, 512, 128]
-0.09259298 0.011024848 0.00066275895 -0.0038578957 -0.08178969 -0.054682218 -0.106141314 0.0378868
-0.025975421 0.10382922 0.027842104 -0.10976501 0.085359484 0.058866337 -0.061148927 0.027381495
0.13745825 0.012329638 0.05660838 -0.03583216 -0.12504166 -0.0631719 0.12556489 -0.14558312
0.12059273 -0.09858659 0.09785311 0.06490557 0.01319246 0.003657639 0.056932524 0.05052568
0.049285993 -0.15009521 -0.06918687 -0.14752845 0.11578219 0.04304762 -0.013208777 -0.1426254
-0.0003335178 0.03585975 0.068986565 -0.051904462 -0.034127906 -0.08847677 -0.079745494 0.025960326
-0.062053062 -0.061263263 -0.018988416 0.0016295314 0.11900039 -0.14565435 -0.065930374 -0.0941973
-0.010829881 -0.07202867 0.12317164 0.14433442 -0.051342994 0.13073741 0.071201995 0.09142217
-0.12847047 -0.08819683 -0.022392675 -0.11524926 0.09796412 0.007082492 0.08689326 0.0034920871
-0.072566114 -0.025710821 0.07037453 0.107312456 0.08107051 -0.069884025 -0.06175308 -0.08093294
0.1220317 -0.03014011 0.009159669 -0.033493333 -0.090449154 -0.0986507 0.0076586753 0.08504681
0.068610996 -0.05531223 0.016087994 0.060951352 -0.12537295 0.069900244 -0.122078784 -0.12616873
-0.047228925 0.13284548 -0.0560679 -0.017839968 -0.14153 -0.056079395 -0.08379341 -0.111212805
0.11089213 -0.01897569 0.043367416 0.12303577 0.06694339 -0.15208763 -0.13740201 0.07426599
0.08200814 0.069309056 -0.019165516 -0.04440994 -0.14882424 0.089975834 0.09304631 0.08723371
0.15200342 -0.1490345 -0.0156475 -0.03185951 0.15102257 -0.051951744 -0.01670745 0.11092372
-0.07257542 0.002946481 -0.031684563 -0.08332989 0.110602245 -0.06336197 0.07636665 0.12861778
-0.11600215 -0.016028047 0.07130653 0.045364633 0.008858681 -0.08484149 -0.04945814 -0.081293374
-0.046355017 0.117590144 -0.06449487 0.035504878 0.013851985 0.03872034 -0.111042514 0.050169423
-0.008016676 -0.04454247 0.059185162 0.07917133 0.009244576 -0.089218 -0.12453018 0.0020342916
-0.07731673 0.0707688 -0.01683937 -0.11672726 -0.082387164 -0.0010189712 -0.051887542 -0.09605774
-0.15094818 -0.04228329 -0.0031917095 -0.05727204 0.06444149 0.09588607 -0.05841577 -0.11390069
-0.13001801 0.09120695 0.117208764 0.045020446 0.00024995208 -0.04928796 -0.010028899 -0.0712232
0.063886195 0.12941666 0.08963102 -0.11666932 -0.039568253 -0.06375556 0.14510103 0.03773056
-0.041373424 0.09600423 -0.07653898 0.042337537 -0.037761822 0.08912651 0.14912106 -0.038889363
-0.113496736 -0.004445523 -0.061470464 -0.0078718215 -0.08963907 -0.04879772 -0.016706347 -0.04585699
-0.1494098 0.13916062 0.10548137 -0.008658111 -0.146435 -0.09299898 0.09571001 0.03942536
0.0060950518 -0.116272405 0.10398881 -0.030619398 -0.108225316 0.048807904 0.011031121 0.15132429
0.013059884 0.07575938 -0.1191705 0.06679566 0.04827428 -0.07065386 0.005136445 0.122660056
-0.12511565 -0.12965368 0.057002187 0.008632854 0.11610298 0.059733704 0.052739367 -0.031379864
-0.074228555 0.13914265 -0.12745106 0.10765658 -0.13746665 -0.14870551 0.041099414 -0.09697446
-0.123702936 0.12084128 -0.034489624 0.09507142 -0.09212515 0.016273871 0.007175505 0.06936963
00000000: 63a1 bdbd 90a1 343c 00bd 2d3a c0d4 7cbb
00000010: 5a81 a7bd 76fa 5fbd 9e60 d9bd 302f 1b3d
00000020: 68ca d4bc 6aa4 d43d 2015 e43c 7acc e0bd
00000030: f4d0 ae3d d41d 713d 4c77 7abd 284f e03c
00000040: dbc1 0c3e 4002 4a3c 30de 673d bec4 12bd
00000050: ec0a 00be 4560 81bd 1594 003e be13 15be
00000060: 52f9 f63d c4e7 c9bd 3667 c83d 36ed 843d
00000070: 3025 583c 00b5 6f3b 1432 693d 04f4 4e3d
00000080: 1ce0 493d 8fb2 19be d8b1 8dbd b311 17be
00000090: 361f ed3d b452 303d a069 58bc 650c 12be
000000a0: 00dc aeb9 ace1 123d d448 8d3d c699 54bd
000000b0: b4c9 0bbd 4f33 b5bd 9b51 a3bd c0aa d43c
000000c0: 5a2b 7ebd 30ef 7abd 988d 9bbc 0096 d53a
000000d0: 7ab6 f33d 6a26 15be 8106 87bd 84ea c0bd
000000e0: d06f 31bc c483 93bd 6a41 fc3d 67cc 133e
000000f0: 084d 52bd 07e0 053e 5ad2 913d 8c3b bb3d
00000100: c38d 03be 8aa0 b4bd d870 b7bc ce07 ecbd
00000110: 6aa1 c83d 4014 e83b 18f5 b13d 80db 643b
00000120: 8b9d 94bd 809f d2bc 8620 903d a2c6 db3d
00000130: 4c08 a63d 5b1f 8fbd ccf0 7cbd 2bc0 a5bd
00000140: c2eb f93d 64e8 f6bc 7012 163c 4e30 09bd
00000150: 683d b9bd 6109 cabd a0f5 fa3b 062d ae3d
00000160: ec83 8c3d 148f 62bd f8ca 833c 20a8 793d
00000170: c461 00be dc27 8f3d 7104 fabd 6032 01be
00000180: 1e73 41bd a508 083e 74a7 65bd 2025 92bc
00000190: 3eed 10be 82b3 65bd e19b abbd 8ac3 e3bd
000001a0: 6a1b e33d e872 9bbc 08a2 313d 2efa fb3d
000001b0: 9e19 893d dcbc 1bbe 1db3 0cbe c418 983d
000001c0: e2f3 a73d e8f1 8d3d 0001 9dbc 32e7 35bd
000001d0: 6265 18be 4045 b83d 108f be3d 96a7 b23d
000001e0: c9a6 1b3e 809c 18be 302f 80bc 1e7f 02bd
000001f0: a9a5 1a3e 5acb 54bd 10de 88bc fa2b e33d
00000200: 6ca2 94bd c019 413b acc7 01bd dda8 aabd
00000210: 6e83 e23d ecc3 81bd 1e66 9c3d 61b4 033e
00000220: 8992 edbd 404d 83bc 2809 923d 44d0 393d
00000230: 0024 113c 60c1 adbd 9e94 4abd 247d a6bd
00000240: c2de 3dbd 1ad3 f03d e315 84bd 906d 113d
00000250: 70f3 623c 3899 1e3d 426a e3bd 747e 4d3d
00000260: 6058 03bc 2a72 36bd 246c 723d 9424 a23d
00000270: 9076 173c edb7 b6bd ae09 ffbd c051 053b
00000280: 3c58 9ebd 3cef 903d b8f2 89bc b40e efbd
00000290: 9aba a8bd 008f 85ba 0888 54bd ecb9 c4bd
000002a0: 2992 1abe 3e31 2dbd 002c 51bb 1696 6abd
000002b0: e6f9 833d ea5f c43d 6045 6fbd c444 e9bd
000002c0: 7123 05be b6ca ba3d 260b f03d 5c67 383d
000002d0: 000c 8339 2ce2 49bd 4050 24bc 78dd 91bd
000002e0: c4d6 823d cd85 043e 7890 b73d 53f0 eebd
000002f0: 5212 22bd 4692 82bd 5d95 143e 5c8b 1a3d
00000300: 2e77 29bd de9d c43d 78c0 9cbd 206a 2d3d
00000310: 24ac 1abd f687 b63d 31b3 183e 744a 1fbd
00000320: fa70 e8bd c0ab 91bb 74c8 7bbd d0f8 00bc
00000330: b094 b7bd 1ee0 47bd c0db 88bc 8ad4 3bbd
00000340: e2fe 18be 1f80 0e3e 9e06 d83d c0da 0dbc
00000350: 0ef3 15be 4076 bebd 9c03 c43d 7c7c 213d
00000360: 00b9 c73b 3a20 eebd 16f8 d43d 88d5 fabc
00000370: 3ca5 ddbd ccea 473d e0bb 343c c1f4 1a3e
00000380: 20f9 553c bc27 9b3d aa0f f4bd 2acc 883d
00000390: 40bb 453d f9b2 90bd a04f a83b 3235 fb3d
000003a0: 511e 00be efc3 04be 207b 693d d070 0d3c
000003b0: 66c7 ed3d 54ab 743d 3c05 583d 2c88 00bd
000003c0: 2405 98bd 697b 0e3e 8882 02be 0e7b dc3d
000003d0: 0fc4 0cbe 4246 18be dc57 283d 8c9a c6bd
000003e0: f757 fdbd a27b f73d fe44 0dbd ceb4 c23d
000003f0: 1cac bcbd c850 853c 8020 eb3b aa11 8e3d

onnx::LSTM_118 f4 [1, 1024]
0.0 0.0 0.0 0.0 0.0 0.0 0.0 0.0
0.0 0.0 0.0 0.0 0.0 0.0 0.0 0.0
0.0 0.0 0.0 0.0 0.0 0.0 0.0 0.0
0.0 0.0 0.0 0.0 0.0 0.0 0.0 0.0
0.0 0.0 0.0 0.0 0.0 0.0 0.0 0.0
0.0 0.0 0.0 0.0 0.0 0.0 0.0 0.0
0.0 0.0 0.0 0.0 0.0 0.0 0.0 0.0
0.0 0.0 0.0 0.0 0.0 0.0 0.0 0.0
0.0 0.0 0.0 0.0 0.0 0.0 0.0 0.0
0.0 0.0 0.0 0.0 0.0 0.0 0.0 0.0
0.0 0.0 0.0 0.0 0.0 0.0 0.0 0.0
0.0 0.0 0.0 0.0 0.0 0.0 0.0 0.0
0.0 0.0 0.0 0.0 0.0 0.0 0.0 0.0
0.0 0.0 0.0 0.0 0.0 0.0 0.0 0.0
0.0 0.0 0.0 0.0 0.0 0.0 0.0 0.0
0.0 0.0 0.0 0.0 0.0 0.0 0.0 0.0
0.0 0.0 0.0 0.0 0.0 0.0 0.0 0.0
0.0 0.0 0.0 0.0 0.0 0.0 0.0 0.0
0.0 0.0 0.0 0.0 0.0 0.0 0.0 0.0
0.0 0.0 0.0 0.0 0.0 0.0 0.0 0.0
0.0 0.0 0.0 0.0 0.0 0.0 0.0 0.0
0.0 0.0 0.0 0.0 0.0 0.0 0.0 0.0
0.0 0.0 0.0 0.0 0.0 0.0 0.0 0.0
0.0 0.0 0.0 0.0 0.0 0.0 0.0 0.0
0.0 0.0 0.0 0.0 0.0 0.0 0.0 0.0
0.0 0.0 0.0 0.0 0.0 0.0 0.0 0.0
0.0 0.0 0.0 0.0 0.0 0.0 0.0 0.0
0.0 0.0 0.0 0.0 0.0 0.0 0.0 0.0
0.0 0.0 0.0 0.0 0.0 0.0 0.0 0.0
0.0 0.0 0.0 0.0 0.0 0.0 0.0 0.0
0.0 0.0 0.0 0.0 0.0 0.0 0.0 0.0
0.0 0.0 0.0 0.0 0.0 0.0 0.0 0.0
00000000: 0000 0000 0000 0000 0000 0000 0000 0000
00000010: 0000 0000 0000 0000 0000 0000 0000 0000
00000020: 0000 0000 0000 0000 0000 0000 0000 0000
00000030: 0000 0000 0000 0000 0000 0000 0000 0000
00000040: 0000 0000 0000 0000 0000 0000 0000 0000
00000050: 0000 0000 0000 0000 0000 0000 0000 0000
00000060: 0000 0000 0000 0000 0000 0000 0000 0000
00000070: 0000 0000 0000 0000 0000 0000 0000 0000
00000080: 0000 0000 0000 0000 0000 0000 0000 0000
00000090: 0000 0000 0000 0000 0000 0000 0000 0000
000000a0: 0000 0000 0000 0000 0000 0000 0000 0000
000000b0: 0000 0000 0000 0000 0000 0000 0000 0000
000000c0: 0000 0000 0000 0000 0000 0000 0000 0000
000000d0: 0000 0000 0000 0000 0000 0000 0000 0000
000000e0: 0000 0000 0000 0000 0000 0000 0000 0000
000000f0: 0000 0000 0000 0000 0000 0000 0000 0000
00000100: 0000 0000 0000 0000 0000 0000 0000 0000
00000110: 0000 0000 0000 0000 0000 0000 0000 0000
00000120: 0000 0000 0000 0000 0000 0000 0000 0000
00000130: 0000 0000 0000 0000 0000 0000 0000 0000
00000140: 0000 0000 0000 0000 0000 0000 0000 0000
00000150: 0000 0000 0000 0000 0000 0000 0000 0000
00000160: 0000 0000 0000 0000 0000 0000 0000 0000
00000170: 0000 0000 0000 0000 0000 0000 0000 0000
00000180: 0000 0000 0000 0000 0000 0000 0000 0000
00000190: 0000 0000 0000 0000 0000 0000 0000 0000
000001a0: 0000 0000 0000 0000 0000 0000 0000 0000
000001b0: 0000 0000 0000 0000 0000 0000 0000 0000
000001c0: 0000 0000 0000 0000 0000 0000 0000 0000
000001d0: 0000 0000 0000 0000 0000 0000 0000 0000
000001e0: 0000 0000 0000 0000 0000 0000 0000 0000
000001f0: 0000 0000 0000 0000 0000 0000 0000 0000
00000200: 0000 0000 0000 0000 0000 0000 0000 0000
00000210: 0000 0000 0000 0000 0000 0000 0000 0000
00000220: 0000 0000 0000 0000 0000 0000 0000 0000
00000230: 0000 0000 0000 0000 0000 0000 0000 0000
00000240: 0000 0000 0000 0000 0000 0000 0000 0000
00000250: 0000 0000 0000 0000 0000 0000 0000 0000
00000260: 0000 0000 0000 0000 0000 0000 0000 0000
00000270: 0000 0000 0000 0000 0000 0000 0000 0000
00000280: 0000 0000 0000 0000 0000 0000 0000 0000
00000290: 0000 0000 0000 0000 0000 0000 0000 0000
000002a0: 0000 0000 0000 0000 0000 0000 0000 0000
000002b0: 0000 0000 0000 0000 0000 0000 0000 0000
000002c0: 0000 0000 0000 0000 0000 0000 0000 0000
000002d0: 0000 0000 0000 0000 0000 0000 0000 0000
000002e0: 0000 0000 0000 0000 0000 0000 0000 0000
000002f0: 0000 0000 0000 0000 0000 0000 0000 0000
00000300: 0000 0000 0000 0000 0000 0000 0000 0000
00000310: 0000 0000 0000 0000 0000 0000 0000 0000
00000320: 0000 0000 0000 0000 0000 0000 0000 0000
00000330: 0000 0000 0000 0000 0000 0000 0000 0000
00000340: 0000 0000 0000 0000 0000 0000 0000 0000
00000350: 0000 0000 0000 0000 0000 0000 0000 0000
00000360: 0000 0000 0000 0000 0000 0000 0000 0000
00000370: 0000 0000 0000 0000 0000 0000 0000 0000
00000380: 0000 0000 0000 0000 0000 0000 0000 0000
00000390: 0000 0000 0000 0000 0000 0000 0000 0000
000003a0: 0000 0000 0000 0000 0000 0000 0000 0000
000003b0: 0000 0000 0000 0000 0000 0000 0000 0000
000003c0: 0000 0000 0000 0000 0000 0000 0000 0000
000003d0: 0000 0000 0000 0000 0000 0000 0000 0000
000003e0: 0000 0000 0000 0000 0000 0000 0000 0000
000003f0: 0000 0000 0000 0000 0000 0000 0000 0000
