results/try-22/My Behavior.onnx (onnx, 693209 bytes, 10 tensors)

network_body._body_endoder.seq_layers.0.weight f4 [128, 122]
0	0xbde00a4b	-0.10939463
1	0xbaa1e4d5	-0.0012351522
2	0xba8fa513	-0.001095923
3	0xbd3b84c0	-0.045780897
4	0xbd5faf20	-0.05461037
5	0x3d896b79	0.06709952
6	0x3e00501d	0.12530561
7	0xbe0132af	-0.1261699
8	0xbda549f4	-0.08070746
9	0x3e006492	0.12538365
10	0x3df5098f	0.11964714
11	0xbda65435	-0.0812153
12	0x3e24988b	0.16073816
13	0x3b67b5ac	0.0035356088
14	0x3e044453	0.12916689
15	0x3d9e6b26	0.07735281
16	0x3dd3e098	0.10345572
17	0xbd8a0caa	-0.06740697
18	0xbc7dfdfc	-0.015502449
19	0xbd17ea48	-0.037088662
20	0xbd998e3c	-0.07497832
21	0x3d93b1b5	0.07211629
22	0xbc275774	-0.010213722
23	0x3c514efd	0.01277518
24	0xbe1abb6e	-0.15110561
25	0xbd651b74	-0.055934384
26	0x3cb6c02f	0.022308437
27	0x3e5b5584	0.2141934
28	0x3b4e15f4	0.003144619
29	0x3ddedbc2	0.10881759
30	0x3c37f327	0.011227406
31	0x3d7c48f1	0.061593
32	0xbd39141d	-0.045185197
33	0xbd90b827	-0.07066374
34	0xbd81fcb8	-0.063470304
35	0x3c499e12	0.012305753
36	0xbce007b8	-0.02734743
37	0xbc13ff85	-0.009033089
38	0xbdc781f8	-0.097415864
39	0xbdddce2b	-0.10830339
40	0x3d9dd925	0.07707433
41	0x3e289b09	0.16465391
42	0xbd4dc625	-0.050237793
43	0x3ccd4a21	0.025059761
44	0xbc71d2b9	-0.014759713
45	0x3d462572	0.048375554
46	0xbe00f013	-0.12591581
47	0x3cbbdf90	0.022933751
48	0x3d935b63	0.07195165
49	0x3d9106c7	0.07081371
50	0xbe0a7bdb	-0.1352381
51	0xba857939	-0.0010183222
52	0xbc70fb2b	-0.014708321
53	0x3da3b723	0.07993915
54	0xbdfb4965	-0.12269858
55	0x3d9793fb	0.07401272
56	0xbcc9ee3c	-0.024649732
57	0x3c8fb4bf	0.017542241
58	0xbd57c90f	-0.05268198
59	0xbdb48170	-0.08813751
60	0x3e0a26b2	0.13491324
61	0xbd769061	-0.060196284
62	0xbd3a47b8	-0.045478553
63	0x3d4ba45b	0.04971729
64	0x3dcd189e	0.10014461
65	0xbdc5a07f	-0.09649753
66	0x3d155d3d	0.036465872
67	0x3de9e1fb	0.114200555
68	0x3baf8042	0.0053558657
69	0xbcff3d04	-0.031157024
70	0xbd39db5e	-0.04537522
71	0x3d852c30	0.06502569
72	0xba1c9f99	-0.00059747096
73	0xbc342f8e	-0.010997666
74	0x3c0a03d0	0.0084237605
75	0x3c0e96c8	0.008702941
76	0x3da2d71f	0.07951187
77	0xbcd641e5	-0.026154468
78	0x3e147da4	0.14501053
79	0xbd856a20	-0.06514382
80	0xbddb4d54	-0.107081085
81	0x3daa161a	0.08304997
82	0xbd8379f6	-0.064197466
83	0x3dbaf4f4	0.09128752
84	0x3b1dba4f	0.0024067347
85	0x3c8c46e4	0.017123647
86	0xbdcc0653	-0.09962144
87	0xbcefd1ce	-0.029274847
88	0x3da07389	0.078345366
89	0xbc83345a	-0.016016174
90	0xbe858b9a	-0.2608307
91	0xbc6de463	-0.014519784
92	0xbd81d12b	-0.06338724
93	0x3d84b6f0	0.06480205
94	0xbcd84d93	-0.026404178
95	0xbdcb2328	-0.09918815
96	0xbd6eaa0b	-0.058267634
97	0xbd0109fd	-0.031503666
98	0x3d841009	0.06448371
99	0xbd8d9287	-0.069127135
100	0x3d69393b	0.056939345
101	0xbdd8a2ab	-0.105779015
102	0xbd40c9a5	-0.047067303
103	0x3d932bb3	0.07186069
104	0x3df5bd0f	0.11998951
105	0xbdce3779	-0.10069174
106	0x3d9645e1	0.07337547
107	0x3d7626cf	0.060095605
108	0x3cfb6a1e	0.030690249
109	0x3b15495c	0.0022779321
110	0x3d8c12c2	0.06839515
111	0x3d9aa153	0.075503014
112	0x3de30254	0.110844284
113	0xbe8bd883	-0.27313623
114	0x3db0b8ed	0.08629022
115	0x3d6552e8	0.05598727
116	0x3da31e94	0.07964817
117	0x3ddbd33d	0.1073365
118	0x3cf43245	0.029809127
119	0x3dfb5175	0.12271396
120	0x3dabde33	0.083919905
121	0xbd527ab5	-0.051386554
122	0x3e062589	0.13100256
123	0xbcbbfe7e	-0.0229485
124	0x3e0e818d	0.13916607
125	0x3d2bc6c3	0.0419376
126	0x3e165162	0.14679483
127	0x3d234d75	0.03986879
128	0xbda85021	-0.082184084
129	0xbd09dd7f	-0.0336585
130	0x3dc11026	0.09426908
131	0x3d0f57c8	0.034995824
132	0xbdadaea1	-0.084805734
133	0xbc426b35	-0.01186638
134	0xbd2c35f3	-0.042043637
135	0xbd2fcf62	-0.042922385
136	0x3dee4f8a	0.116362646
137	0x3ca04131	0.019562336
138	0x3db0c2c7	0.08630901
139	0xbdab94a2	-0.08377959
140	0x3c8bb332	0.01705322
141	0x3cacfeb0	0.021117538
142	0xbdf93464	-0.12168196
143	0x3dff7460	0.12473369
144	0x3ab90b1c	0.0014117691
145	0x3d30b244	0.043138757
146	0xbde36c5d	-0.11104653
147	0xbd9e1a97	-0.07719915
148	0x3dfb2586	0.122630164
149	0x3daf813d	0.08569572
150	0xbc5ca1ba	-0.013466293
151	0xbba32efc	-0.004979966
152	0xbd92ea15	-0.07173554
153	0xbda446e2	-0.08021332
154	0xbe29c0c6	-0.16577443
155	0x3d9dedaf	0.0771135
156	0x3ca55bbc	0.020185344
157	0xbe346a05	-0.17618568
158	0xbd95c310	-0.07312596
159	0xbd261744	-0.04054953
160	0xbd816b16	-0.06319253
161	0x3c93f571	0.018061372
162	0x3c4d110a	0.012516269
163	0x3d880f48	0.0664354
164	0x3c14b2bb	0.009075816
165	0x3e1296b6	0.14315304
166	0xbd310248	-0.043215066
167	0xbe6b2c73	-0.22966175
168	0xbda1154e	-0.07865392
169	0xbdde2b80	-0.10848141
170	0xbddffe12	-0.10937132
171	0x3e0ed96c	0.13950127
172	0x3d45a755	0.048255283
173	0x3cc9fe40	0.024657369
174	0x3e0a6de0	0.13518476
175	0x3caeca60	0.021336734
176	0x3cb984e0	0.022646368
177	0x3e175899	0.14779891
178	0x3ddfcf04	0.10928157
179	0xbdac8af2	-0.08424939
180	0xbda93e76	-0.082638666
181	0x3b877327	0.0041336003
182	0xbca065b1	-0.01957974
183	0xbc5f33ca	-0.013623187
184	0xbc8ef8ce	-0.017452624
185	0xbe2940be	-0.16528603
186	0xbda53775	-0.08067218
187	0x3cd9284e	0.026508477
188	0x3bcd9e9f	0.0062750126
189	0x3d4edd06	0.050503753
190	0xbdc998c8	-0.09843594
191	0x3ca9c5b1	0.02072415
192	0xbdb2a202	-0.08722307
193	0xbd354526	-0.0442554
194	0x3db5fc64	0.0888603
195	0x3d165d8f	0.03671032
196	0xbd0aa983	-0.033853065
197	0xbd9691a5	-0.07351998
198	0x3d80c274	0.06287089
199	0xbdc4b7af	-0.09605347
200	0xbb858573	-0.0040747463
201	0x3e2ed51e	0.17073485
202	0xbdab0ef4	-0.083524615
203	0xbb2f78cd	-0.0026774884
204	0xbdc04530	-0.093881965
205	0xbe28dbb5	-0.16490062
206	0xbdaa96a3	-0.08329513
207	0x3d74b7d1	0.059745613
208	0xbdf9cc9c	-0.12197229
209	0x3b1548ad	0.0022778914
210	0xbc0073ec	-0.007840138
211	0xbccfa203	-0.025345808
212	0x37ecb0d3	2.8215733e-05
213	0xbdf0b201	-0.117527016
214	0x3e4ea67f	0.201807
215	0x3e312a19	0.17301215
216	0xbdb350e3	-0.08755662
217	0xbe6dca29	-0.23221649
218	0x3e2b624d	0.16736718
219	0x3d0b4944	0.03400542
220	0xbd05c1d2	-0.032655545
221	0x3d52a9b9	0.05143139
222	0xbdf0af71	-0.11752213
223	0xbd155eaf	-0.03646725
224	0xbba4b190	-0.00502605
225	0x3db379fc	0.08763501
226	0xbd80040d	-0.062507726
227	0x3d681693	0.056662153
228	0x3d530e4f	0.051527318
229	0x3e27937b	0.16364853
230	0xbbe18737	-0.006882574
231	0xba5aecac	-0.0008351307
232	0x3d64182c	0.055687115
233	0xbe65d92c	-0.22446126
234	0x3df6b370	0.12045944
235	0xbe03a069	-0.1285416
236	0xbda89c94	-0.0823299
237	0xbbee52be	-0.007273047
238	0xbe2e4410	-0.17018151
239	0x3e465e58	0.19371927
240	0x3d9d3c7f	0.07677554
241	0xbdf99b1b	-0.12187787
242	0xbe121010	-0.1426394
243	0xbcd5ffac	-0.02612289
244	0x3d0f1529	0.03493229
245	0xbc5398bb	-0.012914832
246	0xbd117751	-0.03551418
247	0xbd6faae3	-0.05851258
248	0x3dc8ef5f	0.098112814
249	0x3dd34d85	0.1031752
250	0xbc9d2067	-0.01918049
251	0x3dd31e0f	0.103084676
252	0xbd6bb947	-0.05754974
253	0xbe2aa8cf	-0.16665958
254	0x3cdb2c3b	0.02675449
255	0x3ca1531f	0.019692956

network_body._body_endoder.seq_layers.0.bias f4 [128]
0	0x00000000	0.0
1	0x00000000	0.0
2	0x00000000	0.0
3	0x00000000	0.0
4	0x00000000	0.0
5	0x00000000	0.0
6	0x00000000	0.0
7	0x00000000	0.0
8	0x00000000	0.0
9	0x00000000	0.0
10	0x00000000	0.0
11	0x00000000	0.0
12	0x00000000	0.0
13	0x00000000	0.0
14	0x00000000	0.0
15	0x00000000	0.0
16	0x00000000	0.0
17	0x00000000	0.0
18	0x00000000	0.0
19	0x00000000	0.0
20	0x00000000	0.0
21	0x00000000	0.0
22	0x00000000	0.0
23	0x00000000	0.0
24	0x00000000	0.0
25	0x00000000	0.0
26	0x00000000	0.0
27	0x00000000	0.0
28	0x00000000	0.0
29	0x00000000	0.0
30	0x00000000	0.0
31	0x00000000	0.0
32	0x00000000	0.0
33	0x00000000	0.0
34	0x00000000	0.0
35	0x00000000	0.0
36	0x00000000	0.0
37	0x00000000	0.0
38	0x00000000	0.0
39	0x00000000	0.0
40	0x00000000	0.0
41	0x00000000	0.0
42	0x00000000	0.0
43	0x00000000	0.0
44	0x00000000	0.0
45	0x00000000	0.0
46	0x00000000	0.0
47	0x00000000	0.0
48	0x00000000	0.0
49	0x00000000	0.0
50	0x00000000	0.0
51	0x00000000	0.0
52	0x00000000	0.0
53	0x00000000	0.0
54	0x00000000	0.0
55	0x00000000	0.0
56	0x00000000	0.0
57	0x00000000	0.0
58	0x00000000	0.0
59	0x00000000	0.0
60	0x00000000	0.0
61	0x00000000	0.0
62	0x00000000	0.0
63	0x00000000	0.0
64	0x00000000	0.0
65	0x00000000	0.0
66	0x00000000	0.0
67	0x00000000	0.0
68	0x00000000	0.0
69	0x00000000	0.0
70	0x00000000	0.0
71	0x00000000	0.0
72	0x00000000	0.0
73	0x00000000	0.0
74	0x00000000	0.0
75	0x00000000	0.0
76	0x00000000	0.0
77	0x00000000	0.0
78	0x00000000	0.0
79	0x00000000	0.0
80	0x00000000	0.0
81	0x00000000	0.0
82	0x00000000	0.0
83	0x00000000	0.0
84	0x00000000	0.0
85	0x00000000	0.0
86	0x00000000	0.0
87	0x00000000	0.0
88	0x00000000	0.0
89	0x00000000	0.0
90	0x00000000	0.0
91	0x00000000	0.0
92	0x00000000	0.0
93	0x00000000	0.0
94	0x00000000	0.0
95	0x00000000	0.0
96	0x00000000	0.0
97	0x00000000	0.0
98	0x00000000	0.0
99	0x00000000	0.0
100	0x00000000	0.0
101	0x00000000	0.0
102	0x00000000	0.0
103	0x00000000	0.0
104	0x00000000	0.0
105	0x00000000	0.0
106	0x00000000	0.0
107	0x00000000	0.0
108	0x00000000	0.0
109	0x00000000	0.0
110	0x00000000	0.0
111	0x00000000	0.0
112	0x00000000	0.0
113	0x00000000	0.0
114	0x00000000	0.0
115	0x00000000	0.0
116	0x00000000	0.0
117	0x00000000	0.0
118	0x00000000	0.0
119	0x00000000	0.0
120	0x00000000	0.0
121	0x00000000	0.0
122	0x00000000	0.0
123	0x00000000	0.0
124	0x00000000	0.0
125	0x00000000	0.0
126	0x00000000	0.0
127	0x00000000	0.0

network_body._body_endoder.seq_layers.2.weight f4 [128, 128]
0	0x3d9855ba	0.07438226
1	0xbd15bc70	-0.03655666
2	0x3dbb9eec	0.09161171
3	0xbe1ddd55	-0.15416463
4	0xbd4dd7e9	-0.050254736
5	0xbdf3b7e1	-0.119003065
6	0x3d690070	0.056885183
7	0xbc805bcc	-0.015668772
8	0xbd5d748b	-0.054066222
9	0x3dd81d95	0.10552517
10	0xbd10d8c2	-0.035362966
11	0xbd00b844	-0.03142573
12	0xbe756d77	-0.23967539
13	0xbdef2cc0	-0.11678457
14	0xbdd68b71	-0.10475815
15	0xbd17ecd2	-0.037091084
16	0x3dbb73e1	0.091529615
17	0xbc9d902b	-0.019233784
18	0x3e22dba8	0.15904105
19	0xbe55e4d1	-0.20888068
20	0xbcfd987a	-0.030956496
21	0xbba367cc	-0.004986739
22	0xbd3ca6d6	-0.046057545
23	0x3cbb4022	0.02285773
24	0x3d3c0de8	0.0459117
25	0x3daf873a	0.08570714
26	0xbb9fc37b	-0.004875598
27	0x3d0f0fc1	0.034927133
28	0x3e064d25	0.13115366
29	0x3dcd897c	0.10035989
30	0x3d1bb166	0.038010977
31	0xbe2b4bd3	-0.16728143
32	0xbd943123	-0.072359346
33	0xbdbedae8	-0.09319097
34	0xbd81fe55	-0.06347338
35	0x3df0cb31	0.11757506
36	0x3db59917	0.0886709
37	0xbbd764e9	-0.0065733087
38	0xbd204540	-0.039128542
39	0xbbcd13f3	-0.0062584816
40	0xbdd609ea	-0.1045111
41	0x3c907bcf	0.017637162
42	0xbc7cab1a	-0.015421653
43	0x3dca1139	0.09866566
44	0xbe19db79	-0.15025128
45	0xbd14b8f8	-0.036309212
46	0xbd1d9932	-0.038476177
47	0xbd6855ab	-0.056722324
48	0x3bc2e12c	0.0059472527
49	0x3b940976	0.0045177294
50	0x3da48201	0.08032609
51	0xbc5eaf42	-0.013591589
52	0xbc52861d	-0.012849358
53	0x3e30d5ae	0.17269012
54	0xbd11a9dc	-0.03556238
55	0xbe015f6f	-0.12634061
56	0x3d58aa4d	0.052896786
57	0x3caab7e0	0.020839632
58	0x3c56f7c1	0.013120593
59	0xbd8f582b	-0.069992386
60	0xbd9853cb	-0.07437857
61	0x3df70db6	0.12063162
62	0x3cc01a8b	0.023450157
63	0xbd3e9619	-0.046529863
64	0xbd14413f	-0.036195036
65	0xbe216029	-0.15759338
66	0x3d8307a6	0.06397943
67	0xbd047dc3	-0.0323465
68	0xbe08ef0a	-0.13372436
69	0xbd7deb9e	-0.06199228
70	0x3dc9306e	0.0982369
71	0xbd68054d	-0.05664568
72	0x3dd2a58e	0.10285483
73	0xbe589d97	-0.21153866
74	0xbc1e09a8	-0.009645857
75	0x3cd0c74d	0.025485659
76	0xbc94b7d1	-0.018154057
77	0x3dec16d4	0.115277916
78	0x3e0e887c	0.13919252
79	0x3d2b5eab	0.04183833
80	0xbced7e89	-0.028991
81	0xbd575dea	-0.052579798
82	0xbcfb2120	-0.030655444
83	0xbc062345	-0.00818712
84	0x3d8ba1fa	0.06818004
85	0xbd4f5fdc	-0.050628528
86	0x3d4c5008	0.04988101
87	0x3defba4b	0.117054544
88	0xbd2970e2	-0.04136742
89	0xbdcd180b	-0.100143515
90	0xb875d66a	-5.861224e-05
91	0xbc7cfd65	-0.015441273
92	0xbddada01	-0.10686112
93	0xbdf3cdf6	-0.11904518
94	0xbd917415	-0.07102219
95	0x3cb21e4a	0.021742959
96	0xbc17b93d	-0.009260473
97	0x3cb335f3	0.02187631
98	0xbe470252	-0.19434479
99	0x3decb1a6	0.11557321
100	0x3d03a7da	0.032142498
101	0xbdd40a73	-0.103535555
102	0xbd3d628a	-0.046236552
103	0x3d106757	0.035254803
104	0xbe10be00	-0.14134979
105	0xbd9d5e43	-0.076839946
106	0x3d215077	0.039383378
107	0xbc2aa7cd	-0.010415983
108	0xbd30c797	-0.043159094
109	0x3cc1542e	0.02359971
110	0x3e4b926f	0.19880079
111	0x3de05b02	0.10954858
112	0x3dc9d278	0.09854597
113	0xbc923ece	-0.017852213
114	0xbd13079a	-0.03589592
115	0xbd06c5e3	-0.032903563
116	0xbcd3a60a	-0.02583601
117	0x3d1cb211	0.038255755
118	0xbc4741b9	-0.012161666
119	0x3c54b385	0.012982254
120	0x3b80fb5c	0.0039362144
121	0xbce9b4cc	-0.028528593
122	0xbdeadfa3	-0.114684366
123	0xbd9822f3	-0.07428541
124	0x3e102626	0.14077052
125	0xbda1219c	-0.078677386
126	0x3da63295	0.081151165
127	0xbe06f7da	-0.13180485
128	0x3c7430d7	0.014904222
129	0xbdaa43e4	-0.0831373
130	0xbda7fec4	-0.082028896
131	0x3cbb5b84	0.022870786
132	0x3e0570f4	0.1303137
133	0x3d0efc22	0.03490842
134	0x3c5e0f5d	0.013553468
135	0x3daf98fd	0.08574102
136	0x3cdb1c00	0.02674675
137	0x3df1d78d	0.11808691
138	0xbe03e9eb	-0.12882201
139	0x3c9410ca	0.018074412
140	0x3e0eeb23	0.13956885
141	0xbdf3527a	-0.118809655
142	0xbdce4f35	-0.10073701
143	0xbdd683ee	-0.10474382
144	0xbca4fbcf	-0.020139603
145	0x3de8f333	0.113745116
146	0x3da51138	0.08059925
147	0xbd68b730	-0.056815326
148	0x3c37387b	0.0111829
149	0xbd90faec	-0.070791095
150	0x3d322ce9	0.04349986
151	0xbdda8e1b	-0.10671636
152	0x3d5a4d63	0.053296458
153	0x3d16ecda	0.036846973
154	0x3da12bba	0.07869668
155	0x3d353e43	0.04424883
156	0xbd79065b	-0.060797077
157	0xbd9968e7	-0.07490712
158	0x3db9452c	0.090463966
159	0xbd6685d2	-0.056279965
160	0xbc68fc7d	-0.014220354
161	0x3d9a8857	0.07545536
162	0x3ceb3ee0	0.028716505
163	0x3e47bc65	0.1950546
164	0xbdd0a600	-0.10187912
165	0x3cd13bc8	0.025541201
166	0x3ce0fed4	0.027465262
167	0x3e2a60fd	0.1663856
168	0x3d41f475	0.047352273
169	0x3d3985b4	0.045293525
170	0x3d154d53	0.036450695
171	0x3bccda12	0.006251582
172	0x3e41832f	0.18897699
173	0xbdcf47f0	-0.10121143
174	0x3e20b2e9	0.15693249
175	0x3d3f27c4	0.046668783
176	0xbdb6d2a2	-0.08926894
177	0x3dccfba6	0.10008936
178	0xbc9964b2	-0.018724773
179	0xbd278813	-0.040901255
180	0xbe7a0ec0	-0.24419689
181	0xbddfcd32	-0.1092781
182	0x3b04837d	0.0020219975
183	0x3d45f033	0.048324775
184	0xbb248a9b	-0.002510703
185	0xbca1360a	-0.019679088
186	0x3d8773f7	0.066139154
187	0x3d1b5d4e	0.03793078
188	0xbd444365	-0.047915835
189	0xbe06b95a	-0.13156644
190	0xbda3f218	-0.0800516
191	0xbd317d24	-0.043332234
192	0x3df41c8b	0.11919507
193	0xbe1fa61d	-0.15590711
194	0x3ce9fa2d	0.028561676
195	0x3dfc4d36	0.12319414
196	0xbc8e4e71	-0.017371388
197	0x3c52a061	0.01285562
198	0x3da99bc4	0.08281663
199	0xbe45fa5d	-0.19333787
200	0xbd0a6123	-0.033784043
201	0x3d6c0931	0.057625953
202	0x3d516557	0.051122036
203	0x3ddd7c1a	0.10814686
204	0xbcc000e7	-0.02343793
205	0x3d3a642f	0.0455057
206	0xbd494587	-0.049138572
207	0x3df018e4	0.117234975
208	0xbc14ccda	-0.009082044
209	0xbda216c9	-0.07914502
210	0xbd9d74a0	-0.0768826
211	0xbc9ad3d8	-0.018899843
212	0x3dc7dc4d	0.09758816
213	0xbda0f4b2	-0.07859172
214	0xbd75d70b	-0.060019534
215	0x3ccee319	0.025254773
216	0x3e2cb460	0.16865683
217	0xbd46b51d	-0.048512567
218	0x3d010431	0.031498138
219	0xbd75b62b	-0.059988182
220	0xbdea3350	-0.11435568
221	0xbdbf0c8c	-0.09328565
222	0x3da87671	0.08225716
223	0x3c0370f4	0.008022536
224	0x3de40d99	0.11135406
225	0xbde4886f	-0.11158835
226	0x3da6bffd	0.081420876
227	0xbcd9a436	-0.02656756
228	0x3cf3e13e	0.02977049
229	0xbda8950b	-0.08231553
230	0xbc9c988e	-0.019115712
231	0xbcbfc679	-0.023410069
232	0x3d8a809d	0.06762812
233	0x3d9fa38a	0.077948645
234	0xbd93eb7d	-0.0722265
235	0x3dc04f7f	0.09390163
236	0x3cd4b10b	0.025963327
237	0xbca6b484	-0.020349748
238	0xbe0622c8	-0.13099205
239	0xbe445de5	-0.19176443
240	0xbbf1b816	-0.007376681
241	0xbe0d3010	-0.13787866
242	0xbd879c2b	-0.066215836
243	0xbe54f050	-0.20794797
244	0x3cd41b50	0.02589193
245	0x3e3f7328	0.18696272
246	0x3dfa00bb	0.122071706
247	0xbd1a29ec	-0.037637636
248	0xbe2225e4	-0.15834767
249	0x3ddd6df6	0.10811989
250	0xbc3e5a7d	-0.011618254
251	0x3d76403e	0.06011986
252	0x3d9e53aa	0.077308014
253	0xbe0b19a9	-0.13584007
254	0xbdbb3526	-0.09140997
255	0xbcb9dc30	-0.022688001

action_model._continuous_distribution.log_sigma f4 [1, 51]
0	0x00000000	0.0
1	0x00000000	0.0
2	0x00000000	0.0
3	0x00000000	0.0
4	0x00000000	0.0
5	0x00000000	0.0
6	0x00000000	0.0
7	0x00000000	0.0
8	0x00000000	0.0
9	0x00000000	0.0
10	0x00000000	0.0
11	0x00000000	0.0
12	0x00000000	0.0
13	0x00000000	0.0
14	0x00000000	0.0
15	0x00000000	0.0
16	0x00000000	0.0
17	0x00000000	0.0
18	0x00000000	0.0
19	0x00000000	0.0
20	0x00000000	0.0
21	0x00000000	0.0
22	0x00000000	0.0
23	0x00000000	0.0
24	0x00000000	0.0
25	0x00000000	0.0
26	0x00000000	0.0
27	0x00000000	0.0
28	0x00000000	0.0
29	0x00000000	0.0
30	0x00000000	0.0
31	0x00000000	0.0
32	0x00000000	0.0
33	0x00000000	0.0
34	0x00000000	0.0
35	0x00000000	0.0
36	0x00000000	0.0
37	0x00000000	0.0
38	0x00000000	0.0
39	0x00000000	0.0
40	0x00000000	0.0
41	0x00000000	0.0
42	0x00000000	0.0
43	0x00000000	0.0
44	0x00000000	0.0
45	0x00000000	0.0
46	0x00000000	0.0
47	0x00000000	0.0
48	0x00000000	0.0
49	0x00000000	0.0
50	0x00000000	0.0

action_model._continuous_distribution.mu.weight f4 [51, 128]
0	0x3be3feca	0.0069578635
1	0x3aa1b88b	0.0012338323
2	0x3cc2204f	0.023697047
3	0x3cb1d5e5	0.021708438
4	0xbcc3ab30	-0.02388534
5	0xbc22a47f	-0.009926914
6	0xbca61fee	-0.020278897
7	0xbd819205	-0.06326679
8	0x3c1b1d71	0.009467469
9	0xbcedd8da	-0.029034067
10	0xba0340b0	-0.00050068926
11	0xbb8b9d78	-0.004260715
12	0xbd17e315	-0.037081797
13	0x39ec1a5d	0.0004503307
14	0xbc00b63d	-0.007855949
15	0x3a8d88ef	0.0010798256
16	0x3ccc4616	0.024935763
17	0xbc592d62	-0.013255449
18	0xbaf3a415	-0.0018588329
19	0x3bd73adb	0.0065682954
20	0xbcf04d4b	-0.029333731
21	0x3c618d0d	0.013766539
22	0xbd222177	-0.039582696
23	0xbc455e98	-0.012046479
24	0x3d2f621f	0.042818185
25	0x3c19d7b7	0.009389809
26	0xbcafaaf0	-0.021443814
27	0x3ba6cd67	0.005090404
28	0xbc0537ed	-0.0081310095
29	0xbd26e45d	-0.040745128
30	0xbc75676d	-0.014978272
31	0x3cc5732e	0.024102774
32	0xbb9a8db0	-0.0047165975
33	0x3bdfe8c7	0.006833169
34	0xbc6209a2	-0.013796242
35	0x3b6a811b	0.003578252
36	0x3ca5a38b	0.020219585
37	0x3c061cdd	0.0081855925
38	0xbbf810dd	-0.0075703696
39	0x3b07f6b3	0.002074641
40	0xbc7f02ab	-0.015564601
41	0x3c6d690f	0.01449038
42	0xbc61bc30	-0.013777778
43	0x3b6e8063	0.0036392442
44	0xbccc06de	-0.024905618
45	0x3d22b9a7	0.039727833
46	0xbcae1da3	-0.021254366
47	0x3b20484a	0.002445715
48	0x3cc64a95	0.024205485
49	0xbb999987	-0.0046874913
50	0x3ca22867	0.019794656
51	0x3c95e7b1	0.018298956
52	0x3c5a779d	0.013334182
53	0x3c79fb90	0.015257731
54	0xbc830d6d	-0.015997613
55	0x3b994bc3	0.004678221
56	0x3cd77df2	0.026305173
57	0x3cc8c043	0.02450574
58	0xba1abf63	-0.00059031526
59	0xbd05ad58	-0.032636017
60	0xbb2d9253	-0.002648492
61	0xbc3e3fd8	-0.011611901
62	0x3b1cfcb6	0.0023954338
63	0x3d2c9ca7	0.042141583
64	0xbb94696d	-0.0045291693
65	0xbbce3048	-0.0062923767
66	0xbbf2abb5	-0.007405723
67	0x3ccc466f	0.02493593
68	0x3c3e096b	0.011598925
69	0xbb6bcc4b	-0.0035979922
70	0xbc329aa1	-0.010901124
71	0xbc929ac9	-0.017896073
72	0xbb93852f	-0.0045019607
73	0xbc4039c5	-0.011732523
74	0x3d116046	0.035492204
75	0x3d0a3e8c	0.033751056
76	0x3cca7380	0.024713278
77	0xbb910df6	-0.004426713
78	0x3bd11143	0.0063802316
79	0x3c1a43c1	0.009415568
80	0xbcb9b8ef	-0.022671191
81	0xbd04f68b	-0.032461684
82	0xbc1806d3	-0.009278971
83	0x3c4b343f	0.012402593
84	0xbb0c258f	-0.0021384691
85	0x3c152d58	0.009105049
86	0x3c4282de	0.0118720215
87	0x3d3d625e	0.04623639
88	0x3bff875a	0.0077981176
89	0xbd279b42	-0.04091955
90	0xbaa9e47d	-0.0012961772
91	0xbc31f2b0	-0.010861084
92	0x3d144e6f	0.036207613
93	0xbcb72356	-0.022355717
94	0x3c4d596f	0.01253353
95	0xbc38b9ef	-0.011274799
96	0x3c96b43f	0.018396495
97	0x3caf1af3	0.021375155
98	0xbc734e23	-0.014850172
99	0xbc8353b5	-0.016031126
100	0xbb678b60	-0.0035330877
101	0x3ac37369	0.0014911714
102	0x3c404890	0.01173605
103	0x3b234e37	0.0024918446
104	0x3caae2db	0.020860126
105	0xbcc38dd1	-0.023871334
106	0xbbeea642	-0.007283003
107	0xbc22bec6	-0.009933179
108	0x3c87d083	0.016578918
109	0x3cd93162	0.026512805
110	0xbcf3c877	-0.029758675
111	0xbc169925	-0.009191786
112	0xbbf90c98	-0.0076003782
113	0xbccc2fe2	-0.024925176
114	0x3c49f725	0.01232699
115	0xbcaafeec	-0.02087351
116	0x3c51750f	0.012784257
117	0xbbb568c4	-0.0055361707
118	0x3c92bfa0	0.01791364
119	0x396b3aaa	0.000224332
120	0xbc25570d	-0.010091555
121	0xbbf3578f	-0.0074262093
122	0xba6eaf62	-0.00091051136
123	0x3cd1a398	0.025590703
124	0xbb0aa3a7	-0.0021154673
125	0x3d13c462	0.036075957
126	0xbc4f7578	-0.012662284
127	0xbc165666	-0.009175872
128	0x3ba12ad3	0.004918435
129	0x3d09a004	0.03359987
130	0xbc48b5cb	-0.012250374
131	0x3c25fadd	0.010130611
132	0x3c2f862f	0.010713144
133	0xbc960ac5	-0.018315682
134	0xbc1a8aca	-0.009432504
135	0xbc324822	-0.010881456
136	0x38f2874d	0.00011564661
137	0x3c99cbd2	0.018773947
138	0xbc1a291b	-0.009409214
139	0xbc8cc027	-0.01718147
140	0x3b2f8f74	0.0026788386
141	0x3bb80d3a	0.005616811
142	0xbc59b6f7	-0.013288251
143	0xbaef2fe7	-0.0018248529
144	0xbb61660b	-0.0034393098
145	0x3c208112	0.009796398
146	0xbb38a7ec	-0.002817626
147	0x3ca003d3	0.019533074
148	0xb922023f	-0.0001545036
149	0x3ad55c05	0.0016278034
150	0xbcb1b648	-0.021693364
151	0x3c8a4cbb	0.016882291
152	0xbb364be3	-0.0027816228
153	0x3c801f57	0.015639944
154	0xbc7a8bc3	-0.015292111
155	0xbc7a4f6f	-0.0152777275
156	0x3c7bcbef	0.015368446
157	0xba8c4766	-0.0010702431
158	0x3caebfb6	0.02133165
159	0xbcccb6c7	-0.024989499
160	0x3cf1821a	0.029480983
161	0xbb9db12f	-0.0048123817
162	0xb99392a4	-0.0002814728
163	0x3a6cff8b	0.00090407644
164	0x3b761a5a	0.0037552328
165	0x3bf40572	0.007446938
166	0x3ca2d47e	0.019876715
167	0x3ae5a22f	0.0017519648
168	0x3c5f10ad	0.013614816
169	0x3be1444b	0.0068745962
170	0xbc9ba2f6	-0.018998604
171	0xbc1af13a	-0.009456927
172	0x3c59dc25	0.013297115
173	0xbc14810e	-0.009063972
174	0x3c32e68a	0.010919223
175	0x3cb7c748	0.022433892
176	0xbd0d298d	-0.034463454
177	0x3c0f8ba7	0.008761323
178	0xbd62577d	-0.055259217
179	0xbd0fe761	-0.03513277
180	0x3ba4c746	0.005028638
181	0xbc50ce6b	-0.012744526
182	0x3b4043f5	0.002933738
183	0x3bba19cd	0.005679345
184	0xbc928dbf	-0.017889855
185	0xbbde1063	-0.006776856
186	0xbbdfadb2	-0.006826126
187	0x3be106a0	0.006867245
188	0xbc0709c8	-0.008242078
189	0xbcc3ef97	-0.023917956
190	0xbcd49337	-0.025949104
191	0xbc416147	-0.011802978
192	0xbbb1e5e0	-0.0054290146
193	0x3ba0b271	0.0049040844
194	0xbcd418b0	-0.025890678
195	0x3b4d0a80	0.0031286776
196	0x3c65e187	0.014030821
197	0x3d08ce26	0.033399723
198	0x3c901062	0.017585937
199	0x3b34da05	0.002759577
200	0x3d32386b	0.043510836
201	0xbc518433	-0.012787866
202	0xbcea9cc8	-0.028639212
203	0xbc4444a8	-0.01197926
204	0x3cd7e2ca	0.026353259
205	0x3cca5f8c	0.024703763
206	0xbcd31bc8	-0.025770083
207	0x3a714462	0.000920361
208	0xbc849e63	-0.016188806
209	0xbc8cefc3	-0.017204171
210	0x3af229a0	0.001847554
211	0x3d0d69c3	0.03452469
212	0x3cfb223a	0.030655969
213	0x3b98b2e7	0.0046599987
214	0xbc946510	-0.018114597
215	0xbcbce533	-0.02305851
216	0xbc79373a	-0.015210921
217	0x3c8fadf5	0.017539004
218	0xbc8164a3	-0.015795058
219	0x3ca64fbf	0.020301698
220	0xbcaf2f53	-0.02138487
221	0x3a279768	0.0006393106
222	0x3c9190b7	0.0177692
223	0x3d0ef6d5	0.034903366
224	0xbcd955d3	-0.026530182
225	0xbd069e03	-0.032865535
226	0xbb74059d	-0.003723479
227	0x3ba67aff	0.0050805802
228	0xbc66a53a	-0.014077479
229	0x3bb4cb1a	0.0055173757
230	0x3d10c49e	0.03534376
231	0x3ca771e4	0.02044005
232	0xbd24d888	-0.040245563
233	0xbc1028d3	-0.008798796
234	0x3c1ba06d	0.009498698
235	0x3be8d3cd	0.0071053267
236	0x3c761cd7	0.015021524
237	0x3af45a9a	0.0018642724
238	0x3b404337	0.0029336938
239	0x3c6f71f8	0.014614575
240	0x3bb93c64	0.005652951
241	0x3c36ebcb	0.011164616
242	0xbc8bd858	-0.017070934
243	0xbc2db767	-0.010602809
244	0xbbe65e83	-0.0070303096
245	0x3c821857	0.015880747
246	0xbc2874c3	-0.010281744
247	0xba27bf5b	-0.00063990586
248	0xbd18d087	-0.037308242
249	0x3c06ec45	0.008235042
250	0x3c249c8e	0.010047091
251	0xba5c6aca	-0.0008408247
252	0xbb7b3323	-0.003833004
253	0xbc5fa817	-0.013650916
254	0xbca7aad7	-0.020467205
255	0xbc346067	-0.011009312

action_model._continuous_distribution.mu.bias f4 [51]
0	0x00000000	0.0
1	0x00000000	0.0
2	0x00000000	0.0
3	0x00000000	0.0
4	0x00000000	0.0
5	0x00000000	0.0
6	0x00000000	0.0
7	0x00000000	0.0
8	0x00000000	0.0
9	0x00000000	0.0
10	0x00000000	0.0
11	0x00000000	0.0
12	0x00000000	0.0
13	0x00000000	0.0
14	0x00000000	0.0
15	0x00000000	0.0
16	0x00000000	0.0
17	0x00000000	0.0
18	0x00000000	0.0
19	0x00000000	0.0
20	0x00000000	0.0
21	0x00000000	0.0
22	0x00000000	0.0
23	0x00000000	0.0
24	0x00000000	0.0
25	0x00000000	0.0
26	0x00000000	0.0
27	0x00000000	0.0
28	0x00000000	0.0
29	0x00000000	0.0
30	0x00000000	0.0
31	0x00000000	0.0
32	0x00000000	0.0
33	0x00000000	0.0
34	0x00000000	0.0
35	0x00000000	0.0
36	0x00000000	0.0
37	0x00000000	0.0
38	0x00000000	0.0
39	0x00000000	0.0
40	0x00000000	0.0
41	0x00000000	0.0
42	0x00000000	0.0
43	0x00000000	0.0
44	0x00000000	0.0
45	0x00000000	0.0
46	0x00000000	0.0
47	0x00000000	0.0
48	0x00000000	0.0
49	0x00000000	0.0
50	0x00000000	0.0

action_model._discrete_distribution.branches.0.weight f4 [1, 128]
0	0xbbfd08cb	-0.0077219955
1	0x3b4897a4	0.0030607963
2	0x3b8c57ef	0.0042829434
3	0xbada2822	-0.0016644041
4	0x3a478d3b	0.00076122925
5	0x3c34294f	0.010996177
6	0x3c8958ff	0.01676607
7	0x3c03fe06	0.008056169
8	0x3a9f1d2c	0.0012139431
9	0xbc079334	-0.008274842
10	0x3abd1f58	0.0014428897
11	0xba88f85b	-0.0010449992
12	0x3c13bfff	0.009017943
13	0xbad26d13	-0.0016054235
14	0x3b94ab0b	0.0045369915
15	0x3babcffc	0.0052432995
16	0xbc28c662	-0.010301204
17	0xbc12c587	-0.008958227
18	0x383080a2	4.208147e-05
19	0x3be37985	0.0069419765
20	0xbb4dde80	-0.0031413138
21	0xbb33484b	-0.0027356322
22	0xbc3af116	-0.011410018
23	0xbb69540f	-0.0035603081
24	0x3c99d171	0.018776627
25	0x3c45959c	0.012059595
26	0xbb97a551	-0.0046278615
27	0x39e0d01d	0.00042879666
28	0xb8c701bc	-9.4893825e-05
29	0xbbc47217	-0.005995046
30	0xbc82607f	-0.015915154
31	0xbc08b8f1	-0.008344875
32	0x3bcc409f	0.0062332894
33	0x3c06c2da	0.008225167
34	0xbbb897ec	-0.005633345
35	0xbac65777	-0.0015132268
36	0x3b942643	0.0045211627
37	0xbb51226f	-0.0031911393
38	0xbba5bd3d	-0.0050579594
39	0x3caf9223	0.021431988
40	0x3c002f3b	0.007823761
41	0xbbcfd3bf	-0.006342381
42	0xbbe7c5a7	-0.0070731225
43	0x3b1d40b7	0.0023994872
44	0xbba87849	-0.0051412922
45	0xbc207f7b	-0.009796019
46	0x3c1f5cfe	0.009726761
47	0x3b5e7be5	0.0033948359
48	0xbac2379f	-0.0014817602
49	0x3931a23f	0.00016940477
50	0x3be664e5	0.0070310705
51	0x3a327177	0.0006807069
52	0xbc09b0ff	-0.008404016
53	0x3bda2990	0.0066577867
54	0xbbdbb675	-0.0067051
55	0xbc6b40df	-0.014358728
56	0xb95d5472	-0.0002110766
57	0x3c114112	0.008865612
58	0xbc9d9d73	-0.019240117
59	0xbc14ecca	-0.009089658
60	0x3c1e2c68	0.009654142
61	0x3b7c6140	0.0038510114
62	0xbc3ea656	-0.011636337
63	0x3aa57e80	0.0012626201
64	0x3c18ba59	0.0093217725
65	0xbc8c52fa	-0.01712941
66	0xbbedfd2d	-0.007262847
67	0xbc0dabc6	-0.008646911
68	0xbc00c8f0	-0.007860407
69	0x3c071d77	0.008246771
70	0x3a32bfaf	0.0006818724
71	0x3bd7961b	0.0065791733
72	0xbc03fd7f	-0.008056044
73	0xbc1eb3d7	-0.009686432
74	0x3c9dc541	0.019259097
75	0x3b16b2d5	0.0022994776
76	0x3b5a4c4f	0.0033309644
77	0xbc7fdd58	-0.015616737
78	0xbb9a3c81	-0.0047069197
79	0xbbf9153d	-0.0076014088
80	0x3b80b631	0.003927969
81	0xb99a2822	-0.0002940307
82	0x3ab4c896	0.001379269
83	0x3c03ae19	0.008037114
84	0x3b11c592	0.0022243005
85	0xbb5cd1da	-0.0033694417
86	0x3a0ce3bc	0.0005374511
87	0x3bcaaf3d	0.006185441
88	0xbaf795d0	-0.0018889252
89	0x3b978e43	0.004625113
90	0xbc2d46f9	-0.010576003
91	0xbbf951af	-0.0076086144
92	0xb916461f	-0.00014331237
93	0x3c9d1608	0.019175544
94	0xbb86f5ff	-0.0041186805
95	0x3c18f61b	0.00933602
96	0xbc5b7a67	-0.013395882
97	0xbc1af24d	-0.009457183
98	0x3bfc600a	0.0077018784
99	0xbb26a566	-0.0025428175
100	0xbbae0688	-0.005310837
101	0x3be362e2	0.006939278
102	0x3a0a6048	0.0005278629
103	0xbad9422b	-0.0016575506
104	0xb77bea78	-1.5015357e-05
105	0xbb8ba0db	-0.004261119
106	0x3c5b2358	0.013375126
107	0x3bbc50de	0.005746945
108	0x3c1b0324	0.009461198
109	0x3c42de1f	0.011893778
110	0xbb97f507	-0.004637364
111	0xbb786bb2	-0.0037905988
112	0xbc5056cb	-0.012716006
113	0xba2e8fe1	-0.0006659013
114	0xbc6bdb7d	-0.014395592
115	0xbb5e0cbb	-0.00338821
116	0xbb972c62	-0.004613445
117	0xbc0605bf	-0.008180081
118	0x3ada21ca	0.001664215
119	0xbbddaee0	-0.0067652315
120	0x3c58c72b	0.013231079
121	0x3c41fc49	0.011839935
122	0xbb46e46f	-0.003034856
123	0x3b51b7f7	0.003200052
124	0x3b5c49c0	0.0033613294
125	0xbb5d1613	-0.003373508
126	0xbbf5e297	-0.0075038183
127	0xbc78e8bf	-0.01519221

onnx::LSTM_116 f4 [1, 512, 128]
0	0xbb834f40	-0.00400725
1	0x3dd8d646	0.105877444
2	0x3c2e1590	0.010625258
3	0x3e096f63	0.13421397
4	0x3da0c0b6	0.07849257
5	0xbc0dbba0	-0.00865069
6	0x3dcfa2e2	0.10138489
7	0x3df6fa7e	0.12059496
8	0xbbd4aea0	-0.0064905435
9	0x3e0cd337	0.13752447
10	0x3dc3fb26	0.09569387
11	0xbe044825	-0.12918146
12	0x3e048ecd	0.12945099
13	0x3d1eebd8	0.038799137
14	0x3de79e36	0.11309473
15	0xbc72c5d0	-0.01481767
16	0xbe0557e5	-0.1302181
17	0x3dbb6638	0.09150356
18	0x3ccecf58	0.025245354
19	0x3d6426c0	0.055701017
20	0xbd66f734	-0.056388095
21	0xbd02f382	-0.03197051
22	0xbd1496e0	-0.036276698
23	0xbe056846	-0.13028058
24	0xbd09cbe8	-0.033641726
25	0x3c7b7fe0	0.015350312
26	0x3da97fe2	0.08276345
27	0x3db81bda	0.08989687
28	0x3ce38b70	0.02777645
29	0x3e0104eb	0.12599532
30	0xbdfd3efe	-0.123655304
31	0x3dea0a8e	0.114277944
32	0xbdd70636	-0.104992315
33	0xbd44d58c	-0.048055217
34	0x3db74916	0.08949487
35	0x3dcf2f12	0.101164
36	0xbd211d06	-0.03933432
37	0x3e13bd97	0.14427792
38	0x3cb0d770	0.021587104
39	0x3d8f91d6	0.07010238
40	0xbdd19658	-0.10233754
41	0xbd5e9eb6	-0.054350577
42	0xbd4eff98	-0.050536722
43	0xbca443b8	-0.020051822
44	0xbd9b0421	-0.07569147
45	0x3de474ce	0.11155091
46	0xbdfc883a	-0.12330671
47	0x3db6484e	0.0890051
48	0xbd6d717c	-0.057969555
49	0x3d94759a	0.07248993
50	0x3d490fec	0.04908745
51	0xbe0541d4	-0.13013393
52	0xbd90a9a0	-0.070636034
53	0xbdc6f248	-0.0971418
54	0xbd11e828	-0.035621792
55	0x3d60a63c	0.054846033
56	0x3d5ff1b4	0.054673865
57	0xbe0a2bf3	-0.13493328
58	0x3dd2c5ea	0.10291655
59	0x3bf55680	0.0074871182
60	0x3cd7f100	0.026360035
61	0x3e060285	0.13086899
62	0xbd0640ca	-0.03277663
63	0xbdb856d2	-0.09000935
64	0xbd365b7c	-0.04452084
65	0xbe02c2c9	-0.12769617
66	0x3ddbc52e	0.107309684
67	0xbdd86852	-0.105667725
68	0xbded94ee	-0.11600672
69	0xbd5040ea	-0.050843157
70	0x3d2a028c	0.041506335
71	0xbe0002e7	-0.12501107
72	0x3d8d4a4c	0.06898937
73	0x3d7ef834	0.062248424
74	0xbd813444	-0.06308797
75	0x3d7753a4	0.0603825
76	0x3b199ec0	0.002344057
77	0xbce45f18	-0.027877375
78	0x3d1abc50	0.037777245
79	0x3da6561c	0.08121893
80	0xbd29fd6e	-0.041501455
81	0x3e0ece3d	0.13945861
82	0xbdf1ca24	-0.118061334
83	0xbd65689a	-0.05600796
84	0x3e1c4b9d	0.15263219
85	0x3d299c88	0.041409045
86	0xbc87bfa0	-0.016570866
87	0xbd7bf0e2	-0.06150902
88	0xbe160fcf	-0.14654468
89	0xbc978c98	-0.018499658
90	0xbdc182c0	-0.09448767
91	0xbe14ae62	-0.14519647
92	0xbd94c5b6	-0.07264273
93	0x3da61632	0.08109702
94	0x3da13d54	0.078730255
95	0xbe04f6fc	-0.12984842
96	0xbdb28f9d	-0.08718798
97	0xbd5fe62e	-0.054662876
98	0x3e15b623	0.14620261
99	0x3e18a79b	0.14907686
100	0x3e114b0d	0.14188786
101	0xbd0a3e58	-0.033750862
102	0xbc6892d0	-0.014195159
103	0x3de6f872	0.11277856
104	0xbd3b8cae	-0.04578846
105	0xbd6bd68c	-0.057577655
106	0xbdacb867	-0.084336095
107	0x3ddb89b2	0.10719623
108	0x3c8d7330	0.01726684
109	0x3bf15de0	0.007365927
110	0x3d683e54	0.056700066
111	0x3de39db6	0.11114065
112	0x3d190e80	0.037367344
113	0xbd3d65e0	-0.046239734
114	0xbd01bf54	-0.031676605
115	0xbdc30a2c	-0.095234245
116	0xbdf0045c	-0.117195815
117	0xbcebe77c	-0.028796904
118	0xbd22a2c8	-0.03970602
119	0xbcc06a68	-0.023488238
120	0x3db795f8	0.08964151
121	0x3d9bd380	0.076087
122	0x3dfb5d5e	0.12273668
123	0xbe0ea8c5	-0.13931568
124	0x3d6e3ee8	0.05816546
125	0x3d1c35b8	0.038137168
126	0xbc846380	-0.016160727
127	0xbe119c50	-0.14219785
128	0xbdf4c574	-0.11951724
129	0x3d8913a8	0.06693202
130	0xbdc40508	-0.09571272
131	0x3ddedd1a	0.108820155
132	0x3cfcd448	0.030862942
133	0xbdc1c4f9	-0.09461398
134	0x3da0e9bc	0.07857081
135	0x3da83ea2	0.08215071
136	0xbc8949a0	-0.01675874
137	0x3d9638dc	0.07335064
138	0xbcc2fbf8	-0.023801789
139	0x3d8f80e2	0.07007004
140	0x3d4607f0	0.048347414
141	0x3c072e40	0.008250773
142	0xbdc99aaa	-0.09843953
143	0xbc08d1a0	-0.00835076
144	0x3df02fc2	0.11727859
145	0x3e121dd1	0.14269187
146	0x3dbe1224	0.09280804
147	0xbc8db438	-0.017297849
148	0x3de385c6	0.111095
149	0xbde23d2c	-0.11046824
150	0xbe01a31b	-0.12659876
151	0xbcdb3e70	-0.026763171
152	0x3dfeff66	0.12451057
153	0xbccd5048	-0.025062695
154	0x3d051c1c	0.03249751
155	0xbb9cf540	-0.0047899783
156	0xbd1d13f0	-0.038349092
157	0x3c5d3d20	0.013503343
158	0x3da404aa	0.08008702
159	0xbe07ce66	-0.13262329
160	0xbe0173e7	-0.1264187
161	0xbd7795f8	-0.060445756
162	0x3cd3c000	0.025848389
163	0x3ce6c710	0.028171092
164	0x3d0f9a74	0.035059407
165	0xbdcc649e	-0.09980129
166	0xbd0a58c6	-0.033776067
167	0xbd517bca	-0.051143445
168	0x3e09be7d	0.13451572
169	0xbdbdc428	-0.092659295
170	0xbc4f59e0	-0.012655705
171	0xbd273e18	-0.0408307
172	0x3e1a3e8f	0.15062927
173	0x3d8555ee	0.065105304
174	0xbd0f0d68	-0.034924895
175	0xbc597bc0	-0.013274133
176	0xbda64251	-0.081181176
177	0x3da52098	0.080628574
178	0x3ddd5fe6	0.10809307
179	0xbe0d0bfd	-0.13774104
180	0x3d61a558	0.055089325
181	0x3d456750	0.04819423
182	0xbd374754	-0.04474576
183	0xbdba1ba6	-0.09087305
184	0xbdba5cdc	-0.09099743
185	0xbd28dfe4	-0.041229144
186	0xbdcba740	-0.0994401
187	0x3e12f739	0.1435212
188	0xbd1f577c	-0.03890179
189	0xbd9eff03	-0.077634834
190	0xbd460992	-0.04834897
191	0x3d35608c	0.044281527
192	0xbddd58f0	-0.10807979
193	0xbdd0f9aa	-0.1020387
194	0xbd3bb4fc	-0.045826897
195	0xbd738964	-0.059457198
196	0x3dcc4702	0.09974481
197	0x3dc1dcb8	0.09465927
198	0x3da64748	0.081190646
199	0xbd24d800	-0.040245056
200	0xbd15bdac	-0.03655784
201	0xbd249154	-0.04017766
202	0x3a286c00	0.00064247847
203	0xbd87e3e2	-0.06635262
204	0x3da5ef46	0.081022784
205	0xbd5245d0	-0.05133611
206	0x3d6c4364	0.057681456
207	0xbdac7776	-0.08421223
208	0x3ccecbf0	0.02524373
209	0xbd15251e	-0.03641235
210	0xbd88d9be	-0.06682156
211	0xbd983f02	-0.07433893
212	0xbda34965	-0.07972983
213	0xbcfacfd4	-0.030616678
214	0x3dce3472	0.10068597
215	0xbcf4bcf8	-0.029875264
216	0xbdec316b	-0.11532863
217	0x3e161e05	0.14659889
218	0xbd49d7da	-0.049278118
219	0xbcbfbe18	-0.023406073
220	0xbe15d80e	-0.146332
221	0x3c22b830	0.009931609
222	0xbd7c01a6	-0.06152501
223	0x3d7f5378	0.06233546
224	0xbd1cfd6e	-0.038327627
225	0xbd4b10ae	-0.049576454
226	0x3df62ece	0.12020646
227	0xbdf5b45d	-0.11997292
228	0x3d5573fc	0.052112564
229	0xbcbae7f0	-0.022815675
230	0x3e073fc9	0.13207926
231	0x3d84f94c	0.06492862
232	0xbc958bb0	-0.018255085
233	0xbdb39731	-0.08769072
234	0xbe1ab605	-0.15108497
235	0xbdbbf86e	-0.091782436
236	0xbdac60f0	-0.08416927
237	0xbdbf3a32	-0.09337272
238	0xbd3e6218	-0.04648027
239	0xbe168b91	-0.14701678
240	0x3df1fc0e	0.11815654
241	0x3e162a5b	0.14664595
242	0xbe027314	-0.12739211
243	0x3dcef152	0.10104622
244	0x3cd63578	0.026148543
245	0xbdc03188	-0.09384447
246	0x3e0545ef	0.13014959
247	0x3d1dab84	0.03849365
248	0x3e19e701	0.15029527
249	0xbe0ef8ea	-0.1396214
250	0xbd861b26	-0.06548147
251	0xbd88c22d	-0.06677661
252	0x3d607c94	0.054806307
253	0xbc7a0190	-0.015259162
254	0x3d935d12	0.07195486
255	0x3d541198	0.05177459

onnx::LSTM_117 f4 [1, 512, 128]
0	0xbd1d3420	-0.03837979
1	0xbcb41648	-0.02198328
2	0xbe0ed230	-0.13947368
3	0x3dd43e7e	0.10363482
4	0xbdf44984	-0.119280845
5	0x3e0628fd	0.13101573
6	0xbe01d56d	-0.12679072
7	0x3c956a08	0.018239036
8	0x3d48896c	0.04895918
9	0x3de824e6	0.11335163
10	0xbd8a84f8	-0.06763643
11	0xbe07dffb	-0.13269036
12	0x3d5adf8c	0.053435847
13	0xbdbdc3d0	-0.09265864
14	0x3a906f00	0.0011019409
15	0x3e0d4b0f	0.13798164
16	0x3de02fde	0.1094663
17	0xbd161c98	-0.036648363
18	0xbdab21d8	-0.083560646
19	0xbd4b2980	-0.049600124
20	0x3dbb1280	0.09134388
21	0x3e002fcf	0.12518238
22	0x3d9984d6	0.074960396
23	0x3d562150	0.052277863
24	0x3db64354	0.088995606
25	0x3d2d39b8	0.042291373
26	0x3d892dbc	0.06698176
27	0xbd1a588c	-0.0376821
28	0x3dd0dc32	0.10198249
29	0x3d324624	0.043523923
30	0x3da4b6c0	0.08042669
31	0xbda205ba	-0.079112485
32	0x3c05b580	0.008160949
33	0xbe1451de	-0.14484355
34	0x3cb82168	0.022476867
35	0xbdd40a9c	-0.10353586
36	0xbde45a36	-0.11150019
37	0x3d2eb5a8	0.04265371
38	0x3c0edfe0	0.008720368
39	0xbba7e020	-0.0051231533
40	0xbd104658	-0.035223335
41	0x3c36bd90	0.011153594
42	0xbd87de45	-0.066341914
43	0xbd3384b2	-0.04382772
44	0x3d9eeae8	0.077596486
45	0xbde3dfc0	-0.11126661
46	0x3d1b4abc	0.03791307
47	0x3c17e1c0	0.009270132
48	0x3d94cec0	0.07265997
49	0xbdb462ec	-0.0880793
50	0x3dec3fd6	0.11535613
51	0x3d80c65a	0.062878326
52	0x3dc5cb84	0.09657958
53	0x3dbe0064	0.09277418
54	0x3afa4d00	0.0019096434
55	0x3e0375a5	0.12837847
56	0xbe136c14	-0.14396697
57	0x3d4c3ff4	0.049865678
58	0xbe18f8c4	-0.14938647
59	0xbdac1815	-0.08403031
60	0x3d493c34	0.04912968
61	0xbd5198fa	-0.05117128
62	0x3ca268d8	0.019825384
63	0x3d968b6c	0.07350811
64	0xbe0c4820	-0.13699389
65	0x3e024527	0.12721692
66	0x3ddf29ba	0.108966306
67	0xbe04710c	-0.12933749
68	0x3d8d3526	0.06894903
69	0xbe1987bb	-0.14993183
70	0x3da1f0ba	0.07907243
71	0xbdf2b574	-0.11851016
72	0xbd93f0f6	-0.07223694
73	0xbda01f18	-0.07818431
74	0x3c8ecad0	0.017430693
75	0x3e077d83	0.13231473
76	0x3e04448b	0.12916772
77	0x3c9f50f8	0.019447789
78	0x3dad4502	0.08460428
79	0xbd09f96a	-0.033685125
80	0x3d3488e4	0.04407586
81	0xbdb74996	-0.08949582
82	0x3e0bb1b5	0.13642009
83	0xbd8b89d4	-0.06813398
84	0x3e135d1d	0.14390989
85	0x3dae4a34	0.08510247
86	0xbd5e8a8a	-0.05433134
87	0x3d94c476	0.072640345
88	0xbdfd555f	-0.12369799
89	0xbe0916aa	-0.13387552
90	0xbdcb8288	-0.09937006
91	0x3ddbe792	0.10737528
92	0xbdadc7f1	-0.084854014
93	0xbddf1dfd	-0.10894392
94	0x3e19230f	0.1495478
95	0x3e056105	0.13025291
96	0xbd9716a2	-0.07377364
97	0x3d3c46ac	0.045965835
98	0x3dd8c392	0.10584177
99	0x3cf86f20	0.030326426
100	0x3dab896c	0.083758205
101	0x3d8e61e6	0.069522664
102	0xbddeb2c4	-0.108739406
103	0x3e10fd6f	0.14159177
104	0xbcdee668	-0.027209476
105	0x3d36aff8	0.04460141
106	0x3df2118a	0.118197516
107	0xbd6cc69e	-0.057806604
108	0x3d11056c	0.03540556
109	0x3e1a0151	0.15039565
110	0x3c896bb8	0.016774997
111	0x3df402a6	0.11914568
112	0xbbcfdfc0	-0.0063438118
113	0xbd92f966	-0.07176475
114	0x3de15cd2	0.11004032
115	0x3d9bd636	0.07609217
116	0xbd75f3e4	-0.060047045
117	0x3d97c440	0.074104786
118	0xbc6b8bb0	-0.014376566
119	0xbdfb4c2b	-0.12270387
120	0xbdb63b39	-0.088980146
121	0xbda80b2a	-0.082052544
122	0xbca79f00	-0.02046156
123	0x3ba9d0a0	0.0051823407
124	0xbd88df1a	-0.06683178
125	0xbdaee60b	-0.08539971
126	0x3e16a843	0.14712624
127	0xbd52036e	-0.051272802
128	0x3cdd4ef0	0.02701518
129	0xbe14ab6c	-0.14518517
130	0x3e1bd329	0.1521727
131	0xbae5d400	-0.0017534494
132	0x3dd58292	0.10425295
133	0xbda145ec	-0.07874665
134	0x3e062fa3	0.1310411
135	0x3e16fdf5	0.14745314
136	0xbd07e6a4	-0.03317894
137	0xbcbc5090	-0.022987634
138	0x3cb6e978	0.022328123
139	0x3d9142aa	0.07092793
140	0x3d47c9ac	0.048776314
141	0xbde22242	-0.110416904
142	0xbd60a1b2	-0.054841705
143	0x3d1d9db4	0.038480476
144	0x3df88b16	0.121359035
145	0xbdedb7bd	-0.11607311
146	0x3db728a4	0.089432985
147	0xbdac1103	-0.08401682
148	0xbc14d460	-0.009083837
149	0x3cff6188	0.031174436
150	0xbb9b52c0	-0.004740089
151	0x3d45c320	0.04828179
152	0x3cb3a2b0	0.021928161
153	0xbd911a61	-0.070851095
154	0x3d10dab8	0.035364836
155	0xbc9f7f28	-0.019469813
156	0xbcc4e158	-0.024033234
157	0x3d08fc84	0.033443943
158	0xbdc2c180	-0.095095634
159	0x3dec11e2	0.115268484
160	0x3da44016	0.08020036
161	0x3d81093c	0.063005894
162	0xbd47a5a8	-0.048741966
163	0x3c85c2c0	0.016328216
164	0xbd58cc2e	-0.052929096
165	0x3d4f4d14	0.050610617
166	0xbd4a7872	-0.04943127
167	0x3dcbee52	0.09957565
168	0x3dcce35e	0.10004304
169	0xbe0c07d7	-0.13674866
170	0xbcad6eb8	-0.021170959
171	0x3e0332ab	0.12812297
172	0xbe12de06	-0.14342508
173	0xbd886fe8	-0.066619694
174	0xbe1585f6	-0.14601883
175	0x3c850b30	0.016240686
176	0x3c0e40e0	0.00868246
177	0x3df4f3fa	0.11960597
178	0xbd0b4d82	-0.034009464
179	0x3c97c090	0.018524438
180	0xbcbcb5b0	-0.023035854
181	0x3daf1054	0.08548036
182	0x3df7b69e	0.12095378
183	0x3c574f50	0.013141468
184	0x3e09c89d	0.13455434
185	0xbd1c3c26	-0.0381433
186	0xbdef841e	-0.11695121
187	0x3da0b9a8	0.07847911
188	0x3c533b50	0.012892559
189	0x3dfe34f6	0.12412445
190	0x3dd2ee5a	0.10299368
191	0xbe0b2785	-0.13589294
192	0xbdc081c1	-0.093997486
193	0x3e0269f7	0.12735735
194	0xbd78b80a	-0.06072239
195	0x3da3f7d4	0.08006254
196	0xbd23029a	-0.039797403
197	0xbd5c920a	-0.05385021
198	0xbd2ddf94	-0.04244955
199	0x3e05f8ed	0.13083239
200	0x3d98e638	0.07465786
201	0x3d4eb39c	0.050464258
202	0x3db74f34	0.08950654
203	0x3ddd30fe	0.1080036
204	0x3db779e0	0.08958793
205	0xbd4835e8	-0.048879534
206	0xbd107980	-0.03527212
207	0x3d0614e8	0.03273478
208	0xbb51aac0	-0.0031992644
209	0x3d98358c	0.07432088
210	0x3d02bc3c	0.031917796
211	0x3d06c8a4	0.03290619
212	0x3d1186fc	0.03552912
213	0xb9eb9000	-0.0004492998
214	0xbc1316d0	-0.008977607
215	0x3c8c77c0	0.017146945
216	0x3da15f60	0.078795195
217	0xbc981350	-0.018563896
218	0xbd38ea58	-0.045145363
219	0x3d926980	0.07149029
220	0x3e0bec4b	0.13664357
221	0xbe12583c	-0.14291471
222	0x3bb40e80	0.0054948926
223	0x3e19e3f5	0.15028365
224	0xbd34e094	-0.044159487
225	0x3ab3af00	0.001370877
226	0xbccaaea8	-0.024741486
227	0xbdc8d6e3	-0.098066114
228	0xbd4b2f6e	-0.04960578
229	0xbde5307c	-0.11190888
230	0x3d5c55b4	0.05379267
231	0x3d977800	0.07395935
232	0x3c9d5588	0.019205824
233	0x3e0b4ce7	0.13603555
234	0xbd54911e	-0.051896207
235	0x3e10a91f	0.14127015
236	0x3cd8b548	0.02645363
237	0xbe0e6f74	-0.13909703
238	0xbd9c6e34	-0.07638207
239	0xbd19e11e	-0.037568204
240	0x3d93403a	0.071899846
241	0x3db4d0ac	0.088288635
242	0x3d72fc20	0.059322476
243	0x3dd1c1f6	0.10242073
244	0xbdb68b60	-0.089133024
245	0x3dbfe3ca	0.09369619
246	0xbd24f000	-0.040267944
247	0xbc8a5688	-0.016886964
248	0x3d675dec	0.056486055
249	0xbdde53c0	-0.10855818
250	0xbc0c9150	-0.008579567
251	0xbb32e000	-0.002729416
252	0xbdbbc201	-0.09167863
253	0xbc132240	-0.008980334
254	0x3c280bf0	0.010256752
255	0xbbaa0b20	-0.0051893145

onnx::LSTM_118 f4 [1, 1024]
0	0x00000000	0.0
1	0x00000000	0.0
2	0x00000000	0.0
3	0x00000000	0.0
4	0x00000000	0.0
5	0x00000000	0.0
6	0x00000000	0.0
7	0x00000000	0.0
8	0x00000000	0.0
9	0x00000000	0.0
10	0x00000000	0.0
11	0x00000000	0.0
12	0x00000000	0.0
13	0x00000000	0.0
14	0x00000000	0.0
15	0x00000000	0.0
16	0x00000000	0.0
17	0x00000000	0.0
18	0x00000000	0.0
19	0x00000000	0.0
20	0x00000000	0.0
21	0x00000000	0.0
22	0x00000000	0.0
23	0x00000000	0.0
24	0x00000000	0.0
25	0x00000000	0.0
26	0x00000000	0.0
27	0x00000000	0.0
28	0x00000000	0.0
29	0x00000000	0.0
30	0x00000000	0.0
31	0x00000000	0.0
32	0x00000000	0.0
33	0x00000000	0.0
34	0x00000000	0.0
35	0x00000000	0.0
36	0x00000000	0.0
37	0x00000000	0.0
38	0x00000000	0.0
39	0x00000000	0.0
40	0x00000000	0.0
41	0x00000000	0.0
42	0x00000000	0.0
43	0x00000000	0.0
44	0x00000000	0.0
45	0x00000000	0.0
46	0x00000000	0.0
47	0x00000000	0.0
48	0x00000000	0.0
49	0x00000000	0.0
50	0x00000000	0.0
51	0x00000000	0.0
52	0x00000000	0.0
53	0x00000000	0.0
54	0x00000000	0.0
55	0x00000000	0.0
56	0x00000000	0.0
57	0x00000000	0.0
58	0x00000000	0.0
59	0x00000000	0.0
60	0x00000000	0.0
61	0x00000000	0.0
62	0x00000000	0.0
63	0x00000000	0.0
64	0x00000000	0.0
65	0x00000000	0.0
66	0x00000000	0.0
67	0x00000000	0.0
68	0x00000000	0.0
69	0x00000000	0.0
70	0x00000000	0.0
71	0x00000000	0.0
72	0x00000000	0.0
73	0x00000000	0.0
74	0x00000000	0.0
75	0x00000000	0.0
76	0x00000000	0.0
77	0x00000000	0.0
78	0x00000000	0.0
79	0x00000000	0.0
80	0x00000000	0.0
81	0x00000000	0.0
82	0x00000000	0.0
83	0x00000000	0.0
84	0x00000000	0.0
85	0x00000000	0.0
86	0x00000000	0.0
87	0x00000000	0.0
88	0x00000000	0.0
89	0x00000000	0.0
90	0x00000000	0.0
91	0x00000000	0.0
92	0x00000000	0.0
93	0x00000000	0.0
94	0x00000000	0.0
95	0x00000000	0.0
96	0x00000000	0.0
97	0x00000000	0.0
98	0x00000000	0.0
99	0x00000000	0.0
100	0x00000000	0.0
101	0x00000000	0.0
102	0x00000000	0.0
103	0x00000000	0.0
104	0x00000000	0.0
105	0x00000000	0.0
106	0x00000000	0.0
107	0x00000000	0.0
108	0x00000000	0.0
109	0x00000000	0.0
110	0x00000000	0.0
111	0x00000000	0.0
112	0x00000000	0.0
113	0x00000000	0.0
114	0x00000000	0.0
115	0x00000000	0.0
116	0x00000000	0.0
117	0x00000000	0.0
118	0x00000000	0.0
119	0x00000000	0.0
120	0x00000000	0.0
121	0x00000000	0.0
122	0x00000000	0.0
123	0x00000000	0.0
124	0x00000000	0.0
125	0x00000000	0.0
126	0x00000000	0.0
127	0x00000000	0.0
128	0x00000000	0.0
129	0x00000000	0.0
130	0x00000000	0.0
131	0x00000000	0.0
132	0x00000000	0.0
133	0x00000000	0.0
134	0x00000000	0.0
135	0x00000000	0.0
136	0x00000000	0.0
137	0x00000000	0.0
138	0x00000000	0.0
139	0x00000000	0.0
140	0x00000000	0.0
141	0x00000000	0.0
142	0x00000000	0.0
143	0x00000000	0.0
144	0x00000000	0.0
145	0x00000000	0.0
146	0x00000000	0.0
147	0x00000000	0.0
148	0x00000000	0.0
149	0x00000000	0.0
150	0x00000000	0.0
151	0x00000000	0.0
152	0x00000000	0.0
153	0x00000000	0.0
154	0x00000000	0.0
155	0x00000000	0.0
156	0x00000000	0.0
157	0x00000000	0.0
158	0x00000000	0.0
159	0x00000000	0.0
160	0x00000000	0.0
161	0x00000000	0.0
162	0x00000000	0.0
163	0x00000000	0.0
164	0x00000000	0.0
165	0x00000000	0.0
166	0x00000000	0.0
167	0x00000000	0.0
168	0x00000000	0.0
169	0x00000000	0.0
170	0x00000000	0.0
171	0x00000000	0.0
172	0x00000000	0.0
173	0x00000000	0.0
174	0x00000000	0.0
175	0x00000000	0.0
176	0x00000000	0.0
177	0x00000000	0.0
178	0x00000000	0.0
179	0x00000000	0.0
180	0x00000000	0.0
181	0x00000000	0.0
182	0x00000000	0.0
183	0x00000000	0.0
184	0x00000000	0.0
185	0x00000000	0.0
186	0x00000000	0.0
187	0x00000000	0.0
188	0x00000000	0.0
189	0x00000000	0.0
190	0x00000000	0.0
191	0x00000000	0.0
192	0x00000000	0.0
193	0x00000000	0.0
194	0x00000000	0.0
195	0x00000000	0.0
196	0x00000000	0.0
197	0x00000000	0.0
198	0x00000000	0.0
199	0x00000000	0.0
200	0x00000000	0.0
201	0x00000000	0.0
202	0x00000000	0.0
203	0x00000000	0.0
204	0x00000000	0.0
205	0x00000000	0.0
206	0x00000000	0.0
207	0x00000000	0.0
208	0x00000000	0.0
209	0x00000000	0.0
210	0x00000000	0.0
211	0x00000000	0.0
212	0x00000000	0.0
213	0x00000000	0.0
214	0x00000000	0.0
215	0x00000000	0.0
216	0x00000000	0.0
217	0x00000000	0.0
218	0x00000000	0.0
219	0x00000000	0.0
220	0x00000000	0.0
221	0x00000000	0.0
222	0x00000000	0.0
223	0x00000000	0.0
224	0x00000000	0.0
225	0x00000000	0.0
226	0x00000000	0.0
227	0x00000000	0.0
228	0x00000000	0.0
229	0x00000000	0.0
230	0x00000000	0.0
231	0x00000000	0.0
232	0x00000000	0.0
233	0x00000000	0.0
234	0x00000000	0.0
235	0x00000000	0.0
236	0x00000000	0.0
237	0x00000000	0.0
238	0x00000000	0.0
239	0x00000000	0.0
240	0x00000000	0.0
241	0x00000000	0.0
242	0x00000000	0.0
243	0x00000000	0.0
244	0x00000000	0.0
245	0x00000000	0.0
246	0x00000000	0.0
247	0x00000000	0.0
248	0x00000000	0.0
249	0x00000000	0.0
250	0x00000000	0.0
251	0x00000000	0.0
252	0x00000000	0.0
253	0x00000000	0.0
254	0x00000000	0.0
255	0x00000000	0.0
