results/try-30/My Behavior.onnx (onnx, 693209 bytes, 10 tensors)

network_body._body_endoder.seq_layers.0.weight f4 [128, 122]
-0.16729905 -0.0010711763 -0.058295604 0.12050493 0.10814233 0.16234449 -0.06580736 0.07248575
0.0662132 0.115653835 -0.06646796 -0.15285969 -0.16081989 -0.014578002 0.070966415 -0.08697386
0.048498586 -0.015645687 -0.012333143 0.052633315 0.062113244 0.21237451 -0.09033146 0.22266164
-0.01634693 -0.066459104 -0.1052707 0.0007624368 0.0608334 -0.088865966 -0.04690176 0.0921396
-0.030314539 0.045261085 0.06387074 0.013620802 -0.023582615 0.09406164 -0.020892022 -0.038255874
0.0034456905 -0.123782545 -0.052572317 0.0042187627 0.07655473 0.014726663 -0.057536665 -0.05002946
-0.029131224 0.088435136 -0.06730042 0.019747218 0.14717804 0.018387849 -0.015892828 -0.12862325
-0.05200327 -0.06756814 -0.124384984 0.02897388 -0.06192447 -0.12039594 0.03526341 0.14939445
-0.0011259308 0.027876718 -0.006887897 -0.07230875 -0.078351706 0.019770343 -0.042983167 -0.039209727
0.030545825 -0.03903289 -0.028835787 -0.06589535 -0.16557954 -0.020618558 -0.029272735 -0.0770921
-0.011306986 -0.087648384 -0.09287898 -0.051520236 -0.060322158 -0.031043058 -0.086043574 0.10374745
-0.029693998 -0.03139765 0.043148752 -0.029136132 -0.11485942 0.27041262 0.18287788 -0.11404125
-0.22681674 0.17612109 -0.023039652 -0.16856521 -0.15121359 0.024095772 -0.14332409 0.021006905
-0.13021992 -0.093849026 0.040765695 0.0033658259 0.10483677 -0.004819395 -0.050291266 0.058695406
-0.08839208 -0.018546754 -0.072390094 -0.08867716 0.07288972 0.13002148 0.1594176 0.020555524
0.008562226 -0.15075138 0.035029896 0.016302355 -0.1299322 0.021238267 -0.06323988 0.03253076
-0.08004838 0.018208534 -0.047860675 0.051560365 0.04905186 0.0077626375 0.16237354 0.15250045
0.00899238 0.096350186 0.030493215 0.042738434 0.089985326 -0.19744498 0.065207146 -0.061178647
0.16442183 -0.027020771 0.02152832 -0.06613735 -0.015450168 0.0010466689 0.049600188 0.10747042
0.065364264 -0.046019234 0.01905244 0.057855822 -0.0054391315 0.08415129 -0.025651157 0.013932106
0.008580313 0.06099863 0.06279174 -0.106474 -0.060704496 0.018116465 -0.02877842 0.095752254
0.059754997 -0.066801235 0.05245417 0.105300725 0.10275125 -0.06919934 -0.039590422 -0.12041208
-0.07318801 0.06972505 0.16485654 0.016694881 -0.07414897 0.08454527 0.06318271 -0.10721118
0.012725096 -0.15888697 -0.069936156 0.074994706 0.010922084 0.11501315 0.07767568 -0.114243165
-0.19963813 -0.052283764 -0.03847598 0.07469562 0.019152388 -0.0012166648 -0.25097045 -0.053993944
-0.025509465 0.20799594 -0.11378354 -0.058964733 -0.047989555 0.118190154 -0.04760433 -0.019681321
-0.1533536 -0.10026477 -0.060395032 -0.09899988 -0.16509345 0.08934479 0.10068282 0.12779051
0.0214178 0.008402917 0.015589457 0.24007753 -0.022948228 -0.05391243 0.0672325 0.07405906
0.03329405 0.07191761 0.07763499 0.08650984 -0.1968763 0.022263741 -0.16273057 0.15335333
0.08890638 -0.03221877 -0.019078292 0.11403658 0.093696974 -0.0026217154 0.10648753 -0.03199182
-0.10293246 -0.06060727 -0.1296166 0.022182545 0.011150322 -0.005631271 -0.00055931887 -0.14628921
-0.14060952 -0.0033215852 0.036003187 -0.115890965 -0.06579227 -0.012209546 -0.041799992 0.062097363
00000000: 7150 2bbe b666 8cba 5fc7 6ebd 4acb f63d
00000010: ba79 dd3d a23d 263e 02c6 86bd 6973 943d
00000020: c99a 873d ebdb ec3d 5b20 88bd 4087 1cbe
00000030: f8ad 24be 92d8 6ebc d756 913d 5a1f b2bd
00000040: 74a6 463d 622b 80bc f310 4abc 0896 573d
00000050: 756a 7e3d b478 593e b3ff b8bd 6a01 643e
00000060: ffe9 85bc b61b 88bd 2a98 d7bd 44de 473a
00000070: 712c 793d 5cff b5bd 0f1c 40bd b0b3 bc3d
00000080: 3256 f8bc b063 393d aace 823d c929 5f3c
00000090: 5430 c1bc 64a3 c03d bf25 abbc 31b2 1cbd
000000a0: 18d1 613b b481 fdbd 1256 57bd 8c3d 8a3b
000000b0: bac8 9c3d 1a48 713c 91ab 6bbd b1eb 4cbd
000000c0: 9ba4 eebc 7b1d b53d cdd4 89bd ebc4 a13c
000000d0: d7b5 163e 1da2 963c ad31 82bc d0b5 03be
000000e0: 6101 55bd 2a61 8abd 8ebd febd a15a ed3c
000000f0: 83a4 7dbd 2692 f6bd 5e70 103d dcfa 183e
00000100: f893 93ba b75d e43c deb3 e1bb 9c16 94bd
00000110: dc76 a0bd 6af5 a13c 1e0f 30bd 619a 20bd
00000120: 3d3b fa3c f4e0 1fbd 0739 ecbc 24f4 86bd
00000130: af8d 29be 40e8 a8bc 60cd efbc 77e2 9dbd
00000140: f040 39bc ff80 b3bd 5637 bebd e206 53bd
00000150: 5e14 77bd 034e febc 9d37 b0bd 8b79 d43d
00000160: d440 f3bc d29a 00bd bfbc 303d e6ae eebc
00000170: 6a3b ebbd 8673 8a3e 5744 3b3e 758e e9bd
00000180: a642 68be 1659 343e a7bd bcbc 5c9c 2cbe
00000190: bcd7 1abe 7f64 c53c 8dc3 12be ac16 ac3c
000001a0: 5f58 05be eb33 c0bd eef9 263d 3095 5c3b
000001b0: a9b4 d63d 04ec 9dbb 37fe 4dbd 986a 703d
000001c0: e806 b5bd 5def 97bc 4241 94bd 5f9c b5bd
000001d0: 3547 953d 5a24 053e 5e3e 233e 0f64 a83c
000001e0: 9448 0c3c 925e 1abe 827b 0f3d 848c 853c
000001f0: f20c 05be e0fb ad3c e983 81bd f93e 053d
00000200: 68f0 a3bd 102a 953c 8e09 44bd f630 533d
00000210: 9aea 483d b95d fe3b 4045 263e 1429 1c3e
00000220: c754 133c 3f53 c53d e8cc f93c 7f0e 2f3d
00000230: 3a4a b83d 042f 4abe 538b 853d 7696 7abd
00000240: 325e 283e aa5a ddbc 295c b03c 0573 87bd
00000250: b422 7dbc 6130 893a 9129 4b3d 7419 dc3d
00000260: b3dd 853d aa7e 3cbd dd13 9c3c 3afa 6c3d
00000270: be3a b2bb 8357 ac3d 6022 d2bc 7d43 643c
00000280: 7194 0c3c b3d9 793d f598 803d 0a0f dabd
00000290: 47a5 78bd fb68 943c b9c0 ebbc c219 c43d
000002a0: a8c1 743d 16cf 88bd 2fda 563d e8a7 d73d
000002b0: 3f6f d23d 62b8 8dbd 9129 22bd 9c9a f6bd
000002c0: 98e3 95bd 02cc 8e3d 27d0 283e b4c3 883c
000002d0: 6adb 97bd 1226 ad3d f065 813d 8991 dbbd
000002e0: ec7c 503c 44b3 22be b03a 8fbd d396 993d
000002f0: 8af2 323c 048c eb3d 6d14 9f3d 52f8 e9bd
00000300: f06d 4cbe 8027 56bd fd98 1dbd 04fa 983d
00000310: 78e5 9c3c 7f78 9fba 337f 80be c128 5dbd
00000320: 3af9 d0bc e3fc 543e 5807 e9bd 0185 71bd
00000330: b290 44bd ae0d f23d c2fc 42bd b93a a1bc
00000340: ba08 1dbe 9e57 cdbd c860 77bd 73c0 cabd
00000350: 420e 29be 67fa b63d cb32 ce3d 84db 023e
00000360: 6274 af3c 63ac 093c ec6a 7f3c e2d6 753e
00000370: ecfd bbbc 48d3 5cbd 31b1 893d 47ac 973d
00000380: 575f 083d 8a49 933d 18ff 9e3d 122c b13d
00000390: f199 49be 7362 b63c d8a2 26be a808 1d3e
000003a0: 8c14 b63d d4f7 03bd 144a 9cbc 038c e93d
000003b0: 33e4 bf3d 16d1 2bbb 2216 da3d db09 03bd
000003c0: 41ce d2bd 543f 78bd 37ba 04be 2bb8 b53c
000003d0: d7af 363c 8686 b8bb 419f 12ba d7cc 15be
000003e0: f1fb 0fbe f4ae 59bb 1478 133d 3e58 edbd
000003f0: 19be 86bd 8c0a 48bc 7836 2bbd ce59 7e3d

network_body._body_endoder.seq_layers.0.bias f4 [128]
0.0 0.0 0.0 0.0 0.0 0.0 0.0 0.0
0.0 0.0 0.0 0.0 0.0 0.0 0.0 0.0
0.0 0.0 0.0 0.0 0.0 0.0 0.0 0.0
0.0 0.0 0.0 0.0 0.0 0.0 0.0 0.0
0.0 0.0 0.0 0.0 0.0 0.0 0.0 0.0
0.0 0.0 0.0 0.0 0.0 0.0 0.0 0.0
0.0 0.0 0.0 0.0 0.0 0.0 0.0 0.0
0.0 0.0 0.0 0.0 0.0 0.0 0.0 0.0
0.0 0.0 0.0 0.0 0.0 0.0 0.0 0.0
0.0 0.0 0.0 0.0 0.0 0.0 0.0 0.0
0.0 0.0 0.0 0.0 0.0 0.0 0.0 0.0
0.0 0.0 0.0 0.0 0.0 0.0 0.0 0.0
0.0 0.0 0.0 0.0 0.0 0.0 0.0 0.0
0.0 0.0 0.0 0.0 0.0 0.0 0.0 0.0
0.0 0.0 0.0 0.0 0.0 0.0 0.0 0.0
0.0 0.0 0.0 0.0 0.0 0.0 0.0 0.0
00000000: 0000 0000 0000 0000 0000 0000 0000 0000
00000010: 0000 0000 0000 0000 0000 0000 0000 0000
00000020: 0000 0000 0000 0000 0000 0000 0000 0000
00000030: 0000 0000 0000 0000 0000 0000 0000 0000
00000040: 0000 0000 0000 0000 0000 0000 0000 0000
00000050: 0000 0000 0000 0000 0000 0000 0000 0000
00000060: 0000 0000 0000 0000 0000 0000 0000 0000
00000070: 0000 0000 0000 0000 0000 0000 0000 0000
00000080: 0000 0000 0000 0000 0000 0000 0000 0000
00000090: 0000 0000 0000 0000 0000 0000 0000 0000
000000a0: 0000 0000 0000 0000 0000 0000 0000 0000
000000b0: 0000 0000 0000 0000 0000 0000 0000 0000
000000c0: 0000 0000 0000 0000 0000 0000 0000 0000
000000d0: 0000 0000 0000 0000 0000 0000 0000 0000
000000e0: 0000 0000 0000 0000 0000 0000 0000 0000
000000f0: 0000 0000 0000 0000 0000 0000 0000 0000
00000100: 0000 0000 0000 0000 0000 0000 0000 0000
00000110: 0000 0000 0000 0000 0000 0000 0000 0000
00000120: 0000 0000 0000 0000 0000 0000 0000 0000
00000130: 0000 0000 0000 0000 0000 0000 0000 0000
00000140: 0000 0000 0000 0000 0000 0000 0000 0000
00000150: 0000 0000 0000 0000 0000 0000 0000 0000
00000160: 0000 0000 0000 0000 0000 0000 0000 0000
00000170: 0000 0000 0000 0000 0000 0000 0000 0000
00000180: 0000 0000 0000 0000 0000 0000 0000 0000
00000190: 0000 0000 0000 0000 0000 0000 0000 0000
000001a0: 0000 0000 0000 0000 0000 0000 0000 0000
000001b0: 0000 0000 0000 0000 0000 0000 0000 0000
000001c0: 0000 0000 0000 0000 0000 0000 0000 0000
000001d0: 0000 0000 0000 0000 0000 0000 0000 0000
000001e0: 0000 0000 0000 0000 0000 0000 0000 0000
000001f0: 0000 0000 0000 0000 0000 0000 0000 0000

network_body._body_endoder.seq_layers.2.weight f4 [128, 128]
-0.19730756 -0.11234606 0.08683446 -0.015176417 0.08178175 -0.079324104 -0.14839274 0.19530618
-0.14345494 0.14533229 0.0040387525 -0.29575306 0.14734048 -0.08407471 0.017915107 -0.05383693
-0.21337447 -0.019819317 -0.16865106 -0.0168359 0.16317211 -0.0984981 0.015622767 -0.00634769
-0.0937479 0.10118383 0.052012134 0.024626736 -0.049188036 0.05114829 -0.20495963 -0.067498825
0.10908919 -0.08298206 0.13195083 0.054748144 0.07966054 -0.102918595 0.11105688 0.012355539
-0.07927099 0.05951324 -0.13788444 -0.13758114 0.00019648338 0.0035187432 -0.014061852 0.030918507
-0.009577059 -0.15254553 -0.25783607 0.07179014 -0.029432485 -0.13861006 -0.041867107 0.096867636
0.053773798 -0.09575665 -0.041639388 -0.020675112 -0.07074293 -0.01848995 -0.0075038946 0.115260616
0.012860164 0.13717902 -0.0011562302 -0.0672769 0.07964254 0.18734816 0.04935098 -0.06700123
-0.04828737 -0.08154677 -0.064870514 -0.0067952643 -0.027522596 -0.088774346 -0.08734727 0.08207862
0.07805568 0.13834822 0.0139201265 -0.04948823 -0.06296808 -0.046341643 -0.08994196 0.030790962
-0.006341519 -0.09907754 0.10107142 0.030053237 0.063683495 0.14219312 0.0063556847 -0.020435581
0.017290823 -0.052109107 -0.0611454 0.08429544 0.122762874 -0.039618965 0.005305702 -0.019928513
-0.1990352 -0.027944975 -0.07177839 0.06815512 -0.1222049 0.11920215 0.06463828 -0.15333591
0.09446238 -0.040279992 -0.05301795 0.04135176 -0.11110569 -0.16490561 -0.027114592 0.07902163
0.14877062 -0.030686688 0.05264298 -0.01946543 -0.094056666 -0.053981043 0.17952608 0.073427364
0.006956219 0.10343202 0.07340992 -0.0009703494 0.099681996 -0.0888001 0.07104033 0.108930886
-0.07805103 0.07359976 0.07602542 0.021837173 0.06865725 -0.037881214 0.12654406 -0.02991465
-0.062667266 -0.09006795 0.013989212 0.07559563 -0.024612434 0.04715667 -0.12111884 0.10180664
-0.077475145 0.023932278 0.023798047 -0.004707969 -0.110673964 -0.09071337 0.102248825 0.055103716
-0.20364015 0.12266629 0.090528615 -0.01900146 -0.04983116 0.073452316 -0.08036817 0.047132492
0.08012148 -0.015410003 -0.13194494 0.028667042 0.083049364 -0.06061029 -0.02108109 0.012938953
0.030986797 0.03563828 0.004817239 -0.034915965 0.07371935 0.0013954923 -0.096609324 -0.002641764
-0.07435273 0.05323235 -0.09654999 -0.1243966 0.06529202 0.08432047 0.041456692 -0.069229074
-0.01698772 0.05167653 -0.030848114 -0.10481252 -0.00669188 0.00796096 -0.24872155 0.074145064
-0.108411536 0.0418511 0.07432681 -0.06456572 0.043717112 0.11284287 0.03459576 -0.108736105
-0.021112572 -0.018454734 -0.13703236 -0.025389623 0.023775198 0.09406896 -0.13816012 0.0885337
-0.025491858 0.074968554 0.075694576 0.06051037 -0.03026774 -0.21839169 0.004706718 0.10194569
-0.13614231 -0.010329228 0.10470326 0.16136566 -0.12257052 0.0988639 -0.021840941 -0.06285676
0.12431273 0.07861845 0.058391556 0.12860526 -0.21199857 0.17782901 -0.0026545732 0.09510054
0.043449327 -0.02405485 0.00299957 0.035232693 -0.12804824 -0.051367007 -0.046330165 -0.052117698
0.16649784 -0.10949272 -0.12549594 0.114001326 -0.05025757 -0.0021930437 0.030600099 -0.05896911
00000000: fe0a 4abe b115 e6bd 44d6 b13d 82a6 78bc
00000010: 317d a73d ad74 a2bd 44f4 17be 58fe 473e
00000020: dae5 12be fdd1 143e 8357 843b f26c 97be
00000030: 6ce0 163e 5d2f acbd b4c2 923c 1d84 5cbd
00000040: d67e 5abe 1f5c a2bc ddb2 2cbe 71eb 89bc
00000050: 9716 273e 5fb9 c9bd a2f6 7f3c 4800 d0bb
00000060: e6fe bfbd 7839 cf3d ad0a 553d 02be c93c
00000070: 6579 49bd df80 513d f0e0 51be d33c 8abd
00000080: 276a df3d 80f2 a9bd 1e1e 073e 973f 603d
00000090: 1125 a33d fcc6 d2bd ca71 e33d e36e 4a3c
000000a0: d458 a2bd 28c4 733d 9431 0dbe 12e2 0cbe
000000b0: 1b07 4e39 b79a 663b af63 66bc cf48 fd3c
000000c0: 19e9 1cbc e534 1cbe 1703 84be b506 933d
000000d0: 651c f1bc ccef 0dbe d87c 2bbd 8a62 c63d
000000e0: ea41 5c3d 101c c4bd 108e 2abd da5e a9bc
000000f0: abe1 90bd 3c78 97bc 3be3 f5bb c20d ec3d
00000100: 70b3 523c a878 0c3e a68c 97ba 79c8 89bd
00000110: a11b a33d 32d8 3f3e 4124 4a3d f137 89bd
00000120: fac8 45bd fe01 a7bd d5da 84bd cfaa debb
00000130: 1177 e1bc 53cf b5bd 20e3 b2bd d618 a83d
00000140: a8db 9f3d 28ab 0d3e 3e11 643c 2cb4 4abd
00000150: 69f5 80bd bcd0 3dbd 7e33 b8bd 543d fc3c
00000160: 84cc cfbb 2ae9 cabd 88fe ce3d 3532 f63c
00000170: 7e6c 823d 139b 113e 5943 d03b 8568 a7bc
00000180: 7ca5 8d3c 5c70 55bd 9973 7abd 16a3 ac3d
00000190: 1a6b fb3d 7f47 22bd 74db ad3b 1f41 a3bc
000001a0: e2cf 4bbe dcec e4bc 8c00 93bd e994 8b3d
000001b0: 9046 fabd 4220 f43d 1361 843d 1704 1dbe
000001c0: 7e75 c13d a2fc 24bd 5a29 59bd 7760 293d
000001d0: 618b e3bd 04dd 28be 6c1f debc 18d6 a13d
000001e0: 5357 183e a662 fbbc 2aa0 573d f775 9fbc
000001f0: c8a0 c0bd 3a1b 5dbd afd5 373e 1661 963d
00000200: fff0 e33b 2bd4 d33d f157 963d 0c5f 7eba
00000210: 1326 cc3d d4dc b5bd 987d 913d 2817 df3d
00000220: 38d9 9fbd 79bb 963d 37b3 9b3d dfe3 b23c
00000230: 2c9c 8c3d 5529 1bbd c494 013e 910f f5bc
00000240: b257 80bd 8c75 b8bd 0233 653c e2d1 9a3d
00000250: 04a0 c9bc 5a27 413d 280d f8bd 0080 d03d
00000260: 4aab 9ebd a00d c43c 1ff4 c23c 4e45 9abb
00000270: 08a9 e2bd eec7 b9bd d567 d13d 6fb4 613d
00000280: 0b87 50be 7738 fb3d 1167 b93d f3a8 9bbc
00000290: c21b 4cbd 2b6e 963d 1198 a4bd 000e 413d
000002a0: bb16 a43d 3d7a 7cbc 931c 07be 25d7 ea3c
000002b0: c915 aa3d 7f42 78bd 40b2 acbc e7fd 533c
000002c0: 06d8 fd3c 72f9 113d eed9 9d3b 0b04 0fbd
000002d0: 2cfa 963d f4e8 b63a 1cdb c5bd 7221 2dbb
000002e0: 3e46 98bd 2a0a 5a3d 00bc c5bd a5c3 febd
000002f0: d3b7 853d 36b0 ac3d 7ece 293d f9c7 8dbd
00000300: d529 8bbc c5aa 533d 2fb5 fcbc f2a7 d6bd
00000310: 8f47 dbbb b06e 023c ddb0 7ebe 5ed9 973d
00000320: de06 debd 0f6c 2b3d a838 983d 083b 84bd
00000330: b710 333d 2a1a e73d 49b4 0d3d 09b1 debd
00000340: 46f4 acbc 622e 97bc 3652 0cbe e6fd cfbc
00000350: 34c4 c23c 3aa7 c03d d979 0dbe 2851 b53d
00000360: 4dd4 d0bc 1d89 993d c205 9b3d b9d9 773d
00000370: 0df4 f7bc 12a2 5fbe d03a 9a3b e7c8 d03d
00000380: e468 0bbe ec3b 29bc aa6e d63d 0a3d 253e
00000390: 4106 fbbd 2879 ca3d c6eb b2bc 0cbb 80bd
000003a0: ac97 fe3d b602 a13d fc2b 6f3d 19b1 033e
000003b0: 2716 59be cf18 363e 59f8 2dbb 12c4 c23d
000003c0: ecf7 313d ad0e c5bc 6f94 443b 2850 103d
000003d0: 141f 03be 3666 52bd b3c4 3dbd 5e79 55bd
000003e0: 697e 2a3e b83d e0bd 0282 00be 8779 e93d
000003f0: e2da 4dbd 2bb9 0fbb 0fad fa3c 9889 71bd

action_model._continuous_distribution.log_sigma f4 [1, 51]
0.0 0.0 0.0 0.0 0.0 0.0 0.0 0.0
0.0 0.0 0.0 0.0 0.0 0.0 0.0 0.0
0.0 0.0 0.0 0.0 0.0 0.0 0.0 0.0
0.0 0.0 0.0 0.0 0.0 0.0 0.0 0.0
0.0 0.0 0.0 0.0 0.0 0.0 0.0 0.0
0.0 0.0 0.0 0.0 0.0 0.0 0.0 0.0
0.0 0.0 0.0
00000000: 0000 0000 0000 0000 0000 0000 0000 0000
00000010: 0000 0000 0000 0000 0000 0000 0000 0000
00000020: 0000 0000 0000 0000 0000 0000 0000 0000
00000030: 0000 0000 0000 0000 0000 0000 0000 0000
00000040: 0000 0000 0000 0000 0000 0000 0000 0000
00000050: 0000 0000 0000 0000 0000 0000 0000 0000
00000060: 0000 0000 0000 0000 0000 0000 0000 0000
00000070: 0000 0000 0000 0000 0000 0000 0000 0000
00000080: 0000 0000 0000 0000 0000 0000 0000 0000
00000090: 0000 0000 0000 0000 0000 0000 0000 0000
000000a0: 0000 0000 0000 0000 0000 0000 0000 0000
000000b0: 0000 0000 0000 0000 0000 0000 0000 0000
000000c0: 0000 0000 0000 0000 0000 0000

action_model._continuous_distribution.mu.weight f4 [51, 128]
-0.0049846326 -0.011970827 -0.0031252075 0.0046835723 0.023902418 -0.00032108606 -0.011117676 0.006384693
-0.004735747 -0.014607091 -0.0073846416 0.00415204 0.015206829 0.03218532 0.019132659 -0.005747861
-0.021025542 -0.011908457 -0.0010126845 0.015013389 0.023753358 0.041665018 0.0016991649 0.021692276
-0.0054551647 -0.0031632136 0.017768687 -0.0012739834 -0.007194155 0.009904272 0.042452503 -0.019908784
0.0033780113 0.017549366 0.024342041 0.035190336 0.0007541262 -0.021435937 -0.010465129 0.0044445843
0.01566653 0.009462025 0.015809638 0.006774953 0.0031813544 -0.007846106 0.028496042 0.012016041
0.03214824 -0.017111165 -0.014859557 -0.0020302003 0.008839942 -0.0042691645 -0.019627957 -0.008395727
-3.345863e-05 -0.033911876 0.019494442 0.02135147 0.0021456315 -0.020352473 -0.0071462295 -0.01129081
-0.013367801 0.02137764 0.026628647 -0.0021377655 -0.042246066 0.0025113465 -0.029692886 0.007148256
0.009895734 0.02849627 -0.015460663 0.010173011 -0.002916875 -0.0076391767 -0.0020077026 0.0016344968
-0.013396502 -0.024954244 -0.012974948 0.0006789406 -0.046954498 -0.00067321275 0.013762377 -0.00054492516
-0.0259709 0.013270497 -0.015572651 0.016604975 0.006309967 -0.023697961 0.0013452038 0.0019959204
-0.0032450655 0.0064443597 -0.0060684364 0.0067752674 6.410343e-06 0.0057224436 -0.0046615484 -0.002921413
0.0045985384 0.044751134 -0.024433699 -0.016116593 0.013116746 0.015067364 -0.02611873 -0.012063291
0.012715581 -0.014573914 -0.028345052 -0.00783824 0.023928517 -0.00817009 0.031300347 -0.0013838146
0.01937524 0.036541548 -0.007714994 -0.0021994133 -0.009959205 -0.023156967 0.012249026 0.020606607
0.0020797988 0.019584103 0.028962806 0.026579132 0.0024571957 -0.0022147882 -0.00010127856 -0.022489736
-0.005928148 0.007735483 -0.0071196468 -0.04159956 -0.03491411 0.024301393 -0.029055594 0.041229554
-0.013467818 -0.018743029 0.039763726 -0.033444986 -0.019250426 -0.0044788336 -0.006877951 0.0026892729
-0.025772333 -0.015816534 0.012014952 -0.017541103 -0.06008149 -0.0030076343 0.008366536 0.0062054815
0.020189542 0.021264084 0.014618416 -0.0095714005 0.00470646 -0.0092155365 -0.015030123 0.036293283
0.032936268 0.01963721 -0.0022136774 0.010560969 0.038954515 0.0074239853 0.014003194 -0.017077645
-0.027566535 0.01765172 0.0044428385 0.005332005 -0.0156382 -0.014198447 -0.011423136 -0.00095695705
-0.005647249 0.0117664 -0.029980743 0.026123896 -0.008458415 -0.02552476 0.00030871885 -0.017227871
0.0014583059 0.032437112 -0.007489794 0.018038435 0.006709424 -0.012942067 0.0053786705 -0.0018196494
0.008525211 0.045981474 0.0031778214 -0.00030282882 -0.009567984 0.021615176 -0.008158984 -0.0065832487
-0.030673116 -0.002873129 -0.013305162 0.028911933 -0.015276692 0.007994867 0.025335198 0.024299555
-0.0016168095 -0.01073979 0.007111796 -0.011012687 -0.0066316472 0.012283448 0.02550208 0.026543621
-0.008999358 0.0109424535 0.040084578 -0.008587829 -0.004233058 -0.004584867 -0.027067682 -0.008697945
-0.0021076116 -0.030406011 0.02595275 0.010385473 -0.029270887 0.016079202 -0.009012687 0.020487333
0.0046808883 0.0048659486 0.0033495673 -0.0017519885 -0.021869456 -0.004024377 -0.02293869 0.034133893
-0.020718358 -0.0055231964 0.02155879 -0.014674109 -0.013924486 -0.019302187 0.0019915642 0.0013758402
00000000: 2156 a3bb 4a21 44bc 48d0 4cbb a778 993b
00000010: 01cf c33c 7157 a8b9 ea26 36bc b036 d13b
00000020: 532e 9bbb 9552 6fbc ddfa f1bb d60d 883b
00000030: 1026 793c c1d4 033d 18bc 9c3c 8e58 bcbb
00000040: c23d acbc b01b 43bc 0ebc 84ba b8fa 753c
00000050: 6796 c23c f0a8 2a3d 83b6 de3a 00b4 b13c
00000060: 3dc1 b2bb eb4d 4fbb a38f 913c cafb a6ba
00000070: f2bc ebbb 8745 223c ade2 2d3d bf17 a3bc
00000080: a061 5d3b b0c3 8f3c f668 c73c be23 103d
00000090: 8db0 453a 6b9a afbc ef75 2bbc e0a3 913b
000000a0: 1857 803c 9c06 1b3c 3783 813c 6d00 de3b
000000b0: 457e 503b f48c 00bc 8870 e93c eede 443c
000000c0: dfad 033d b72c 8cbc 8075 73bc 1c0d 05bb
000000d0: 67d5 103c 59e4 8bbb cfca a0bc 3b8e 09bc
000000e0: ee55 0cb8 2ee7 0abd cfb2 9f3c 47e9 ae3c
000000f0: b99d 0c3b 3bba a6bc eb2a eabb 17fd 38bc
00000100: 9f04 5bbc 2920 af3c 5224 da3c c119 0cbb
00000110: 360a 2dbd 6795 243b 7f3e f3bc eb3b ea3b
00000120: b721 223c 0271 e93c b84e 7dbc b3ac 263c
00000130: 0b29 3fbb 0f52 fabb a993 03bb 9d3c d63a
00000140: 007d 5bbc d86c ccbc e094 54bc effa 313a
00000150: 5c53 40bd 8b7a 30ba 987b 613c 4fd9 0eba
00000160: edc0 d4bc 806c 593c 6f24 7fbc 2807 883c
00000170: d7c3 ce3b 3a22 c2bc 8d51 b03a fdcd 023b
00000180: 2aab 54bb 352b d33b bcd9 c6bb 1003 de3b
00000190: 6d18 d736 5683 bb3b e7bf 98bb 2d75 3fbb
000001a0: 56af 963b f74c 373d 2e29 c8bc f206 84bc
000001b0: 9fe7 563c 1bdd 763c f2f6 d5bc 1ca5 45bc
000001c0: 0355 503c 6dc7 6ebc e233 e8bc f66b 00bc
000001d0: bd05 c43c d7db 05bc cb34 003d 1d61 b5ba
000001e0: d3b8 9e3c 97ac 153d 0fce fcbb 0824 10bb
000001f0: ef2b 23bc aeb3 bdbc 24b0 483c 30cf a83c
00000200: 3c4d 083b d76e a03c 6843 ed3c 7bbc d93c
00000210: e708 213b fb25 11bb 8365 d4b8 653c b8bc
00000220: e940 c2bb ef79 fd3b ed4b e9bb 4d64 2abd
00000230: 1902 0fbd b713 c73c ff05 eebc 52e0 283d
00000240: 1fa8 5cbc fb8a 99bc 4adf 223d 9cfd 08bd
00000250: 12b3 9dbc 2ec3 92bb 6f60 e1bb 833e 303b
00000260: 8020 d3bc ad91 81bc 5cda 443c 5cb2 8fbc
00000270: 0218 76bd bb1b 45bb cc13 093c 5a57 cb3b
00000280: 8a64 a53c 0432 ae3c 1582 6f3c 5dd1 1cbc
00000290: a638 9a3b c3fc 16bc e840 76bc 44a8 143d
000002a0: 2ee8 063d 37de a03c 5813 11bb ea07 2d3c
000002b0: c58e 1f3d e744 f33b a76d 653c 6be6 8bbc
000002c0: 37d3 e1bc 579a 903c 3b95 913b 1ab8 ae3b
000002d0: af1b 80bc 9aa0 68bc 1b28 3bbc 4ddc 7aba
000002e0: 8f0c b9bb dcc7 403c 2d9a f5bc c801 d63c
000002f0: 2a95 0abc 4d19 d1bc 8bdb a139 7721 8dbc
00000300: a024 bf3a c7dc 043d f26c f5bb 57c5 933c
00000310: bada db3b f70a 54bc 8f3f b03b 4d81 eeba
00000320: 54ad 0b3c 1257 3c3d ff42 503b ffc4 9eb9
00000330: 09c3 1cbc 4f12 b13c 42ad 05bc 4bb8 d7bb
00000340: 3046 fbbc 1b4b 3cbb e5fd 59bc b8d8 ec3c
00000350: 174b 7abc e7fc 023c c38b cf3c dc0f c73c
00000360: 20eb d3ba f2f5 2fbc 120a e93b 8f6e 34bc
00000370: 4a4e d9bb 8440 493c bde9 d03c 0272 d93c
00000380: 0b72 13bc fa47 333c ba2f 243d f7b3 0cbc
00000390: 77b5 8abb a73c 96bb 0bbd ddbc d381 0ebc
000003a0: db1f 0abb 0716 f9bc dd9a d43c d527 2a3c
000003b0: 80c9 efbc 88b8 833c f3a9 13bc 0dd5 a73c
000003c0: 2362 993b 8972 9f3b 6a84 5b3b fba2 e5ba
000003d0: 9327 b3bc ecde 83bb ebe9 bbbc fbcf 0b3d
000003e0: 8cb9 a9bc eefb b4bb 0f9c b03c ad6b 70bc
000003f0: 8723 64bc 9f1f 9ebc e784 023b 8955 b43a

action_model._continuous_distribution.mu.bias f4 [51]
0.0 0.0 0.0 0.0 0.0 0.0 0.0 0.0
0.0 0.0 0.0 0.0 0.0 0.0 0.0 0.0
0.0 0.0 0.0 0.0 0.0 0.0 0.0 0.0
0.0 0.0 0.0 0.0 0.0 0.0 0.0 0.0
0.0 0.0 0.0 0.0 0.0 0.0 0.0 0.0
0.0 0.0 0.0 0.0 0.0 0.0 0.0 0.0
0.0 0.0 0.0
00000000: 0000 0000 0000 0000 0000 0000 0000 0000
00000010: 0000 0000 0000 0000 0000 0000 0000 0000
00000020: 0000 0000 0000 0000 0000 0000 0000 0000
00000030: 0000 0000 0000 0000 0000 0000 0000 0000
00000040: 0000 0000 0000 0000 0000 0000 0000 0000
00000050: 0000 0000 0000 0000 0000 0000 0000 0000
00000060: 0000 0000 0000 0000 0000 0000 0000 0000
00000070: 0000 0000 0000 0000 0000 0000 0000 0000
00000080: 0000 0000 0000 0000 0000 0000 0000 0000
00000090: 0000 0000 0000 0000 0000 0000 0000 0000
000000a0: 0000 0000 0000 0000 0000 0000 0000 0000
000000b0: 0000 0000 0000 0000 0000 0000 0000 0000
000000c0: 0000 0000 0000 0000 0000 0000

action_model._discrete_distribution.branches.0.weight f4 [1, 128]
-0.0033634882 -0.0036909368 0.005608003 0.010602294 -0.008797138 0.0032906902 0.00252167 0.011639341
-0.0074659684 -0.00826861 0.021367367 -0.019614784 0.0077189556 -0.006502153 0.010549181 -0.0024128675
-0.0006928865 -0.0077740024 0.005817226 -0.00720106 -0.0062383334 -0.014419219 0.0055197673 -0.018577484
0.00020726002 0.002441707 -0.010439847 -0.013038625 0.0068649747 0.003273765 0.0011093206 -0.0008060752
-0.0074701505 -0.0051911515 -0.010635397 0.0061163343 0.002636567 -0.013334311 0.017724616 0.0027576971
-0.013611167 0.003454091 0.0071728164 0.00034923412 0.0045082704 0.010580401 0.006172426 -0.01134033
0.0124334805 0.023613859 -0.009630871 -0.0046976707 -0.005822347 0.013248013 0.0057007424 -0.006186186
0.00737672 0.0049232636 0.0027372118 -0.003278501 -0.014618632 -8.3978935e-05 -0.0015364907 0.009167891
0.0012163733 0.003743816 0.017802015 0.009120676 0.009867037 0.0042450354 0.016016519 0.006712439
-0.006246236 -0.019046785 -0.0007444701 0.007661711 -0.0028099343 -0.0019946848 -0.010972762 0.00839865
-0.005515048 0.019580072 -0.008784278 0.006896703 -0.006510881 -0.01009323 -0.007477077 0.0044463854
-0.0039042819 0.0036024307 -0.00923949 0.0018799894 0.0005475897 0.0045561013 -0.005121661 0.0015481659
-0.021344768 0.008735332 0.006763534 -0.008230741 0.0041225734 0.016715525 0.0031956967 -0.024464225
0.009195754 -0.0058702063 0.008867058 0.014820631 -0.011661826 -0.017333139 -0.0047204136 -0.007259765
0.0149370525 -0.009962421 0.020541495 0.0026685293 0.0057074246 0.0070718746 0.019947145 -0.004833293
0.0075240033 0.0037828384 0.0033088562 0.0028517675 -0.006291579 0.015095392 0.0065949257 0.0033826088
00000000: f86d 5cbb a5e3 71bb 57c3 b73b 3eb5 2d3c
00000010: df21 10bc 9fa8 573b 9a42 253b efb2 3e3c
00000020: 15a5 f4bb 1079 07bc 9e0a af3c 2faf a0bc
00000030: 4bef fc3b 0310 d5bb 79d6 2c3c 3321 1ebb
00000040: d3a2 35ba 0fbd febb 6e9e be3b dff6 ebbb
00000050: ef6a ccbb 973e 6cbc 2adf b43b cf2f 98bc
00000060: f053 5939 0c05 203b e40b 2bbc f59f 55bc
00000070: 95f3 e03b aa8c 563b 9f66 913a ca4e 53ba
00000080: 2ac8 f4bb 891a aabb 1740 2ebc 886b c83b
00000090: 41ca 2c3b 2778 5abc 3733 913c 7bba 343b
000000a0: 5f01 5fbc 085e 623b f209 eb3b 6919 b739
000000b0: 1dba 933b 6b59 2d3c 1042 ca3b cbcc 39bc
000000c0: ccb5 4b3c da71 c13c cdca 1dbc ebee 99bb
000000d0: 63c9 bebb 320e 593c 4bcd ba3b 7db5 cabb
000000e0: 6ab8 f13b 5453 a13b cb62 333b 1fdc 56bb
000000f0: fd82 6fbc d91d b0b8 1364 c9ba ec34 163c
00000100: b76e 9f3a cf5a 753b 88d5 913c e36e 153c
00000110: 5aa9 213c f019 8b3b 1335 833c 05f4 db3b
00000120: 3aad ccbb 0108 9cbc 8b28 43ba 170f fb3b
00000130: e026 38bb 42b9 02bb 19c7 33bc 7e9a 093c
00000140: 93b7 b4bb 6366 a03c efeb 0fbc bdfd e13b
00000150: 3a59 d5bb 135e 25bc 4502 f5bb fcb2 913b
00000160: fbde 7fbb c216 6c3b 3b61 17bc fa69 f63a
00000170: 1f8c 0f3a 594b 953b 9bd3 a7bb d4eb ca3a
00000180: 39db aebc a31e 0f3c a3a0 dd3b 3bda 06bc
00000190: a716 873b ffee 883c e56e 513b 3369 c8bc
000001a0: caa9 163c dc5a c0bb 2347 113c 3bd2 723c
000001b0: 3e11 3fbc 3afe 8dbc b3ad 9abb 53e3 edbb
000001c0: 8aba 743c 6c39 23bc a346 a83c 7ee2 2e3b
000001d0: 5905 bb3b 2fbb e73b 3268 a33c 9a60 9ebb
000001e0: ea8b f63b 7fe9 773b 65d9 583b b8e4 3a3b
000001f0: 9729 cebb aa52 773c 3f1a d83b c2ae 5d3b

onnx::LSTM_116 f4 [1, 512, 128]
-0.034026437 0.022728845 0.04683326 0.05555153 -0.005166292 0.007832497 -0.122379676 0.0065573454
0.10197063 0.11583461 0.06509571 -0.026936486 -0.06404626 -0.080985025 -0.14744845 0.09018354
0.05514823 -0.0021181703 -0.013990894 0.09968893 0.094594434 -0.06280341 0.1495608 0.0829972
-0.036457576 0.02437134 -0.07636276 0.09406704 -0.023350373 -0.09777968 0.14658944 0.073808745
0.0371304 0.09363903 0.12280853 -0.021950364 -0.1054824 -0.008586422 0.0101445615 -0.028748192
-0.10685839 -0.1320098 0.102343336 -0.08844952 -0.09435411 -0.045693398 -0.09932663 0.08306253
0.101571515 -0.14434534 -0.08243656 0.10602783 0.09182876 0.092033684 0.009611949 0.14618288
-0.1462293 -0.0501967 9.596348e-06 -0.050217524 -0.059727117 -0.12757534 -0.039319813 -0.035264216
-0.032098457 -0.13347325 0.13029058 -0.041642837 -0.01785916 0.06844038 0.11518954 0.0645999
0.026112244 0.039957434 -0.032542482 0.1337782 -0.12894908 0.053366452 0.14952926 0.078871205
0.057443157 -0.111657515 -0.13127391 0.0803432 -0.016248375 -0.09898369 -0.12050633 -0.008317277
-0.022837624 -0.1391466 -0.01629144 -0.06331161 0.1168036 -0.05843229 -0.118887186 -0.11478326
-0.106987394 -0.017932162 0.0038518906 -0.0767 -0.12897824 -0.08694201 0.11274506 -0.14652136
0.047923476 0.14131825 0.11359678 -0.13104753 0.09019123 -0.023145363 -0.14005797 -0.042660587
-0.065440334 0.018506914 -0.10204929 0.1450275 0.06104991 0.06269032 -0.15040493 -0.0786359
-0.14480829 -0.11433831 -0.10115424 -0.019987449 0.00067941844 0.008354351 -0.109426394 0.079469025
-0.06021089 0.06281102 -0.05140329 -0.12851739 -0.11535612 0.057587698 -0.11748443 -0.038741834
-0.11782643 0.015705764 0.012450412 0.063552395 -0.048859447 0.08159344 -0.04583492 -0.05478152
0.05859381 -0.032952584 -0.018037364 -0.0035421848 0.052128643 0.12072076 -0.058101565 -0.14535557
-0.11897017 0.124354675 0.07939716 -0.15230836 0.0944296 0.0003644377 0.03457059 -0.022034436
0.0005414337 -0.12664093 0.045750707 -0.15041772 -0.008972555 -0.14741452 0.050524086 -0.04173761
-0.14106679 0.011780068 0.09097569 0.0896813 -0.060498662 -0.01730688 -0.14303605 0.14371829
0.056421548 -0.056093916 0.11643304 -0.0030730218 0.089555055 -0.13525373 -0.07074911 -0.13472782
-0.050267257 -0.01582767 -0.10758889 -0.059881225 -0.0669774 0.03769751 0.1498843 0.07190275
-0.13092382 -0.09428051 -0.10998279 0.003956899 -0.09315318 0.1003914 -0.08666083 0.05619757
-0.094674855 -0.034147784 0.050333455 -0.06520422 -0.1416209 -0.015374899 0.07851598 0.1303008
-0.14203312 0.023170069 0.1321512 -0.038481787 -0.1175656 0.052901074 -0.13958156 0.075148895
0.0008676499 -0.07606287 0.051729023 -0.09115689 -0.080235474 0.14692004 0.07888712 -0.03995096
0.13424687 -0.13755861 0.08974041 -0.049707055 0.10997303 -0.14736493 -0.0863819 0.13081686
0.11514543 0.10993837 0.044994295 -0.0055028647 0.12000467 -0.03960012 -0.041600548 0.006503448
0.1513428 -0.07934146 -0.1419521 -0.047941133 0.14723416 -0.124505654 -0.083941765 0.11011873
-0.149179 0.059351772 0.05393584 -0.0091528 0.030134425 0.1464635 0.056580424 -0.04254795
00000000: 4e5f 0bbd d831 ba3c 3cd4 3f3d 008a 633d
00000010: 004a a9bb e053 003c 32a2 fabd 00df d63b
00000020: fad5 d03d b23a ed3d e650 853d e8a9 dcbc
00000030: b02a 83bd 7adb a5bd bafc 16be 26b2 b83d
00000040: 1ce3 613d 00d1 0abb 103a 65bc b629 cc3d
00000050: baba c13d 139f 80bd 7726 193e 70fa a93d
00000060: 8a54 15bd 68a6 c73c 1464 9cbd 38a6 c03d
00000070: 4849 bfbc b640 c8bd 8b1b 163e 0a29 973d
00000080: 0c16 183d d2c5 bf3d 0a83 fb3d 40d1 b3bc
00000090: 2807 d8bd 10ae 0cbc 6035 263c 5481 ebbc
000000a0: 92d8 dabd 942d 07be 6299 d13d 0625 b5bd
000000b0: ba3c c1bd 0029 3bbd c36b cbbd b01c aa3d
000000c0: ba04 d03d 44cf 13be 80d4 a8bd 1e25 d93d
000000d0: b810 bc3d 287c bc3d 707b 1d3c f7b0 153e
000000e0: 22bd 15be 0e9b 4dbd 0000 2137 e4b0 4dbd
000000f0: 6ca4 74bd 1ca3 02be d00d 21bd 3671 10bd
00000100: ac79 03bd 36ad 08be e56a 053e ae91 2abd
00000110: 604d 92bc 782a 8c3d 7ee8 eb3d f44c 843d
00000120: 58e9 d53c 68aa 233d 444b 05bd 27fd 083e
00000130: 3a0b 04be c896 5a3d 331e 193e 3a87 a13d
00000140: 8449 6b3d b2ac e4bd ab6c 06be fa8a a43d
00000150: 501b 85bc f6b7 cabd 06cc f6bd 3045 08bc
00000160: f815 bbbc 727c 0ebe a075 85bc 84a9 81bd
00000170: ba36 ef3d b256 6fbd 207b f3bd 7c13 ebbd
00000180: 351c dbbd 78e6 92bc 0070 7c3b e414 9dbd
00000190: df12 04be a70e b2bd e2e6 e63d b209 16be
000001a0: 684b 443d bbb5 103e 6ea5 e83d 5331 06be
000001b0: 2eb6 b83d 589b bdbc 5b6b 0fbe debc 2ebd
000001c0: 9505 86bd d09b 973c 38ff d0bd 1782 143e
000001d0: 780f 7a3d c863 803d c003 1abe dc0b a1bd
000001e0: a048 14be 342a eabd f429 cfbd b8bc a3bc
000001f0: 001b 323a b0e0 083c f21a e0bd a8c0 a23d
00000200: b29f 76bd 10a3 803d 428c 52bd 109a 03be
00000210: d43f ecbd 14e1 6b3d ad9b f0bd c2af 1ebd
00000220: fc4e f1bd 60a9 803c d0fc 4b3c c227 823d
00000230: d820 48bd 761a a73d 66bd 3bbd 9662 60bd
00000240: 1000 703d 4af9 06bd 18c3 93bc 0024 68bb
00000250: d884 553d 723c f73d e8fb 6dbd 17d8 14be
00000260: a2a6 f3bd aaad fe3d fa9a a23d b9f6 1bbe
00000270: 4e64 c13d 0012 bf39 e499 0d3d 9081 b4bc
00000280: 00ef 0d3a 29ae 01be 1865 3b3d 1a07 1abe
00000290: a001 13bc d5f3 16be 58f2 4e3d 0ef5 2abd
000002a0: d073 10be 3001 413c 7651 ba3d d4aa b73d
000002b0: 72cd 77bd 28c7 8dbc 0b78 12be e32a 133e
000002c0: 481a 673d bcc2 65bd 7274 ee3d c064 49bb
000002d0: a468 b73d f47f 0abe e9e4 90bd 17f6 09be
000002e0: 0ae5 4dbd 08a9 81bc 9057 dcbd 0446 75bd
000002f0: 722b 89bd b468 1a3d 457b 193e c041 933d
00000300: e510 06be 2416 c1bd a83e e1bd e0a8 813b
00000310: 18c7 bebd 029a cd3d 3c7b b1bd 6c2f 663d
00000320: e4e4 c1bd 8cde 0bbd 742a 4e3d ca89 85bd
00000330: 1205 11be 00e7 7bbc fccc a03d 936d 053e
00000340: 2171 11be 28cf bd3c a552 073e 149f 1dbd
00000350: 3cc6 f0bd ccae 583d 78ee 0ebe aae7 993d
00000360: 0073 633a dac6 9bbd d0e1 533d 77b0 babd
00000370: 7f52 a4bd 3572 163e 928f a13d 9ea3 23bd
00000380: 0378 093e 2adc 0cbe d2c9 b73d a099 4bbd
00000390: 8a39 e13d d5e6 16be fee8 b0bd dbf4 053e
000003a0: 5ed1 eb3d 5e27 e13d f04b 383d 6051 b4bb
000003b0: 02c5 f53d bc33 22bd 5665 2abd e01a d53b
000003c0: 9bf9 1a3e c67d a2bd e45b 11be ec5d 44bd
000003d0: 8dc4 163e d2fc febd a9e9 abbd ee85 e13d
000003e0: 61c2 18be d81a 733d d4eb 5c3d a0f5 15bc
000003f0: 78dc f63c 87fa 153e e0c0 673d c246 2ebd

onnx::LSTM_117 f4 [1, 512, 128]
-0.03794332 -0.08069088 0.09027788 0.0063131154 -0.115295544 0.10821463 0.032930166 -0.13836634
-0.110787526 0.049009353 -0.13886741 -0.03915096 0.08422874 0.023878604 0.101583645 0.020878136
-0.11019518 -0.011243656 0.010646522 -0.12732875 0.15266864 0.034923017 -0.0144081265 -0.09344727
-0.025385767 0.12745608 -0.09318255 -0.1122567 -0.071562044 -0.05664876 -0.13004549 0.14380859
-0.030521415 0.061435625 0.023628712 -0.022996306 -0.0035023838 -0.13741764 -0.012199789 0.009858042
0.055759236 0.07851368 0.05678025 -0.114422694 0.1364926 0.13868196 0.0053203255 0.053943142
-0.008111194 0.1413052 0.04815747 -0.08796241 0.05773501 0.07188833 0.10030441 -0.06623942
0.093545124 -0.06551872 0.026727393 -0.08933843 0.09962149 0.0020092279 0.14555965 -0.10860291
-0.10681105 0.13521825 -0.091448456 -0.033723928 -0.10790264 0.14728646 0.08274032 -0.1497296
0.0191015 -0.11365458 0.07613699 -0.11752297 -0.04091444 -0.026606962 -0.08092746 -0.061934143
-0.011074871 0.10049875 -0.14187483 -0.046546042 0.14022909 0.09522271 -0.050093845 0.056059033
0.1466393 -0.091686584 -0.019408017 -0.1304829 0.015748069 -0.0003425032 -0.11123425 0.047602594
-0.13160865 -0.04747519 -0.13931051 0.09573163 -0.097441904 -0.10218619 0.109662905 -0.032464027
-0.077183284 -0.11921501 -0.028150849 0.032702222 0.13590334 -0.07786617 -0.04836428 -0.020508304
0.08788727 -0.100229815 0.036190078 0.06573585 0.13737313 -0.09583239 0.04230115 0.052152663
-0.034316286 0.05187197 0.13414855 -0.14561634 -0.09512885 0.07887614 0.088975936 0.055038363
0.08011128 -0.04649952 0.0970747 0.015047386 0.03204581 -0.063476056 -0.08877989 0.0026500672
0.06705704 -0.04365184 0.0019794852 -0.033203393 -0.08097493 0.105936304 0.08969469 0.12321903
-0.040065184 -0.05451282 -0.06411715 0.0626678 0.104354605 0.0392334 0.07729748 0.012903601
0.021660686 -0.00028516352 0.032370448 -0.041666724 0.050207794 0.14158957 0.13420264 -0.11344268
-0.13437665 -0.025722831 0.14590134 0.14602141 0.10626452 -0.08317752 0.029519647 0.0358831
-0.06456417 0.13352837 0.0885659 0.03601548 0.086453676 -0.046043508 -0.11131908 0.118122205
-0.10840959 -0.11886583 -0.002835095 0.024628997 0.15243076 0.006044939 0.14658345 0.14384444
-0.060038574 0.09220283 0.07155685 -0.034461834 0.13693337 0.07350221 0.07674487 -0.13836135
0.07986663 0.094764575 0.023113444 0.1192366 -0.032133006 0.049636558 -0.046119153 0.06621958
-0.12607615 0.027656347 -0.119160555 0.026530728 -0.0062393546 -0.009938434 -0.15058325 -0.03073623
-0.081296004 -0.12308639 -0.04220771 0.14206944 0.037975132 0.12824191 0.1454307 -0.11768174
0.055119768 0.072109655 -0.09339887 0.105533525 0.105368 -0.10644664 0.043780968 0.0224064
0.0986516 -0.034511164 0.105987385 0.095547184 0.016838059 -0.09451975 0.031264067 0.038042814
0.033583254 0.08814226 0.008024618 0.049244225 0.024860293 0.06436911 -0.03640642 -0.06722091
0.055258006 0.14493032 0.060809106 -0.09292653 0.02441971 0.058611795 0.07727249 -0.0033778846
-0.05504191 0.12180297 0.08038166 -0.1430627 0.004435733 0.11696409 0.10172485 -0.15037346
00000000: 746a 1bbd 4341 a5bd 9ce3 b83d 40de ce3b
00000010: 1220 ecbd a29f dd3d c8e1 063d e8af 0dbe
00000020: 92e4 e2bd 08be 483d 4233 0ebe c25c 20bd
00000030: 1e80 ac3d 109d c33c 160b d03d a008 ab3c
00000040: 03ae e1bd 5037 38bc c06e 2e3c 7862 02be
00000050: 2b55 1c3e 700b 0f3d 1010 6cbc 4861 bfbd
00000060: d0f5 cfbc d983 023e 7ed6 bebd d7e6 e5bd
00000070: 1f8f 92bd 8808 68bd a52a 05be 8f42 133e
00000080: 0c08 fabc eca3 7b3d 0091 c13c c062 bcbc
00000090: 4088 65bb 36b7 0cbe a0e1 47bc a083 213c
000000a0: cc63 643d c8cb a03d 6892 683d 7256 eabd
000000b0: b7c4 0b3e a502 0e3e 2056 ae3b 7cf3 5c3d
000000c0: d0e4 04bc 4fb2 103e c440 453d a325 b4bd
000000d0: 8c7b 6c3d 303a 933d 666c cd3d 88a8 87bd
000000e0: 9694 bf3d ae2e 86bd 68f3 da3c 11f7 b6bd
000000f0: 5a06 cc3d 40ad 033b 970d 153e 346b debd
00000100: c0bf dabd a776 0a3e 5449 bbbd 1a22 0abd
00000110: 0ffc dcbd 43d2 163e c273 a93d b752 19be
00000120: c07a 9c3c bcc3 e8bd b6ed 9b3d e2af f0bd
00000130: e695 27bd d8f6 d9bc 4cbd a5bd a8ae 7dbd
00000140: 6073 35bc 4ad2 cd3d a347 11be 10a7 3ebd
00000150: 3798 0f3e 2004 c33d 342f 4dbd 289e 653d
00000160: 9d28 163e 2dc6 bbbd 90fd 9ebc 4f9d 05be
00000170: 1802 813c 0092 b3b9 c8ce e3bd f0fa 423d
00000180: 6bc4 06be 5875 42bd 6aa7 0ebe f20e c43d
00000190: 9f8f c7bd fe46 d1bd f296 e03d 00f9 04bd
000001a0: 4512 9ebd 0027 f4bd 9c9c e6bc c4f2 053d
000001b0: 3f2a 0b3e 4c78 9fbd a019 46bd 0801 a8bc
000001c0: 3efe b33d 4a45 cdbd 0c3c 143d 84a0 863d
000001d0: 8bab 0c3e c643 c4bd f843 2d3d 089e 553d
000001e0: 3c8f 0cbd b477 543d 3d5e 093e 731c 15be
000001f0: ead2 c2bd d089 a13d 0439 b63d e86f 613d
00000200: 6211 a43d 4876 3ebd 1acf c63d 5089 763c
00000210: 7842 033d bcff 81bd 3bd2 b5bd c0ac 2d3b
00000220: 3455 893d 46cc 32bd 40ba 013b 4800 08bd
00000230: 2fd6 a5bd 22f5 d83d dab1 b73d 425a fc3d
00000240: 641b 24bd d648 5fbd da4f 83bd fa57 803d
00000250: deb7 d53d 34b3 203d 244e 9e3d a069 533c
00000260: c071 b13c 0082 95b9 e096 043d baaa 2abd
00000270: b0a6 4d3d dbfc 103e 6b6c 093e a354 e8bd
00000280: 089a 09be b0b8 d2bc 2967 153e a386 153e
00000290: 36a1 d93d fa58 aabd 30d3 f13c 28fa 123d
000002a0: 383a 84bd a9bb 083e 0a62 b53d f884 133d
000002b0: a00e b13d 1e98 3cbd 42fb e3bd 0eea f13d
000002c0: d905 debd ee6f f3bd 00cd 39bb c0c2 c93c
000002d0: cf16 1c3e a014 c63b f919 163e f54b 133e
000002e0: 02eb 75bd d6d4 bc3d 668c 923d da27 0dbd
000002f0: 4338 0c3e 5488 963d 6a2c 9d3d 99ae 0dbe
00000300: 1e91 a33d ee13 c23d 6858 bd3c 5232 f43d
00000310: e69d 03bd b44f 4b3d 70e7 3cbd 229e 873d
00000320: 1b1a 01be 908f e23c 730a f4bd f856 d93c
00000330: 8073 ccbb d0d4 22bc 7f32 1abe 8cca fbbc
00000340: 857e a6bd b814 fcbd fee1 2cbd a77a 113e
00000350: d08b 1b3d d951 033e c9eb 143e 2003 f1bd
00000360: 44c5 613d 3aae 933d e847 bfbd f621 d83d
00000370: 2ecb d73d b200 dabd ac53 333d a08d b73c
00000380: da09 ca3d 945b 0dbd ea0f d93d 3eae c33d
00000390: f8ef 893c 9293 c1bd c00e 003d c8d2 1b3d
000003a0: 988e 093d ee83 b43d b079 033c 50b4 493d
000003b0: d0a7 cb3c f4d3 833d e61e 15bd 1eab 89bd
000003c0: 3856 623d 9d68 143e f812 793d 4450 bebd
000003d0: d80b c83c ec12 703d 0a41 9e3d 805f 5dbb
000003e0: a073 61bd d673 f93d 249f a43d 077f 12be
000003f0: a059 913b de8a ef3d 1e55 d03d 80fb 19be

onnx::LSTM_118 f4 [1, 1024]
0.0 0.0 0.0 0.0 0.0 0.0 0.0 0.0
0.0 0.0 0.0 0.0 0.0 0.0 0.0 0.0
0.0 0.0 0.0 0.0 0.0 0.0 0.0 0.0
0.0 0.0 0.0 0.0 0.0 0.0 0.0 0.0
0.0 0.0 0.0 0.0 0.0 0.0 0.0 0.0
0.0 0.0 0.0 0.0 0.0 0.0 0.0 0.0
0.0 0.0 0.0 0.0 0.0 0.0 0.0 0.0
0.0 0.0 0.0 0.0 0.0 0.0 0.0 0.0
0.0 0.0 0.0 0.0 0.0 0.0 0.0 0.0
0.0 0.0 0.0 0.0 0.0 0.0 0.0 0.0
0.0 0.0 0.0 0.0 0.0 0.0 0.0 0.0
0.0 0.0 0.0 0.0 0.0 0.0 0.0 0.0
0.0 0.0 0.0 0.0 0.0 0.0 0.0 0.0
0.0 0.0 0.0 0.0 0.0 0.0 0.0 0.0
0.0 0.0 0.0 0.0 0.0 0.0 0.0 0.0
0.0 0.0 0.0 0.0 0.0 0.0 0.0 0.0
0.0 0.0 0.0 0.0 0.0 0.0 0.0 0.0
0.0 0.0 0.0 0.0 0.0 0.0 0.0 0.0
0.0 0.0 0.0 0.0 0.0 0.0 0.0 0.0
0.0 0.0 0.0 0.0 0.0 0.0 0.0 0.0
0.0 0.0 0.0 0.0 0.0 0.0 0.0 0.0
0.0 0.0 0.0 0.0 0.0 0.0 0.0 0.0
0.0 0.0 0.0 0.0 0.0 0.0 0.0 0.0
0.0 0.0 0.0 0.0 0.0 0.0 0.0 0.0
0.0 0.0 0.0 0.0 0.0 0.0 0.0 0.0
0.0 0.0 0.0 0.0 0.0 0.0 0.0 0.0
0.0 0.0 0.0 0.0 0.0 0.0 0.0 0.0
0.0 0.0 0.0 0.0 0.0 0.0 0.0 0.0
0.0 0.0 0.0 0.0 0.0 0.0 0.0 0.0
0.0 0.0 0.0 0.0 0.0 0.0 0.0 0.0
0.0 0.0 0.0 0.0 0.0 0.0 0.0 0.0
0.0 0.0 0.0 0.0 0.0 0.0 0.0 0.0
00000000: 0000 0000 0000 0000 0000 0000 0000 0000
00000010: 0000 0000 0000 0000 0000 0000 0000 0000
00000020: 0000 0000 0000 0000 0000 0000 0000 0000
00000030: 0000 0000 0000 0000 0000 0000 0000 0000
00000040: 0000 0000 0000 0000 0000 0000 0000 0000
00000050: 0000 0000 0000 0000 0000 0000 0000 0000
00000060: 0000 0000 0000 0000 0000 0000 0000 0000
00000070: 0000 0000 0000 0000 0000 0000 0000 0000
00000080: 0000 0000 0000 0000 0000 0000 0000 0000
00000090: 0000 0000 0000 0000 0000 0000 0000 0000
000000a0: 0000 0000 0000 0000 0000 0000 0000 0000
000000b0: 0000 0000 0000 0000 0000 0000 0000 0000
000000c0: 0000 0000 0000 0000 0000 0000 0000 0000
000000d0: 0000 0000 0000 0000 0000 0000 0000 0000
000000e0: 0000 0000 0000 0000 0000 0000 0000 0000
000000f0: 0000 0000 0000 0000 0000 0000 0000 0000
00000100: 0000 0000 0000 0000 0000 0000 0000 0000
00000110: 0000 0000 0000 0000 0000 0000 0000 0000
00000120: 0000 0000 0000 0000 0000 0000 0000 0000
00000130: 0000 0000 0000 0000 0000 0000 0000 0000
00000140: 0000 0000 0000 0000 0000 0000 0000 0000
00000150: 0000 0000 0000 0000 0000 0000 0000 0000
00000160: 0000 0000 0000 0000 0000 0000 0000 0000
00000170: 0000 0000 0000 0000 0000 0000 0000 0000
00000180: 0000 0000 0000 0000 0000 0000 0000 0000
00000190: 0000 0000 0000 0000 0000 0000 0000 0000
000001a0: 0000 0000 0000 0000 0000 0000 0000 0000
000001b0: 0000 0000 0000 0000 0000 0000 0000 0000
000001c0: 0000 0000 0000 0000 0000 0000 0000 0000
000001d0: 0000 0000 0000 0000 0000 0000 0000 0000
000001e0: 0000 0000 0000 0000 0000 0000 0000 0000
000001f0: 0000 0000 0000 0000 0000 0000 0000 0000
00000200: 0000 0000 0000 0000 0000 0000 0000 0000
00000210: 0000 0000 0000 0000 0000 0000 0000 0000
00000220: 0000 0000 0000 0000 0000 0000 0000 0000
00000230: 0000 0000 0000 0000 0000 0000 0000 0000
00000240: 0000 0000 0000 0000 0000 0000 0000 0000
00000250: 0000 0000 0000 0000 0000 0000 0000 0000
00000260: 0000 0000 0000 0000 0000 0000 0000 0000
00000270: 0000 0000 0000 0000 0000 0000 0000 0000
00000280: 0000 0000 0000 0000 0000 0000 0000 0000
00000290: 0000 0000 0000 0000 0000 0000 0000 0000
000002a0: 0000 0000 0000 0000 0000 0000 0000 0000
000002b0: 0000 0000 0000 0000 0000 0000 0000 0000
000002c0: 0000 0000 0000 0000 0000 0000 0000 0000
000002d0: 0000 0000 0000 0000 0000 0000 0000 0000
000002e0: 0000 0000 0000 0000 0000 0000 0000 0000
000002f0: 0000 0000 0000 0000 0000 0000 0000 0000
00000300: 0000 0000 0000 0000 0000 0000 0000 0000
00000310: 0000 0000 0000 0000 0000 0000 0000 0000
00000320: 0000 0000 0000 0000 0000 0000 0000 0000
00000330: 0000 0000 0000 0000 0000 0000 0000 0000
00000340: 0000 0000 0000 0000 0000 0000 0000 0000
00000350: 0000 0000 0000 0000 0000 0000 0000 0000
00000360: 0000 0000 0000 0000 0000 0000 0000 0000
00000370: 0000 0000 0000 0000 0000 0000 0000 0000
00000380: 0000 0000 0000 0000 0000 0000 0000 0000
00000390: 0000 0000 0000 0000 0000 0000 0000 0000
000003a0: 0000 0000 0000 0000 0000 0000 0000 0000
000003b0: 0000 0000 0000 0000 0000 0000 0000 0000
000003c0: 0000 0000 0000 0000 0000 0000 0000 0000
000003d0: 0000 0000 0000 0000 0000 0000 0000 0000
000003e0: 0000 0000 0000 0000 0000 0000 0000 0000
000003f0: 0000 0000 0000 0000 0000 0000 0000 0000
